Game/CartPole/model.onnx (onnx, 20455 bytes, 5 tensors)

policy.mlp_extractor.policy_net.0.weight f4 [64, 4]
0	0x3de8611e	0.11346649
1	0x3ce28f0d	0.027656103
2	0x3f874aea	1.0569737
3	0x4017482f	2.3637807
4	0x3db129ec	0.08650574
5	0xbe76df11	-0.2410853
6	0xbf682f83	-0.906975
7	0xbff57952	-1.9177649
8	0xbccbb8b4	-0.024868347
9	0xbbdad1b5	-0.006677831
10	0x3e8e5fa7	0.27807352
11	0x3e85e2d9	0.26149634
12	0xbcedfc46	-0.029050957
13	0xbc22014f	-0.009888007
14	0x3f815c57	1.0106305
15	0x40242625	2.5648282
16	0x3e516fee	0.20452854
17	0x3e158a38	0.14603508
18	0x3f882972	1.0637648
19	0x3fe02b1f	1.751316
20	0x3b033788	0.0020022113
21	0xbc8d853d	-0.017275447
22	0x3f18d31d	0.59697133
23	0x3f6b0fb4	0.91820836
24	0xbc59d2fd	-0.013294932
25	0x3d8ef586	0.06980424
26	0x3f5a02a5	0.85160285
27	0x4013c320	2.3087845
28	0x3d34a9ef	0.044107374
29	0xbe3ae2f9	-0.18250646
30	0xbf8241ca	-1.0176327
31	0xc01cc913	-2.4497726
32	0xbe7e7952	-0.24850968
33	0x3e9866ec	0.29766023
34	0x3f69e0e3	0.91358775
35	0x3fcbfdb8	1.5936804
36	0xbd4f218a	-0.050569095
37	0x3d41bac2	0.047297247
38	0xbf4045f2	-0.7510673
39	0xc00d8861	-2.211449
40	0xbd90d31b	-0.07071515
41	0x3c9c06ff	0.019046305
42	0xbf6cf881	-0.92566687
43	0xbffb6743	-1.9640888
44	0xbdafd584	-0.08585647
45	0xbbf73a8f	-0.0075448225
46	0x3f56517a	0.83718073
47	0x3ff69ac6	1.9265983
48	0xbdb65011	-0.0890199
49	0x3e71a408	0.23597729
50	0x3f188705	0.59581023
51	0x3fb138c8	1.3845453
52	0xbe5ae117	-0.21374927
53	0x3bd377f0	0.0064535066
54	0x3f74dd5e	0.9565028
55	0x40162ddc	2.346549
56	0x3d80e3c3	0.06293442
57	0xbd8bf2a1	-0.06833387
58	0xbf60bff0	-0.87792873
59	0xc0138278	-2.3048382
60	0xba8451d6	-0.001009519
61	0xbc651793	-0.013982671
62	0x3f17392b	0.59071606
63	0x3f83ac46	1.0286949
64	0xbe0ddf21	-0.13854648
65	0x3ca03f22	0.019561354
66	0x3f605611	0.87631327
67	0x3fdf0586	1.7423561
68	0x3c02742b	0.007962267
69	0xbd1072d8	-0.035265774
70	0x3f409637	0.7522921
71	0x3f6c167a	0.92221797
72	0x3de06eff	0.10958671
73	0xbdd77bac	-0.105216354
74	0x3f4855f7	0.7825617
75	0x3fd38a9f	1.6526679
76	0xbda88cc9	-0.08229978
77	0xbbff810c	-0.007797366
78	0x3f361373	0.7112343
79	0x3fae7902	1.3630679
80	0x3e07029c	0.13184589
81	0x3e59db61	0.21275093
82	0x3f834f76	1.0258625
83	0x4014181c	2.3139715
84	0x3df921b2	0.1216463
85	0xbc1f4da0	-0.009723097
86	0xbf14fa3d	-0.58194333
87	0xbf84bbd8	-1.0369825
88	0x3bfcc773	0.007714206
89	0xbe722217	-0.23645817
90	0x3f81dd7d	1.0145718
91	0x3fee040f	1.8594989
92	0x3d428d85	0.047498245
93	0x3daccb07	0.08437162
94	0xbf5323b7	-0.8247637
95	0xbfa6549d	-1.2994572
96	0xbbe6e053	-0.0070457845
97	0x3c1fc40c	0.009751331
98	0xbf130d1f	-0.57441896
99	0xbf3c9ac5	-0.7367366
100	0x3e345fc2	0.17614654
101	0x3ecca1dc	0.3996724
102	0x3f69c4cf	0.9131593
103	0x3fe65734	1.7995362
104	0xbe3b26d0	-0.18276525
105	0x3ca8813a	0.020569433
106	0xbf7f90cd	-0.99830323
107	0xc011d1d0	-2.278431
108	0xbe8175ba	-0.2528513
109	0x3d519957	0.051171627
110	0xbf48c3f0	-0.78423977
111	0xbfe52ec3	-1.7904896
112	0xbd8d49c4	-0.06898835
113	0xbd9a4ebf	-0.07534551
114	0x3f52a277	0.8227915
115	0x3fc8d179	1.5688926
116	0x3b1680db	0.0022964987
117	0xbcb2b52d	-0.021814907
118	0x3f0e8ac9	0.5568052
119	0x3f87b882	1.0603182
120	0x3b71882a	0.0036854842
121	0xbd825786	-0.0636435
122	0x3f80a8ef	1.0051554
123	0x3ff15a1f	1.8855628
124	0x3e65d1f3	0.2244337
125	0xbe663aef	-0.22483419
126	0xbf4ea02e	-0.80713165
127	0xbfdd0bb3	-1.7269195
128	0x3d218d03	0.03944112
129	0xbd8c6a6b	-0.06856235
130	0xbf5250ed	-0.8215473
131	0xbfe4abd1	-1.7864934
132	0xbdf74ea5	-0.12075547
133	0x3c30a305	0.010781054
134	0x3f186acd	0.59537965
135	0x3f590485	0.8477252
136	0xba9330eb	-0.0011229789
137	0xbbd85a66	-0.006602573
138	0x3e5ff913	0.21872358
139	0x3e691e7c	0.22765535
140	0x3d59facd	0.053217698
141	0x3e8fda3c	0.28096187
142	0x3f510eb8	0.81663084
143	0x3feacbd6	1.8343456
144	0x3bc9d42b	0.0061593256
145	0xbc85690c	-0.016285442
146	0x3f29ffd4	0.6640599
147	0x3f29e336	0.6636232
148	0x3d422aaf	0.047403987
149	0xbcbdac94	-0.02315358
150	0x3f2e6a38	0.68130827
151	0x3fdb55bf	1.7135543
152	0x3aec208e	0.0018015073
153	0xbdc13671	-0.09434212
154	0xbf485e7f	-0.7826919
155	0xbfd51571	-1.6647168
156	0xbdd04344	-0.1016908
157	0xbc50d4f9	-0.012746089
158	0xbf58a47c	-0.84625983
159	0xc00e9f76	-2.2284827
160	0xbbcf4ac0	-0.0063260496
161	0x3c92895a	0.01788776
162	0xbf407c37	-0.75189537
163	0xbf86f1a3	-1.0542492
164	0xbb6e523d	-0.0036364936
165	0xbd399555	-0.04530843
166	0xbf55dcfb	-0.83540314
167	0xc01cf0cb	-2.4521968
168	0xbda75507	-0.081705146
169	0x3d4535e2	0.04814709
170	0xbf49b5d9	-0.787931
171	0xbfd76b96	-1.6829708
172	0x3dbc3ec6	0.091916606
173	0xbc2f1a0f	-0.010687365
174	0xbf82f420	-1.0230751
175	0xc01268a8	-2.2876377
176	0xbd1522d2	-0.03641016
177	0xbb82638b	-0.0039791516
178	0xbe7d609b	-0.24743883
179	0xbdf57c8a	-0.119866446
180	0x3dd8a9c0	0.10579252
181	0xbda5b029	-0.080902405
182	0xbf59d621	-0.8509236
183	0xc0116083	-2.2715156
184	0x3dba025f	0.090824835
185	0xbb1c54df	-0.0023854298
186	0xbf509769	-0.81481034
187	0xc00a69cf	-2.162708
188	0xbdf8e0d9	-0.12152261
189	0xbd9be2f1	-0.07611645
190	0xbf618bbf	-0.8810386
191	0xc00904ea	-2.140925
192	0x3e4473d6	0.19184813
193	0x3ae92eba	0.0017790415
194	0x3f447143	0.76735324
195	0x40189e3e	2.3846583
196	0x3b915c9b	0.0044360883
197	0xbc722686	-0.0147796925
198	0x3f12d398	0.57354116
199	0x3f9d0def	1.2269877
200	0xbdfa0d1d	-0.122095324
201	0x3cce5d5b	0.025191
202	0xbf5effd7	-0.8710913
203	0xc00059ec	-2.0054884
204	0x3dea7c23	0.114494585
205	0x3d20fc7b	0.039303284
206	0xbf7e6efa	-0.99388087
207	0xc0234973	-2.551358
208	0xbd2b1540	-0.041768312
209	0x3ca07ab5	0.019589761
210	0x3f399451	0.7249194
211	0x3fd22539	1.641761
212	0x3d02217f	0.031770226
213	0xbc0388f6	-0.0080282595
214	0x3f28d4b1	0.6594954
215	0x3fb0ee49	1.3822719
216	0x3ebfdd96	0.37473744
217	0xbd95a69c	-0.07307169
218	0x3f383343	0.7195322
219	0x40076821	2.1157305
220	0x3e16b192	0.14716175
221	0xbc98377d	-0.018581146
222	0xbf0f9913	-0.5609295
223	0xbf9cc1de	-1.2246664
224	0x3e30a916	0.17252001
225	0xbb857bfb	-0.0040736175
226	0x3f446bcc	0.76726985
227	0x400f3076	2.2373328
228	0x3ca1f264	0.019768901
229	0x3ccee51d	0.025255734
230	0x3fa3369e	1.2751043
231	0x4013d363	2.309777
232	0x3e0a6996	0.1351684
233	0x3d225a39	0.039636824
234	0x3f7a6ed4	0.9782536
235	0x4003c4f8	2.058897
236	0xbca69712	-0.020335708
237	0x3cf3b9e5	0.029751727
238	0x3f8c30a1	1.095234
239	0x40139d36	2.3064704
240	0x3d415369	0.047198687
241	0xbc7c390f	-0.015394463
242	0xbf33c983	-0.7022936
243	0xbf970bc3	-1.1800464
244	0xbe92e307	-0.28688833
245	0xbe519ed8	-0.2047075
246	0xbf709927	-0.9398369
247	0xc0123cf0	-2.2849693
248	0x3df46274	0.11932841
249	0x3cd24bdc	0.025670938
250	0xbf54b188	-0.8308339
251	0xbfdd6409	-1.7296153
252	0x3ddee184	0.108828574
253	0xbb05e6fd	-0.002043187
254	0xbf3dada6	-0.7409309
255	0xbfdd716b	-1.7300237

policy.mlp_extractor.policy_net.0.bias f4 [64]
0	0xbc8c5f4f	-0.01713529
1	0xbc4ddd8e	-0.01256503
2	0x3aba0c6f	0.0014194379
3	0x3b21841b	0.0024645391
4	0xbd12902a	-0.035782017
5	0xba9ef650	-0.001212785
6	0x3b307667	0.0026926042
7	0xbb190111	-0.0023346583
8	0x3cf4792d	0.029842937
9	0x3c393a15	0.011305352
10	0x3c92454a	0.017855305
11	0x3cfb6751	0.030688914
12	0x3c4e5d46	0.01259548
13	0x3d084688	0.03327039
14	0xbc3b63b9	-0.01143735
15	0xbb025d84	-0.0019892165
16	0x3cf5b20d	0.029992128
17	0xbaa48732	-0.0012552498
18	0xbcb7a161	-0.022415819
19	0x3ca41f7a	0.02003454
20	0xbc8cdb4f	-0.017194418
21	0xbcf2b27f	-0.02962613
22	0x3ba9f80f	0.0051870416
23	0xbc02faae	-0.007994337
24	0xba44fbb5	-0.0007514314
25	0xbd072bfc	-0.03300093
26	0x3cdd6539	0.027025806
27	0x3d6426b9	0.05570099
28	0x3c89dd2c	0.016829096
29	0xbabf4688	-0.0014593164
30	0xba12d9be	-0.0005601904
31	0xbd1f21c9	-0.03885058
32	0xbbc84e9e	-0.0061128875
33	0x3ced38df	0.028957782
34	0xbaa8e2d6	-0.0012884985
35	0xbc793a05	-0.015211587
36	0xba31e4f0	-0.00067861285
37	0xbc5a9881	-0.013342024
38	0x3a2b571b	0.0006536112
39	0x3cd39ce1	0.025831642
40	0x3ad98c08	0.0016597519
41	0x3aa41059	0.0012517079
42	0x3c92a7ff	0.017902372
43	0xbc361c38	-0.011115126
44	0x3bec0a22	0.0072033564
45	0xbc66f04f	-0.01409538
46	0xbcce181b	-0.025157979
47	0x3d0139f9	0.031549428
48	0xbd85b39f	-0.06528401
49	0xba16fd56	-0.0005759796
50	0x3cc71f43	0.024306899
51	0xbca9e256	-0.020737808
52	0x3c150667	0.009095765
53	0xbc32dcc9	-0.010916897
54	0xbdd395cd	-0.103313066
55	0xbd187ab7	-0.037226405
56	0xbd565eaa	-0.052336372
57	0xbafed02a	-0.00194407
58	0xbcbc7bf2	-0.02300832
59	0x3b51144d	0.003190297
60	0xbc232b07	-0.009958989
61	0x3d826e68	0.063687146
62	0xbd01e213	-0.03170974
63	0xbcf417b0	-0.029796451

policy.mlp_extractor.policy_net.2.weight f4 [64, 64]
0	0xbd95b76b	-0.07310375
1	0xbe4187d4	-0.1889947
2	0xbee8fe2d	-0.4550642
3	0xbe939b25	-0.28829303
4	0x3e3c2805	0.18374641
5	0xbdf4a26e	-0.119450435
6	0xbcd1ecc7	-0.0256256
7	0xbd1ab1c7	-0.037767198
8	0x3d3caaac	0.046061203
9	0xbe44ac2b	-0.19206302
10	0x3ec07398	0.3758819
11	0x3e579c66	0.21055755
12	0x3dd0fe73	0.10204782
13	0xbe9aef73	-0.3026081
14	0x3e37a97b	0.17935745
15	0xbd8d1f6e	-0.0689076
16	0xbe3596ca	-0.17733303
17	0x3d9bb154	0.07602182
18	0x3deec62b	0.11658891
19	0x3dc8eb3c	0.098104924
20	0xbca89807	-0.020580305
21	0x3e6d90b3	0.2319973
22	0x3cb42484	0.021990068
23	0x3db2387e	0.08702181
24	0x3e43a94e	0.19107553
25	0xbe7c40d2	-0.24634102
26	0x3e0da227	0.13831387
27	0x3e36d59a	0.1785492
28	0xbebad69e	-0.36491865
29	0x3cdac9de	0.026707586
30	0xbda9519c	-0.08267519
31	0x3e6e77ee	0.23287937
32	0x3e305d49	0.17223085
33	0xbe2504ed	-0.1611516
34	0xbe8670ee	-0.26258034
35	0x3ee3686a	0.444156
36	0x3d98367b	0.07432266
37	0xbe427789	-0.18990912
38	0xbe15108b	-0.14557092
39	0x3e6a96b9	0.22909059
40	0x3eada55e	0.33915228
41	0x3cf19a83	0.029492622
42	0x3d710acd	0.05884819
43	0x3e5a7227	0.21332608
44	0xbbdec4a4	-0.0067983437
45	0x3e06dd29	0.13170303
46	0x3c24b84c	0.010053705
47	0xbdc3d921	-0.095628984
48	0xbe7335e4	-0.23751026
49	0xbdfe4d9c	-0.124171466
50	0x3e593753	0.21212511
51	0x3dffb63c	0.1248593
52	0xbda34dd6	-0.079738304
53	0xbd0ee130	-0.034882724
54	0xbd95656d	-0.07294736
55	0x3dbb9e00	0.091609955
56	0xbd9edf96	-0.077574894
57	0xbee34e70	-0.4439578
58	0xbef46dac	-0.47739923
59	0xbdf95e84	-0.121762305
60	0xbdb92688	-0.090405524
61	0xbd15366a	-0.036428846
62	0xbcbee823	-0.02330405
63	0xbc385441	-0.011250556
64	0xbde54c99	-0.111962505
65	0xbe805263	-0.25062856
66	0x3d303385	0.043017883
67	0x3ea434c2	0.320715
68	0x3e8d7cd7	0.27634308
69	0xbdd00d5f	-0.101588
70	0x3eb45692	0.35222298
71	0xbe972c5d	-0.29526034
72	0x3ccb3122	0.024803702
73	0x3ddd58bf	0.108079426
74	0xbe9022df	-0.28151605
75	0x3e038948	0.12845337
76	0x3ddc9dd4	0.10772291
77	0x3eb7ceb1	0.3589988
78	0xbebc1b44	-0.36739552
79	0x3d75adfa	0.05998037
80	0x3eaa2a99	0.33235624
81	0xbcadc735	-0.021213153
82	0x3dd9d032	0.10635413
83	0x3c81e60a	0.015856761
84	0x3d6a41c8	0.05719164
85	0x3d920c2e	0.07131229
86	0x3e5a41f7	0.21314226
87	0xbddf4e0e	-0.109035596
88	0xbd2df5e5	-0.04247083
89	0x3f07f75f	0.53111833
90	0xbea7d680	-0.32780838
91	0x3da75aa8	0.08171588
92	0x3cb1a010	0.021682769
93	0x3ea02fcb	0.31286463
94	0x3f1a4d0d	0.6027382
95	0xbc3f8bdd	-0.011691061
96	0xbdff0b98	-0.12453383
97	0x3e69b612	0.2282336
98	0xbe74f1b5	-0.23920329
99	0x3e6cd08d	0.23126431
100	0x3e48d7ad	0.19613524
101	0x3d38134d	0.04494028
102	0xbe5f28e2	-0.2179294
103	0x3e9ba1ca	0.30396873
104	0xbe89e723	-0.26934156
105	0xbe1c645e	-0.15272662
106	0x3c9f3143	0.01943267
107	0xbf1f71e3	-0.6228315
108	0xbe60b3dc	-0.21943611
109	0xbc8cbd40	-0.017180085
110	0xbe061db3	-0.13097267
111	0xbe918e84	-0.28429043
112	0x3ed55374	0.41665232
113	0xbd8d4571	-0.068980105
114	0xbda833dc	-0.082130164
115	0x3cad40f7	0.021149142
116	0xbcb90244	-0.022584088
117	0x3e3b3b06	0.18284234
118	0x3e8a8445	0.2705404
119	0x3db5257d	0.08845041
120	0x3e48ff1a	0.19628564
121	0x3f379951	0.7171832
122	0xbb9fa880	-0.0048723817
123	0x3ecff265	0.4061462
124	0x3dbbe766	0.09174995
125	0xbdadadb2	-0.084803954
126	0xbe864a85	-0.2622873
127	0xbe9a5863	-0.3014556
128	0x3e92c8dd	0.28668872
129	0x3eb66bb0	0.35629034
130	0x3e782482	0.24232677
131	0x3e89e005	0.26928726
132	0xbd2043a2	-0.039127
133	0xbdd41bf4	-0.10356894
134	0x3cd834d1	0.026392372
135	0x3ed939e4	0.4242698
136	0xbd1dab7e	-0.038493626
137	0xbec09426	-0.37613028
138	0xbe748bf2	-0.2388151
139	0x3e5428cf	0.20718692
140	0x3e575c4a	0.21031299
141	0x3e9d4e76	0.30723923
142	0xbe329168	-0.1743828
143	0x3e422b3d	0.18961807
144	0x3d4751b0	0.048661888
145	0x3e14a1a2	0.14514783
146	0xbe054e1b	-0.13018076
147	0x3e17d91a	0.14828911
148	0x3e841b0c	0.25801885
149	0xbea55909	-0.3229449
150	0x3eb0c360	0.3452406
151	0xbe259759	-0.16171016
152	0xbca32547	-0.019915236
153	0x3eb85776	0.36004227
154	0x3d465aa6	0.048426293
155	0xbe2b9eae	-0.1675975
156	0xbe446316	-0.19178423
157	0xbdd2676b	-0.10273632
158	0x3cb8fd41	0.022581698
159	0x3e8f19e8	0.27949452
160	0xbbdf9bec	-0.0068240073
161	0xbe060a8c	-0.13089961
162	0xbcd78953	-0.026310598
163	0x3ad95dc3	0.0016583729
164	0xbe2b4987	-0.16727267
165	0x3e0b6b8f	0.13615249
166	0xbdf88827	-0.12135344
167	0x3e29a8f2	0.16568354
168	0x3e924a84	0.28572476
169	0xbea86de6	-0.32896346
170	0xbe812b2b	-0.25228247
171	0xbee0d2b6	-0.4391076
172	0xbd2f79a5	-0.04284062
173	0x3e59c562	0.21266702
174	0xbe88e4ad	-0.26736966
175	0xbd4f76b4	-0.050650313
176	0xbd2f9bb1	-0.04287309
177	0x3e0c373e	0.13692948
178	0xbe938c4b	-0.28817973
179	0xbc04d453	-0.008107263
180	0xbdd10976	-0.10206883
181	0xbc8953d0	-0.016763598
182	0x3dc53c3a	0.09630628
183	0xbc334fa0	-0.010944277
184	0x3d398a18	0.045297712
185	0x3ca8cafc	0.020604603
186	0x3dcbae8d	0.09945402
187	0x3d899549	0.06717927
188	0x3bee53ed	0.0072731883
189	0x3de0aa87	0.109700255
190	0xbd79a691	-0.060949866
191	0xbe0e7ad8	-0.13914049
192	0x3c849f83	0.016189342
193	0x3df4a2e6	0.11945133
194	0xbd677d00	-0.056515694
195	0xbea18fb1	-0.3155494
196	0x3b932538	0.004490521
197	0x3d970d1f	0.073755495
198	0x3d143a3b	0.036188345
199	0x3e8b7f28	0.2724545
200	0xbdd44b57	-0.103659324
201	0x3da5ffb1	0.0810541
202	0x3e5a58f0	0.2132299
203	0xbdf9f2ed	-0.122045375
204	0xbe382e3b	-0.17986386
205	0xbd9d8446	-0.07691245
206	0x3e8242fa	0.25441724
207	0x3eb95cff	0.36203763
208	0xbe8a7f83	-0.2705041
209	0x3e4943da	0.1965479
210	0xbd53803f	-0.051635977
211	0xbd9086e5	-0.07056979
212	0xbd0e6481	-0.034763817
213	0x3dbf9cad	0.093560554
214	0xbeae115e	-0.33997625
215	0x3d6aa0a0	0.05728209
216	0x3e1aad18	0.15105093
217	0x3d4bddce	0.049772076
218	0x3d3d9cf3	0.046292257
219	0x3d9c15b1	0.07621325
220	0xbd037187	-0.03209069
221	0xbde68486	-0.112557456
222	0xbeb771f0	-0.35829115
223	0xbbc11f81	-0.005893648
224	0xbe044948	-0.1291858
225	0x3eac795f	0.3368635
226	0x3dbfeec5	0.093717135
227	0x3d4de990	0.05027157
228	0xbe2a737d	-0.16645618
229	0x3c0f51e3	0.008747551
230	0x3e11ebf2	0.14250162
231	0x3e8175ee	0.25285286
232	0xbd78d8e2	-0.06075371
233	0x3ea4b73d	0.3217105
234	0x3d7b8ba3	0.061412465
235	0x3ed0e7d4	0.4080187
236	0xbe419eed	-0.18908282
237	0x3e973f96	0.295407
238	0x3e616d66	0.22014388
239	0x3ea17c88	0.31540322
240	0xbd1668d8	-0.03672108
241	0x3edac79d	0.42730418
242	0x3ec6224e	0.38698047
243	0x3e9aa714	0.30205595
244	0xbe32610c	-0.17419833
245	0xbe5d1bfb	-0.21592705
246	0xbe530d83	-0.20610623
247	0x3e7d84b2	0.2475765
248	0x3e84436b	0.25832686
249	0xbe9397a2	-0.28826624
250	0xbee5efbb	-0.44909462
251	0xbf282464	-0.6568053
252	0xbeed4de5	-0.4634849
253	0xbe5c2d2c	-0.21501607
254	0x3d99c523	0.07508304
255	0xbcf677f4	-0.030086495

policy.mlp_extractor.policy_net.2.bias f4 [64]
0	0xbbf5a871	-0.0074968864
1	0x39e7b6ee	0.00044196047
2	0xbcc635b3	-0.024195528
3	0xbc8efee7	-0.017455531
4	0xbb235bd2	-0.0024926555
5	0x3c1bd1b0	0.009510443
6	0x3ce16271	0.02751276
7	0x3d108df2	0.03529162
8	0x3c64e1f3	0.013969886
9	0xbc28266c	-0.010263067
10	0x3c0c860a	0.008576879
11	0xbbc1a8f0	-0.0059100315
12	0x3c6400dd	0.013916221
13	0xbc3e722f	-0.011623903
14	0xba446a63	-0.00074926595
15	0x3c07853a	0.00827151
16	0x3b8694e2	0.0041071037
17	0x3c647954	0.0139449425
18	0xbc3507e7	-0.011049247
19	0x3c0f9633	0.008763838
20	0x3b38aed2	0.0028180373
21	0xbbc73ccc	-0.0060802456
22	0x3a0ff403	0.00054913777
23	0x3c9545d0	0.018221766
24	0x3c028fa0	0.007968813
25	0xbc4c19fc	-0.012457367
26	0xbbf34aca	-0.007424687
27	0x3bf4be11	0.0074689467
28	0x3c3c5d9b	0.011496927
29	0xbc149a3f	-0.009069978
30	0xbd133f65	-0.03594913
31	0x3b3df26f	0.0028983613
32	0x3bbe50e1	0.0058079814
33	0x3ac13a53	0.0014742113
34	0x3c3621c7	0.011116452
35	0x3c70804d	0.014679027
36	0x3c42be2e	0.011886163
37	0xbc3955ac	-0.01131193
38	0x3b88b9a4	0.0041725207
39	0xbb8ca568	-0.004292179
40	0x3c8532bb	0.016259542
41	0x3c26c7e0	0.01017949
42	0xbcc7f5f0	-0.024409264
43	0xbb89f784	-0.0042104144
44	0xbc40ad15	-0.011760016
45	0xbb928813	-0.0044717877
46	0x3c78cd02	0.015185596
47	0x39f2823b	0.00046254866
48	0x3bec9ebd	0.0072210715
49	0x3c4b6a9b	0.012415553
50	0xbbef038f	-0.0072941254
51	0xbb96d643	-0.0046031787
52	0x3c67ef7c	0.014156219
53	0x3c514ca5	0.012774621
54	0x3bb091ff	0.005388498
55	0xbc0d814f	-0.008636787
56	0xbc9123a4	-0.01771719
57	0x3be78766	0.0070657013
58	0x3b9a46bc	0.004708139
59	0xbc836a4e	-0.016041901
60	0x3bd4ef9c	0.00649829
61	0xbc02b2a8	-0.007977165
62	0xbc5dbcf1	-0.013533817
63	0xbbbc26c5	-0.0057419264

policy.action_net.weight f4 [1, 64]
0	0x3c763e3e	0.015029488
1	0x3e198952	0.1499379
2	0xbc8c0f72	-0.017097209
3	0xbd49347a	-0.04912231
4	0xbc485169	-0.012226441
5	0x3dc6a57d	0.09699533
6	0x3d305d6f	0.043057855
7	0x3d75cec8	0.060011655
8	0x3b1a029d	0.0023500093
9	0x3c394d7e	0.0113099795
10	0xbc977a21	-0.018490853
11	0xbc6c1e46	-0.014411515
12	0xbbd4f4b6	-0.0064988984
13	0x3e0b449b	0.1360039
14	0xbb46a43c	-0.0030310294
15	0xbaf1bb43	-0.0018442649
16	0xbae523f5	-0.001748203
17	0xbbf70276	-0.007538135
18	0x3a45b10b	0.0007541335
19	0x3d75510f	0.059891757
20	0xbb8c0e05	-0.004274132
21	0xbdd59247	-0.10428291
22	0x3a04c09a	0.00050641
23	0xb8eabd4a	-0.00011193247
24	0xbdaeb9e5	-0.0853155
25	0xbccb9dee	-0.02485558
26	0x3d92c203	0.07165911
27	0xbdacce8e	-0.08437835
28	0x3cb07d27	0.021544052
29	0x3bcb485a	0.0062036933
30	0xbd2f4455	-0.042789776
31	0xbdf6659a	-0.12031098
32	0x3c499474	0.01230346
33	0xbdf90c43	-0.12160542
34	0x3decac74	0.1155633
35	0x3dc5c3cb	0.09656485
36	0x3cdefd7b	0.027220478
37	0x3ac3c259	0.001493524
38	0x3e14babe	0.14524361
39	0x3dfb4f38	0.12270969
40	0xbdce9bcc	-0.1008831
41	0xbbca6275	-0.006176288
42	0xbc0987e5	-0.008394216
43	0x3b83be10	0.00402046
44	0xbd5b030f	-0.053469714
45	0x3e02fb75	0.12791236
46	0x3cee7d32	0.029112432
47	0x3dbbbf46	0.09167342
48	0x3dbf44ee	0.09339319
49	0x3d4e976c	0.050437376
50	0x3c1d852e	0.009614272
51	0xb8fc0b1a	-0.00012018364
52	0x3dba66b7	0.091016226
53	0x3d8eb54a	0.06968172
54	0xbb051570	-0.0020306967
55	0x3c6560fc	0.014000174
56	0xbcbbd98a	-0.02293088
57	0xb99873ca	-0.0002907797
58	0x3c642809	0.013925561
59	0x3dbee91f	0.09321808
60	0xbd090445	-0.033451337
61	0x3c01ec35	0.007929851
62	0x3e113ae2	0.14182618
63	0x3df007be	0.11720227
