hof_model_89pins.onnx (onnx, 332465 bytes, 11 tensors)

mlp_pi.0.weight f4 [128, 128]
00000000: 19c8 38be 32b4 20bf 7fb0 e6bd 63ef 08bd
00000010: fcfd 8fbd 6ba9 ab3e 907a 763e e002 2dbe
00000020: 1f0f 99be 4655 52be b8df 6dbe b26b 0cbe
00000030: 50eb 3abf adc7 a6be febc 6ebe f256 0a3d
00000040: e91a 0a3c 90a9 e6bd 257b 62be 7aff 253e
00000050: 9594 b43e b7ff b03e 979e 7b3d 2d9e 283e
00000060: f899 eb3e 78f4 043f 0444 643e 5c63 c1be
00000070: dfbb 1cbf 9ad6 363d ace9 ea3d 20ed 53be
00000080: 46cf 37be 4969 4b3d e881 3b3e e8dd 1b3d
00000090: d68f 5dbe cc61 9cbe 3d87 07bf f742 d5be
000000a0: 6d0a 773c 3761 af3e d5e2 73bc 286c a63d
000000b0: 2e47 67be 1c27 01be b9eb 003e 0fca 0c3e
000000c0: 16dd 65be 1db0 723d 1d12 243e 40f0 783e
000000d0: 7ac6 16bd 5c94 263e e90e a13e 7af7 323e
000000e0: ea85 d43e 3c52 5b3e 0d56 843a 64ef 593e
000000f0: 3344 f13e ab43 bf3e 28cf cd3d ebd1 7e3d
00000100: cbbe 8dbd 1d26 35be e87a 2fbd 57ec 8fbd
00000110: 0596 31be 6575 21be e564 c63e d94a 823e
00000120: ca12 993e ab78 c53d df12 933e 04b9 4abe
00000130: bd8b 123e ef49 edbd c128 823e 9a79 143e
00000140: 37c3 a53e cd01 c33e df97 73bc 618e 94be
00000150: e9cc e0be d17c 61be d2c3 523e 4412 103d
00000160: b61f 06be 5486 15be d178 9fbd b8cf de3d
00000170: a777 05be 30fb f13d 9143 5ebe 3107 233d
00000180: bb6e 313e abd2 093e f108 dbbd 63d1 02be
00000190: aa8b 18bc b931 703c c6ff a83d dcf1 5ebe
000001a0: 9a0e 86be 52e1 9bbc e71b 2a3e b494 7cbd
000001b0: b149 1bbe 5f5f 3d3d d863 58bd 7e98 32be
000001c0: cfed 07bd f76f 4dbd ade9 233c 8e3a d0bd
000001d0: 4414 e9bd 76a9 2c3d 22a4 a53d 4269 de3d
000001e0: e283 2cbe c309 003d 86ef 323e 613b 063e
000001f0: 9a39 0e3e 023b 2b3c 1420 e13d 9e3f 643e
00000200: f6de e9bb 0a5b eebe 3014 a03d 97fa 1f3e
00000210: b345 db3e a0da 42be cb57 f0be c536 b9be
00000220: dcb6 58be e4e2 e83e c187 f13d 27cb eabd
00000230: 922d d4be b3ac 60be 633c d5bd 1f06 273e
00000240: 9516 c53d 19ae 29be 5b6b 39bf 9e10 bfbe
00000250: cb60 80be d46b ea3d 9c0a 973e 09c8 e13d
00000260: 7c25 ee3d 58a8 40bd bd40 8c3d 2813 c7bd
00000270: 7e94 b9be ecaa 1bbf 7cd5 8bbe ac91 21bd
00000280: f9de d33d 864b 593d e49e a03e 8988 b33e
00000290: eb3b d3bd 2db0 1b3c 8816 89bc c61c 2c3f
000002a0: d580 4e3e c0bc ddbd ade6 a4be 52eb 76be
000002b0: 1a05 583e 0d0f 783d 0008 1a3e a976 30be
000002c0: f69d 383e 459e 49be 34ef b7be 58ae b5be
000002d0: b6bb ba3d db56 6b3e edf6 c73d ace6 08be
000002e0: 5632 50be c631 c0bd 175a 5dbe e64a eebd
000002f0: 26e2 2fbe f4a5 a23e 2005 ddbc 3a3c 90be
00000300: 06c1 23be dbe2 89be 0d2d 91be ddbb df3d
00000310: aa22 8c3e ee9d 95be 5c72 abbe 4ef1 3bbe
00000320: fa58 ca3c 29be 583d af23 e13c f4cf 063e
00000330: b8ee a1bd 9a83 88be bc5f 0bbf 135c f6be
00000340: 711f a1bd bc8e 1d3e 7c1a a83e c898 3b3d
00000350: 46e9 353d a57b 66be 51a1 bc3e 84a7 5a3e
00000360: abaa 1c3e 8910 9dbe 1570 4cbd 2646 e6bd
00000370: 68c7 ad3d 7c3a abbe 4046 8a3d 7689 cd3c
00000380: 0522 0e3d 2714 8e3e 1c0b f0bd 303a 0ebd
00000390: c506 13be 6fd1 96be faf3 5bbd 4898 cd3d
000003a0: 936f 9e3d 216d b0be adb9 09be 0f80 9c3d
000003b0: f02c 203c da33 2b3d ba87 613e c0d0 a1bc
000003c0: 4b31 b6bd 3fae babc 2bb5 983d c6e5 6cbb
000003d0: 1409 38be 1294 0d3c 423b 5dbd 60e4 523d
000003e0: 0a34 cbbd eada 043e 7a08 08be 8f70 d73c
000003f0: e9ab 673d 1576 54bc 6bda 0ebe 1d6c 3c3d
-0.18045081 -0.62774956 -0.11264133 -0.033431422 -0.070308656 0.33527693 0.24070191 -0.16895628
-0.2989435 -0.20540342 -0.23229873 -0.13712958 -0.7301531 -0.32574216 -0.23314282 0.033774324
0.008429267 -0.1126281 -0.22117288 0.16210738 0.3526961 0.34570095 0.06143054 0.1646659
0.46015906 0.5193553 0.22291571 -0.37771118 -0.6122417 0.044638254 0.114703506 -0.20695925
-0.17950162 0.049660955 0.18311274 0.038053423 -0.216369 -0.30543363 -0.5294073 -0.41652653
0.015078169 0.34253857 -0.014885624 0.08126098 -0.22585747 -0.12612575 0.12589921 0.13748954
-0.22447619 0.059249986 0.16022535 0.24310398 -0.036810376 0.16267532 0.31456688 0.17477217
0.41508418 0.21418089 0.0010096446 0.21282727 0.47122344 0.37356314 0.100492775 0.062211912
-0.069211565 -0.1769032 -0.042841822 -0.070275 -0.17342384 -0.15767439 0.3874885 0.2544773
0.29897147 0.09642156 0.28725335 -0.1979714 0.14311118 -0.11586367 0.25421718 0.14499512
0.323755 0.3808731 -0.014867752 -0.29014876 -0.43906334 -0.2202027 0.20582512 0.03517367
-0.13098034 -0.14602023 -0.07786716 0.10879463 -0.13033925 0.11815488 -0.21705462 0.03980178
0.17327397 0.1345927 -0.10695065 -0.12775187 -0.009310642 0.014660292 0.0825191 -0.2177195
-0.26183015 -0.01902834 0.16612206 -0.06166525 -0.1516483 0.04623353 -0.052829593 -0.17440984
-0.033185776 -0.050155606 0.010004443 -0.101674184 -0.113808185 0.042153798 0.080879465 0.1085992
-0.16847184 0.03125931 0.17474183 0.13108589 0.13889161 0.01045108 0.109924465 0.22289893
-0.0071371747 -0.46553832 0.078163505 0.15622936 0.42826614 -0.19028711 -0.4694198 -0.36174598
-0.21163505 0.45485604 0.11793471 -0.114645295 -0.41441017 -0.2194088 -0.104119085 0.16310929
0.09623448 -0.16570319 -0.72429436 -0.37317365 -0.25073847 0.11446348 0.29500282 0.11024482
0.11628243 -0.047035545 0.06848285 -0.09720451 -0.36246103 -0.6080768 -0.27311313 -0.039445564
0.10345263 0.05305054 0.31371224 0.35065106 -0.10314163 0.009502453 -0.016734377 0.67231405
0.20166333 -0.10827017 -0.32207242 -0.24113205 0.21095696 0.06056123 0.15042114 -0.17232765
0.18029007 -0.19689281 -0.35924685 -0.35484576 0.09117834 0.22982351 0.09763894 -0.13369244
-0.20331702 -0.093844935 -0.21616398 -0.116353795 -0.17176113 0.31767237 -0.026979983 -0.2817095
-0.15991601 -0.2693089 -0.28354684 0.10924504 0.27370197 -0.29222053 -0.33485687 -0.18353769
0.02470063 0.052915726 0.027482836 0.13165265 -0.0790686 -0.26662904 -0.54442954 -0.48117122
-0.07867325 0.1538648 0.32832706 0.0458 0.04441192 -0.22508104 0.36841825 0.21352965
0.1529948 -0.30676678 -0.049911577 -0.112438485 0.08485299 -0.33443058 0.067516804 0.02508996
0.034700412 0.2774975 -0.11720869 -0.03472346 -0.14358051 -0.2945666 -0.05369947 0.10038811
0.07736125 -0.3445826 -0.13449736 0.07641613 0.009776339 0.041797496 0.22024432 -0.01975286
-0.08896121 -0.022788165 0.0745643 -0.0036147698 -0.17972213 0.00864126 -0.05401159 0.051487327
-0.09922035 0.12974134 -0.13284484 0.02629879 0.05656043 -0.012967606 -0.13950507 0.046001542

mlp_pi.0.bias f4 [128]
00000000: 30cd cc3d a3da 713f b26a babd 117c 2dbe
00000010: a15f 163e f927 d3be 8f20 683e 639e 323e
00000020: bc50 c3bc 052f 8a3e 3769 543e d4df 1cbe
00000030: 2cd9 8e3e 8409 a6bf 58f5 8bbe bcd2 95be
00000040: 7244 8d3e 7e1f 133d 5352 c73c 7958 b73e
00000050: e50d cbbe faaf 793e 62c1 85be 71a4 3fbe
00000060: d40e e13d 2f32 b43e 5d0d 3fbe b811 863d
00000070: 567d 2f3d 191c 9e3e 8b9e 49bf 190e 50bf
00000080: d98f 39be 58e4 033f 695d 04be 4e21 85bd
00000090: bd8f 5f3d 83f3 c9bf e7b8 02bc 2022 a7bd
000000a0: c53d fabf 10c4 40be 8e98 d83e 5393 d23d
000000b0: 8aab a4bc c859 d4bd 3bdf d23c 6932 c03f
000000c0: 7930 c1be 64c4 72be d98a 933e f5cb 563d
000000d0: 66c4 533e f16f 27bd 2218 6a3f 827b a6bd
000000e0: a790 67be a49b 3fbe fa43 a03d 9b93 093d
000000f0: f56b 163e 1fe0 563e e735 d43d f967 3ebe
00000100: ad40 923e b0a1 5cbe 3062 80bd ffb9 183d
00000110: 1487 fd3d 9e98 19be 729d c73d c13b b7bd
00000120: 5e79 abbe ca1c 62be cd54 f3bc 2ec5 06be
00000130: 11eb cebf 3314 9a3d 4d16 19bd 8e45 86be
00000140: f1e5 583e 6fdb 1dbe 56b1 d53e 9d80 7dbe
00000150: 3391 11be 1483 7dbf 9065 8fbe 6c27 1bc0
00000160: e2a6 17bd d786 94bd 49e9 6dbe 4746 adbd
00000170: 29a5 a6be 3416 adbd 6e91 dfbc c506 e4bd
00000180: 0d14 803e 437a 40bf c0c7 003f 1542 6fbe
00000190: 70ce b93e e44c 203e 7804 41be 768c a8bd
000001a0: 5893 54bd e26a 833e f92c 1ebe e33e 6ebe
000001b0: 2bf4 e7be 3393 1b3e 6ceb 703e 2e66 6b3d
000001c0: 5d82 fb3d dd46 2ebe 81c5 4bbe 7a12 eabd
000001d0: db07 333e c7c8 343e e42e ba3e d89c 273e
000001e0: 33cd 7d3e 9984 173e 8ac1 ccbe d51f 983c
000001f0: 3816 2b3e a40c 023e 8557 9dbe 6b37 603e
0.10000074 0.9447424 -0.09102382 -0.16941859 0.14684917 -0.41241434 0.2266867 0.17443232
-0.023842208 0.26988998 0.20743261 -0.15319759 0.27900064 -1.2971654 -0.2733562 -0.2926234
0.27591282 0.035918705 0.024331247 0.35809687 -0.39659038 0.24383536 -0.26124102 -0.18715073
0.10989156 0.35194537 -0.18657441 0.06546348 0.04284414 0.30880812 -0.7875754 -0.8127151
-0.1812128 0.515203 -0.12926258 -0.06500493 0.05458044 -1.5777439 -0.0079786545 -0.08160806
-1.95501 -0.18824792 0.4230389 0.10282006 -0.020101327 -0.10368687 0.02574121 1.5015384
-0.37732294 -0.2370773 0.2881687 0.052440602 0.20680389 -0.04087824 0.91443074 -0.08129026
-0.22613774 -0.18711716 0.078254655 0.033588033 0.1468962 0.20983933 0.103618436 -0.1859435
0.2856497 -0.21546054 -0.06268728 0.037286755 0.1237928 -0.14999625 0.09746827 -0.08946944
-0.33491033 -0.22081295 -0.029703522 -0.13161156 -1.6165487 0.07523384 -0.037374783 -0.2622494
0.21181466 -0.15415739 0.4173686 -0.24756093 -0.14215545 -0.99028134 -0.28007174 -2.4242811
-0.037024386 -0.07252281 -0.23233522 -0.0846067 -0.32547882 -0.084515005 -0.027291026 -0.11134104
0.25015298 -0.75186557 0.50304794 -0.23365052 0.36290312 0.15654331 -0.18849361 -0.08229916
-0.05189833 0.25667483 -0.15446843 -0.23266177 -0.45303473 0.15192871 0.23527306 0.057470493
0.12280724 -0.1701922 -0.1989956 -0.114293054 0.17483465 0.17654715 0.363639 0.16368425
0.24785309 0.14796676 -0.3999141 0.018569866 0.16707695 0.12700135 -0.30730835 0.2189614

mlp_pi.2.weight f4 [128, 128]
00000000: b579 49be c723 b33c fd3f 97be 5336 53bf
00000010: b2ae 353d fd55 933d 269a 56be f294 bb3e
00000020: afbb 12be 157d 90be 5fa6 803e 5c51 2a3e
00000030: 8799 4ebe 9b88 36bd c613 a83d 8acd 3e3d
00000040: f96c ce3d 59df 86be 83a8 593e 9d5c be3e
00000050: abd4 59be d22f cc3e 0d53 dd3e 9832 463e
00000060: 989d 43be 9418 f83e ffb9 01be 9690 46be
00000070: 755f 51bb 0ec8 123f c055 6dbc ada1 003e
00000080: e774 3b3c 016d c53e 339d 9dbe 58e9 3b3e
00000090: 3a92 1f3e 9ea7 2d3f 3687 e53d 5698 e33e
000000a0: 3c1b 5abe dede 01be f583 7b3e 7fd1 24bd
000000b0: c885 2f3e e48c cf3d dfa3 76bc 0448 8abd
000000c0: eb97 923e 26ec 9fbc 38ae 6bbe 9e3b bebe
000000d0: 8e72 ddbc 019f 3c3f e8c4 abbe de4d e13e
000000e0: 0302 43be cc91 023d c0e8 9fbe c21e 7c3e
000000f0: 7cd9 47be 48e7 08bc 4f01 b5be 48b8 99bd
00000100: e893 423e cc15 953e 4f46 f13e 6aa8 cfbd
00000110: 001a 0abf 6158 abbe 7f6e 4b3e 72a2 363e
00000120: 5868 60bc e722 b6be f990 a1be 7dea 38bd
00000130: a70f a93d 5247 d93d 23ba d2bd 294e 673d
00000140: 5306 01be 3e13 83be 8153 9d3d 3b69 f3bd
00000150: b458 2e3e dec8 ecbe beae 0b3d 4361 0d3f
00000160: 8d55 70be 6cb6 0dbe 9436 ce3e 32cb a33d
00000170: 9881 3abe c9e4 d8bc d063 153c e015 10bd
00000180: 30aa 4abe c838 1ebd 1ba2 863d b2a0 ea3d
00000190: d591 a63d 40ad 0d3f ddf5 463d f2d3 0d3f
000001a0: fc32 0b3e cf39 8c3e e02c 3ebf cd3b 43be
000001b0: 5a11 02bf 2f67 61bd f0d7 b0be f913 ff3d
000001c0: 933c 9ebc 015a a53e d404 583e 5856 1cbe
000001d0: 1c0d a33e 01f9 3bbe 07f0 a4be 1d69 6bbe
000001e0: c68f b33e be49 e53e db47 b63d bdd8 953d
000001f0: 8bb3 9f3d fa64 abbe 5404 1fbe a724 303d
00000200: 0b78 debe aa4d 983d a9d5 91bd 12e2 e33d
00000210: 65e7 15bf fb61 bf3e 5a20 e2bd d9f7 963d
00000220: 8f4e 053f bdc1 55be 7049 e73e eba9 fd3e
00000230: d1a9 15bf 0bdd 9fbe cad8 e53d 946f 9b3e
00000240: ce1d 883e d2f1 ba3e dcce a13e d30c ecbd
00000250: bcf9 163f bae6 863e 0be4 7b3d c638 8e3e
00000260: 7c5f 3cbe 7b68 9dbe 0c05 173e 5fe6 063f
00000270: 92d6 d03a b8f2 4abe af7a 943d 711d 34be
00000280: a052 6e3d 31fb 693d d7ed 12be e776 da3d
00000290: b4cd 92be e96a f2be c712 343b 1003 f4be
000002a0: 2e70 49bf b6c5 46be c9ba c1be 2884 0e3f
000002b0: 74f8 583e 755e 24bf d8d2 36bb 4fa2 033f
000002c0: 6208 c9be bb0b cc3d 2755 03bd 34aa 883e
000002d0: b740 1ebe 659e 943d 06c8 143f 31bc b9be
000002e0: c7f3 94bd ac75 27bf 9c9a f8bd 38e4 e53d
000002f0: eebb dabd 4063 d9bd ec16 8cbe 5f0d f2bd
00000300: 4b31 1c3f 6c2a 93be 04d1 2cbe b9f8 dcbe
00000310: 6e4e cfbd 1ac8 bb3e 29bb 343e 5230 0e3f
00000320: 8638 c63e d592 6ebe 718f b33c 18e6 bdbd
00000330: 6ec1 52bf 1943 96be 033c 1c3e 4531 a93e
00000340: 75ec 333e 0796 83be 9c59 a6be 0550 c3be
00000350: 01fe 87bd 69a4 6e3d 991a bbbe 9e53 2fbf
00000360: 0b0f e43e 1cb3 96be 9f34 c8be 7213 e6bd
00000370: 0b88 17be 43de 0abf bca8 073f df5e 03be
00000380: 6f09 0ebd 8305 ddbd eedd d9be cebb 9f3e
00000390: 6fbe 03be 9ff2 50bd c386 54be 1d0f 49be
000003a0: 4dca 783e 22a7 ebbe e20c ca3e 9a53 8fbe
000003b0: a6ea 0a3d c694 bb3e 9bd9 153f 5856 6d3e
000003c0: 87f5 acbd 7a44 1fbe ee3f 883e b942 e4bc
000003d0: 0244 32bf 5b30 153f 8b41 203e 04f0 243d
000003e0: 881c e63c 1d8e 88bd 113a 153e b0fd c93e
000003f0: 60d8 ae3e 6466 933d ce0d a6be 8460 a7be
-0.19675334 0.021867646 -0.29541007 -0.8250477 0.044356056 0.07194135 -0.2095724 0.36637074
-0.14329408 -0.2822043 0.2512693 0.16632599 -0.20175754 -0.04456387 0.082068965 0.046582736
0.10079379 -0.26342276 0.21255688 0.37180033 -0.21272533 0.39880234 0.43227425 0.19355237
-0.19103086 0.48456252 -0.12668608 -0.19391093 -0.0031947766 0.5733651 -0.014485776 0.12561674
0.011441446 0.38559726 -0.30783996 0.18350732 0.15583125 0.6783389 0.1120743 0.4445216
-0.21299452 -0.12682673 0.24562056 -0.040238854 0.17140877 0.10134295 -0.015053718 -0.06752017
0.2863153 -0.019521784 -0.23015678 -0.3715486 -0.027032163 0.7368012 -0.33548665 0.4400472
-0.19043736 0.031877324 -0.31232262 0.24621108 -0.19516557 -0.008355923 -0.3535256 -0.07505852
0.19001734 0.29118192 0.47123954 -0.10139544 -0.5394592 -0.33465865 0.1986637 0.17835405
-0.0136967525 -0.35573503 -0.31555918 -0.0451455 0.082549386 0.106093064 -0.10289409 0.056471024
-0.12600069 -0.25600618 0.07681943 -0.118853055 0.17026025 -0.46247 0.034102194 0.55226535
-0.23470135 -0.1383912 0.40276015 0.07997741 -0.18213499 -0.02647628 0.009118035 -0.03517711
-0.19791484 -0.03862837 0.06573888 0.114564314 0.08133284 0.55342484 0.048574317 0.5540153
0.13593668 0.27387854 -0.74287224 -0.19065781 -0.50807726 -0.055030044 -0.34539747 0.12454981
-0.019315993 0.3229523 0.21095592 -0.15267313 0.3184594 -0.18356706 -0.32214376 -0.22989316
0.35070628 0.44782823 0.08900424 0.0731673 0.07797917 -0.33475477 -0.15528995 0.043003704
-0.4345096 0.07436688 -0.071208306 0.11127104 -0.58556205 0.3737944 -0.11041327 0.07371492
0.52072996 -0.20874687 0.45173216 0.495437 -0.58462244 -0.3122333 0.1122299 0.30358565
0.2658524 0.3651262 0.31603134 -0.115258835 0.58974814 0.26347905 0.061496776 0.2777769
-0.183958 -0.30743775 0.14748019 0.5269527 0.0015933088 -0.19819152 0.072499625 -0.17589356
0.058184266 0.05712432 -0.14348541 0.1066721 -0.28672564 -0.4734719 0.0027477012 -0.47658587
-0.786868 -0.19411358 -0.37837818 0.55670404 0.21188527 -0.6420663 -0.0027896669 0.5141954
-0.39264208 0.09963175 -0.03206363 0.26692355 -0.15454374 0.07256774 0.5811771 -0.3627639
-0.07273059 -0.6541393 -0.121388644 0.1122517 -0.10680376 -0.106146336 -0.27361238 -0.118189566
0.61012715 -0.28743303 -0.16876608 -0.4315851 -0.10122381 0.36676103 0.17649521 0.5554248
0.38715 -0.232982 0.021918984 -0.092724025 -0.823264 -0.29348066 0.15257268 0.33045402
0.1757067 -0.257004 -0.32490242 -0.38146988 -0.06640244 0.058262262 -0.3654373 -0.68486965
0.44542727 -0.29433525 -0.39102647 -0.11234178 -0.1479799 -0.54245394 0.52991843 -0.12829159
-0.034676965 -0.10792067 -0.4255213 0.3119797 -0.12865613 -0.05101263 -0.20754533 -0.19634672
0.24295922 -0.4602595 0.39462954 -0.2799347 0.033915184 0.36636943 0.58535165 0.23177469
-0.08445268 -0.15553465 0.26611274 -0.027863847 -0.6963502 0.5827691 0.15650003 0.04026796
0.028089777 -0.06667731 0.14572932 0.3945136 0.34149456 0.07197264 -0.32432407 -0.32690823

mlp_pi.2.bias f4 [128]
00000000: 865c a4bb 4649 a5be 4cec 29bc f354 3bbd
00000010: e5fc 5d3d 3776 2f3e 4df3 f43b 86be aebd
00000020: 3896 073e b5a7 37be 7282 cc3e cdcc f53c
00000030: c9cc a93d 4c41 9d3b 9283 543d c8f6 75bd
00000040: b3f4 66be 40d8 9fbe ec10 40bd 607c 8f3e
00000050: f516 1a3e 7332 6a39 b5ae cf3d 2419 b5bd
00000060: 3b6a 4bbe ac37 cd3d c87d eb3c 7f74 42be
00000070: d3f9 8dbd f93e 06be 76ca 9bbe f9c9 30be
00000080: adb2 c33e 43b8 1abe 38b0 d7bd 9a36 0d3d
00000090: 5b68 553e 4657 853e d337 d6bc 79e2 42bd
000000a0: d1eb e3bd 11d6 a5bc f32e 2bbe 0a15 a73d
000000b0: 577e 51bc 8356 53be 588f ffbd cc1e d53d
000000c0: c9fc 9b3e 2b9b 233e 024c 44bc 29bb 90bd
000000d0: bdc5 043e 6501 a2be 85ea aabd 4290 42bd
000000e0: 0a9f 18be 5d8d 29be d30d 503e a0f2 a93d
000000f0: c429 a73e 7116 0a3d 1068 c9be 874f a5bc
00000100: e15e eebe 7996 9e3d 6bd8 85bd f14b b3bd
00000110: 1443 8c3d a1f7 fc3d 3ce2 dcbc a3c0 0aba
00000120: 0d98 503d d69e 4f3e eda4 44be 185d 57bd
00000130: 549a 133e ad11 623e 5492 4abc 02d8 033f
00000140: f289 a1bd 0aed fc3d 86c5 a43d c118 85bd
00000150: 1671 103d 7b11 8b3e df6d 54be ea37 823e
00000160: 4366 7c3e 41ee af3e dbbf 06be 7e2f bebc
00000170: 4f89 a1bd ae9b 903e 1ecf b73e d77f 803e
00000180: 7ad7 08be bc10 73be b098 5f3d 3ff6 d6be
00000190: 4c41 c73e 66ef 11be 541e a4be 29f5 4c3d
000001a0: c360 05bf e9c1 443e 27d9 38bf 7741 883d
000001b0: 0cc5 403e d5ce 12be 78d0 86be 511a bd3d
000001c0: f67d 1d3b 80b7 4c3c 8409 a23d d581 f23b
000001d0: 3d38 93bd cdc3 a4bb 72a2 7f3e 3089 84bd
000001e0: 39ef 28be ba3b 6fbe a5f1 443e 7a84 e9bd
000001f0: 42c1 24bd 9b15 22bf 50cb 653e 0d62 3f3e
-0.0050159125 -0.32282466 -0.010371279 -0.04573531 0.054196257 0.17134939 0.007475293 -0.08532433
0.13240898 -0.17935069 0.39943272 0.030004883 0.08291013 0.0047990438 0.051883288 -0.060049802
-0.22554283 -0.31219673 -0.046891138 0.28024578 0.1504782 0.00022334773 0.101407446 -0.08842686
-0.19864742 0.10020384 0.0287465 -0.18989752 -0.06932416 -0.1310996 -0.30427903 -0.17264546
0.38222256 -0.15109353 -0.10531658 0.0344759 0.2084059 0.26043147 -0.026149666 -0.047579262
-0.11128963 -0.020243676 -0.16717128 0.0815831 -0.012786469 -0.2063847 -0.124785125 0.10406265
0.30466297 0.1597716 -0.011981012 -0.07066948 0.12966056 -0.3164169 -0.08345512 -0.047500856
-0.14904419 -0.16557832 0.20317774 0.0829823 0.32649052 0.033712808 -0.39337206 -0.020179523
-0.46556762 0.07743544 -0.06535419 -0.08754719 0.06848732 0.12351919 -0.026963346 -0.00052929873
0.050926257 0.20275435 -0.19203539 -0.052579015 0.1441434 0.22077055 -0.012363989 0.51501477
-0.07887639 0.12349899 0.08045487 -0.06498862 0.035264097 0.27161774 -0.20745037 0.25433284
0.24648385 0.3436146 -0.13159125 -0.023216005 -0.07887518 0.28243774 0.35900205 0.25097534
-0.13363448 -0.23736852 0.054588974 -0.41984746 0.38917005 -0.1425148 -0.3205439 0.05003849
-0.5210077 0.19214596 -0.7220635 0.066531114 0.18825167 -0.14336713 -0.26330924 0.09233535
0.0024031377 0.012494922 0.07911971 0.007400731 -0.07188461 -0.005028224 0.24964312 -0.06471479
-0.16497506 -0.23362628 0.19232805 -0.11402221 -0.040223368 -0.6331422 0.22440839 0.18689747

mlp_vf.0.weight f4 [128, 128]
00000000: f457 b63c cdf4 e5bc 7a7c 093d a0e8 8bbc
00000010: a576 57bc 50fe 0dbe b020 62bd 158f 513d
00000020: 25a7 053f aeae 083f 1c4a ce3d a539 03bf
00000030: 6e06 eebe 49b9 02be 16ea 973e 3243 673e
00000040: a9c6 1abe f741 c0be 1106 c4bb 1c6b 5f3e
00000050: f4ad 8b3e 2021 12bd 0d5d 993d 78a9 653c
00000060: f79a 373e 2c42 c23b 76ba 3e3e 4c73 a33e
00000070: b002 2a3e 54fc 09bd 9442 50be 8d81 8a3b
00000080: f3bb 263d 1e12 2d3e 286f 4c3d b0bd debd
00000090: f5f5 8abe ce87 31be f9df d93d 72ef ab3d
000000a0: fc7f 2fbd 672e 78bd af57 b039 e485 a53d
000000b0: 6570 e2bd 42ce 8fbd b82b e53d 1b85 683e
000000c0: bc3c f33d 13ef d2bd 9396 9ebc 6462 263e
000000d0: ae3a 483c 3a31 e6bd 2813 803d 396a 3f3e
000000e0: 643e 9c3d 3330 ae3c 773e 4a3d 8fca 5d3e
000000f0: bfcd 413e 6656 8ebd aaaf 9ebe 66c0 32bd
00000100: a2fc ab3d 0886 2c3e dfcb 86bd 6e34 cbbc
00000110: 05c9 21bd c463 6ebd 4b59 18be a6af 4bbe
00000120: d5ec 16be b58d 253e ff1d 3b3e 1e3b 023e
00000130: 7439 143a 02ad 1a3d ff9c 9f3d 311d bebd
00000140: 332d 82be f24e f9bd 597d 8c3e 3b2d a83d
00000150: ee3e 2fbe a5be d9be 72a6 88bd fe9e cf3d
00000160: 6a3f 0a3e 0466 33bc 4d42 2ebe 0cfe 1fbe
00000170: a5e4 e63c 9fc5 2abe 4b3b 78bc 2c16 46be
00000180: ed35 d23b 98db ec3d c75d c7bd f2bf 96bb
00000190: 48f5 d53e a6d8 da3c 3467 9bbd e46a 3bbd
000001a0: fd06 a4bd eba8 a03d d8a5 8abc 8e74 ef3d
000001b0: 9e74 da3c 0279 5e3a 8e96 8fbd d8a3 31bd
000001c0: 3040 20bd da67 023e 25bf c9bd 2aa0 193d
000001d0: 6bf4 67bd d969 103e 8b7c 823d bcfb 353e
000001e0: 95c6 a6bd a5cd eebc 5acc 5dbe 6f66 c4bd
000001f0: 8c0a 013d f8cb 333d 81fd f1bd e64e 2bbe
00000200: ca54 043e 7076 223d fa6d 033e 4335 50be
00000210: 8819 723e afe3 d43e f2a8 1c3f d4b6 393d
00000220: 7075 15bd ec8b 77be 898d 38be a38c 84be
00000230: 003e bc3d 7011 f03d 9306 63bc ac72 20bf
00000240: 6b1f 21bf f157 c2be d80e c03c ba5a 3f3e
00000250: fb67 4c3e bb5b 5b3c 0867 ed3d bcc2 5e3e
00000260: 6df8 633e 2322 bc3e c182 7f3e 2b8e c0bd
00000270: 75ee bfbe 435c 57be 18a9 babc 9097 853d
00000280: 070c 27bc 9eef 7d3d 83a9 fbbb c7c0 09bd
00000290: f2ed 293c 62d0 ce3c 87ec 67be 3496 7dbe
000002a0: ea6e 85be 7beb 523c 26a7 44ba a078 d53d
000002b0: 5b1b 8abd 268e d93e 8803 c93e e2c6 9c3e
000002c0: 207e 7fbd 190a 80be 6964 1dbe 3725 12be
000002d0: 1b5a 07bd 0d51 ce3d 6045 5d3e b98e a63d
000002e0: 9b7e c3bd d7db ddbd 8e7b 033d a662 523d
000002f0: 5343 623e ddec 2a3e 5204 8d3c a7cb 493d
00000300: 4c07 623e 0a6d b53d b86d ad3d 3d99 2fbd
00000310: e044 893e 41b3 d73d 11fa 283e 1458 b13c
00000320: 0c32 923e dcd3 003e 2f86 0abd f5ca aabe
00000330: 1f5b 11be 073a ce3d e5a0 d93e e8fd f13e
00000340: c1ea 1e3e 0f3c 793c 80dd aebe d597 7b3e
00000350: b7c2 063f 1fc7 353f 5c10 9f3d f6ab f33d
00000360: 941c f4bd 1492 253e de7f ea3c 7a85 dd3d
00000370: 6711 4ebe d0f5 41bd 588f 953c 7475 03be
00000380: 4d0e 983d 89e2 fdbc 9378 82bb f876 94bc
00000390: 13ae aebd be64 2c3e bfd4 4fbe 9d6e 4a3d
000003a0: 9336 723b 5bcb f43c 45c2 933d 2b37 893d
000003b0: 1fed 87be aedd 3e3d 4a96 b6bd 8622 b9bd
000003c0: 9b89 ad3d 6858 113e 320e 083c dba8 f83d
000003d0: 9ca2 933c b557 a7be 9210 1b3e 1331 aa3c
000003e0: bb08 3b3d 309d a33d 7158 423d af53 40be
000003f0: 5547 2bbe 2645 4ebe 82ad c33d 4174 043d
0.022258736 -0.028070832 0.033565976 -0.017078698 -0.013150846 -0.13866544 -0.055206954 0.051161844
0.5220817 0.5339154 0.10072729 -0.51259834 -0.4648928 -0.12765993 0.2967078 0.22584227
-0.15114845 -0.37550327 -0.0059821685 0.21818203 0.27281153 -0.03567612 0.07488451 0.014017455
0.17930208 0.0059282985 0.18625817 0.31923902 0.16602588 -0.033687904 -0.20337898 0.0042268694
0.040706586 0.16901442 0.049910694 -0.10876024 -0.27140775 -0.17336962 0.106384225 0.0839528
-0.042846665 -0.060591128 0.00033634665 0.08082178 -0.11056594 -0.070217624 0.11189979 0.22707026
0.118768185 -0.10299506 -0.019358909 0.1624847 0.012221022 -0.11239858 0.06253654 0.18692864
0.076290876 0.021263218 0.049375977 0.21659301 0.18926142 -0.06950073 -0.30993396 -0.043640517
0.08397795 0.16848004 -0.06581854 -0.024805274 -0.039498348 -0.058200613 -0.14877813 -0.19891223
-0.14738782 0.16167338 0.18273161 0.12717864 0.0005654313 0.03776265 0.077936165 -0.092829116
-0.2542511 -0.12173261 0.27439383 0.08211752 -0.1711385 -0.42528263 -0.06672372 0.10137747
0.13500753 -0.010949615 -0.17017479 -0.15624255 0.028185198 -0.16676949 -0.015150855 -0.19344395
0.00641512 0.11565322 -0.097346835 -0.0046005184 0.41788697 0.026714634 -0.07588044 -0.045756236
-0.080091454 0.078447185 -0.016924784 0.11692153 0.026666936 0.00084866595 -0.07011138 -0.043369144
-0.039123714 0.12734929 -0.09850911 0.03750626 -0.05662958 0.14102878 0.06371411 0.1777181
-0.08143345 -0.029150793 -0.21659985 -0.0958985 0.0315042 0.04389569 -0.1181593 -0.16729316
0.1292297 0.039663732 0.12834921 -0.20332818 0.23642552 0.4157996 0.6119529 0.045340374
-0.03648895 -0.2417447 -0.18022741 -0.25888547 0.09191513 0.11722076 -0.013856548 -0.62674975
-0.62938565 -0.3795772 0.023444578 0.18686953 0.1996154 0.0133885695 0.11591917 0.21753973
0.22262736 0.36744794 0.24952222 -0.094021164 -0.37486616 -0.21031289 -0.022785708 0.06523049
-0.010195739 0.061996095 -0.0076801195 -0.033631112 0.010371672 0.025245849 -0.22648822 -0.24764329
-0.26061183 0.012873526 -0.00075017137 0.10423398 -0.06743499 0.42491263 0.39260507 0.30620486
-0.06237614 -0.25007704 -0.15370335 -0.14272009 -0.033044916 0.10074053 0.21608496 0.08132691
-0.095456325 -0.10832947 0.032100253 0.05136361 0.22095995 0.16691919 0.017213974 0.049266484
0.22073096 0.08858688 0.08468193 -0.04287075 0.2681036 0.10532237 0.16501643 0.021648444
0.28553808 0.12580818 -0.033819374 -0.3335797 -0.14194916 0.100696616 0.42505565 0.47264028
0.15519239 0.015212073 -0.34153366 0.24569638 0.5264086 0.7100696 0.07766792 0.11898033
-0.11919513 0.16169006 0.028625425 0.10816474 -0.20123826 -0.047353566 0.018256828 -0.12837774
0.07424603 -0.03099181 -0.0039816587 -0.018123135 -0.08529296 0.16835305 -0.20296 0.049421895
0.0036958798 0.029882124 0.07214788 0.066999756 -0.26548097 0.04659813 -0.08915384 -0.09039788
0.08473512 0.1419388 0.008304166 0.121415816 0.018021874 -0.32684103 0.1514304 0.020775354
0.045662623 0.079889655 0.047447626 -0.18781923 -0.1672643 -0.20143566 0.09554578 0.03233743

mlp_vf.0.bias f4 [128]
00000000: 431a 663f 626a 9c3e 2cf3 163f b80b 25bf
00000010: 3808 503e 96ca 293f ec6c c7bd 8c36 233f
00000020: 48cd dabc d6d4 01bf 4c33 003f 8bfc 82be
00000030: 601b 5a3e 38b1 6f3d f43f 023f 48c6 403f
00000040: f544 29bf d9b6 683f 944d 38be c71f e1be
00000050: 8d2a 85bd 1de7 23bf 61cd f8bd dedb 94bf
00000060: 83e8 0e3f 754b c0be 910b 56be e617 4c3f
00000070: 3986 973e 7bf9 9fbd 1d28 7b3e b944 ab3f
00000080: ad09 5b3e a894 b3be 02be d3bf 003c 423d
00000090: d5a9 c13e 59c8 653d a0c2 67bf d8e9 86be
000000a0: f511 023d ed1e 023e 9317 60bf 0910 b13c
000000b0: 0e04 7ebe e9a3 203d 9923 413f 1bfa 293d
000000c0: 865b cb3f 3371 90be d1f6 0d3e 425d 8a3d
000000d0: 0eff 093e 4bd0 9abe 77aa 23bf b01a a03e
000000e0: e4af 45be 36f9 973c b678 4abe fdc5 5d3e
000000f0: cc8d 05bf d92b 64be 87d9 a43d 259a cfbe
00000100: 4a66 dabe 9c8f 493f 7e53 c9bd c636 ab3f
00000110: e747 4e3f abd2 19be a93a 04bd 790e adbf
00000120: 4b9e a93e e338 163e da1e 6b3e bfbe 8a3b
00000130: 5093 683f 2067 bd3e 5449 103e 16a2 5e3e
00000140: 8c24 38bd 1c5c 1d3f 412b 44bf e1df 79bb
00000150: 0f7b 383f 839b 25be 60fb 193f 03df 8b3c
00000160: 6f4b df3e 3c7f 013e fdbe 603e bece f6bd
00000170: 1cc5 85be f16b 1e3d 41a5 883e 1f05 b73e
00000180: c71f 003f 5e1f 15bf 5034 ac3c 36c9 7d3e
00000190: 8718 433e 9d5b 5a3d 6fd7 61bd fa1d 3a3e
000001a0: 0818 733f 3ccc 2dbe 1959 b03f 8fa9 76bc
000001b0: d137 f23d ea08 2a3f f8cf e4be e776 6a3d
000001c0: 5234 eb3d 29e0 063f 2097 9dbd 920a 0a3e
000001d0: d75d 82bd 1a99 573d 730b 1f3e 85dd b0be
000001e0: cfef 80be 87af 443f accb 27bd 4864 a63e
000001f0: bc40 79be f2d4 873b 1929 93bf 6de7 403e
0.8988382 0.30549914 0.589648 -0.64471006 0.20315635 0.66324747 -0.09737572 0.63755107
-0.026709214 -0.50715387 0.5007827 -0.255833 0.21299505 0.05851862 0.50878835 0.75302553
-0.66120845 0.90904003 -0.17998344 -0.43969557 -0.065022565 -0.64024526 -0.12148548 -1.1629598
0.55823535 -0.3755757 -0.2090285 0.79723966 0.2959459 -0.078112565 0.24527021 1.3380347
0.2139041 -0.35074353 -1.6542361 0.0474205 0.37824884 0.05609927 -0.9053135 -0.26350284
0.031755406 0.1270711 -0.8753597 0.021614091 -0.24806234 0.039218817 0.7544494 0.041498285
1.5887306 -0.28211364 0.13863684 0.06756069 0.13476202 -0.3023704 -0.63931984 0.3127036
-0.19305378 0.01855145 -0.1977261 0.21657558 -0.5216949 -0.22282352 0.080493025 -0.4054729
-0.42656165 0.78734756 -0.09830378 1.337609 0.80578464 -0.1502177 -0.032282505 -1.3520042
0.3312858 0.14670138 0.22960988 0.0042341645 0.9084978 0.3699274 0.14090472 0.21741518
-0.04495673 0.6146867 -0.766285 -0.0038127827 0.7206277 -0.16172604 0.6014919 0.017074114
0.4361224 0.12646192 0.21947856 -0.12051152 -0.26126945 0.03867716 0.2668858 0.35746095
0.5004849 -0.5825099 0.021021038 0.24783787 0.19052325 0.053310025 -0.055137094 0.18175498
0.94958544 -0.1697244 1.377719 -0.015055074 0.118270524 0.6641985 -0.44689918 0.0572423
0.11484589 0.5268579 -0.076948404 0.13480595 -0.06365555 0.052636243 0.15531711 -0.34544006
-0.2518296 0.76830333 -0.04096572 0.32498384 -0.243411 0.004145258 -1.1496917 0.18838282

mlp_vf.2.weight f4 [128, 128]
00000000: 2b0a 1dbd a674 edbc d03f cc3d e482 c1bb
00000010: ef35 7cbe 6028 49be 4a32 2cbd ca56 e23c
00000020: a820 973d bb8a c5bc fd4c 083e e863 2bbd
00000030: 86e9 31be bbc6 e9bd 7458 80be a9da 163d
00000040: 07e9 80be b777 d03e c324 593e cbb8 fa3c
00000050: f36d b03d d09c 9b3e 3a46 1c3e c6f0 8c3e
00000060: b078 15bd 34e0 f83c f0fc 07bd 47fc e43d
00000070: fb45 08be 9596 7bbc b07b 08bd abf9 11be
00000080: 4e76 e5bc cd1e 7abe 5dbb 0a3d 518c 483d
00000090: 4d48 eebd 0466 00be 51dd 4e3e 7bce 213e
000000a0: f822 403e afaa 21be f1f5 0b3e 5c41 2abe
000000b0: bde3 633d 7c76 18be ac5e c2ba 56b2 e3bd
000000c0: 976b 483e 87a0 a33d 68eb 25be a197 af3d
000000d0: 6e85 e2bc 6f56 b2bd c555 e7bd e730 e9bd
000000e0: 30e7 f6be 797b 1cbc 34dd 063e 6852 9cbd
000000f0: 7fad 0dbe 8e42 9d3e 7a1a 27be c2e1 50be
00000100: 140f 50bd 7e10 763d d4ce 793d 5831 1dbe
00000110: 5889 cb3c 9010 073d f87b 8ebc c9d9 04bd
00000120: ce3c 5ebe 7c71 94be 011c a0bd 98c0 e53d
00000130: 1bc0 01be 866f 14be fd58 243e e550 56bd
00000140: a4e1 183c 05ae 21bd ec74 0ebc 4567 60be
00000150: be76 11be 4fdf 993d 456c dd3d 15b8 81be
00000160: 4844 f5bd d6aa e5bd c5e3 3d3d 0f51 f2bd
00000170: 5deb 7d3d 9b93 903d 8476 7cbe 76cc 59be
00000180: a29e 923d 28bb 183e fd59 3fbe 76a5 81be
00000190: 3736 19be e330 983d 2877 e43c 117e 2dbd
000001a0: 23d5 013e 5507 0b3e 9172 bdbd cd1e 763d
000001b0: 1958 f13a 6877 1cbd 67bc 663e a0c8 8abd
000001c0: 90c9 94be 781f 8ebd cdc9 d23d 7468 dc3c
000001d0: cb25 193e 580f 8dbc 6598 25be a734 8b3d
000001e0: 5b2f 69bc 37b8 0c3e 9a8a 073e 3007 613e
000001f0: 86e0 6b3d 29e9 4cbd 0647 1dbe c551 d33b
00000200: f663 9fbe 3af1 a8be 32da e83d c9c8 7e3e
00000210: c0f0 05be 6325 4d3e b2f9 833d 76fe f6bd
00000220: 3450 68be 82ef 703e 90c9 d8bd aa49 3e3e
00000230: fbab 5abe ab4c 26bc 5da0 57be 28c8 3dbe
00000240: 8a33 f53c de5f efbe d103 cc3d ba76 973c
00000250: a415 25bc 36f9 1cbb 3d04 b5be d81d 793e
00000260: f4dd 7a3d be74 ee3d 1875 02bd 433a 04be
00000270: cd4f 123d 2c8f 303d d908 a13d 56e9 69be
00000280: 75b6 fe3d f9d5 ad3e c91a c93b faf8 923d
00000290: 20c2 f0bc c682 383d bf24 643e 617d 383d
000002a0: f923 e2bd 6554 01be aa2d a43e 0860 65be
000002b0: 0c87 b0bc 0f0f 60be fb4c 51be 5103 f63d
000002c0: 64b0 d73a ad83 163e 27bc 3d3e 2f06 8cbe
000002d0: 7dff 663d 13e6 6d3e da30 f73d c8e5 b93d
000002e0: 23dd 3c3e 10dd 77bd fce3 3d3b 3948 8c3d
000002f0: b5fb 363e b114 0f3e 29d6 853d ea7f e53d
00000300: f97a f23c 283b 043e d925 7c3b 1994 60bd
00000310: 5d21 053d df14 56be a180 0b3e e6b0 43be
00000320: f206 813d e134 68be 93fb b9bd 6d02 45bc
00000330: cd9c 83be b6f3 2a3e facd acbd 7331 88bd
00000340: 19b3 f23d 06df 94be 1587 15be 829f 72bd
00000350: 46f3 c33d 52af 54bd de44 4dbd e275 12be
00000360: 922f 8bbe fe60 453c 7ca0 90be 2efa bebd
00000370: 493c 203e 0286 6e3e 23f6 ffbd 4438 02bd
00000380: 5b96 04bd f276 293e 2f94 673e 5697 cd3d
00000390: 9762 e23d 82d7 cfbd dfea da3c 5125 1d3e
000003a0: 31d7 273d ee14 77be 379e a03a 8c79 3cbe
000003b0: 7f12 33be b028 edbd 4772 3a3e a6f5 9cbd
000003c0: f916 1d3d 94a9 d93d dac5 a63d 3f2a d63c
000003d0: d4a7 db3d 4c10 cebd 94cd dfbc 5aa6 b8bb
000003e0: 652a 71bd d4f0 13be d3af b23d b2d3 b8be
000003f0: 9660 d23d a770 e03d ce9f e63c 2d6f fa3d
-0.038339775 -0.028986286 0.09973109 -0.005905496 -0.24629949 -0.19644308 -0.042040147 0.027629275
0.073792756 -0.024114003 0.13310619 -0.041843325 -0.17374238 -0.11414858 -0.25067484 0.036829624
-0.25177786 0.40716335 0.2120543 0.030605694 0.08614721 0.30393076 0.15261164 0.27527446
-0.03649205 0.030380346 -0.033200204 0.111809306 -0.13307945 -0.015355726 -0.033321083 -0.14255397
-0.028010514 -0.24425812 0.03387009 0.04896194 -0.11634884 -0.12538916 0.20201613 0.15801422
0.1876334 -0.15787767 0.13668038 -0.16626495 0.05563711 -0.14888948 -0.001482924 -0.11117999
0.19572292 0.079896025 -0.16203082 0.08573843 -0.027651515 -0.08707892 -0.11295656 -0.113862805
-0.48223257 -0.009550923 0.1317032 -0.07632905 -0.13835715 0.3071484 -0.16318694 -0.2039862
-0.05079563 0.060074322 0.060988262 -0.15350854 0.024845764 0.03297478 -0.017393097 -0.03243426
-0.21702883 -0.28992832 -0.07817841 0.11218375 -0.12670939 -0.14495668 0.16049571 -0.05232324
0.009331141 -0.0394726 -0.008694869 -0.21914394 -0.14205453 0.07513296 0.108116664 -0.25335756
-0.11975914 -0.11214225 0.046359796 -0.11831867 0.061992038 0.070594035 -0.24654585 -0.21269402
0.07159163 0.14915144 -0.18686672 -0.2532155 -0.14962088 0.074311994 0.02788885 -0.042356554
0.12678961 0.13577016 -0.092503674 0.060087968 0.0018413096 -0.038199812 0.22532807 -0.067765474
-0.2906003 -0.06939596 0.10292397 0.026905276 0.14955823 -0.01721923 -0.16171415 0.06797152
-0.014232482 0.13742147 0.13236466 0.21975398 0.05758717 -0.050027046 -0.15359125 0.0064489567
-0.31130952 -0.3299654 0.113697425 0.24881281 -0.1308012 0.20033793 0.0644411 -0.12060253
-0.22686845 0.23528865 -0.1058532 0.18582788 -0.21354668 -0.010150115 -0.21057267 -0.18533385
0.029931802 -0.46752828 0.099616654 0.01848923 -0.01007596 -0.0023952252 -0.35354796 0.2432779
0.061246827 0.116433606 -0.03184995 -0.1291285 0.035720635 0.04310529 0.07863016 -0.22842917
0.12437145 0.3395231 0.0061372262 0.07176395 -0.029389441 0.04504659 0.22279643 0.045041446
-0.110420175 -0.1262985 0.3206609 -0.22399914 -0.02154877 -0.21880744 -0.20439522 0.12012351
0.0016455767 0.14698668 0.18528806 -0.27348468 0.056395996 0.23232298 0.120698646 0.090770304
0.18443732 -0.060513556 0.0028975 0.06849713 0.17869456 0.13972737 0.065349884 0.11206038
0.029599654 0.12913191 0.0038474707 -0.054828737 0.03250252 -0.20906399 0.13623287 -0.1911045
0.06300153 -0.22676422 -0.09081187 -0.012024504 -0.25705567 0.16694531 -0.084377244 -0.06650057
0.118505664 -0.29076403 -0.14602311 -0.05923415 0.09567885 -0.05192501 -0.050114505 -0.14302781
-0.2718473 0.0120470505 -0.2824744 -0.09325062 0.15647997 0.23293307 -0.12498119 -0.03179194
-0.032369953 0.1654928 0.22615121 0.10038631 0.11053961 -0.10148527 0.026723323 0.15346266
0.040976707 -0.24129078 0.0012254183 -0.18405741 -0.17487524 -0.11580026 0.18207656 -0.07664041
0.038351987 0.106280476 0.08143206 0.026143191 0.1072537 -0.10061702 -0.027319707 -0.005635065
-0.05887832 -0.14447337 0.08724942 -0.3609901 0.102723286 0.10958987 0.028152373 0.12228236

mlp_vf.2.bias f4 [128]
00000000: 5f5c f3bd eef7 c93d f9ae b0bd 2c40 f7be
00000010: 32d6 353d f9d0 903e c41d a03d 567f 8cbe
00000020: f932 9a3d 65b8 fc3d 9fd4 203e a95e bcba
00000030: 6a45 86be 00cd 9a3e 27fa 3cba 4534 21be
00000040: 000f 51be 4d00 72be 8faf d53c 1eb7 dcbd
00000050: 7bf4 afbd 71fc 2d3e ec8c 0c3e 2390 a8bd
00000060: eba7 e7bd 19d0 a5ba 370d b43d 4364 dabd
00000070: 1c1c 9cbe 2825 b53c 4581 06bd 74ae 693e
00000080: f473 873d ab1b 493e a47a 31bd 7116 833e
00000090: 18be 34bd 42ec 803c a6ba 20be 5172 7abd
000000a0: 58ed 9dbd 4636 3a3b 63bb 11be f500 5d3e
000000b0: 2d53 ed3d cbd1 6dbe 9ccb 65be ebd9 1b3e
000000c0: ff99 943d 15e5 153e c8f3 a6bd 1d1c 233d
000000d0: 8257 903d 56bd 3abe e957 313e bbab ccbd
000000e0: 0fdd 18be e563 70be 5e8b 3fbe f111 d13d
000000f0: e62f b2bd 94f1 a5bd 4eed 87bd a778 523e
00000100: fc93 bd3c bd0b 72be 335e 84be 80b1 363e
00000110: 1f85 1cbe 04dd a1be 4800 a03e f43f 49be
00000120: d89c bb3d b61c 853e de6b afbd 212f ba3d
00000130: db62 2c3e e3bf 8dbe eebd 43be 3927 603e
00000140: 0a3f 0bbe 0a64 383d d00e c73d a2b2 f8bc
00000150: 6e0c 603e 23d9 373e b2c8 8e3d cba0 67be
00000160: 1cd3 403e 17af 193e 9a1d ff3d 4433 0cbe
00000170: e719 e53d eb59 eabd 8d70 7dbe 1673 c9bc
00000180: 4647 d3bd 4bcc d93d ef06 04be c9d6 a9be
00000190: 1d52 9bbd 3681 9d3c 0b4e 2a3d 1d83 0b3d
000001a0: 9505 953e d9a0 84bd 499c 02be d0a0 283d
000001b0: ed92 debd acab 80bd d8e1 383e 8e66 bb3d
000001c0: 7649 7bbe 34e4 003e 9b1e 3b3e 4729 0dbe
000001d0: 3227 aa3b dd71 233d ce9a 413c 294d e0bd
000001e0: 0c98 54bc fdf3 053d b5e1 c23e dbe9 8dbe
000001f0: c273 21be 5d8f 37bd 8d4a 173e 33c8 47be
-0.11882853 0.09861742 -0.086271234 -0.48291147 0.044393726 0.28284433 0.07818177 -0.274409
0.075292535 0.12339858 0.15706109 -0.0014371473 -0.26224834 0.30234528 -0.00072089065 -0.15742595
-0.20415878 -0.23632927 0.02608469 -0.10777114 -0.08591553 0.1699083 0.13725632 -0.08230617
-0.11311325 -0.0012650519 0.08791583 -0.10663655 -0.30490196 0.022112444 -0.032838125 0.22820455
0.06613913 0.1963946 -0.04332985 0.2560306 -0.0441266 0.015737657 -0.156962 -0.061144177
-0.07711285 0.0028413697 -0.14231639 0.21582396 0.1158813 -0.23224561 -0.22440952 0.15219848
0.07255935 0.14638169 -0.08151966 0.039821733 0.07047941 -0.18236288 0.17318691 -0.099936925
-0.14928077 -0.23475607 -0.18705508 0.102085 -0.08700542 -0.08102718 -0.06637059 0.20553838
0.023141854 -0.2363729 -0.25853118 0.17841148 -0.15285157 -0.31613934 0.31250215 -0.19653302
0.09160775 0.25998467 -0.08565496 0.090910204 0.16834585 -0.2768546 -0.19115421 0.21889962
-0.13598266 0.04501728 0.09719622 -0.030358616 0.21879742 0.17953925 0.06971873 -0.22619931
0.18830532 0.15008198 0.12456818 -0.13691431 0.11186581 -0.11442932 -0.24749966 -0.02459101
-0.10316329 0.10634669 -0.1289327 -0.3317168 -0.07584021 0.019226652 0.041578334 0.034060586
0.2910582 -0.06475992 -0.1275493 0.041168988 -0.108678676 -0.06282744 0.18054903 0.0915042
-0.24539742 0.12587053 0.18273394 -0.13785277 0.0051926607 0.03990351 0.0118166935 -0.10952217
-0.012975704 0.03270339 0.38062826 -0.2771748 -0.15766814 -0.044814456 0.14774533 -0.19509964

action_net.weight f4 [127, 128]
00000000: 61ce 743c 1a99 d0be 3441 7a3e 27dc f2be
00000010: 5844 d03e 6d6a 1fbe 7761 d83e 77c9 e8bd
00000020: e6b2 83be 34ff 34bf e451 f73e 8f01 df3e
00000030: 3b71 88bd cbe5 af3e 2c23 853d 5f5d 8ebd
00000040: 7b6f 80be 7617 e33d b6a9 413e 9435 c23d
00000050: d96e 0e3e 1a83 9bbd fb23 c13d e335 03bd
00000060: e77e 923e 990f 973e a948 9c3e 1808 153f
00000070: f547 503e be5c 42bf c852 553e 3795 0ebd
00000080: a5d9 a53d b25e 3e3e 2483 b03e efc7 363d
00000090: c8a4 e63e 8423 733e 57cf a73b aeb8 a63d
000000a0: 9818 2f3d a160 93be ae1f ca3e 3b61 6dbe
000000b0: dd82 313e f529 26be f2d5 03bf ba39 683d
000000c0: 8f79 2c3f 3b30 f23c 3703 02be c813 0cbf
000000d0: 7892 adbc 6c22 503e cc29 16bf b88e 2ebf
000000e0: d8e1 b3be adc6 9bbe 52c4 e63d 3104 acbe
000000f0: 8c3d b8bc 9249 883e db7c 553e 7f9d a03d
00000100: e43b f63d 63bd dc3c 062b e5be 28ed 873d
00000110: af90 adbe 29cd 3d3f 0f5b 03bf 690e 63bd
00000120: d2be cebd b619 ae3e 75bc bdbe 5e20 013f
00000130: 0a66 063f 6056 13bf c5c6 56be 9cd8 da3e
00000140: 8401 fabd 2047 423e e9e9 a03d 86c9 0abf
00000150: 7f2c 5ebe 0f7b e93e 7101 5cbe aa13 d03e
00000160: f094 dc3e b7dd 50be 5d73 883c 824e 6abe
00000170: 1c81 d13c 3fb9 c0be 2b2c f33e 1f94 583e
00000180: 6038 50be c13a 5bbf e34d 01bf afd5 143e
00000190: 9171 c8bd 7f85 dabe 9917 e2bd 94f1 b23e
000001a0: 6473 06bf e9b1 93be b4a4 66be 24ea b6bd
000001b0: 16f0 15be 899d 1fbe 4a64 cdbe 92f6 16bb
000001c0: cc7d 77be a6ae 07be 88ea 7b3e 8c36 f9be
000001d0: f5e7 24be fbd3 5f3e 6024 c33e cd74 8cbe
000001e0: 93ad f13d c6cb 3b3d 92cf b13c 498e 2dbf
000001f0: a27f 4dbe 175b 923d 7395 e63e c43c 2b3e
00000200: f6a4 aebc 524a 9dbe 2871 383e 6e32 80be
00000210: 35cf bdbc 76d8 a93d a16a 773e 899e df3e
00000220: 9ded 203e 95c2 e2be fb73 673e 1517 193f
00000230: f1f2 c43e 4b83 713d a683 09be 473d 4cbd
00000240: dca3 40be d420 5dbc 8bad 893e bce5 963e
00000250: 6a69 8f3e 743e d1be cd6a 673e 989c e73e
00000260: 7bec 1e3f 80ae 593c dee0 983d 927f 54bc
00000270: d173 0e3e 2ca1 19be 9e30 253f 665e 26be
00000280: e2b8 64bc 10c2 e43d d3d0 fc3c cc10 253c
00000290: 3907 9cbc b66f 4d3e 69ca bd3e 8e38 413e
000002a0: 50a5 9ebe 58df 073e c58d a73e 04c9 6bbe
000002b0: 416f c53e 3fe4 97bd 8580 43be ce33 14be
000002c0: 5a21 f03e d63f 63bd 9ace 573e bc56 fcbe
000002d0: c589 053e 05a8 873e cf00 14bf edde 9dbe
000002e0: ed60 82be 2c15 8cbe 1733 9e3d b241 c0bc
000002f0: 71af 0a3e ec23 153f f3ca f73e e2e3 34bd
00000300: 93c3 1fbe a409 f4bd a920 d3be 0a87 0b3d
00000310: 3075 d3be daa1 da3e 85db 14bd 035d 203d
00000320: 0631 db3e 316f f13e 214f 473d b133 cf3e
00000330: 2cce c93d cd30 69bc a91c bb3e e84f 453e
00000340: cae5 053d 277f c9bd 02ce dc3d 3b89 04bf
00000350: 4482 1ebf 3830 113f de01 76be eebb 92bd
00000360: bfa6 523f c178 abbe bc19 3dbd b3ea 7c3e
00000370: 867c 81bc 30b6 52be fd4a 163f 2053 333e
00000380: a9f7 2bbe abca 3fbe e211 1abf a881 7e3e
00000390: 6ee7 443e b97b 9ebe 8811 a8ba fbb8 993e
000003a0: f9dc bdbe 57ac 3bbe d291 a23d f153 1bbb
000003b0: 3ab9 0f3e 365a 433e f25c 0bbd 0852 a93c
000003c0: 06d3 90bd 9235 19be 8d78 9bbe dd80 d0be
000003d0: dcdd b0be d9d9 3b3e 1ee0 793e b29c 0fbf
000003e0: 3fb7 1ebe 2f7e a3be 7248 8a3e efcf 08bf
000003f0: c62f 27be d7df 96bd 871b 90be 0aca 90be
0.014941783 -0.40741807 0.24438936 -0.47433588 0.40677142 -0.15567942 0.4226186 -0.11366551
-0.25722426 -0.7070191 0.48304665 0.43555877 -0.06662222 0.34355006 0.06500849 -0.06951403
-0.25085053 0.11088459 0.18912396 0.094828755 0.13909473 -0.07593365 0.09430691 -0.032033812
0.28612444 0.29504088 0.30524185 0.58215475 0.2033995 -0.75922763 0.2083236 -0.03481027
0.08098153 0.18590811 0.34475052 0.044624265 0.45047593 0.23744017 0.0051211524 0.081406936
0.042748064 -0.2878466 0.39477295 -0.23181622 0.17335077 -0.16226943 -0.5149833 0.056695677
0.67372984 0.029564014 -0.12696539 -0.54717684 -0.021188006 0.20325631 -0.58657527 -0.6818652
-0.35133243 -0.30425015 0.11267914 -0.33596948 -0.022490285 0.2661863 0.2084841 0.0784254
0.12023142 0.026945775 -0.44759387 0.06637031 -0.33899447 0.74141175 -0.5131082 -0.055433664
-0.1009499 0.3400399 -0.37057844 0.50440013 0.5249945 -0.5755367 -0.20974262 0.42743385
-0.1220732 0.18972445 0.07857115 -0.5421375 -0.21696661 0.456017 -0.21484925 0.40640002
0.4308238 -0.20397078 0.016656572 -0.22881511 0.02557426 -0.37641332 0.47494635 0.21150254
-0.20334005 -0.85636526 -0.5050947 0.14534639 -0.09787286 -0.42679974 -0.11039657 0.34949934
-0.5251982 -0.28846672 -0.22523767 -0.089313775 -0.14642367 -0.15587439 -0.40115577 -0.002303515
-0.24169081 -0.13250217 0.24601185 -0.48674428 -0.1610411 0.21858208 0.3811369 -0.27432862
0.11800685 0.04584863 0.021705423 -0.67795235 -0.2006822 0.0714628 0.45035896 0.16722399
-0.021318894 -0.30720764 0.18011916 -0.25038475 -0.023170093 0.0829324 0.2416177 0.4367564
0.15715642 -0.4428908 0.22602837 0.59800845 0.384666 0.0589631 -0.13429126 -0.049863126
-0.18812507 -0.013496596 0.26890215 0.29472148 0.28010112 -0.4086796 0.22599335 0.4523666
0.6207959 0.013286233 0.07464765 -0.012969868 0.13911368 -0.15002888 0.6452731 -0.16246948
-0.013960095 0.11169827 0.030861294 0.0100748055 -0.019046413 0.20062146 0.3706849 0.1886923
-0.30985498 0.13268793 0.3272535 -0.230259 0.38561442 -0.07416581 -0.19091995 -0.14472887
0.46900445 -0.0554808 0.21074906 -0.49284923 0.13040836 0.26495376 -0.57813734 -0.3083414
-0.25464574 -0.27359903 0.07724588 -0.023468826 0.13543488 0.5825794 0.48397025 -0.04416264
-0.1560195 -0.11915901 -0.41235855 0.03406433 -0.41300344 0.42701608 -0.036342163 0.039151203
0.4281084 0.47155145 0.048659448 0.40469125 0.09853777 -0.014232826 0.36545303 0.19268763
0.032689847 -0.098387055 0.1078148 -0.517719 -0.6191752 0.567142 -0.2402415 -0.07164751
0.82285684 -0.33490565 -0.04616712 0.24698906 -0.015806448 -0.20577312 0.58708173 0.17512178
-0.16793694 -0.18729655 -0.60183537 0.24854147 0.19228908 -0.30953768 -0.0012822608 0.3002394
-0.3708265 -0.18327461 0.07937969 -0.0023701156 0.14035502 0.19077381 -0.034024186 0.020668998
-0.070714995 -0.14961842 -0.3036541 -0.40723315 -0.34544265 0.18344821 0.244019 -0.56098473
-0.1549959 -0.31932208 0.27008396 -0.5344228 -0.16326818 -0.07366913 -0.28146002 -0.28279144

action_net.bias f4 [127]
00000000: b716 293f fed0 fc3d 1bc4 e4bd 82d9 043d
00000010: a657 983e 6924 45be f0a7 993d 1663 3cbe
00000020: 3af1 593c 0af5 91bd 87f6 77bd 0daa 32bd
00000030: dbec 65be 4168 6cbe fb73 a2bc 7e3d 913d
00000040: 202e d23d f2b4 c53d b93c aebd e82a adbe
00000050: 19f2 433e 7a93 e23d 1e3b 0b3e 80a0 a43e
00000060: 3028 2e3e d859 edbd 1ec2 a73d 7b86 1bbe
00000070: 5986 873d 635f 7f3d 9c81 da3d b873 36be
00000080: 51ad 28ba 834d 2fbe 6942 383d c9ac 14bd
00000090: 9476 14be 38a8 46bd a06a c53d 219f 8bba
000000a0: 927b b8bc 0451 84bc 8bb8 31be ac58 79bd
000000b0: a7a7 0dbe 0c54 7f3d 9859 c7bd bb42 233d
000000c0: 981c 173d 3ad2 c43e 05d9 1bbd 136d d33e
000000d0: d401 09be 34af 9abd 3e63 ecbc 239f f53b
000000e0: 28fe 1bbd 8c6c 47be abbc 0e3d a044 fa3d
000000f0: b82c 8f3e 57b5 753d 8412 cc3d 9e17 483e
00000100: a8d4 663d f884 033e 0f68 9d3d 4cdf 693d
00000110: 85fd 93bd 2da8 1fbe 9070 51bd 1068 173e
00000120: d33c c53a a345 813d 35b2 683c bfdd c6bd
00000130: 4427 b03d a89d 47bd 081f b6bb 3c82 78bc
00000140: d912 d2be 8034 febe 8365 bcbe 4cc6 87bf
00000150: 14a2 83bf b34c 90bf 3bf0 5cbf a65c 9ebf
00000160: a94a febf a234 fabf 21b0 01c0 95d7 f7bf
00000170: beb5 f9bf ee9e 00c0 143b 02c0 1ef8 edbf
00000180: af3a 00c0 b36a fabf 7f57 fbbf 9a3a 01c0
00000190: 4e32 02c0 e16c 00c0 7542 00c0 d572 01c0
000001a0: ee2f 02c0 7e60 ffbf a1d8 02c0 6045 00c0
000001b0: 840a 01c0 3248 00c0 1c54 ffbf 1f59 01c0
000001c0: e534 f9bf d920 00c0 5413 00c0 631c 00c0
000001d0: 7bd3 ffbf 9ea8 ffbf 91be fcbf 4732 02c0
000001e0: 7470 fcbf 2b08 00c0 18c8 ffbf 6070 ffbf
000001f0: 963b 00c0 16cc ffbf 0bb4 00c0
0.66050285 0.123445496 -0.11170217 0.032433994 0.2975437 -0.1925217 0.07502735 -0.18397173
0.013302142 -0.071268156 -0.06053784 -0.043619204 -0.22453634 -0.23086645 -0.019830694 0.07091807
0.10262704 0.09653653 -0.08507676 -0.33821797 0.19135322 0.11063285 0.1359677 0.32153702
0.17007518 -0.11589402 0.08191322 -0.15188019 0.06617422 0.062346827 0.10669252 -0.1781758
-0.00064345176 -0.17119412 0.04498521 -0.036297593 -0.14498359 -0.04850027 0.09639478 -0.0010652283
-0.02251986 -0.016151913 -0.17355554 -0.06087558 -0.13833486 0.062336013 -0.097338855 0.03985856
0.036892503 0.3844164 -0.038048763 0.41294155 -0.13379604 -0.075529486 -0.028855916 0.007495777
-0.03808418 -0.19475001 0.034847897 0.122201204 0.27963805 0.059987392 0.09964469 0.19540259
0.05635515 0.12843692 0.07685863 0.057097718 -0.072260894 -0.15591498 -0.05113274 0.1478579
0.0015048034 0.0631211 0.014202644 -0.097102635 0.08601239 -0.048734337 -0.0055578984 -0.015167769
-0.41030005 -0.4964943 -0.36796197 -1.060739 -1.0283837 -1.1273407 -0.8630406 -1.2372024
-1.9866534 -1.9547312 -2.026375 -1.9362665 -1.9508588 -2.0097003 -2.0348558 -1.8591344
-2.0035818 -1.9563812 -1.9636077 -2.0192018 -2.0343204 -2.0066454 -2.0040562 -2.0226338
-2.0341754 -1.9951322 -2.044472 -2.0042343 -2.0162668 -2.0044065 -1.9947543 -2.0210645
-1.9469267 -2.0020049 -2.0011797 -2.0017326 -1.9986414 -1.9973333 -1.9745656 -2.0343187
-1.9721818 -2.0004985 -1.9982939 -1.9956169 -2.0036368 -1.9984157 -2.010989

value_net.weight f4 [1, 128]
00000000: db46 473e 879d dc3d ded1 5bbd ad80 be3f
00000010: f9c2 0fbd 74de f1bd 6442 b3be 2381 913e
00000020: 9e5a ddbd bc44 58be c288 cabd 7cd5 6f3d
00000030: 5224 633e b0f4 01be 18fb a73d c187 b83d
00000040: f653 d33d b038 9b3c 7e52 adbc 738f 1abe
00000050: 1f77 ac3e 1eaf 89bd 3f3e 993e 21e2 2c3d
00000060: 3c3b 673c 0d71 e93d 59a3 ddbe 1140 563c
00000070: 63e1 1c3f 7b30 96bd cfe7 03bf 5fae 86bd
00000080: d3fa 2a3e 6474 0d3d a973 a63d c215 c6bd
00000090: aa5a 853c 7cd7 e93d 4941 a73c 9709 f03d
000000a0: 5dee 8bbe b1fe 4dbd beae 293d 5f9a 7bbb
000000b0: 3eb5 9cbd f51d bebe eecd 3d3e cb0f 8b3e
000000c0: a9a5 863e 5d79 5cbd 70d8 6dbd 26f2 843c
000000d0: 2e8b 44bd 507f 953d 5561 e53e c23d 103e
000000e0: 1042 3e3e b497 ca3d 74df 8dbc 8f75 bcbe
000000f0: 1928 f2bd 51c5 17be 580d e0bb cc20 00be
00000100: 0f08 e63d 5355 4abc f688 0ebe 7274 c9be
00000110: 2525 883e 76b6 db3d ac1a a73d 7855 b3bd
00000120: 2339 60be 06fb ec3e e84d 47be b705 80bd
00000130: 1505 e7be a6b0 1cbd 3077 193f 32d4 043d
00000140: 9656 dc3d 1f2b 1b3b a3e3 103d c521 87be
00000150: 173f 6cbe 87bb 81bd 66fe 103e ef3c d9bc
00000160: 566c 85be 7a17 68be 1e7c 2ebd 74f2 1d3e
00000170: eaed 84be 7058 6d3e debe e23d 8bda 9abe
00000180: 59a9 163e afbe b6be 438a 17bf 78e8 6dbc
00000190: 3acb 63be 5a8b 1a3d 7985 14be 42ac 073f
000001a0: fa71 31bc 0f05 5c3e ab5d a43e 880f af3e
000001b0: 3dfc 063e 9ba5 eebd 1675 2a3c 391b 723d
000001c0: d7a8 023d 8648 803e 4239 aabd e884 9abe
000001d0: faed f7bc 1d31 ffbd 7cae 68bd 07b7 7e3e
000001e0: bd21 13be cece 993c 5f39 dfbd 21b1 cc3d
000001f0: b5b1 33bd 1e15 41bd 9c34 06be 4b91 983d
0.19460623 0.107722335 -0.05366694 1.4883019 -0.03509805 -0.11810008 -0.3501159 0.28418836
-0.108082995 -0.2111997 -0.09889366 0.058553204 0.22181824 -0.12690997 0.08202189 0.09010268
0.10318749 0.01894793 -0.0211575 -0.15093784 0.33684632 -0.06722854 0.29930303 0.04220784
0.014113244 0.11398516 -0.43288687 0.013076798 0.6128141 -0.07333466 -0.51525587 -0.065762274
0.16697244 0.034534827 0.08127529 -0.09672119 0.016278584 0.114180535 0.020416873 0.11720579
-0.27330294 -0.05029172 0.041426413 -0.0038391573 -0.07651757 -0.3713223 0.18535587 0.27160487
0.26298264 -0.05382668 -0.05806774 0.016228747 -0.047984295 0.072996736 0.4480082 0.14086059
0.18579888 0.09892216 -0.017318465 -0.3680844 -0.11824054 -0.14821364 -0.006837528 -0.12512511
0.11232006 -0.012349444 -0.13919434 -0.39346653 0.2659084 0.10728161 0.08159384 -0.08756536
-0.21896796 0.46285266 -0.19463313 -0.0625109 -0.45121065 -0.038254403 0.5994749 0.032428928
0.107587025 0.0023676825 0.03537334 -0.26392952 -0.23070942 -0.06334596 0.14159545 -0.026518313
-0.26059216 -0.22665206 -0.042598836 0.1542452 -0.25962764 0.23178267 0.11071561 -0.3024486
0.14713039 -0.35692355 -0.59195346 -0.014520757 -0.22245494 0.037730552 -0.14504041 0.5299722
-0.010830397 0.21486305 0.32102713 0.34191537 0.13182159 -0.116526805 0.010403892 0.059107993
0.0318993 0.2505533 -0.08311702 -0.30179524 -0.030264843 -0.124605395 -0.056807026 0.24874507
-0.14368339 0.01877537 -0.108996145 0.09994722 -0.043870647 -0.04713928 -0.13106006 0.074495874
