kayles_71pins.onnx (onnx, 332465 bytes, 11 tensors)

mlp_pi.0.weight f4 [128, 128]
00000000: 6239 843c 31a9 ef3d 4e9b fcbb 645b 89bd
00000010: 2d7c 613e bb67 113f 7f02 b33e f6ec 74be
00000020: 531c 1cbe 8c46 34bf ffbc 98bf 4d5a 85bf
00000030: 78dc 453f b53c d43d 54de 4d3e ac74 40bf
00000040: 1467 90bf a1e7 a0bf 518d 13be 7963 763e
00000050: 53d6 223e e84c af3e ae1d c03e 35c9 1b3f
00000060: 54af f53e 48a2 183d caba b83d e196 90be
00000070: 6393 66be a4fb 75bd adf3 e5bd cd89 02bf
00000080: a2e5 8cbe 4918 3e3d a0af 253e aaad 9b3d
00000090: 65c6 8a3e cc5f df3e b6d4 bc3d 64b2 99bd
000000a0: e009 953e 26f5 3f3f 8f10 7a3d 4bf8 ebbe
000000b0: e3d4 e2be 69fd 2ebe dd7e 5a3d 46a5 06bf
000000c0: 9e2a 75bf 624f 39bf 6efa 81bf cb3e 7dbf
000000d0: 0d0b 8abf f748 0bbf b20c babd 8491 75bf
000000e0: b765 00bf 3048 dc3e ba78 45bd 687c 9bbe
000000f0: ff27 c03d 9cb1 043f 8949 033f 9480 043f
00000100: da05 863e 9287 a23e 21d0 7a3e 916f 133d
00000110: a827 ea3e 29de 90bb 7f66 463e 087e 4d3e
00000120: 9e4b bebd 09a5 6bbe 55d3 d5bd 50c6 57bd
00000130: 479e 22bc db38 17be 7132 ecbd b7a6 273e
00000140: 439a 4dbe ad20 03bd 50b3 0cbd d061 8ebe
00000150: d3db 15bc a78b a2bd 065b af3d c081 1e3e
00000160: 8c22 c13a 383f ddbd e584 333e 03c3 45be
00000170: 4998 c4bd c26c afbd f299 463e e328 c03d
00000180: 2941 0cbe 4efb 4ebd 794d b53a 7984 823d
00000190: 0c32 833d b7dd 53bd d7d4 de3d c934 673c
000001a0: de3b 223e bde9 e33d 7f87 24bb 93c1 9abd
000001b0: dd2a aebd 105a 88bd a8bf feb8 131c 4fbc
000001c0: 24be 4cbd a02e 99bd 9e74 473b c039 373e
000001d0: d439 383d 20e0 65be d7a1 c1bc def6 093d
000001e0: 9c65 03be e52f 413d d889 6c3e 1bb0 823c
000001f0: dd02 b9bd 055c 833e dfe0 653c 5f1c 843d
00000200: db52 5ebf 658a b0be b1ba 043c eb53 e63e
00000210: 52a1 3d3f ad2b 173e be9d e83e 92c3 173f
00000220: 3173 393f 591d 823d b387 653f 491d 943c
00000230: 90c0 38be 1b5b a23d 36d0 213e 4925 133f
00000240: 7e80 203d ad18 66bd ab12 d2be 342a f0bd
00000250: b726 a03e 0c9c 6d3f d5e7 f23e 992b 5abe
00000260: 7e5b 58bf 974b 86bf 37c7 75be 6a92 4ebe
00000270: 3988 fa3d 2970 1a3d 0fbe 3f3e 8e56 ab3e
00000280: 57ab 05be 02f2 b13d b295 babd af59 14be
00000290: 695f 813f e750 9a3e a1cf 89bf 4183 cdbf
000002a0: 80ea 93bf 43f0 7ebf 409f fbbd 0f8b 073f
000002b0: d2fd c93e c60d d93e dd7d 243e c57a f3be
000002c0: 0789 b4be e351 093f 3567 4c3f 7d0b 243e
000002d0: 7ae9 84bf 7a09 bbbf b44e 79bf be93 7dbf
000002e0: 181f f8be a146 4abe 9c14 1abf c6f1 55bf
000002f0: c965 31bf 8888 88be a94e 493f e4fa 833f
00000300: 3eac 0e3f 8c30 253e 8f27 583d fdbc 20bc
00000310: f7ed 8b3e df88 71bd 64b1 ec3d cf69 d6bd
00000320: 7e35 a0bd cbd6 5c3c a225 7f3d c6fa 493e
00000330: 1299 5fbe 3027 c2bc c556 0f3e 2f47 e8bd
00000340: 4c41 353d bebe 0fbd c7c3 403e 5389 77bd
00000350: 6296 043e 4405 d3bd 291c 2dbe 5400 923d
00000360: ba3e 5e3d a296 fdbb 4e18 9dbd 4b7d 85bd
00000370: e790 293d b799 d1bb 041d 22be 0687 45be
00000380: 8c80 e8bd 0446 a9bd aac7 93bc d629 5c3e
00000390: a232 3c3d d1e1 bf3c 7e0b 033e d724 58be
000003a0: 4dfc 2d3d bf33 ad3d a776 793d 84be 953c
000003b0: be57 753d bd17 a03c 41dc 76bd 2b69 6c3d
000003c0: c1a1 c8bd 2ef4 263e 7524 4f3c 9034 b73d
000003d0: 410b a23c fffe 1a3e dc5e 2d3d 3119 81bd
000003e0: 515c c7b9 fcd5 4bbe c0c2 6c3e 1355 8abd
000003f0: 11a9 6abd a9c4 013e 797e 033d 13ac a23e
0.016140644 0.117021926 -0.0077089434 -0.067068845 0.22020026 0.56798905 0.34962842 -0.23918518
-0.1524518 -0.70420146 -1.1932677 -1.0418183 0.77289534 0.103631414 0.20104343 -0.7517803
-1.1281457 -1.2570688 -0.14409377 0.24061383 0.1590207 0.34238362 0.37522644 0.6085389
0.47985327 0.03726414 0.09020002 -0.2824011 -0.22517161 -0.060054436 -0.11228118 -0.5099152
-0.27518946 0.04640988 0.16180277 0.07601483 0.27104488 0.43627775 0.09220259 -0.075047284
0.29109097 0.7498344 0.061050948 -0.4608787 -0.44303045 -0.17088856 0.053343643 -0.5259594
-0.95768154 -0.72386754 -1.015455 -0.9892394 -1.0784622 -0.5440821 -0.09084453 -0.95925164
-0.50155205 0.43023825 -0.048210837 -0.30368352 0.09382629 0.5183351 0.5128408 0.51758695
0.2617634 0.31744057 0.24493457 0.03599507 0.4573338 -0.004421015 0.19375037 0.20067608
-0.092917666 -0.23012175 -0.10440699 -0.05267936 -0.009925432 -0.14767782 -0.115330584 0.1637219
-0.20078377 -0.032013584 -0.034350693 -0.27809 -0.009146648 -0.07936793 0.08562283 0.15479183
0.0014735027 -0.10803074 0.17531164 -0.19312672 -0.095993586 -0.08565666 0.19394663 0.093827985
-0.13696732 -0.05053263 0.0013832293 0.063729234 0.0640603 -0.051725116 0.1088044 0.014111706
0.1584315 0.111285664 -0.0025105176 -0.075564526 -0.08504269 -0.06657803 -0.000121473626 -0.012640971
-0.04998602 -0.07479596 0.00304345 0.17893124 0.044977024 -0.22448778 -0.023636742 0.033682697
-0.1283173 0.047164816 0.23099458 0.015953114 -0.09033749 0.25656143 0.014030664 0.06450724
-0.8684518 -0.34480587 0.008101151 0.449859 0.7407428 0.14762755 0.45432848 0.5928279
0.72441393 0.06353254 0.89660186 0.01808037 -0.18042207 0.07927533 0.15802082 0.5747877
0.03918504 -0.056175876 -0.41029868 -0.117267996 0.31279537 0.92816234 0.474425 -0.21305694
-0.84514606 -1.0491818 -0.24001776 -0.2017304 0.12233014 0.03770462 0.18724845 0.33464473
-0.13053642 0.086887375 -0.09110583 -0.14487337 1.0107242 0.3013985 -1.0766488 -1.605568
-1.1555939 -0.9958536 -0.12286234 0.5294656 0.39451462 0.4239332 0.16063638 -0.47554603
-0.35260794 0.53640574 0.7984498 0.16020007 -1.0383751 -1.4612267 -0.97385716 -0.9905356
-0.48461223 -0.19753505 -0.601877 -0.8357204 -0.69295937 -0.26666665 0.7863565 1.0310941
0.5573157 0.161318 0.0527721 -0.009810683 0.2732999 -0.05896842 0.11557272 -0.104694
-0.07822703 0.013478945 0.06229175 0.19724569 -0.21835735 -0.023700327 0.13997944 -0.11341702
0.044251725 -0.035094015 0.18824683 -0.060433697 0.12947991 -0.10303739 -0.16905273 0.07128969
0.05425904 -0.007738904 -0.076706514 -0.06518038 0.041397955 -0.006396498 -0.15831381 -0.19289789
-0.11352643 -0.082653075 -0.018039543 0.21500334 0.045946725 0.023423107 0.12797353 -0.21107803
0.04247694 0.084571354 0.06090417 0.018279321 0.05989813 0.01954257 -0.060268644 0.057717483
-0.09796477 0.16304085 0.012642969 0.089455724 0.019780757 0.15136336 0.042326793 -0.06303633
-0.0003802502 -0.19905847 0.23121166 -0.06754508 -0.05729014 0.12672676 0.032103036 0.31771907

mlp_pi.0.bias f4 [128]
00000000: 7e77 1540 8439 9b3f b068 9bbf 3b36 52bf
00000010: ce9f 033f 96c8 2fc0 60ef a93f 9df9 ba3d
00000020: e343 3cbf 7a64 5bbf d116 a9bf 1c59 3bc0
00000030: 2961 8abf 5d6a bbbe e94e 3940 7b9a 73bf
00000040: 5014 873f 5663 4740 a4a8 03bf 41a5 8ebf
00000050: f6aa fb3e 2819 02bf 4e05 8c3f bd2e 7bbf
00000060: 6932 943f e06b b4be 6b8a a0bf ebf0 ccbf
00000070: 8239 d13f 8e6c 18be 0800 c4bf e9a0 2abe
00000080: d6b8 f03f 5a39 573f 1059 06c0 9d73 923c
00000090: 3018 fbbf 23d7 3dbf 1341 e93e 788f fa3d
000000a0: 92c7 173f 3143 18be 9d5f 3f3d d550 c1bf
000000b0: 4b99 8cbf dc69 8f3e 1280 ab3f 1d57 be3e
000000c0: 7c30 1b40 cd24 7dbf 8db6 5dbe b83b 1e3f
000000d0: dd27 ebbd ee02 adbe 1965 c6bd 77a4 dabf
000000e0: 2d1f ee3e 685e 1fbf fda0 d2be 73e9 153f
000000f0: 6b1b 4bbf 2700 813f 5f8d 9dbe 7553 fb3f
00000100: b30f 0fc0 261a 97bf 17d7 7c3f 17bc b5be
00000110: 3aa0 26bf 64c2 a23f 80f9 983f eb11 04c0
00000120: 7515 eabd 0294 da3f 46f3 673f 27d2 d9bf
00000130: e7bf 9bbe 8758 40bf d1ec fdbe 725b 8c3e
00000140: b367 1240 ea4a 13c0 a600 b8bf 4e3a 5e3e
00000150: cb15 2cbd 6937 20bc f464 e6bf 5077 703f
00000160: 41cc edbe 3fc9 583e 7040 473f 5b22 2a3f
00000170: b2db 853d 55e0 e2bf 61c8 0a40 2ede 84bf
00000180: 5dd4 753f 3d34 ed3e 2232 44bf 9807 363f
00000190: faf1 e13f 6903 3a3f 517b 4cbe e66f b8bf
000001a0: 21f6 783f ad19 06be de53 d43e eb45 78bd
000001b0: 8679 813f 8c26 5140 c0f9 1f3f aba0 8dbf
000001c0: 9dd9 773f 91bb 853f 8dc2 0a40 454f afbf
000001d0: 6091 16bf 06a7 913f 2cde b4be f71f 7e3f
000001e0: aff2 b5bf 28f8 063f 0e59 ff3e 3162 4b3f
000001f0: 8241 023e 9412 0340 4eb4 903f ffdd 7ebe
2.3354182 1.2126927 -1.2141323 -0.82114 0.5141572 -2.7466178 1.3276176 0.09129641
-0.73541087 -0.8570019 -1.3210088 -2.9273138 -1.0810901 -0.36604586 2.8954413 -0.95157593
1.0553074 3.115438 -0.514292 -1.1144181 0.4915387 -0.50819635 1.0939119 -0.9811819
1.1577884 -0.35238552 -1.2542242 -1.6011022 1.6345675 -0.1488516 -1.531251 -0.16662945
1.8806407 0.84071887 -2.099186 0.017877394 -1.9616756 -0.741564 0.4555746 0.12234396
0.59288895 -0.14869381 0.046722043 -1.5102793 -1.0984281 0.28010452 1.3398459 0.37175837
2.4248343 -0.9888428 -0.21651669 0.61809874 -0.11482213 -0.33791298 -0.096872516 -1.7081441
0.4650816 -0.6225343 -0.4113845 0.5855934 -0.7933871 1.0078171 -0.3077192 1.9634844
-2.2353332 -1.1804855 0.987657 -0.35495064 -0.65088236 1.2715573 1.1951141 -2.0635936
-0.11429874 1.7076418 0.9060558 -1.7017258 -0.30419847 -0.7513508 -0.4959474 0.27413517
2.2875793 -2.3014474 -1.4375198 0.21701929 -0.04201297 -0.009778836 -1.7999558 0.93932056
-0.46444896 0.2117052 0.778327 0.6645867 0.06536044 -1.7724711 2.1684802 -1.0380304
0.96027166 0.46328917 -0.76638997 0.7110534 1.765197 0.72661453 -0.19968916 -1.4409149
0.9725056 -0.13095732 0.41470236 -0.060613554 1.0115211 3.2679777 0.62490463 -1.1064657
0.96816427 1.0447866 2.1681244 -1.3696066 -0.58815575 1.1379097 -0.35325754 0.99267524
-1.4214686 0.52722406 0.4987263 0.79446703 0.12720302 2.048009 1.1305025 -0.24889372

mlp_pi.2.weight f4 [128, 128]
00000000: 484d 8dbf 8ac3 f93d 29b0 623e c912 243f
00000010: 3503 043f 34e1 5d3f f5e4 bf3f af42 9f3f
00000020: 3cd5 e6be 6f8d 1abf 59aa 8e3e bf0e 963f
00000030: e949 483f 6bf9 cdbe 2be1 34c0 ab60 84bf
00000040: 616a 19bf 3fa5 05bd f9a1 063f 43ee 87bf
00000050: 3c90 8cbe a7f2 7c3e b34d 65bd 5df9 913f
00000060: 3be9 023f 762d 42bf 9db6 893f 6657 3dbf
00000070: dbc0 11bf 2063 9bbd a46b 7b3f 74c2 373f
00000080: 376e 46bd 843e b93e 15d6 f83f d41a 97bf
00000090: 9278 8d3e 5f74 983f 6eb4 733f d3d7 ccbe
000000a0: ce64 83bc 03b5 eabe 3cdc b23e 2d90 933f
000000b0: 5dbd 10be 5ffc b9bd 5771 f93e f0a5 9fbf
000000c0: a0eb 863e e955 983f 1bac 7cbf 8cbd 0ebf
000000d0: 2935 0d3f fad8 c33f a467 633e 741f 2cbf
000000e0: 09d3 98bf faca 4a3d 27de c1bf 614c f8be
000000f0: 2524 c33e 9ac3 bb3e f304 be3f 3621 debd
00000100: 993d d0bc 4d36 8b3e 9b88 15bf d0ef 23bf
00000110: 0006 b33c bb6e 2bbf 4375 c43e c20a aabf
00000120: e23c 1d3f 423e ac3e d88b 663e 632c 273f
00000130: 8af8 c0bf ffd6 74be 2bd3 53bf d5db 06bf
00000140: 1fe9 ae3d 5fa0 20bf 3106 523e db4b 7c3f
00000150: d2c4 2abf e032 44bf 0787 ba3f c20a 11be
00000160: be32 2bbe 23e0 a4be b6f2 b13e 9dd3 02bf
00000170: 2c34 9ebe 2bbc 8a3e c9cc b2be 62f7 853e
00000180: fb69 fabf e116 ce3e a11c a2bd 038d 05bf
00000190: fe96 debe 80bb d03e 32eb 963f 3c4d a13f
000001a0: ea73 8f3e ad62 75bf 6273 a83f fe12 e7bf
000001b0: 106f 01bf 8e53 05be b9f9 42be 7c9f 3c3f
000001c0: 955b cbbe 90c3 143e 3abc bebe f04d db3e
000001d0: 38f1 16bf d135 6bbf 4537 6d3f 7488 04bc
000001e0: c25e e0be dbaf 2c3f f5ff 6d3e 275c 99be
000001f0: 302d 0dbe 8a97 bfbe 3a39 a13d e408 a93e
00000200: a73c 873f 65de 9abd 339c f9bc 3db1 38bf
00000210: 2e2a 463f 9bac a3be f4ce aabe 0dd3 9d3f
00000220: e61e 323c 7aff a03e 7494 273f 3074 173f
00000230: 21a9 52bf e6e1 a7bd 060b 0dbf 9797 0a3f
00000240: 5413 37bf 846b 223f d83d 83bf 4be9 8cbf
00000250: abed 15bf 6825 f63e 6c78 56bf edc9 92bf
00000260: 89a4 3a3f 2e55 7d3e 41b8 403f fafc 9f3f
00000270: 1989 c8be 692b 96bf 4e35 90bf 65e5 40be
00000280: 0d52 5d3e 247d 87bf a46d 30bd 595b 1d3e
00000290: 7188 503f 920d 2d3e c78c 4c3f ea4a 78bf
000002a0: fb23 49bc a0e9 383f 5c6c a33e a5ff 073f
000002b0: 081d 1ebe 1432 523f 51a1 cc3f 6b64 68bf
000002c0: e0bc 453f 390c 77bf f87c c03e e052 1fbf
000002d0: ef00 833f cafa d43e 445b 25bf c21c 85be
000002e0: df80 c8be 92fc 13bf 2965 da3d 3dee 4a3f
000002f0: a634 ecbe 9f21 973c 9259 cbbe 9ecd 92be
00000300: c99a a23e 0116 a93f 2f48 55be b81a a9be
00000310: 8a39 b33f 967c 06bf b368 57be a6c7 e5be
00000320: fd7d 2d3f 66b2 ad3e 0e3a c8be f138 9d3f
00000330: 93fe 5c3f 5149 8dbe cba7 b9bf 8143 b7be
00000340: e6a0 9f3e 3c0e 10bd 9f4c a4bd f955 06be
00000350: 64d4 f83b dfdd a23f 6aa6 86be 4541 07bd
00000360: e1d7 bfbd 8588 b9be 9e24 8dbf 90ee 2e3f
00000370: b841 9c3e 3fa4 5bbe ce2b 3c3f 4c3a bebe
00000380: 4e5d 8f3f 0097 73be dbde d9be 59a6 033f
00000390: c81c 6b3f b5ef 3abf 56f7 923e a188 74bf
000003a0: 9014 eebe 0333 e83e b80c e7bd dddf 82be
000003b0: 88e8 503f 49ff 6c3f 4a40 f2bd 425d 483f
000003c0: fe70 3fbe db81 54be 730f acbd a05b 72bf
000003d0: 518e 3e3e c6c0 e13f a54a 75bf 084a 4b3f
000003e0: 0c67 903e 1d86 473e 292b 743c 9a0b ccbe
000003f0: 8aac a63f 867d c23e 8437 3abe 7618 d4bd
-1.1039209 0.12195499 0.22137512 0.64091164 0.51567394 0.8667176 1.4991747 1.2442225
-0.4508456 -0.6037206 0.2786434 1.172325 0.7823778 -0.40229353 -2.8262432 -1.0342001
-0.59927946 -0.032628294 0.525909 -1.0619587 -0.27453792 0.2470194 -0.055982303 1.1404225
0.5113713 -0.7585062 1.0758854 -0.73961484 -0.569349 -0.07587266 0.9821112 0.71781087
-0.048444953 0.36180508 1.9440333 -1.1805062 0.2763105 1.1910514 0.9519719 -0.4000841
-0.016039278 -0.45841226 0.3493365 1.1528374 -0.14134736 -0.09081339 0.48719284 -1.2472515
0.26351643 1.1901218 -0.9870011 -0.55757976 0.5515924 1.5300591 0.22207505 -0.67235494
-1.1939403 0.04950998 -1.514592 -0.48495772 0.38113514 0.3667267 1.484526 -0.10846178
-0.025419997 0.27189866 -0.5841157 -0.640378 0.021853447 -0.66965836 0.38370714 -1.3284533
0.61421025 0.3364125 0.22514284 0.65302104 -1.5075848 -0.2391014 -0.8274409 -0.5267919
0.08540558 -0.62744707 0.20510174 0.98553246 -0.66706574 -0.7664013 1.4572457 -0.1416426
-0.16718575 -0.32202253 0.34755486 -0.51104146 -0.3089918 0.27096686 -0.34921864 0.261653
-1.9563593 0.4025183 -0.07915617 -0.5216829 -0.43474573 0.4076805 1.1790526 1.2601695
0.28018123 -0.9585369 1.3160212 -1.8052671 -0.5056009 -0.13020155 -0.19040574 0.73680854
-0.3971831 0.14527726 -0.3725298 0.428329 -0.5896182 -0.9187899 0.9266246 -0.008089174
-0.43822294 0.67455834 0.23242171 -0.2995312 -0.13786769 -0.37420303 0.07872243 0.33014596
1.0565385 -0.0756195 -0.03046999 -0.72145444 0.7740811 -0.31967625 -0.33361018 1.2330033
0.010871625 0.31444913 0.65460896 0.59161663 -0.8228932 -0.081973836 -0.55094945 0.5413756
-0.7151387 0.63445306 -1.0253248 -1.1008695 -0.5856578 0.48075414 -0.837775 -1.1467873
0.7290731 0.24739525 0.7528115 1.2499077 -0.39167097 -1.1731998 -1.1266267 -0.18837507
0.21613331 -1.0585065 -0.04307331 0.15366878 0.81458193 0.16899708 0.7990231 -0.9698931
-0.012276645 0.72231483 0.3191861 0.5312446 -0.15440762 0.82107663 1.598673 -0.90778226
0.77241325 -0.96503025 0.37595344 -0.6223583 1.023466 0.41597587 -0.64592385 -0.25998503
-0.3916082 -0.57807267 0.10663826 0.7926977 -0.46133918 0.018448649 -0.39716774 -0.28672498
0.31758717 1.320984 -0.20828317 -0.33028197 1.4001935 -0.52533853 -0.21036033 -0.44878882
0.6777037 0.3392517 -0.39106792 1.2283002 0.8632595 -0.27594998 -1.4504331 -0.3579369
0.31177443 -0.035169825 -0.08022427 -0.13118733 0.0075936783 1.272396 -0.2629884 -0.03302123
-0.093673475 -0.3623697 -1.10268 0.6833277 0.3051889 -0.21449374 0.7350434 -0.37153852
1.1200349 -0.2378807 -0.42552838 0.514257 0.9184079 -0.73022014 0.28704327 -0.9552098
-0.46500063 0.4535142 -0.11281723 -0.2556142 0.81604815 0.92577034 -0.118286684 0.782673
-0.18695447 -0.20752661 -0.08401384 -0.9467106 0.18608977 1.7636955 -0.95817024 0.7940984
0.2820362 0.19484754 0.014902868 -0.398526 1.3021405 0.37986392 -0.1818524 -0.10356228

mlp_pi.2.bias f4 [128]
00000000: 306c 003f 2ad3 0f3f 8c0c 7ebe 1ae9 e53e
00000010: 224d f1be dc2d 923f 9a39 ad3d ab9c 66bf
00000020: 455f e03e 16a0 14bf a4fd fc3a b8e8 123f
00000030: a484 31bf faf5 b93e aa59 93bf 7687 cc3d
00000040: f14f 5ebf 8441 73bf d74a 07bf dc64 513f
00000050: 6f83 84be 8269 6ebf 4fef 143f 4602 813e
00000060: 2f23 7abe 1776 963e 7dce a53e 3d57 b53f
00000070: 4141 82bf 03eb 6ebe 859e 1040 6778 ae3e
00000080: 3566 6bbf 6127 5ebe 240f 023f d27f 0bbf
00000090: 5606 01bd a8d9 f13e 7db5 1f3f e2e1 dabc
000000a0: f517 acbe 9088 103f ffd2 dfbd 6e5b f23e
000000b0: 7a84 aebf 2f70 d53e 29e3 00bf 90da 0e3e
000000c0: 9310 303f 37e5 203f 06e8 6cbf d89c 863f
000000d0: 0b4b 1f3f 8a85 a73f b070 623f 3faa 823f
000000e0: a865 c33a 2a05 67bf ff6a 1f3f 163a be3e
000000f0: d86d 82be d267 b83e 84a7 5c3f 49fc 31bf
00000100: 3d50 1cbf 2245 063e d505 08be 17a8 18bf
00000110: 2b05 383f 943f 493e 8134 1a3f 9da5 c2bd
00000120: a8f0 35bf 1860 db3d a9f0 a63d 4b17 383f
00000130: a5eb 7dbe df24 ce3e d847 8abf 1c92 d63c
00000140: 041e fc3d e457 c33e f658 89bd bebb 46bf
00000150: ad99 41bf ee1f 16bf 8b3d ebbe 313c d83e
00000160: fe36 96be 9913 b1be dd6f c4be 53ac 11bf
00000170: 9f1a 313d b27d 9c3f f1c0 573f 0d94 b9bf
00000180: c74d 03be 43c9 70bf 84ca 2fbe 8fac d0be
00000190: 2e91 1bbf fc91 2cbf bc13 923e 7b44 d73d
000001a0: 2605 92bd d774 133f 5be7 9a3e e519 943f
000001b0: 3e35 f3be 3a32 f83e 7582 a13f a737 d6be
000001c0: 0776 043f 65c3 a63e f4f1 423e 4a01 0dbd
000001d0: 3327 86bf 8114 1bbf 26cb 8b3f d38f fdbe
000001e0: 45a8 e3bd 89b2 a3bf f320 31bf 71ab 16bf
000001f0: 2c7a ff3d 125d cebf 83bf a0bf ddb8 863e
0.5016508 0.56181586 -0.24809474 0.44904405 -0.4712916 1.1420245 0.08458252 -0.90082806
0.43822685 -0.5805677 0.0019301665 0.5738635 -0.6934302 0.36320478 -1.1511738 0.099867746
-0.8684073 -0.95021844 -0.5284857 0.81794524 -0.25881526 -0.9312974 0.58177656 0.25197047
-0.24427484 0.2938697 0.323841 1.4167248 -1.0176164 -0.23331837 2.2596753 0.34076235
-0.9195283 -0.2169471 0.5080435 -0.54491913 -0.031500183 0.4723637 0.62386304 -0.026719037
-0.33612028 0.5645838 -0.10928916 0.4733538 -1.3634179 0.41687152 -0.5034662 0.13950562
0.6877529 0.62849754 -0.9254154 1.0516615 0.6222388 1.3087628 0.884532 1.0208205
0.0014907615 -0.90242255 0.6227264 0.3715369 -0.2547443 0.3601671 0.8619311 -0.6952558
-0.61059934 0.1311231 -0.13283475 -0.59631485 0.71882886 0.1965316 0.60236365 -0.095042445
-0.7107034 0.10711688 0.08151371 0.7191054 -0.24796923 0.40262505 -1.0803175 0.026192717
0.123104125 0.38152993 -0.06706421 -0.7763022 -0.75625116 -0.5864247 -0.4594539 0.42233422
-0.2933883 -0.34585264 -0.38366595 -0.5690357 0.04323828 1.2225859 0.8427878 -1.4498307
-0.12822638 -0.940571 -0.17167097 -0.40756652 -0.607684 -0.67410254 0.2853068 0.105111085
-0.07129888 0.5760016 0.30254635 1.1570402 -0.47501558 0.4847582 1.2617937 -0.41839334
0.51742595 0.3257095 0.1903761 -0.034425057 -1.0480713 -0.6057816 1.0921371 -0.49523792
-0.11116079 -1.278886 -0.691909 -0.5885535 0.12474474 -1.6122153 -1.2558445 0.26312914

mlp_vf.0.weight f4 [128, 128]
00000000: 4b60 24be c66e 8cbe dba1 a6be d742 7abe
00000010: 9355 a5bd ee14 203e 862d e7be f70d c5bd
00000020: 1d0f 1abe c042 983d 63a9 8ebe 8120 be3b
00000030: bc0d 99be 6d13 8abd 1e11 93be 1d60 32be
00000040: 29f3 5cbe aaf7 20be 6e42 1ebd 5df8 b0bd
00000050: 538b 51be 45dc a5bd dd9b f4bd 6b57 84bd
00000060: 156e 8abe ba0e 88bd 3531 d2bd 953c c9bd
00000070: b21f 50be a956 94be 5ee5 423c 3713 063e
00000080: 85d7 22be 7ea3 9abe 2e7c 16be a59f 603d
00000090: 6734 a6bd 73de 15be 7cb4 05be 31e6 bf3d
000000a0: ac4d bf3d b846 86be 8b63 b33e 2a92 a7bc
000000b0: 0497 fd3e 9f29 70be 93bd 1c3e 9a99 873f
000000c0: c12c 4b3f 028e 5cbe 6644 99bf 2d1a 42bf
000000d0: 89a6 19bf 4328 7d3e 06db 343f 3e0b 833e
000000e0: 584a b7be 56c1 ddbe 8780 093e 4473 733f
000000f0: a90a 3e3f 8c47 043e 1e9f 81be de3d 2fbd
00000100: ea6a 253e 342b 413e 55fb 933e 09e8 253d
00000110: 8e13 d53c 5d9e 12be 3e53 65bc 11d4 9f3d
00000120: 01b8 b4bd d315 52bd 7a93 aabd 9292 28bd
00000130: 24e9 e13d 86ce c9bd c94f f1bc 6974 dcbd
00000140: b367 05bc 3c6f a83d 2e4a 0cbe 9207 1b3e
00000150: 897a 263e dfb9 543d e698 a23d 2a7a ccbc
00000160: 5f67 f23d b1ca bcbd 05e3 f73c f8af 19bd
00000170: cc75 323e 211a a5bc e978 663e c2ba 063d
00000180: ddf0 76bc 1ea2 bc3c b6f5 30be 1f08 873e
00000190: c3f0 d03d 51a6 bbbc cc62 1a3c 7252 a93d
000001a0: 5f57 203c 4cb3 153d f93f e9bc bb58 303e
000001b0: b6e2 b43d 9d1b 153d d5d5 56bd 0839 cabd
000001c0: bd61 5abe f094 0a3c 4c7d 1a3e 9167 903d
000001d0: 0726 f3bd 90ef 1bbe f8f2 a2bd fe83 0cbe
000001e0: bca1 9ebd 7bf4 203e cf73 00be 381e 0dbc
000001f0: 0571 2ebc 857d 14be d856 123d 579f 7fbd
00000200: 6c9f 943d f1f2 713e ac80 da3d 1eae 0ebe
00000210: 5577 a13d 0845 96be 063a 7ebe 82f7 7b3a
00000220: 9964 65be 552c d1bd 47c7 c5bb e0f2 0ebe
00000230: 2e11 123e ec26 d9bc a564 843e 8c87 00be
00000240: 14c2 09be 8cf3 21be eac0 42bd 41ed 2dbd
00000250: 6804 32be dedc 803d 3f30 a8bd 3523 2bbe
00000260: 5150 13bd d509 133d ecc6 8ebc d2a3 073e
00000270: e070 d73d 5908 203d d76f 853c 57b0 0ebe
00000280: 9c1b 54be 8b2b b23b 477f 70be 1570 92bd
00000290: 7793 dcbb 95d0 97bd 6a01 143d df67 1e3e
000002a0: 49e9 b1be 0b17 4d3c 5a74 63be 5a32 b2be
000002b0: fc3e e73d 14a4 f1bb 5a63 bb3d 752d d83e
000002c0: ddd8 253c f194 493e d858 9c3d 996b 1a3d
000002d0: 8d83 323e 9cc9 423c d20d a33d 3f94 cf3d
000002e0: 8a12 e4bb 0e91 543e 2b91 0d3d 16cd 343e
000002f0: 6780 c8bd 3fee 703e e3d3 3bbe 0831 463e
00000300: 0503 f53d 76f9 29bc d146 663e a7b5 993d
00000310: 2234 b0bc e54f 4e3e 537c 13bd d3c6 c6bc
00000320: a3a6 b23c 76ef b8bd edc5 26be 71ee 1abe
00000330: b8df b03d f868 283e 2490 1bbd 306b bebe
00000340: e52e 233e 5de1 20bd c861 993d 3f0e 76bd
00000350: c98c 243e 7a62 8e3d 818d 64bd e92a 313e
00000360: 9574 af3c 1901 423c 3477 0c3d e651 bb3d
00000370: 0c18 223d a4c5 953c 304a 113e 3b7d a33e
00000380: 267d 793e d100 a5bd a202 94bd 5b65 1d3d
00000390: 15e6 06be 78fc 5b3e 4d0e 37be 7bd6 4f3c
000003a0: 6538 153e a856 c1bd d5d6 7e3c bf2b 733d
000003b0: 690b e2bd 8a3b ca3c 7f0f 8c3a 9f95 743c
000003c0: 5de3 f1bd 4074 883d 2344 88be 348c 44be
000003d0: ef1e 693d 2098 3d3e 9db1 e83c 1fc2 8abc
000003e0: a0b2 e9bc 2c1e 16bd b9b9 2ebe c595 15be
000003f0: cd6d 5abd d901 05be aa7a 2c3e 7399 a33c
-0.16052358 -0.27428263 -0.3254536 -0.2443956 -0.080729626 0.15632984 -0.4515192 -0.09621804
-0.15044828 0.074346066 -0.27863607 0.0058022146 -0.2989329 -0.067419864 -0.28723997 -0.17419477
-0.21577133 -0.15719476 -0.03863757 -0.086411215 -0.20463304 -0.08098654 -0.11943791 -0.06461986
-0.2703711 -0.06643434 -0.10263292 -0.09826008 -0.20324591 -0.28972366 0.011895506 0.13093267
-0.15902527 -0.3020286 -0.14695808 0.05483975 -0.08115464 -0.14635639 -0.1305713 0.093700774
0.093409866 -0.2622583 0.35036883 -0.020455439 0.49529278 -0.23453377 0.15306692 1.059375
0.79365164 -0.21538547 -1.1973999 -0.7582119 -0.6001974 0.2472239 0.70646703 0.25594515
-0.35798907 -0.43311566 0.13427936 0.95097756 0.74235016 0.12917918 -0.2531671 -0.04278361
0.16154066 0.18864137 0.2890269 0.04050449 0.026010301 -0.14318223 -0.013996897 0.0780412
-0.088241585 -0.051290344 -0.0832891 -0.041155405 0.11030796 -0.09853844 -0.02945699 -0.10764391
-0.0081424 0.08224341 -0.13700172 0.15139607 0.16257681 0.051935073 0.07939319 -0.024960596
0.11836123 -0.09218348 0.030259619 -0.037521333 0.17427748 -0.02015406 0.22507061 0.03289295
-0.015072075 0.023026522 -0.17281231 0.26373383 0.10202172 -0.022906454 0.009422969 0.08267678
0.009786456 0.036547944 -0.028472887 0.17221348 0.08832304 0.036403287 -0.05245002 -0.09874159
-0.21326347 0.008458361 0.1508686 0.07051004 -0.118724875 -0.15228105 -0.07956499 -0.13722226
-0.07745692 0.15718262 -0.12544177 -0.008613162 -0.010647063 -0.14501007 0.035727352 -0.062407818
0.0725697 0.23627831 0.106690735 -0.13933608 0.07884089 -0.29349542 -0.24826822 0.00096117717
-0.22401656 -0.10213534 -0.0060357186 -0.13959837 0.14264366 -0.026507817 0.25858036 -0.12551707
-0.13452941 -0.15815562 -0.04754726 -0.04246259 -0.17384493 0.06292127 -0.08212327 -0.16712649
-0.035965268 0.03589805 -0.017428838 0.13246086 0.10519576 0.03907046 0.016288681 -0.13934456
-0.20713657 0.0054373196 -0.23486052 -0.07150284 -0.0067314464 -0.07412831 0.03613416 0.15469311
-0.34748295 0.012517701 -0.22212353 -0.3480404 0.1129131 -0.007374296 0.09149809 0.4222218
0.010122505 0.19685723 0.07634133 0.03770027 0.17432995 0.011888888 0.079616204 0.101356976
-0.006960218 0.20758459 0.03456227 0.17656359 -0.09790116 0.23528384 -0.18342547 0.19354641
0.119634666 -0.0103744175 0.22487952 0.075053506 -0.021509234 0.20147665 -0.036007237 -0.024264729
0.021807974 -0.090300485 -0.1628644 -0.1513002 0.08636421 0.16446292 -0.03797926 -0.37191153
0.15935858 -0.039277423 0.074893534 -0.06007218 0.1606933 0.06952377 -0.05579901 0.17301525
0.021417895 0.011841082 0.03429337 0.0914648 0.039573714 0.018282719 0.14188457 0.3193148
0.24364147 -0.08056796 -0.07227065 0.03842674 -0.13173707 0.21483028 -0.17876549 0.0126854135
0.14572294 -0.094403565 0.01555415 0.05936789 -0.110373326 0.024686594 0.001068577 0.014928251
-0.11810944 0.06662798 -0.26614484 -0.19194108 0.056914266 0.18515062 0.028405005 -0.016938267
-0.028527558 -0.036649868 -0.17063035 -0.14607914 -0.05332737 -0.12988986 0.16843668 0.019970631

mlp_vf.0.bias f4 [128]
00000000: 1bed c8bf eb9b ca3f 4201 f9bf 104f f93e
00000010: 5629 e4be cf95 b13f d90d e53f c2df a3bf
00000020: 9767 24bf d2ac 0d40 f0ec 0d3f f3f1 b83e
00000030: 6800 bcbf fb9c 963f a128 a7bf a5b0 f6bd
00000040: cb83 c3bf 783c 02c0 3f76 b33e 6251 1b3f
00000050: 2586 dabf ee3f 423f 05f1 0d40 844d d33f
00000060: 8cec f43f 363d 33bf 867f ecbe 2a00 68be
00000070: 6963 953e b440 cdbf ad1f 4f3f 99f6 183f
00000080: e9bd 923e 07fe 8f3f 5945 dabf 4dd3 e2bf
00000090: 0c39 29bf 471d 0fc0 b5a3 f53f e21c c3bf
000000a0: a739 b2bf 6295 1abf c341 823f 8d02 be3f
000000b0: 9cdb bfbf 756d bf3d 84d9 203e 837b 42c0
000000c0: 361d f2bf aa2e 2440 d216 b83f 500e 52bf
000000d0: cb35 64bf f724 df3f a316 0240 5681 453e
000000e0: e4ae 4a40 12fa b53f b027 d6bf ff2d 213f
000000f0: 93b3 3dbf cfc5 433f 9925 053f 4191 c0bd
00000100: ac20 be3e 64af 253f bdb0 2abf 7fdb 00bf
00000110: a36e 0d3f 91ee 9dbf 5b0f b93e c6dd 9dbf
00000120: 3212 b93e 20a8 943f fcec cdbf 5701 dcbc
00000130: e702 053d e2b2 45bd 4727 f73f e337 d03f
00000140: 3e3a 9fbf 1046 723f c1f4 a13e 19cc c33e
00000150: 6b1f 3dc0 44b4 e03e a2c4 c0bf 8e07 0c40
00000160: 754b 02c0 860b e2bf 86f7 ebbf e3cc bf3d
00000170: 258a 8e3f b4f1 c13f 2268 a8be 4f1c 3dc0
00000180: 4f5b 4c3f 7c73 febf cc4c 943f da56 6fbf
00000190: 6f07 1840 546a 323f e216 993e e60d 0fc0
000001a0: 633d 7cbf dbe5 3bbf f2bc 063f b034 13c0
000001b0: 0d80 883f 7355 1e3f 2d5b 94be d95c e9bf
000001c0: c4e8 fcbf 160c 883e 58db 203e 917d 7fbf
000001d0: 93d4 a6bf 2779 5e3f b8c6 8cbf 047a 803d
000001e0: 185a 3abf 14cf 4240 3f0e 2fbf ccd0 d13f
000001f0: 1d5f 4840 8115 0740 f68b 0f3e 349e eabf
-1.5697359 1.5828832 -1.9453509 0.48693132 -0.44562787 1.3873843 1.7894851 -1.280266
-0.64220566 2.213673 0.5543966 0.36122093 -1.4687624 1.1766657 -1.3059274 -0.12045411
-1.5274595 -2.0349407 0.35051152 0.60671055 -1.7072188 0.758788 2.2178357 1.6508031
1.9134688 -0.70015275 -0.46191043 -0.22656313 0.29177406 -1.6035371 0.8090771 0.5975128
0.28660515 1.1249398 -1.7052413 -1.7720734 -0.6610267 -2.236162 1.9190584 -1.5243189
-1.3923844 -0.6038419 1.0176319 1.4844528 -1.4988894 0.09347049 0.15707976 -3.0387886
-1.8915164 2.5653481 1.4381964 -0.8205309 -0.8914458 1.7433156 2.0326316 0.19287619
3.1669245 1.421694 -1.6730862 0.6296081 -0.74102134 0.76473707 0.52010494 -0.09402705
0.37134302 0.6472075 -0.6667593 -0.50334924 0.55246943 -1.233843 0.36144528 -1.2333305
0.36146694 1.1613808 -1.6087947 -0.026856108 0.03247347 -0.0482663 1.9308861 1.6267055
-1.2439649 0.94638157 0.31632045 0.38241652 -2.9550426 0.43887532 -1.5060008 2.187961
-2.0358555 -1.7659767 -1.8434913 0.09365251 1.1135908 1.5151887 -0.32891947 -2.9548528
0.79826826 -1.9878993 1.1585937 -0.934919 2.3754537 0.69693494 0.2990027 -2.2352233
-0.9853117 -0.73397607 0.5263206 -2.3000908 1.0664078 0.61849135 -0.28975812 -1.823146
-1.9758534 0.2657172 0.15708673 -0.99800974 -1.3033623 0.86903614 -1.0998144 0.06273273
-0.7279372 3.043889 -0.6838111 1.6391845 3.1308053 2.1106875 0.14018235 -1.832953

mlp_vf.2.weight f4 [128, 128]
00000000: 44d9 b2bd e5e5 7c3e 791a 38bd f2b8 8c3d
00000010: 9424 743c ea61 df3e a55d de3e 8000 cabe
00000020: 0d1c 24bb 4c07 0c3f 44f0 523e 814d 92bd
00000030: 8393 3bbe f0f0 c13d 8753 33be 597e 83bd
00000040: a18b 43be a905 a6be e3b7 e7bd b2d7 0ebe
00000050: 8533 00bf 0655 cbbc e945 0a3d cd62 053e
00000060: 0008 263e 357f 913e 75d8 bfbd 5f9b 06bf
00000070: ae97 9cbe 3e9e 82be 13a1 563e 51ee 4abe
00000080: f220 dabe d349 203e f2c0 eebe 413f 00bf
00000090: 039b fdbe f776 13bf fd28 bbbd 1bbd 8a3e
000000a0: f3ff f03d 1949 c9be 329c 9abd eb61 063e
000000b0: 55c2 223f 40e2 e13b d96d ab3e 2f4f 9bbd
000000c0: 3edb 3fbe a9bf 1f3d 8ab8 973e d36c e8be
000000d0: f024 0e3e 16e5 8a3d d5e6 073f 5708 533d
000000e0: 0cc6 023f 9274 633d 6262 23bf e801 ddbd
000000f0: cd53 f93e 52c6 213f 0690 48bc 3793 d5be
00000100: 6982 15bf 2169 183e 4381 aebe d5a5 653d
00000110: 8890 58be 8bde 83be c7c0 35bd 8f67 d2be
00000120: e8d2 b43c a592 4abe 9fb7 dfbe befa b63c
00000130: 20de 5bbe ce31 7dbe 9387 8f3e 5e0f c53e
00000140: 4f01 b3bd 872d aa3e d6aa 80be ea18 2e3e
00000150: 1895 b6be 8e53 d0bd 7362 923e 19cc 793e
00000160: 2eed e1be 16a1 4abd 132a a8bd 87a7 8cbe
00000170: b745 d9bd e582 e03d 3a27 82be 5580 56be
00000180: abe4 023f fe25 a0be e9fd a23d e050 62bd
00000190: c499 813e 818b 8abd 1098 763e 9518 3abe
000001a0: 3e70 00bf 872d fb3e 00d0 debe af7e 9dbe
000001b0: 0dc1 14be 36d4 8f3e a239 80bd 0d21 27be
000001c0: e349 dcbe 458e 223e e314 073e 565d b9bd
000001d0: b9b2 b5bd 7a17 1a3e ba90 4abd 636d cebd
000001e0: 07f4 fabe eac5 533e 54b0 bfbd e73a 9a3e
000001f0: 14be a4bd 9311 be3e 2fa8 04bd 34e7 b1bd
00000200: 4f6b bc3d 6269 e7ba a02d 453e 5707 8f3e
00000210: e29f aa3d f81c c7be 7d00 04bf 1950 903e
00000220: fb51 61bc 557c 6cbe 3b8f 25be badb 49be
00000230: a4d8 5b3e d313 9bbe 8342 003f fe08 5bbe
00000240: b095 ae3e 9ada d03d 6d86 2abe 4402 18bf
00000250: 7253 943e e879 7fbe d5df 62be b007 f9bd
00000260: ab57 033e 3bb2 debd 29c7 bd3e c98f 623e
00000270: b760 4b3e 9418 6bbd d39c b7be 8338 263e
00000280: 09f3 6c3d 22e0 3abe c96e 093e 73eb 653e
00000290: 7fe0 e93e 6b5a acbb 21bc 623e 0df0 e93c
000002a0: e423 4dbe 4027 da3e bf0d ce3d 8a73 533d
000002b0: 8072 e7be 70dc b6bc e2e3 6dbe 2f5b 603e
000002c0: a4cb 013d 4d5f 833e a79f efbe a98d 2a3f
000002d0: 30dc 3abd 6e18 fdbd 6c80 59be a692 a8be
000002e0: 43df f9bb e85e ebbd 93dc 2e3e 227f 823e
000002f0: b8f5 f7bd aa94 9dbe aec5 833d 5320 b53e
00000300: c8f2 573e 2841 5cbe fe15 b73e 8d1a bc3d
00000310: 38c4 68be aa8c c33e cd88 4a3c 6a5a ba3e
00000320: 700b 863e 4f71 44be 4475 703e 6ead 2c3e
00000330: 0127 e9bd a27f 193f 3f02 16be 9c7f 2bbe
00000340: 896a 523e 70dc d7be f953 723d f3ab 36be
00000350: 4106 833e 00cf 8cbd f320 88bd e6c5 29be
00000360: b1c3 723e a089 e13d 9056 643e 72dd 373e
00000370: 76f7 42be 5c76 3cbe baf8 ab3e b6db 893e
00000380: ded3 e4be 46dc be3e b1dc c0bc d590 8e3d
00000390: e456 58be 15ff 8f3e 79b8 3fbe f32d 3c3e
000003a0: 4483 a93e 6409 01be 343c 8b3e 22b2 ac3c
000003b0: f318 883e dbf2 a0be 29e6 49be 2071 ad3e
000003c0: 9874 b93e e661 5e3c d9f2 53be 0cf1 a03e
000003d0: 835b cc3b 4d7b 3bbe 3db6 d43d a846 37bd
000003e0: b312 0b3e 1e0a f3be 1ab0 d63d 5d8d 76bd
000003f0: cf40 f2bb d1f5 22be 61b0 38be eab5 a33e
-0.087328464 0.24697073 -0.04494712 0.06871213 0.014901299 0.4362939 0.4343082 -0.39453506
-0.0025041134 0.54698634 0.20599467 -0.07143689 -0.1831799 0.09469783 -0.17512332 -0.06420583
-0.19096233 -0.32426193 -0.113143705 -0.13949469 -0.5007861 -0.024820816 0.033758078 0.13025971
0.1621399 0.28417364 -0.09367458 -0.5258083 -0.30584472 -0.25511354 0.20959882 -0.19817473
-0.4260326 0.15653162 -0.4663158 -0.5009652 -0.49532327 -0.576034 -0.09138677 0.270974
0.117675684 -0.39313582 -0.07549323 0.1312329 0.6357778 0.006893426 0.33482245 -0.075834624
-0.18735978 0.03900114 0.2963298 -0.45395526 0.13881278 0.06781976 0.53086597 0.051521625
0.51083446 0.055531092 -0.63821995 -0.10791379 0.48696747 0.6319324 -0.012241369 -0.4171388
-0.58402115 0.14883853 -0.34082994 0.056066353 -0.21148884 -0.25755724 -0.0443733 -0.41094634
0.022073224 -0.19782503 -0.4369478 0.02233636 -0.21471453 -0.2472603 0.28033122 0.38488287
-0.08740484 0.3323786 -0.25130337 0.17001691 -0.35660625 -0.10172187 0.28590736 0.24394263
-0.44126266 -0.04947003 -0.0821115 -0.27471563 -0.10609 0.10962466 -0.25420552 -0.20947392
0.5113017 -0.31278986 0.07958586 -0.05525291 0.25312626 -0.067648895 0.24081445 -0.1817344
-0.5017127 0.49058172 -0.43518066 -0.30760714 -0.14526768 0.28091592 -0.062609926 -0.16321202
-0.4302512 0.15874584 0.13191561 -0.090510055 -0.08871979 0.15048018 -0.04945443 -0.100794576
-0.49014303 0.20680967 -0.09359804 0.30123064 -0.08044067 0.37122783 -0.032386955 -0.086866766
0.09200155 -0.0017655308 0.19255686 0.27935287 0.083312765 -0.3888929 -0.51563245 0.2818611
-0.013752456 -0.23094304 -0.1616792 -0.19712725 0.2146936 -0.30288562 0.5010149 -0.21390149
0.34098577 0.10197945 -0.16652842 -0.5937846 0.28969914 -0.24948847 -0.22155698 -0.121596694
0.12826411 -0.108738385 0.3706601 0.22125162 0.19861113 -0.057396486 -0.35861835 0.16232495
0.057848964 -0.18249562 0.13421167 0.22453098 0.4567909 -0.005259802 0.22142078 0.028556848
-0.20033222 0.4260807 0.100612156 0.05162386 -0.45204544 -0.02232191 -0.23231462 0.21909784
0.031688347 0.25658646 -0.46801493 0.66622406 -0.045620143 -0.12358175 -0.21240395 -0.32924384
-0.007625492 -0.11492711 0.1707633 0.2548762 -0.12107414 -0.30777484 0.06434189 0.35376224
0.21088707 -0.2150923 0.35758966 0.09184752 -0.22731102 0.38193256 0.012361717 0.36397105
0.261806 -0.19183849 0.23482233 0.16863033 -0.113843925 0.5996038 -0.14649294 -0.16747898
0.20548452 -0.42160368 0.059162114 -0.17839031 0.2559071 -0.068754196 -0.066469096 -0.16579399
0.23707463 0.11012578 0.22298646 0.17955568 -0.19039711 -0.18404526 0.335882 0.2692544
-0.44692892 0.3727743 -0.023542734 0.06961218 -0.21126896 0.281243 -0.18722714 0.18376903
0.3310796 -0.12601238 0.2719437 0.021081034 0.26581535 -0.31435284 -0.19716705 0.3387537
0.36221766 0.0135731455 -0.20698108 0.31433904 0.006236495 -0.18308754 0.10386322 -0.044745117
0.13581352 -0.47468656 0.104828075 -0.06019341 -0.0073929797 -0.15914084 -0.18036033 0.31974727

mlp_vf.2.bias f4 [128]
00000000: e887 8f3d f706 09be 39f6 8dbe a49d 40be
00000010: ff72 a93c 8ce7 233e 052d a03e 049d 0f3f
00000020: dfd9 1ebe e3f1 0fbe 7faa 123e 23eb 893e
00000030: 0ab5 cabe 86ab ac3c 6c49 883e c1ef 0c3e
00000040: 6333 993e ff83 03be 1824 dc3d f23e 3d3e
00000050: 95c4 54be dbb6 23bd 2504 c73d 0de8 833e
00000060: f015 a3bd 6c4b 403e 09c6 b13e e797 0f3d
00000070: 05b7 d63d a993 93be b197 1dbe a25c 5a3e
00000080: 92b0 be3d 38d9 d5bd 0b72 bebd 2733 25be
00000090: e1ba f3bd d739 41be 8bb4 0e3e 0b0c 32be
000000a0: 9f11 99be 3ea0 a63e 0a89 a7bd 9848 aa3e
000000b0: 2f74 8b3e 35cd 08be b26c 98bc 90cb fb3d
000000c0: 93c4 8cbd 5024 c53d bff7 423e cb19 55be
000000d0: 94c8 49be ffab c5bd 18b2 8c3d 58bd 613d
000000e0: 04c5 803e 90e3 a43e 78eb 4ebe 34e4 323d
000000f0: ac52 8bbe d99c 8b3d 983a 9d3c 7769 5e3e
00000100: 5225 6c3e 10a1 35be 9ab7 47be 5716 b83d
00000110: 1538 af3e 328f 783c 17f1 353d d7ad 5b3e
00000120: 0458 1abf 0b16 623d 8eeb d03d e428 1abe
00000130: 1996 3f3d 2d90 533e fc0c b93e fd60 58bd
00000140: 7078 e3bd 2329 c33d 4169 ea3c 22b5 0cbe
00000150: 2b2e 72be be2f 413e ac60 3a3e b1b5 a7bd
00000160: 25eb 00be bbba 2fbe 543f 67be d716 d83e
00000170: faba 8e3e 8aa7 94be ca20 2ebe 02d9 4bbe
00000180: 81b5 3b3c ec12 a13d 2bbd bd3e 06d5 f6bd
00000190: 51f7 d3bd 790a b53e 7f94 0abc d8ef 643e
000001a0: 7b4e c4bd 6353 15be 6e52 84be ff40 9e3e
000001b0: b45d 74be 74d0 023e 6472 c7bc 9735 a43d
000001c0: 99ab cc3d 68e8 173e ff39 bd3d 4364 9cbd
000001d0: 6726 d2bd 7569 9cbe 368c c7be 6214 d2bd
000001e0: 1ee6 91be a8de 863d 600b 4abe a007 bdbd
000001f0: 4c42 a13d ee66 543e dd0d a83e 8876 08be
0.07008344 -0.13381563 -0.27726915 -0.18810135 0.020684717 0.16006297 0.31284347 0.5609896
-0.15512799 -0.14057116 0.14322852 0.26937208 -0.39591247 0.021077882 0.26618516 0.13763334
0.29922017 -0.12843321 0.10749072 0.18481043 -0.20778115 -0.039969306 0.097175874 0.25762978
-0.079631686 0.18778771 0.347214 0.035056975 0.10484127 -0.28823593 -0.15389897 0.21324399
0.09311022 -0.10441822 -0.09299096 -0.16132794 -0.11900879 -0.1886972 0.13936059 -0.17387407
-0.29896256 0.3254413 -0.08180435 0.3325851 0.2723708 -0.1335953 -0.018606517 0.12294686
-0.06873431 0.09626067 0.1903982 -0.2081062 -0.1970542 -0.09651946 0.06869906 0.055112213
0.2515031 0.32204866 -0.20207012 0.043674663 -0.2721151 0.06817026 0.019192979 0.21719919
0.23061112 -0.17737222 -0.19503632 0.08988636 0.34222475 0.015170859 0.044419374 0.21453033
-0.6029055 0.055196803 0.102011785 -0.15054661 0.046774004 0.20660467 0.3614272 -0.05282687
-0.11106956 0.095293306 0.028614642 -0.13740972 -0.23650424 0.18865868 0.1820094 -0.08188952
-0.125897 -0.17161076 -0.22582752 0.42204925 0.27877027 -0.29034072 -0.17004696 -0.19907
0.011456848 0.07864937 0.37058386 -0.1205235 -0.10349906 0.35359553 -0.008458256 0.22357118
-0.095852815 -0.14582591 -0.2584414 0.30908963 -0.2386387 0.12774831 -0.024346538 0.08018034
0.09993667 0.1483475 0.092395775 -0.07636311 -0.10261231 -0.30549207 -0.3897416 -0.10257794
-0.28495878 0.06585437 -0.19730902 -0.0922997 0.07873973 0.2074239 0.32823077 -0.13326466

action_net.weight f4 [127, 128]
00000000: 29b2 383f a10a cc3e 2fa9 0d3e e289 2f3f
00000010: 60c9 a6be dd89 f63f c714 cdbd 5cec 7dbf
00000020: 8b8c 023f d282 1bbe 6a7e 58be 4909 1740
00000030: 556a 31bf 17fb c13f 3142 e8bf 1c9c e2be
00000040: 84c6 29c0 401f 3c3f 1554 75bf bff1 733e
00000050: ad5e 12bf 4ec9 e6bf 5fe4 c43e b81e 223e
00000060: bcf5 90bf 8b1c a4bd 1c0a 01bf 2685 33bf
00000070: fd57 9fbf 48fd 94bf c1b8 d53f 0a84 3fbe
00000080: d1a9 8bbf 1453 c13d 018b 7bbe b4fe c2bd
00000090: 819e a9be ef1b 043f c8bb 933e 9ada 03bf
000000a0: a0dc c4bc 29be 0f3f ac14 fdbc aacb 063f
000000b0: c3f9 f6bf 9dce 483e 51e7 4bbf f86f c8bd
000000c0: c5b5 2a40 2a38 3b3f d159 29c0 368c 113f
000000d0: 90d7 323f 522a 2440 4681 343f 7045 df3f
000000e0: 4711 47bd 3da0 cdbf a8ca cb3f 0d1e 263f
000000f0: 8fc6 27bf db42 963f df8a 2f40 98e7 06be
00000100: f6ea aebf 6af3 7f3d fc00 1fbf 7419 cebf
00000110: 8441 013e 44b6 923f 89a3 523e 8279 293d
00000120: cf35 9cbf 6a2e df3f edae a13c a8f2 e83f
00000130: 0dcf 00c0 263b dc3f ca4a 29be c851 d7be
00000140: b22d fb3e 78ed 6d3f 9069 efbd 09ec febf
00000150: 63fe 53bf c73c 3dbe c0c5 a7bf 5988 1b40
00000160: 0a9d d43e 8ec4 65bf 8ad5 febf 5f85 18bf
00000170: 7324 89be badf 013e 5ed3 b23d 953f d8bf
00000180: 7d7b 923f 1ea1 9bbf 74ef 20bf 17a3 5dbf
00000190: 9ade babe ba1e b3bf da10 8d3e cadc b03c
000001a0: 7b65 d83d af1a a83d c46f 183f 6f16 2440
000001b0: b7d8 7dbf 0783 1040 6379 c9bf 531b e0bf
000001c0: b7bb 3c3f 60b1 493f 5236 fb3e 64fe 26bf
000001d0: a35e e4bf 8b3b 3dbf 8bf3 143f 47b6 a2bf
000001e0: 2335 963e 605d 93bf 5055 e93d b487 04c0
000001f0: 2e05 09bf 2854 aabf 31ab a6bf e9bc f5be
00000200: 5dc2 3c3f 512c 203f 409a 103f 523b 813f
00000210: ab9c 1bbf 6445 b73f d185 723f c7c9 b93e
00000220: 8876 adbf 7d17 71bf c90f 04bf 1405 743f
00000230: 5880 723f f93d 0b3f 7fc5 a9bf 38a0 4bbf
00000240: 616b b9bf 1da6 3d3f 9fbe aa3d 2969 e13f
00000250: 6f1b 22be f4db c9bf 1ae7 d23f 8232 1abf
00000260: 9d4e fd3c 0f8e 74bf 0b70 a93f 326e 11bf
00000270: 81e5 42bf 619c 0bbf 446e 7f3f 7cfd 05bf
00000280: f90b 91bf a809 65be 2d4c 0dbf 8659 443e
00000290: 2fe3 e83f 4dd0 083f 1307 1e3f 27e4 87bf
000002a0: 4bab bbbf 36f8 193f 3b07 75be 6b72 8abe
000002b0: 3d25 b1bf 74f7 da3e 7363 ff3e 5508 b0bf
000002c0: 9890 983f f67b ab3f 279a 2cbf cdc4 243f
000002d0: c0a9 2d3f ffef 843f b494 ce3f 6216 e53f
000002e0: 0cdd 23bf 7795 97bf 2e67 973f a169 833e
000002f0: 543b 983e 1930 613f b31e 873e 9e92 96be
00000300: 66ae a8bf 213a a2be 8a5f 6f3f d53e 90bf
00000310: 4882 c83e e4f7 a03f 7bf8 653d c735 1e3f
00000320: 5dae d9be e6c1 183f 12b3 dfbf f0a3 8e3e
00000330: f1ef 86bf c43c 253f 27fb 40bf dabc ed3e
00000340: e14b 003f f022 993c 6320 573f 702c c1bf
00000350: 945d 1fbf 1ed0 7d3f 2f8a 9ebf 191c 893f
00000360: f7ee a73f a1b0 bb3c 7968 b3bf 6615 d23f
00000370: dcf2 3ebf cfb5 06be 66a7 e7be 7709 2dbf
00000380: 5ce3 153f 20be 0ebf c440 883f 9b92 c53f
00000390: a18e 88bf 6b66 c4bf f54a 0b3e 2d61 9f3f
000003a0: 263d 6a3e ae48 6dbf c293 493f 56b8 d63f
000003b0: 02e9 3abf c019 653f d3b8 15bf 1c1e eabd
000003c0: 6998 803f a90a b0bf 2bd4 153f 6c86 29bf
000003d0: 0af2 c0be bf04 a5bd 860c 523e 9d72 223e
000003e0: 1131 643f a2db c5bf 9a25 d73e c737 80bf
000003f0: e7b0 7fbf 0d61 93bf 8a86 563e b762 8bbf
0.7214685 0.3985186 0.1383407 0.6856977 -0.32575512 1.9260823 -0.100137286 -0.9918878
0.509957 -0.15186623 -0.21141973 2.3599417 -0.69302875 1.5154752 -1.81452 -0.44259727
-2.6527414 0.73485184 -0.95831424 0.23822688 -0.57175714 -1.8030183 0.38455483 0.15832031
-1.1324992 -0.08013257 -0.5040605 -0.70125043 -1.2448727 -1.1639795 1.6697007 -0.18702713
-1.0911199 0.09439674 -0.24564745 -0.09521237 -0.3312874 0.51605123 0.28854203 -0.51505435
-0.024030983 0.56149536 -0.030893646 0.52654517 -1.9294971 0.19610067 -0.79649836 -0.09786981
2.6673443 0.73132575 -2.646107 0.5685457 0.6986017 2.565083 0.70509756 1.7443066
-0.04860046 -1.6064526 1.5921221 0.64889604 -0.6553735 1.1739153 2.742851 -0.13174284
-1.3665454 0.062487997 -0.6211088 -1.6101518 0.12622648 1.1461873 0.20570196 0.041375645
-1.2203921 1.743604 0.019736731 1.8199053 -2.0126374 1.7205551 -0.16532436 -0.42054582
0.490583 0.92940474 -0.11690056 -1.9915782 -0.8281004 -0.18480216 -1.3107224 2.430197
0.4152606 -0.89753044 -1.9908917 -0.5957851 -0.2678562 0.12683001 0.08731721 -1.6894404
1.1443936 -1.2158544 -0.62865376 -0.8657698 -0.36497957 -1.3993752 0.2755192 0.021589655
0.10566231 0.082082145 0.5954554 2.5638692 -0.99158806 2.2579973 -1.5740169 -1.7508339
0.7372393 0.7878628 0.4906488 -0.6523192 -1.7841381 -0.7391898 0.5818412 -1.2711877
0.29337415 -1.1512871 0.11393225 -2.0707827 -0.5352353 -1.3306932 -1.3020993 -0.4799569
0.73734075 0.6256762 0.56485367 1.0096228 -0.6078593 1.4318051 0.9473544 0.36286756
-1.3551798 -0.94176465 -0.51586586 0.9532025 0.9472709 0.5439144 -1.3263396 -0.7954135
-1.4485894 0.74081594 0.08337139 1.7610217 -0.15830778 -1.5770249 1.6476777 -0.6023332
0.030921275 -0.95529264 1.3237318 -0.5680877 -0.76131445 -0.5453549 0.99777627 -0.5233991
-1.1331779 -0.22366965 -0.5519436 0.19174775 1.8194331 0.5344284 0.61729544 -1.0616502
-1.466165 0.60144365 -0.2392854 -0.2704042 -1.3839489 0.42766917 0.4988056 -1.3752543
1.1919127 1.3397205 -0.6742272 0.64362794 0.6783714 1.0385741 1.613913 1.7897456
-0.64009166 -1.1842488 1.1828363 0.25666526 0.29732764 0.87964016 0.2639061 -0.29408735
-1.3178222 -0.31684974 0.93505156 -1.1269175 0.39161897 1.257565 0.056145173 0.6180081
-0.4251584 0.59670866 -1.7476523 0.2785945 -1.0541974 0.64545846 -0.7538323 0.46433145
0.5011578 0.018693417 0.84033793 -1.5091686 -0.62252164 0.99145687 -1.238592 1.07117
1.3119801 0.022911372 -1.4016258 1.641278 -0.74589324 -0.13155292 -0.45244902 -0.6759257
0.5855005 -0.5575886 1.0644765 1.5435365 -1.0668527 -1.5343755 0.13602813 1.2451531
0.22874889 -0.92689025 0.78741086 1.6775005 -0.7301179 0.89492416 -0.58485144 -0.11431524
1.0046512 -1.3753253 0.5852687 -0.66220737 -0.3768466 -0.08057546 0.2051259 0.15864034
0.8913737 -1.5457652 0.42020875 -1.0017022 -0.99879307 -1.1513993 0.2094976 -1.08895

action_net.bias f4 [127]
00000000: 6c64 2740 7c7d 4f3e 3a24 a73f c25a ba3f
00000010: d4a8 e53f 9179 7d3f 72ae d23f 1879 8c3f
00000020: 1c27 483f 9730 e33f f50f 6f3f d3ed 2640
00000030: 3833 cd3f f892 ad3f 97a2 cf3f dc3a 743f
00000040: f790 a43f 8207 8b3f ef74 be3f 5a69 a53f
00000050: ac33 ea3f 65da ee3f 0b0f ab3f 78c6 ba3f
00000060: 1008 be3f fd24 bf3f 94c2 b63f 61f0 ab3f
00000070: 69ab c63f 38ce a53f c0e6 b03f 1c55 b33f
00000080: e3ab fb3f f9e7 c13f 7d79 803f d674 9b3f
00000090: 58d1 ab3f 2e91 923f bb03 8a3f 925a aa3f
000000a0: 0df8 97bd 3c7a 25bf 4e69 95bf 2042 16c0
000000b0: f1b2 18c0 b381 03c0 9d5d e8bf 1e91 0dc0
000000c0: 26d3 03c0 24df 08c0 542e 15c0 971a 1dc0
000000d0: 66f4 25c0 042e 2dc0 9ead 2dc0 f703 35c0
000000e0: 8231 34c0 093f 48c0 f831 5ac0 afa4 31c0
000000f0: 4548 41c0 4d0f 3ec0 cb38 4cc0 53a0 4fc0
00000100: ef79 39c0 afe2 46c0 1ba0 54c0 cc1a 35c0
00000110: 9c79 53c0 f236 50c0 616d 7fc0 d6ed 7ec0
00000120: 7c41 7fc0 2ad8 53c0 6ac6 7ec0 414d 7fc0
00000130: b77a 52c0 9f50 7fc0 da1a 7fc0 50b3 53c0
00000140: 775d 7fc0 6f6c 7fc0 65e4 7ec0 9fc7 52c0
00000150: 4018 7fc0 b482 53c0 4e93 53c0 36d7 7dc0
00000160: cbbe 52c0 16fb 7dc0 78d9 7dc0 8554 7ec0
00000170: 69d1 7ec0 ef9b 7ec0 be7d 7dc0 aaa8 53c0
00000180: 46e0 52c0 2b63 7fc0 6be2 53c0 109d 55c0
00000190: 82ab 7dc0 0cd8 7ec0 c2d0 7ec0 1fe1 7ec0
000001a0: 8f08 7fc0 f50e 7fc0 d785 7fc0 9fd5 7dc0
000001b0: 2113 7fc0 3fca 7ec0 c256 7fc0 0871 53c0
000001c0: d49a 53c0 f966 7dc0 49a0 62c0 8f03 53c0
000001d0: 6d76 7fc0 4f31 7ec0 7fce 7ec0 3af3 7ec0
000001e0: b065 7fc0 1e03 7fc0 6f5e 53c0 5996 53c0
000001f0: 260b 7fc0 c512 7fc0 b3d0 7ec0
2.6155043 0.20262712 1.305793 1.4558947 1.7942147 0.9901362 1.6459486 1.0974455
0.78184676 1.7749203 0.93383723 2.6082656 1.6031256 1.3560476 1.6221493 0.9540231
1.285674 1.0861666 1.4879435 1.2922776 1.8297019 1.8660399 1.3363966 1.4591818
1.484621 1.4933163 1.427813 1.3432733 1.552106 1.2953558 1.3820419 1.4010348
1.9661831 1.5148917 1.0037075 1.214503 1.3423262 1.1450555 1.0782388 1.330889
-0.07420359 -0.6463964 -1.1672761 -2.347786 -2.3859217 -2.0547912 -1.8153569 -2.2119823
-2.0597625 -2.1386194 -2.3309526 -2.454748 -2.593042 -2.7059336 -2.7137218 -2.828367
-2.8155217 -3.1288474 -3.4092999 -2.7756765 -3.020036 -2.969684 -3.1909664 -3.2441604
-2.8980672 -3.1075857 -3.322272 -2.8297606 -3.3042974 -3.2533536 -3.991051 -3.9832664
-3.9883718 -3.3100686 -3.9808602 -3.9890902 -3.28874 -3.9892957 -3.986014 -3.3078194
-3.9900796 -3.9909933 -3.98269 -3.293434 -3.985855 -3.3048525 -3.3058658 -3.9662604
-3.292895 -3.96845 -3.9663982 -3.9739087 -3.9815314 -3.9782674 -3.9607997 -3.3071694
-3.2949386 -3.9904277 -3.3106945 -3.3377113 -3.963593 -3.9819365 -3.9814916 -3.9824903
-3.9848974 -3.985288 -3.992544 -3.9661634 -3.9855425 -3.9810941 -3.9896703 -3.3037739
-3.306325 -3.95941 -3.541033 -3.2970922 -3.9916031 -3.9717596 -3.9813535 -3.9835954
-3.9905815 -3.9845653 -3.3026388 -3.3060515 -3.9850554 -3.9855206 -3.981488

value_net.weight f4 [1, 128]
00000000: 92b3 10bf 0604 fcbe 7552 b63f e403 80be
00000010: 4902 823e ee79 303e 5573 3c3e fd8f f3be
00000020: 02e6 a6be 78d7 54be 4ada bc3e c8da f7bd
00000030: a427 22bf 9c61 513e 7acc 15bf 51e4 163e
00000040: 3de0 123f 8328 b0be 21e0 373e 4e43 523d
00000050: 84c7 923d 44bf 6ebe 4a51 45bf 50f2 8cbe
00000060: db71 62be fb4c 723f c346 50bf 8c7a eabd
00000070: c604 af3e 4409 5d3f e203 963d 1b1d ba3d
00000080: 839b be3e 85b2 adbd a7b5 0abe 678b 793f
00000090: 4e32 97bd 2df2 353d 132b c33e fec3 70bf
000000a0: e48e cabd a5c1 b2bf cd43 ccbf 08ab c83e
000000b0: 9052 74bf 3f36 4abd f07d e53e 44e0 c13d
000000c0: 1758 3fbf 7821 443e 82fd 62bf b6ac 80bd
000000d0: 806e 0f3e 567e 89be bf23 b93f 8ffb 933e
000000e0: 0b80 a5bf ad58 45bf c360 50be 3203 29be
000000f0: 43a7 83be 0840 6d3e 5d05 85bf 45ab 093e
00000100: e213 cabf 5f7a 273f fb79 4dbf afe6 4a3e
00000110: cbea 3dbf b2c2 a9be 849e a3bf 8d99 6b3e
00000120: f2d1 07bf c75b 123f bd00 223f 21ff 133f
00000130: bcfb ac3e 5e8f 10bf 475f 38be fb77 86be
00000140: b50a 763e dd28 533e d56a 1abf 8103 e0be
00000150: 6408 103f 85fa c93f b74f 273e 3468 cabe
00000160: 3ca9 d03e 9bfc 99bd 5c22 48be d6d9 91be
00000170: 6f8d 85be 4ef6 95be 364c b83e 5d4e 1fbe
00000180: f890 e2be e261 e53d 14e4 98be 83fe 48bf
00000190: 6484 edbe d498 4f3e 6395 67bf 6f22 383e
000001a0: 8955 9abe cfd8 bdbe 43e1 13bf a0a8 64bf
000001b0: b69d c1be ed22 a73e 95cb 4dbc c198 863f
000001c0: e4ae 893f b715 803f 8634 0fbe 6838 2c3f
000001d0: afcc 20be 91eb 893f db9c b2bd b1da 43bf
000001e0: eb31 82bf c6d1 5c3e 5e11 693f af02 71be
000001f0: 19dd f6bf a872 e73d 0337 be3e b67d 3e3f
-0.56524 -0.4922182 1.4243914 -0.25002968 0.25392368 0.17234012 0.1840337 -0.47570792
-0.32597357 -0.2078532 0.3688529 -0.12102276 -0.63341737 0.20447391 -0.5851513 0.14735533
0.5737341 -0.34405908 0.17956592 0.051333718 0.07166961 -0.2331515 -0.7707716 -0.2752862
-0.22113745 0.9464871 -0.81357974 -0.11449155 0.3418333 0.86342263 0.07324959 0.09087583
0.3722802 -0.084813155 -0.13545857 0.97478336 -0.07382642 0.04442041 0.381188 -0.9404906
-0.098905355 -1.3965346 -1.5958191 0.39192986 -0.9543848 -0.04936814 0.44822645 0.094666034
-0.7474379 0.19153392 -0.8866807 -0.06282942 0.14006996 -0.268542 1.4464034 0.2890286
-1.2929701 -0.77088434 -0.20349412 -0.16505125 -0.25713548 0.23168957 -1.0392262 0.1344424
-1.5787318 0.654211 -0.8026425 0.19814561 -0.7418639 -0.33156353 -1.278275 0.23007794
-0.53054726 0.5717129 0.63282377 0.5781117 0.33785808 -0.5646876 -0.18005095 -0.26263413
0.24027522 0.20621057 -0.6031926 -0.43752673 0.56262803 1.5779577 0.16339003 -0.39532626
0.40754116 -0.07518884 -0.19544357 -0.28486508 -0.26084468 -0.29289478 0.35995644 -0.15557237
-0.44251227 0.1120031 -0.2986151 -0.78513354 -0.4639007 0.20273143 -0.9046232 0.17981885
-0.30143383 -0.37079474 -0.577656 -0.893198 -0.37815636 0.32643834 -0.012560745 1.0515367
1.0756497 1.0006627 -0.1398488 0.6727357 -0.1570308 1.0775014 -0.08721324 -0.7650557
-1.0171484 0.21564397 0.91042125 -0.2353618 -1.9286224 0.11301166 0.37151346 0.7441057
