kayles_82pins.onnx (onnx, 332465 bytes, 11 tensors)

mlp_pi.0.weight f4 [128, 128]
00000000: 0b72 b93e 5792 1d3f d4b3 fa3e 51b1 253e
00000010: 05e5 e43e 9947 263f 4300 2b3f 8859 653e
00000020: e5e5 a1bd 1e8a 77bf 4394 b4bf ca1f 9bbf
00000030: fef3 263f f2ae 6b3e 23dc d43d 1e9f babf
00000040: acad fbbf 0223 0cc0 0f13 22bf 7b03 5e3e
00000050: c409 7e3e a1a5 cd3e 6ec9 113f 7224 c53e
00000060: 036e e13d 82e9 0e3f bedf a1be d18b 22bf
00000070: 5ce3 7cbd 6248 8dbd 5f8c 09bf 34fe 88be
00000080: e4f7 d13c 1cad c2be 7f01 3ebe 632b 43be
00000090: 19e1 133f bb8f 6d3e 899f ba3d e39a 6d3e
000000a0: df6f 4f3e 23fd 093f 0ab3 923e 03bf bcbe
000000b0: 7e7d f3be 25cf fa3e b8fe 233e 98cc 6cbf
000000c0: d122 44bf ef78 813d 858d 18bd a9d2 48bf
000000d0: 6cee 97bf 40c8 d9be e90c e4bd 060a 25bf
000000e0: 6651 99bd 6d56 b53e c60d 85be ef66 63be
000000f0: 3dd1 b23e bd32 953e 5aad 5e3f 5d83 b93e
00000100: 4ca7 d13e 10f8 733e e8da ff3e 6753 75be
00000110: e096 b83e 106b 1c3e 1ac0 953e d293 9bbd
00000120: 5722 083c d86c 8f3c 2a07 ddbc 7adb 283f
00000130: fc21 df3e e788 2dbd 68e4 c23c d08b 833e
00000140: b120 50be 2f9a 44bd 50b3 0cbd d061 8ebe
00000150: d3db 15bc a78b a2bd 065b af3d c081 1e3e
00000160: 8c22 c13a 383f ddbd e584 333e 03c3 45be
00000170: 4998 c4bd c26c afbd f299 463e e328 c03d
00000180: 2941 0cbe 4efb 4ebd 794d b53a 7984 823d
00000190: 0c32 833d b7dd 53bd d7d4 de3d c934 673c
000001a0: de3b 223e bde9 e33d 7f87 24bb 93c1 9abd
000001b0: dd2a aebd 105a 88bd a8bf feb8 131c 4fbc
000001c0: 24be 4cbd a02e 99bd 9e74 473b c039 373e
000001d0: d439 383d 20e0 65be d7a1 c1bc def6 093d
000001e0: 9c65 03be e52f 413d d889 6c3e 1bb0 823c
000001f0: dd02 b9bd 055c 833e dfe0 653c 5f1c 843d
00000200: b78a c2bf ae64 ebbf e09b 3ebf 8000 113f
00000210: 3f93 b03e 8110 9d3d 347e 4e3e 9e49 0abf
00000220: fd01 283f 858b 0fbe da4b 703e a690 1dbf
00000230: 8e8e e63e 21d2 c83e 427d 2ebb 7c47 273f
00000240: f124 97be d12a 2cbe 6583 0cbf b7ff 04bf
00000250: 3353 dcbd dcbf 383e f5e0 2ebe eb8a 94bf
00000260: cfb3 1cbf a65c 793e bd48 0b3e 98b7 05bf
00000270: 7344 f93c 34fc 483e dac5 853d 6be7 f0be
00000280: 1f16 ecbd 9bf3 153f ea3d 3dbd fd49 0a3f
00000290: 15a2 4d3e 10db 2ebe 2544 113e 8e08 6ebf
000002a0: 009f c5bf c123 8bbf bb51 f1be eaab 94bd
000002b0: 56a5 04be e2aa 55be deb3 a23e 191d 1fbe
000002c0: f68e f63d 63d4 f03d 1cd1 9e3e c14c 493e
000002d0: 6c15 85bf 5432 b4bf cb0f b13e 3f25 c7be
000002e0: 8141 0ebf 7976 e5be 07e0 3fbf d182 92bf
000002f0: 0eb1 1ebf d4a2 903e b2fa 963f dc4a 933f
00000300: 83df c03e df67 eb3d a57a 09bf a96d 85bf
00000310: e98f 92be 88b2 33bf 01fd e4be 2d68 e8bf
00000320: 6361 3ebf 3269 c6bd 87b9 483f 8df2 603f
00000330: ea99 1c3f 001f d73e 5766 e93d abbe afbe
00000340: 8276 babd ea02 813e c7c3 403e 5389 77bd
00000350: 6296 043e 4405 d3bd 291c 2dbe 5400 923d
00000360: ba3e 5e3d a296 fdbb 4e18 9dbd 4b7d 85bd
00000370: e790 293d b799 d1bb 041d 22be 0687 45be
00000380: 8c80 e8bd 0446 a9bd aac7 93bc d629 5c3e
00000390: a232 3c3d d1e1 bf3c 7e0b 033e d724 58be
000003a0: 4dfc 2d3d bf33 ad3d a776 793d 84be 953c
000003b0: be57 753d bd17 a03c 41dc 76bd 2b69 6c3d
000003c0: c1a1 c8bd 2ef4 263e 7524 4f3c 9034 b73d
000003d0: 410b a23c fffe 1a3e dc5e 2d3d 3119 81bd
000003e0: 515c c7b9 fcd5 4bbe c0c2 6c3e 1355 8abd
000003f0: 11a9 6abd a9c4 013e 797e 033d 13ac a23e
0.3621982 0.6155142 0.48965323 0.16180922 0.44705978 0.64953 0.66797274 0.22397435
-0.07905177 -0.96695125 -1.4107746 -1.2119076 0.6521605 0.23015955 0.1039355 -1.4579809
-1.9662375 -2.1896367 -0.6331033 0.21681015 0.24808413 0.40165427 0.5694798 0.38504368
0.11007311 0.55825055 -0.31616014 -0.6349459 -0.061740264 -0.068985716 -0.53729814 -0.26756442
0.025630899 -0.38022697 -0.18555258 -0.1905952 0.57765347 0.2319936 0.0911246 0.23203616
0.20257519 0.5390188 0.2865222 -0.3686448 -0.4755668 0.48986164 0.16015136 -0.92499685
-0.76615626 0.063218944 -0.03724434 -0.7844644 -1.1869636 -0.4253559 -0.11135275 -0.6446842
-0.07486229 0.354175 -0.2598707 -0.22207235 0.3492526 0.29140273 0.86983263 0.36233035
0.4094795 0.23825097 0.499717 -0.23957597 0.36052608 0.15275216 0.29248124 -0.07596554
0.0083089685 0.017507955 -0.026980955 0.65959895 0.43580616 -0.04236689 0.023790553 0.25692606
-0.20324971 -0.047998603 -0.034350693 -0.27809 -0.009146648 -0.07936793 0.08562283 0.15479183
0.0014735027 -0.10803074 0.17531164 -0.19312672 -0.095993586 -0.08565666 0.19394663 0.093827985
-0.13696732 -0.05053263 0.0013832293 0.063729234 0.0640603 -0.051725116 0.1088044 0.014111706
0.1584315 0.111285664 -0.0025105176 -0.075564526 -0.08504269 -0.06657803 -0.000121473626 -0.012640971
-0.04998602 -0.07479596 0.00304345 0.17893124 0.044977024 -0.22448778 -0.023636742 0.033682697
-0.1283173 0.047164816 0.23099458 0.015953114 -0.09033749 0.25656143 0.014030664 0.06450724
-1.5198582 -1.83901 -0.74456596 0.5664139 0.3448734 0.076691635 0.2016533 -0.5401858
0.65628034 -0.14018066 0.23466435 -0.6154884 0.45030636 0.39222816 -0.0026624952 0.6534345
-0.29520372 -0.16813208 -0.5488799 -0.5195269 -0.107580565 0.18041939 -0.17078002 -1.1604894
-0.61211866 0.24351749 0.13601966 -0.52233267 0.030428147 0.19627458 0.06531878 -0.47051558
-0.11527657 0.5857484 -0.046201624 0.5401915 0.2008136 -0.17075753 0.14186151 -0.92981803
-1.5439148 -1.0870286 -0.47132668 -0.072593525 -0.12953696 -0.20865968 0.31777853 -0.15538444
0.120389864 0.117592596 0.31018913 0.19658186 -1.0397162 -1.4077859 0.34582362 -0.38895604
-0.555687 -0.4481695 -0.74951214 -1.1446172 -0.61988914 0.28249228 1.1795256 1.150722
0.37670526 0.11494421 -0.53702766 -1.0424091 -0.2862542 -0.7019429 -0.44724277 -1.8156792
-0.7436735 -0.09688033 0.7840809 0.87870103 0.61172354 0.4201584 0.11396473 -0.34325156
-0.09104635 0.25197536 0.18824683 -0.060433697 0.12947991 -0.10303739 -0.16905273 0.07128969
0.05425904 -0.007738904 -0.076706514 -0.06518038 0.041397955 -0.006396498 -0.15831381 -0.19289789
-0.11352643 -0.082653075 -0.018039543 0.21500334 0.045946725 0.023423107 0.12797353 -0.21107803
0.04247694 0.084571354 0.06090417 0.018279321 0.05989813 0.01954257 -0.060268644 0.057717483
-0.09796477 0.16304085 0.012642969 0.089455724 0.019780757 0.15136336 0.042326793 -0.06303633
-0.0003802502 -0.19905847 0.23121166 -0.06754508 -0.05729014 0.12672676 0.032103036 0.31771907

mlp_pi.0.bias f4 [128]
00000000: 5795 2f40 b669 f93f 9fe0 7dbf 5383 72bf
00000010: 626b 523f 9e86 86c0 f36a d73f 5a96 77bf
00000020: 892f 58bf a2ad 5abf 3a4e c5bf 1205 75c0
00000030: 1cc4 32bf 1608 fdbd 2ea8 ad40 ae04 c6bf
00000040: b1d3 063f f8d7 8040 2aa8 333e db24 c9bf
00000050: 96d0 9b3e 3e0a 77bf 0cc0 ad3f 8189 86bf
00000060: 4dad 913f 3856 d73e 71e2 89bf f8ea b6bf
00000070: c549 863f 23c9 a5be 7d06 c5bf 6d8e b2bd
00000080: f4db c73f a567 293f 53f7 abbf d6d0 603f
00000090: 1961 34c0 b633 81bf 4c29 af3e 470c 21bf
000000a0: b827 b93f 080b 2cbd c208 52be 1d76 c6bf
000000b0: ca82 95bf 9bda 7e3f 4d7a 0740 1c82 903f
000000c0: 6ada 3b40 b9f1 13bf 5aa4 d3bd 1da7 0a3f
000000d0: 6fdb a0bf f0fd d8be 5372 473e 7dba d5bf
000000e0: f69a e03f f5ff 6bbf 35f2 9abe 60da 423f
000000f0: 8a11 13bf aaa5 e83f f29c 83bf 7965 1e40
00000100: b622 0ac0 dbad babf bc03 563f eb83 88be
00000110: b87d bcbe f43b f93f bd6d bc3f 1a3c 3cc0
00000120: 1059 2a3e fd67 883f 6aa9 943f 1f5f fbbf
00000130: d750 31bf ce2b 5bbf c807 eabe 84e6 2d3e
00000140: 475c 5540 c00e 55c0 a9b1 0fc0 cdc6 d93b
00000150: db2d 1fbc 0f2b 26bf 4a42 babf 7ecc 553f
00000160: ba3c 46bf db7e ac3e ad47 8c3f ed97 753f
00000170: 2f6d 35bf 57d2 02c0 8527 0540 0f9f 7cbf
00000180: 6f5a a43f e2ee e93e b00a 1ebf a1bd 3f3f
00000190: 3bfd ac3f 0f5c 6e3f c19c b4be b642 d4bf
000001a0: 6dbd 0f40 31fd 62bf affe 353f 5f7b ec3e
000001b0: a8d4 dd3f 2c58 c040 7bc2 a03f 9242 72bf
000001c0: ca9c ea3e 92ad c13f def6 6340 327a b8bf
000001d0: 4e53 24bf e214 9d3f 1c80 6cbe aa3e b43f
000001e0: c3bb d3bf cfda f03f 3785 bbbe 60e0 923e
000001f0: ef5d 273f b1a5 eb3f fe1e 8c3f 5656 d8be
2.74349 1.9485385 -0.9917087 -0.94731635 0.82195103 -4.203933 1.6829513 -0.96713793
-0.8444753 -0.8542119 -1.5414498 -3.8284345 -0.6983049 -0.12355058 5.4267797 -1.5470178
0.52666765 4.0263634 0.17544618 -1.5714372 0.30432576 -0.96500003 1.3574233 -1.0510713
1.1381012 0.42057967 -1.077223 -1.4290457 1.0491263 -0.32380018 -1.5392605 -0.08718572
1.5613999 0.66173774 -1.3434852 0.8781866 -2.8184264 -1.0093906 0.34211195 -0.6290936
1.4465246 -0.042002708 -0.20511153 -1.5504795 -1.1680539 0.99552315 2.1168396 1.1289706
2.935206 -0.57790715 -0.10334082 0.54161245 -1.2566966 -0.4238124 0.19477205 -1.6697537
1.754729 -0.92187434 -0.30262914 0.76114464 -0.5744864 1.8175557 -1.0282271 2.4749434
-2.1583686 -1.4584306 0.8359945 -0.26663145 -0.36814666 1.9471421 1.472099 -2.9411683
0.16635537 1.0656735 1.1614201 -1.9638404 -0.69263977 -0.85613716 -0.45709062 0.16982466
3.3337572 -3.3290253 -2.2452185 0.0066460134 -0.009715523 -0.6490945 -1.455148 0.83515155
-0.7743641 0.33690533 1.0959374 0.95934945 -0.70869726 -2.0440881 2.080537 -0.98680204
1.2840098 0.45690066 -0.6173506 0.74898726 1.351478 0.9310922 -0.35275844 -1.6582859
2.2459366 -0.8866759 0.7109174 0.46187875 1.7330523 6.010763 1.2559351 -0.9463283
0.45822746 1.5131094 3.5619426 -1.4412291 -0.6418961 1.2271998 -0.23095745 1.4081624
-1.6541675 1.8816775 -0.36625072 0.2868681 0.65377706 1.840994 1.0946958 -0.4225337

mlp_pi.2.weight f4 [128, 128]
00000000: 0a1b 0ebe 3e54 363f 3821 c33e b2ed 2bbe
00000010: 103a 5fbd 0e79 2640 5027 be3f 9906 f33f
00000020: 1133 1cbf 580d 34bf aaf8 893e 8feb 8a3f
00000030: 49f7 513f b50e 943f 2300 37c0 164f 95be
00000040: ad11 23bf e46e 823f 59bb 72be ded1 adbf
00000050: e927 2f3e 1838 a2be 7569 d03d e1da b63f
00000060: 3ecd 5fbf e229 a83e 285a c1be d795 44bf
00000070: d5c2 dabd 2fa8 a73e 9115 a0be c871 873f
00000080: 24cf a5be 2450 eb3e 16f1 2a40 682f 38bf
00000090: 1458 a53f fdf9 683f 0e1c 0840 d295 c53d
000000a0: bec2 39bf 3fd1 9abd 0168 3b3f cb21 5c3f
000000b0: 87ab d73c 2c32 913f 2e96 0c3e e8c2 3ebf
000000c0: 0cb0 6c3e 1560 5a3f 0305 a3bf 9e5b cbbe
000000d0: 1c9f 20bd 6562 be3e 99c7 8a3d 8e41 46bf
000000e0: 13c8 adbf 6b27 8b3e 489a edbf d2dd 46be
000000f0: 9c76 6f3f 331a ccbd af4b cc3f a28c acbe
00000100: 2e53 933e 8a4b 343f 3ab6 08bf 890c 39bf
00000110: 6654 52be 33d3 70bf 2aac 0ebf 89d2 55c0
00000120: 9f13 ac3d 5576 f03e 1281 5d3f 889a 683f
00000130: 5883 09bf 7a82 823e a3fd 64bf f71b 18bf
00000140: 5aff 44bf 5f9c 96bf ff75 423e 3a41 8a3f
00000150: a5b7 21be 422e 29bf f1a2 3c3f 81e3 84bf
00000160: d15a 5cbf e042 febe 24a1 253f a582 2cbf
00000170: dadd d6be 26d7 143e f226 b4bf 0170 bebe
00000180: c43d 86bd d44b 6d3f 74db 273f 399b 093e
00000190: 4587 debd 26cf 7c3e 3e59 9d3f e036 5e3f
000001a0: 6764 2b3f 740c c0bf 9ead 053f 2f54 d3bf
000001b0: 41a0 23bf faa2 af3e a215 73bf c783 3d3e
000001c0: 9eec 473e 1255 10bf a369 45bf a36a 083f
000001d0: 263e 65bf 7e63 48bf ecfa 6ebe 8a43 e63e
000001e0: 855d a8be acd1 893e bbff c2bd 9d6f babf
000001f0: 908e 38bf d8d3 6dbf 694b eb3e a0d2 813e
00000200: cb23 c83f 8c45 efbe 280c c33d 91fa adbf
00000210: 3bfd 0c3f 29d8 833c 9884 36be 8a20 8f3f
00000220: 1946 f2be 86c2 0d3f ed2d 873e bc2f 843f
00000230: 662d 0c3d e6c8 3f3e 3396 86be 7c8b cabe
00000240: 667f a1bf 1c81 213f 76ca 4bbf 8c36 efbf
00000250: 710c a1be 9654 8fbf 1f12 11bf 746c ccbf
00000260: 80d3 b73f dc74 803f 4d69 0340 2760 be3f
00000270: f525 15be 8f74 ccbd b76e b4bf a71a e4be
00000280: 6714 87be 2b39 d8bf 1681 993b 706a 16bf
00000290: 9e04 3e3f c09f d23e ab3e a63e 2fd6 b0bf
000002a0: 2d3f c7be 08df 943f 5348 5bbe 217e 963f
000002b0: 23b2 143f 4299 843f fc14 cc3f cea5 70bf
000002c0: 45d7 883f ddfd 82bf ee2b fd3e 6bdd 61bf
000002d0: 6c57 4b3f 9e10 413e 9acb 81be 14c0 18bf
000002e0: fc3e 43bf 07b8 80bf 1de3 553f 1412 923f
000002f0: 718e e5be f3d2 643e 5543 ebbe d6d4 47bf
00000300: a7a2 303f d226 893f 852d 69be 6078 bcbf
00000310: 78f7 4d3b 8251 debe fa2b 7cbe e124 29be
00000320: 6ac2 2e3f a8ea 213e eb44 c4be ef2c f0bd
00000330: 8b14 3e3f 4d4a 35bf 5f81 98bf 0132 f0be
00000340: 2a0d dabe 3ac8 153f 1918 cabe 4b1e ad3e
00000350: 4eca 0abf b68a f43e 9590 96bf dc36 1a3e
00000360: 0c02 10be 70b1 40bf 0c7e 11c0 bc21 083f
00000370: dc82 86be 8dd0 0abf 42b4 3b3f cad2 6abe
00000380: 5031 b83d 271e 66bd d808 c2bf 2b9c 273f
00000390: 7718 d9bd d601 1d3e 76d5 843e f27d b5bf
000003a0: bddf 023e 3cb7 b5bd e5fc ce3d f570 763d
000003b0: ac4c 8f3f 74c2 5c3f d2d7 48be f4f3 7bbf
000003c0: 106b 2a3f 6695 673e addb 99be eaf1 63bf
000003d0: 9550 1d3f 4311 873f e9e6 dbbd ce7c a23f
000003e0: c462 343f 8ee1 3cbf 0d0c 45bf a621 e5bd
000003f0: c4a9 0140 e0f6 f23e 2d97 983f 0e27 8c3e
-0.13877502 0.71222293 0.3811128 -0.16789892 -0.054498732 2.6011386 1.4855747 1.8986388
-0.6101542 -0.7033286 0.26947528 1.0853137 0.8201795 1.1566988 -2.8593833 -0.291619
-0.63698846 1.0190091 -0.2370428 -1.3579671 0.17105068 -0.3168342 0.10176364 1.4285547
-0.8742255 0.32844454 -0.37764096 -0.7679114 -0.106816925 0.327455 -0.31266454 1.0581598
-0.32384598 0.4595958 2.6709647 -0.71947336 1.2917504 0.9100645 2.1267123 0.096477166
-0.7256278 -0.07559442 0.7320557 0.85989064 0.026326908 1.1343436 0.13729164 -0.74516153
0.23114032 0.8530286 -1.2735904 -0.39718336 -0.03921424 0.37184444 0.067763515 -0.7744378
-1.3576683 0.2717851 -1.8562708 -0.19420555 0.9354036 -0.099659346 1.5960597 -0.33701044
0.287744 0.70427763 -0.53403056 -0.7228475 -0.20540008 -0.94072264 -0.5573145 -3.340975
0.0840218 0.4696528 0.8652507 0.90860796 -0.5371604 0.2549017 -0.8944952 -0.5941767
-0.76952136 -1.1766471 0.18990324 1.0801156 -0.15792711 -0.6608621 0.7368613 -1.0381929
-0.86076075 -0.49660397 0.64699006 -0.6738685 -0.41966134 0.14535198 -1.4074385 -0.37194827
-0.065547496 0.9269383 0.65569234 0.13438119 -0.10865644 0.24688396 1.229286 0.8680248
0.66950077 -1.50038 0.52218044 -1.6510066 -0.63916403 0.3430403 -0.94954884 0.185073
0.19523856 -0.56379807 -0.77114314 0.53287715 -0.89547956 -0.78276813 -0.23337907 0.44973403
-0.3288385 0.2691778 -0.09521433 -1.4565312 -0.72092533 -0.9290137 0.4595597 0.25356007
1.5635923 -0.46732748 0.09523803 -1.3592092 0.550739 0.016094284 -0.17824018 1.1181805
-0.47319105 0.55374944 0.26402226 1.0327067 0.034222983 0.1872898 -0.26286468 -0.39559543
-1.2617004 0.6308763 -0.79605806 -1.8688521 -0.31454805 -1.1197689 -0.56668276 -1.5970597
1.436142 1.0035663 2.053302 1.4873093 -0.1456526 -0.09983169 -1.4096287 -0.44551584
-0.26382753 -1.6892446 0.0046845777 -0.5875616 0.74225795 0.41137505 0.32469687 -1.3815364
-0.38915387 1.1630564 -0.21414308 1.1757241 0.58084315 1.035927 1.5943904 -0.94003
1.0690695 -1.0233723 0.49447578 -0.8822848 0.7943027 0.18853995 -0.25350648 -0.5966809
-0.7626798 -1.0056161 0.8354967 1.1411767 -0.44835237 0.22346096 -0.45949808 -0.78059137
0.6899819 1.0714972 -0.2277127 -1.4724236 0.003142802 -0.4342156 -0.2462615 -0.16517974
0.682654 0.1581217 -0.3833383 -0.117273204 0.74250096 -0.708165 -1.1914481 -0.4691315
-0.42588168 0.58508646 -0.3947151 0.33812174 -0.5421494 0.47762078 -1.1762873 0.1505999
-0.14063281 -0.7527075 -2.2733183 0.53176475 -0.26271713 -0.54224473 0.73321927 -0.22931972
0.089937806 -0.0561811 -1.5158949 0.6547267 -0.106003694 0.15332732 0.25944108 -1.417906
0.12780662 -0.0887284 0.101068296 0.060166318 1.1195273 0.8623421 -0.19613579 -0.9841912
0.66569614 0.22615585 -0.30050412 -0.89041007 0.61451083 1.0552143 -0.10737402 1.2694337
0.70463204 -0.7378167 -0.76971513 -0.111880586 2.0259867 0.47453976 1.1921135 0.27373546

mlp_pi.2.bias f4 [128]
00000000: 9a81 7d3f cb64 d23e 989a 25be 3b93 4f3f
00000010: eccd 5abf dd69 d43f be54 c33e a344 86bf
00000020: 3672 3d3f e878 4fbf 59de 5cbe e9cd 953f
00000030: f595 71bf 1f7b 213f 0d0e d0bf 00b3 ab3e
00000040: e86d aebf 69eb 9fbf e4f8 2dbf e1b2 613f
00000050: 6c50 cfbe 0abd 50bf f9b3 163f 7c05 263f
00000060: 0b66 623e b087 eb3e 0eef 063f 5114 e93f
00000070: 8b40 4dbf 66cb b6bc 8c06 2640 a97e 6c3d
00000080: c7ed 6ebf bfc8 d0be 476a 723f afd1 4bbf
00000090: 4d64 c1bd 8939 4d3f 9e6d 7b3e f6ab b0bd
000000a0: a68d 41bf 7f7c 0a3f d8cb a13d 2436 e53e
000000b0: 3b9e c1bf 8ae2 3e3e 1fff f3be dad9 413d
000000c0: 6c62 833f c383 903f 611b 73bf f7b3 b83f
000000d0: eca8 c83e 3a26 c93f a023 093f baec 883f
000000e0: 6495 213e 42e9 b6bf b223 af3e 7cc4 bb3d
000000f0: bec2 99be 3ab5 3d3e 06b6 4b3f 33a1 46bf
00000100: 5920 3ebf 9614 c03e 5889 10bf b1df 52bf
00000110: 2962 a83f a868 d4bd 1570 7d3f 7938 9bbd
00000120: 0888 16bf 90d4 8b3d d443 a0bd 3c16 823f
00000130: 287f fbbe c174 623f f2c1 6abf 6fda 663e
00000140: 87be d43e 77eb 2bbe 797d b53b 5213 97bf
00000150: 8ffb 47bf 2cd6 0cbe 09f3 89be 2732 103f
00000160: 433e d9be a7e3 f33d e2a8 44bf 2e44 72be
00000170: e6b4 9b3d 8728 ee3f ffe9 953f 041d ddbf
00000180: 3922 3c3e 5237 c2bf 775b d3bd 5c64 17bf
00000190: 2154 a9bd a0a1 3fbf 80b1 8abd 1634 0c3e
000001a0: d365 5ebd 6ba5 383f 5630 643e 31c5 a43f
000001b0: 6c4f 94bf 8223 473f 7f76 683f 52fa 7dbf
000001c0: e565 593f 6400 bf3e e105 803e 88e6 88bd
000001d0: 40ca aabf 4d5c 223c 1ca0 ea3f 7626 7ebf
000001e0: ceb2 84be dafa c0bf 7dfe 80bf c3a1 1bbf
000001f0: 90f3 503e d927 ddbf e4a0 03c0 4b5f fb3e
0.9902588 0.41092524 -0.16172254 0.8108403 -0.8547046 1.6594807 0.3815059 -1.0489696
0.740024 -0.81043863 -0.21569194 1.1703464 -0.9436944 0.6307849 -1.6254288 0.33535004
-1.3627291 -1.2493716 -0.679579 0.8816357 -0.40491045 -0.8153845 0.58868366 0.6485212
0.22109239 0.4600196 0.5270852 1.8209325 -0.8017661 -0.022313785 2.5941496 0.05773798
-0.9333157 -0.40778157 0.94693416 -0.79616827 -0.09442959 0.80165917 0.24553534 -0.08626549
-0.75606763 0.54096216 0.07900208 0.4476787 -1.5126413 0.18641105 -0.4765558 0.0473269
1.0264411 1.129021 -0.9496365 1.4429921 0.39191377 1.5714791 0.53569984 1.0697243
0.15779644 -1.4289935 0.3420692 0.09168336 -0.3003139 0.18526164 0.7957462 -0.7758972
-0.7426811 0.37515706 -0.5645957 -0.82372576 1.3154956 -0.10371524 0.9899915 -0.07579131
-0.5880132 0.068276525 -0.07825437 1.0163035 -0.4912045 0.884594 -0.9170219 0.22544263
0.4155161 -0.16789041 0.005538639 -1.1802771 -0.7811822 -0.13753575 -0.26943234 0.56326526
-0.42430314 0.119086556 -0.76820195 -0.23658821 0.07602863 1.8606118 1.1712035 -1.727448
0.1837243 -1.5173132 -0.1032018 -0.5913751 -0.082679994 -0.74855995 -0.06772137 0.13691744
-0.054296326 0.7212741 0.22284064 1.2872678 -1.1586738 0.77788556 0.9080581 -0.99210083
0.84921104 0.37304986 0.25004485 -0.06684595 -1.3342972 0.0099097015 1.8330112 -0.99277437
-0.25917667 -1.5076554 -1.0077664 -0.60793704 0.20405412 -1.7277786 -2.056695 0.4909614

mlp_vf.0.weight f4 [128, 128]
00000000: 9462 42be 196c 3ebf dbb3 9dbe 73a5 afbc
00000010: e1d1 03be a016 e93d e220 96be b8d0 043e
00000020: 5ba9 1fbe e28c 513d c243 c6be 350d 5a3d
00000030: 9ef0 93bc 1eab 7e3e 889c 34be e91f cdbd
00000040: 81bf e8bd 184c 223e a174 9c3d b6ff 033e
00000050: 19c8 1cbd b9d9 2a3e 63ed 1c3e 96ed ab3d
00000060: 996a 4ebe 891a 16be 9f9d 18be eda5 5f3d
00000070: 77c9 91bc eee8 a0bc 5648 173e 6d5d 423e
00000080: 9242 06bd 938a 46be db59 4e3d 301f 4d3e
00000090: af49 143e 14c6 fbbd 7010 6f3e 7bf6 fe3d
000000a0: e1d8 ad3e 0386 acbe ff62 813e a84a 4a3e
000000b0: dbd9 103f b31e 973d 3c20 213e 1574 2b3f
000000c0: 49b5 553e 3a02 513e 6177 4cbf d9f3 84bf
000000d0: 2510 31bf ad5b 8f3f 4b14 a63f dbad 183e
000000e0: b3b6 90bf cae6 2cbf 835d 973e b636 0a3f
000000f0: 6713 093f 0e3a 66bd 964c 783d 07f1 083d
00000100: e435 953d 9197 a73e 61ab 433e 0958 a43d
00000110: 04bf 21be 139f 85be 5f15 7a3e 6f00 ff3d
00000120: cb2c 083e 4569 5ebd 1fc1 0abd ccbd 31be
00000130: b75e 36be d913 0ebe 05cb 223e 169b f9bd
00000140: dbd7 45be 52af 40bb 2e4a 0cbe 9207 1b3e
00000150: 897a 263e dfb9 543d e698 a23d 2a7a ccbc
00000160: 5f67 f23d b1ca bcbd 05e3 f73c f8af 19bd
00000170: cc75 323e 211a a5bc e978 663e c2ba 063d
00000180: ddf0 76bc 1ea2 bc3c b6f5 30be 1f08 873e
00000190: c3f0 d03d 51a6 bbbc cc62 1a3c 7252 a93d
000001a0: 5f57 203c 4cb3 153d f93f e9bc bb58 303e
000001b0: b6e2 b43d 9d1b 153d d5d5 56bd 0839 cabd
000001c0: bd61 5abe f094 0a3c 4c7d 1a3e 9167 903d
000001d0: 0726 f3bd 90ef 1bbe f8f2 a2bd fe83 0cbe
000001e0: bca1 9ebd 7bf4 203e cf73 00be 381e 0dbc
000001f0: 0571 2ebc 857d 14be d856 123d 579f 7fbd
00000200: 3951 8bbd 94e0 af3e d731 e6bd bec0 8d3e
00000210: ceb6 b73d 1667 4c3e 0c9e 153c 4788 c03e
00000220: f3c3 5d3e 39c3 08be 351a a83e 228f a7bd
00000230: 71a3 783e 94ea 01bd d492 24bd 9676 8bbd
00000240: 22ca f93d e5d8 963d b53f 5d3e 3be6 e1bd
00000250: c208 983e 60dc 063e 901b 6c3e 98f2 073e
00000260: 81ac a2bd d7c5 853d dc23 823e e589 8e3e
00000270: 260a 3e3e 6c73 933e 6b45 0c3e bbad 9f3d
00000280: 73f7 583e 65b2 2bbe fae9 91bd 5650 ed3e
00000290: d81b ebbc 8465 ef3d 5b29 913d 2304 cc3e
000002a0: 9cf0 e2bd 8c2d d13e a574 07be bbce 663d
000002b0: 7164 ec3e 942f 0a3e 842c 0cbd c5bf 923e
000002c0: 518a 273e 858d b93c 8669 433e dd9c 503d
000002d0: a87c 643e c2ae 973e 5d2c 583e fe9f 923d
000002e0: 3463 b43e ee37 223e 5e41 7fbe ce52 953e
000002f0: a2c6 4abe fb85 bfbd 8745 123f 00f5 3abe
00000300: 8105 053f b821 a33e f495 003f 6687 f03e
00000310: 10f9 bebe ae1b 743f fdf2 d5be 56bb 353e
00000320: 67b3 f03d ca6f 683c 1760 083f 5a64 6cbf
00000330: 670f 593f 0a22 673f e71b 3dbf 46f9 4a3f
00000340: a8fc 303f 6c42 13bf c861 993d 3f0e 76bd
00000350: c98c 243e 7a62 8e3d 818d 64bd e92a 313e
00000360: 9574 af3c 1901 423c 3477 0c3d e651 bb3d
00000370: 0c18 223d a4c5 953c 304a 113e 3b7d a33e
00000380: 267d 793e d100 a5bd a202 94bd 5b65 1d3d
00000390: 15e6 06be 78fc 5b3e 4d0e 37be 7bd6 4f3c
000003a0: 6538 153e a856 c1bd d5d6 7e3c bf2b 733d
000003b0: 690b e2bd 8a3b ca3c 7f0f 8c3a 9f95 743c
000003c0: 5de3 f1bd 4074 883d 2344 88be 348c 44be
000003d0: ef1e 693d 2098 3d3e 9db1 e83c 1fc2 8abc
000003e0: a0b2 e9bc 2c1e 16bd b9b9 2ebe c595 15be
000003f0: cd6d 5abd d901 05be aa7a 2c3e 7399 a33c
-0.18982917 -0.74383694 -0.3080128 -0.021441197 -0.12873031 0.113812685 -0.29321963 0.12970245
-0.15591948 0.051159747 -0.3872357 0.05323525 -0.018059071 0.24869964 -0.17637837 -0.10015852
-0.113646515 0.1584934 0.07639433 0.12890515 -0.038276765 0.16684617 0.15324931 0.08394925
-0.20157851 -0.1465856 -0.14903878 0.0546016 -0.017796261 -0.01964232 0.14773688 0.18980952
-0.03277833 -0.193888 0.05037866 0.20031428 0.14481233 -0.1229364 0.23346114 0.12449356
0.33954528 -0.33695993 0.2527084 0.19755042 0.5658242 0.07378902 0.15734953 0.66974
0.20869936 0.20411006 -0.7986966 -1.0386916 -0.6916526 1.1199852 1.2974943 0.1491007
-1.1305755 -0.67539656 0.2956353 0.5398973 0.5354523 -0.05620771 0.060619913 0.033432987
0.072856694 0.32732823 0.19108345 0.08024604 -0.15795523 -0.26097926 0.24422215 0.124512546
0.13298337 -0.05429961 -0.03387558 -0.17357558 -0.17809568 -0.13874759 0.15897758 -0.121877834
-0.19320624 -0.0029401374 -0.13700172 0.15139607 0.16257681 0.051935073 0.07939319 -0.024960596
0.11836123 -0.09218348 0.030259619 -0.037521333 0.17427748 -0.02015406 0.22507061 0.03289295
-0.015072075 0.023026522 -0.17281231 0.26373383 0.10202172 -0.022906454 0.009422969 0.08267678
0.009786456 0.036547944 -0.028472887 0.17221348 0.08832304 0.036403287 -0.05245002 -0.09874159
-0.21326347 0.008458361 0.1508686 0.07051004 -0.118724875 -0.15228105 -0.07956499 -0.13722226
-0.07745692 0.15718262 -0.12544177 -0.008613162 -0.010647063 -0.14501007 0.035727352 -0.062407818
-0.06802601 0.34351027 -0.11239975 0.27686113 0.08970414 0.19961199 0.00913192 0.3760397
0.2165678 -0.13355722 0.32832494 -0.08181597 0.24281098 -0.03171785 -0.04017909 -0.06809728
0.12196757 0.07365588 0.21606334 -0.11030241 0.29694182 0.13170004 0.2305739 0.13276136
-0.07943059 0.065318756 0.25417984 0.2783958 0.18558559 0.28798997 0.13698356 0.07796808
0.21188144 -0.16767271 -0.071247056 0.46350354 -0.0286998 0.116892844 0.07087966 0.39846906
-0.11081049 0.40855062 -0.1322809 0.056349497 0.4617038 0.13494712 -0.03422214 0.28661934
0.16361357 0.02265049 0.19083223 0.050930846 0.22313178 0.29625517 0.21110673 0.07159422
0.35231936 0.15841648 -0.2492728 0.29164737 -0.19802335 -0.093517266 0.5713734 -0.18257523
0.51961523 0.31861663 0.5022881 0.469783 -0.37299395 0.95354736 -0.41786948 0.17747244
0.11752968 0.014186809 0.5327162 -0.92340624 0.8478913 0.90286314 -0.738707 0.7928661
0.6913552 -0.57523227 0.074893534 -0.06007218 0.1606933 0.06952377 -0.05579901 0.17301525
0.021417895 0.011841082 0.03429337 0.0914648 0.039573714 0.018282719 0.14188457 0.3193148
0.24364147 -0.08056796 -0.07227065 0.03842674 -0.13173707 0.21483028 -0.17876549 0.0126854135
0.14572294 -0.094403565 0.01555415 0.05936789 -0.110373326 0.024686594 0.001068577 0.014928251
-0.11810944 0.06662798 -0.26614484 -0.19194108 0.056914266 0.18515062 0.028405005 -0.016938267
-0.028527558 -0.036649868 -0.17063035 -0.14607914 -0.05332737 -0.12988986 0.16843668 0.019970631

mlp_vf.0.bias f4 [128]
00000000: 15d2 d4bf 17fc 5f3f 2f66 d8bf a3f3 603f
00000010: 1b3b 9cbf 6267 dc3f 7951 d63f 358f f9be
00000020: ef6d 22bf 0bf0 0240 31fa cd3e 1503 073f
00000030: 3207 0bc0 f4ab b43f 55ae cdbf 4ca2 a1bc
00000040: 78fe dcbf ff2f 03c0 d262 453f e1d9 933f
00000050: 3521 edbf 9254 7a3f 1b87 e63f 0c79 f73f
00000060: ce8c e43f 3ad5 c3bf d2f0 2fbf 1889 20bd
00000070: b817 e33d c0d5 f1bf 5081 5c3f 9c60 063f
00000080: b418 b6bf 0442 843f 93e6 02c0 16b1 96bf
00000090: e41b 3cbf a5c7 d5bf 16bb 1740 a0c1 b1bf
000000a0: cf56 01c0 3939 78bf 70b2 223f eab0 4f3f
000000b0: bc2b d6bf 1f9f 6ebd c6bd e93e fcd7 82c0
000000c0: 0832 1dc0 be60 1f40 a72f 923f 13b9 68bf
000000d0: 57c0 b2bf b2d6 1d40 e0de 1540 2a13 903d
000000e0: 357a 3e40 69e1 0240 e0b1 02c0 1055 783f
000000f0: a39f b5bf 11d5 523f 3948 183f 39d1 fe3e
00000100: 8f05 21bf 500a 843f e914 d4bc 4ef3 b5bf
00000110: 593c 833f 8fb5 bebf dade 103f 6159 babe
00000120: 6517 4b3f 402c c73f 462b 13c0 7720 483c
00000130: 01fd d6be 05bf 3cbd 0e5e f83f 28d6 c53f
00000140: 3682 9bbf 2d0a 703f 2813 d2bd d253 2b3f
00000150: b861 40c0 240f 3c3f 71a9 0dc0 6569 3240
00000160: e3f7 19c0 dcae ecbf e9df e7bf 57ce 62bd
00000170: 2022 ed3f 7695 d83f d62e a0be 36ee 3fc0
00000180: 290a 5b3f 45ef 01c0 e2dc 983f 880d 6abf
00000190: 1215 1c40 51ed fb3e 0c22 fcbc 46d5 14c0
000001a0: cac6 99bd 839a d3be 0897 283f f0c2 2bc0
000001b0: 7ca7 943f f802 803f dbe6 0cbf 00c3 fbbf
000001c0: f11a cfbf 7c10 4f3f 11ad b13e bcb8 adbe
000001d0: be83 c2bf b4e0 b23f 6d60 19bf 5eec 8bbe
000001e0: da42 0a3f 689a 5340 fdcb cabe 6ce6 c53f
000001f0: c2d0 3840 23d4 e93f c557 f2bd 27ac 20c0
-1.6626612 0.87494034 -1.6906184 0.8787176 -1.2205538 1.721905 1.6743613 -0.4874207
-0.63448995 2.045901 0.40229943 0.5273908 -2.1723142 1.4114976 -1.6068827 -0.01973071
-1.7265158 -2.0498044 0.7710391 1.1550866 -1.8525759 0.97785294 1.8009981 1.9333816
1.785547 -1.5299447 -0.6872684 -0.039193243 0.11088508 -1.8893356 0.86134815 0.52491164
-1.4226289 1.0332646 -2.0453231 -1.1772792 -0.7348006 -1.6701552 2.3707938 -1.3887215
-2.0209234 -0.96962315 0.63553524 0.81129324 -1.6732097 -0.05825722 0.45652598 -4.0888653
-2.4561787 2.4902797 1.1420792 -0.909074 -1.3964947 2.466229 2.3417282 0.07034905
2.976209 2.045008 -2.0421066 0.97004795 -1.4189342 0.82356364 0.59485203 0.49769
-0.62899107 1.0315647 -0.025888877 -1.4214876 1.0252792 -1.4899157 0.56590044 -0.36396316
0.7933257 1.5560379 -2.2995162 0.0122147715 -0.41989902 -0.046080608 1.9403703 1.545598
-1.2149112 0.93765527 -0.1025756 0.66924775 -3.0059643 0.734606 -2.213467 2.7876828
-2.4057548 -1.8490863 -1.8115207 -0.055372562 1.8526039 1.6920612 -0.31285733 -2.9989142
0.8556238 -2.0302289 1.1942408 -0.914269 2.438786 0.49204496 -0.030777954 -2.3255172
-0.07508619 -0.4132882 0.65855455 -2.683773 1.1613612 1.0000906 -0.5503976 -1.9668884
-1.6180097 0.8088453 0.34702352 -0.33930004 -1.5196455 1.3974824 -0.5991276 -0.2732877
0.5400826 3.3062992 -0.39608756 1.5460944 2.8877416 1.8267864 -0.11833147 -2.5105073

mlp_vf.2.weight f4 [128, 128]
00000000: dada b2bd 05e7 7c3e 0b18 38bd d0b6 8c3d
00000010: 9dec 733c 2362 df3e 515d de3e a400 cabe
00000020: ef7d 24bb 5607 0c3f 31f1 523e 794e 92bd
00000030: c694 3bbe 31ef c13d 3c54 33be d87f 83bd
00000040: b78c 43be f105 a6be 8db3 e7bd 43d6 0ebe
00000050: 8f33 00bf 4e38 cbbc fb46 0a3d da62 053e
00000060: 0f09 263e f27e 913e 2adc bfbd 539b 06bf
00000070: 8b97 9cbe 759e 82be 14a2 563e deee 4abe
00000080: 1421 dabe e54a 203e 33c1 eebe 3e3f 00bf
00000090: 5f9b fdbe 0977 13bf f728 bbbd 36bd 8a3e
000000a0: 9701 f13d 3449 c9be 6c9b 9abd a562 063e
000000b0: 54c2 223f ef21 e23b 9e6d ab3e 5a51 9bbd
000000c0: 43dc 3fbe 68c4 1f3d c3b8 973e 996c e8be
000000d0: 4a24 0e3e fee1 8a3d dde6 073f 1012 533d
000000e0: 16c6 023f cd75 633d 6a62 23bf 1702 ddbd
000000f0: 9453 f93e 5ec6 213f 946f 48bc 6a93 d5be
00000100: 6c82 15bf 0269 183e aa81 aebe e5a7 653d
00000110: 678f 58be 43de 83be f9b9 35bd cf67 d2be
00000120: bdcd b43c 2291 4abe d6b7 dfbe 1fec b63c
00000130: 50de 5bbe 2034 7dbe 7987 8f3e 810f c53e
00000140: db01 b3bd 3b2d aa3e 52aa 80be b21a 2e3e
00000150: 6195 b6be d84c d0bd 3862 923e 1ecd 793e
00000160: 0ded e1be c5a6 4abd d528 a8bd 5da7 8cbe
00000170: 1044 d9bd d67e e03d 3c27 82be 6a81 56be
00000180: ede4 023f 4626 a0be defa a23d e853 62bd
00000190: 0c9a 813e 528b 8abd 7599 763e 9919 3abe
000001a0: 4870 00bf 212d fb3e eecf debe 847e 9dbe
000001b0: 86c1 14be 0ad4 8f3e e23d 80bd 1222 27be
000001c0: e74a dcbe 738d 223e 9415 073e 005f b9bd
000001d0: 4db2 b5bd ff17 1a3e 9591 4abd 5e6f cebd
000001e0: 50f4 fabe e4c6 533e 8db2 bfbd 2f3b 9a3e
000001f0: 01bc a4bd db11 be3e 9aa3 04bd f7e8 b1bd
00000200: a80b bd3d 06fb 0abb 2466 453e 7de7 8e3e
00000210: 0c5d ab3d 77f9 c6be 5f1e 04bf ef6c 903e
00000220: d602 59bc 99eb 6cbe 80dd 25be d3c8 49be
00000230: d009 5c3e dff7 9abe c244 003f 0d50 5bbe
00000240: c9bb ae3e b3bc d13d 7cb1 2abe 81e6 17bf
00000250: f788 943e cb24 7fbe 273f 63be d9a2 f9bd
00000260: 4dee 023e 34dd debd 6792 bd3e 528f 623e
00000270: 5c00 4b3e 7353 6abd d066 b7be a483 263e
00000280: 60ca 6c3d e557 3bbe a16c 093e 41f9 653e
00000290: 5ffb e93e 0453 a0bb d554 623e b0ab ea3c
000002a0: c8ee 4cbe 6e4c da3e 8150 cd3d d7ef 513d
000002b0: 7b3b e7be c548 babc ae75 6dbe d5c9 603e
000002c0: 318c 033d d225 833e e9b1 efbe 5b71 2a3f
000002d0: 3cf8 39bd e9c7 fdbd cf9d 59be 0e59 a8be
000002e0: e872 03bc 0e16 ecbd 4001 2f3e f169 823e
000002f0: 9774 f7bd 9aa6 9dbe 45b2 833d 9d45 b53e
00000300: 7e8d 573e 9923 5cbe 1f35 b73e 2ca7 bc3d
00000310: 5fe4 68be b3a0 c33e f58f 463c ab75 ba3e
00000320: 3bfa 853e 9a80 44be 78c9 703e 83ff 2c3e
00000330: 0849 e8bd fd68 193f 8048 16be d276 2bbe
00000340: 0dad 523e 5610 d8be e671 713d 6f0b 37be
00000350: 863f 833e 8774 8cbd 7957 87bd 0c35 2abe
00000360: 22ad 723e d004 e23d a293 643e 5a14 383e
00000370: cfe4 42be c6fc 3bbe 18ef ab3e 8412 8a3e
00000380: 7299 e4be d415 bf3e 4cf3 bdbc 0ec3 8e3d
00000390: 31c6 58be bf24 903e 6315 40be 3c9d 3c3e
000003a0: a1a8 a93e b42f 01be 9c33 8b3e 4a66 ad3c
000003b0: 291b 883e 6c1f a1be e423 4abe aaaa ad3e
000003c0: c48d b93e e65d 5d3c 29bf 53be 2907 a13e
000003d0: ce02 d83b de8c 3bbe 7bfe d43d 5526 37bd
000003e0: be64 0b3e 9343 f3be fc9b d73d 464c 78bd
000003f0: 4511 ffbb c809 23be 3611 39be 16f6 a33e
-0.08733149 0.24697502 -0.044944804 0.06870806 0.014887956 0.4362956 0.4343057 -0.39453614
-0.0025099476 0.54698694 0.2059982 -0.07143874 -0.18318471 0.0946945 -0.17512602 -0.06420869
-0.19096647 -0.32426408 -0.113135435 -0.13948922 -0.5007867 -0.024807122 0.0337591 0.1302599
0.16214393 0.28417164 -0.09368165 -0.52580756 -0.30584368 -0.25511518 0.20960265 -0.19817683
-0.42603362 0.1565357 -0.46631774 -0.500965 -0.495326 -0.5760351 -0.09138673 0.2709748
0.11767881 -0.39313662 -0.075491756 0.13123567 0.6357777 0.006901018 0.3348207 -0.07583876
-0.18736367 0.039005667 0.2963315 -0.45395353 0.1388103 0.06781386 0.53086644 0.051530898
0.51083505 0.055532265 -0.6382204 -0.10791414 0.48696578 0.6319331 -0.012233634 -0.4171403
-0.58402133 0.14883807 -0.340833 0.05606832 -0.21148454 -0.2575551 -0.04436681 -0.41094825
0.02207076 -0.19781926 -0.43694943 0.022329388 -0.21471524 -0.24726915 0.28033045 0.3848839
-0.08740588 0.33237633 -0.25129944 0.17002371 -0.35660842 -0.10170907 0.2859056 0.24394652
-0.44126168 -0.04947545 -0.08210913 -0.27471438 -0.10608685 0.10961692 -0.25420558 -0.20947805
0.51130563 -0.312792 0.07958005 -0.0552558 0.2531284 -0.067648545 0.24081977 -0.18173827
-0.5017133 0.49057868 -0.43518013 -0.30760586 -0.14526948 0.2809146 -0.06261803 -0.1632159
-0.43025896 0.15874271 0.13191825 -0.09051323 -0.08871899 0.15048216 -0.049455244 -0.10079835
-0.4901452 0.2068134 -0.09360228 0.30123278 -0.080436714 0.37122998 -0.032382585 -0.08687013
0.09230739 -0.002120675 0.19277245 0.27910987 0.08367357 -0.38862202 -0.5160884 0.2820811
-0.013245305 -0.23136748 -0.16197777 -0.19705515 0.21488118 -0.30267236 0.50104916 -0.21417256
0.34127644 0.1024107 -0.16669267 -0.59336096 0.29010746 -0.24916379 -0.2219206 -0.12189264
0.12786217 -0.10882035 0.3702576 0.22124985 0.19824356 -0.05720849 -0.35820627 0.16261154
0.057810187 -0.18295248 0.13420345 0.22458364 0.45699593 -0.0048927087 0.22102673 0.02864632
-0.20012963 0.42636436 0.100251205 0.05125412 -0.45162567 -0.022739777 -0.23189422 0.21951993
0.03211612 0.25614792 -0.46815422 0.66579217 -0.04540275 -0.123916455 -0.21251605 -0.32880443
-0.008023001 -0.11527644 0.1709032 0.25471452 -0.120827846 -0.3079117 0.064304866 0.35404673
0.21050069 -0.21497954 0.35782716 0.09211573 -0.22743367 0.3820854 0.012119283 0.364179
0.26167473 -0.19189683 0.23514354 0.16894345 -0.113420546 0.59925824 -0.14676094 -0.16744545
0.20573826 -0.42199963 0.058946513 -0.17875455 0.25634402 -0.06858163 -0.06608481 -0.16621798
0.23698857 0.11036074 0.22321942 0.17976514 -0.19032596 -0.18358144 0.33580852 0.2696725
-0.4464832 0.3732134 -0.023187302 0.069707975 -0.21169354 0.28153035 -0.18758158 0.18419355
0.33136466 -0.12615854 0.27187812 0.02116694 0.26583222 -0.31469285 -0.19740254 0.3391927
0.3624097 0.013511157 -0.2067839 0.31450775 0.006592131 -0.18315455 0.10400101 -0.04471429
0.13612649 -0.47512493 0.105277985 -0.060619615 -0.007784041 -0.159217 -0.18072972 0.32023686

mlp_vf.2.bias f4 [128]
00000000: 198a 8f3d 5676 09be 64be bdbe 8699 41be
00000010: 0a5b f03c 72e6 ac3e 54f3 c33e 049d 0f3f
00000020: b331 20be 0e01 17be fda7 123e 65d3 5d3e
00000030: 2386 f4be f622 273d 726d ad3e 30ff 1e3e
00000040: fe75 383e 895e b5bd cc85 003e a6b9 4d3e
00000050: daca 51be 138e d4bd 688d 7a3e fd27 6b3e
00000060: 3516 883d 574b 403e 1cc7 b13e 6beb 0f3d
00000070: 7001 ee3d a993 93be e4cc 66be 225f 683e
00000080: a59b c33d bb0f 11be 0ce2 cebd 2733 25be
00000090: f15e 10be a8cb 353e d3a5 0e3e e075 80be
000000a0: b03a a3be 3ea0 a63e 0041 17be e903 a93e
000000b0: 2f74 8b3e 4b19 18be 4b28 99bc 734b 043e
000000c0: 718a b4bc 60d7 c53d bff7 423e f536 a03c
000000d0: 2279 6ebe a54b c8bd bd63 993d 46e9 653d
000000e0: 04c5 803e 9115 a63e bdee 4ebe 72da c53d
000000f0: 3487 893e 4696 9a3d b913 f63d 4a69 5e3e
00000100: 7bb0 e33d 9e9a 35be 36b5 47be f7e7 b33d
00000110: 1538 af3e 8db8 d6ba ceda f53d 95cb 9b3e
00000120: 44ec 26bf 4f15 613d a9ee d03d 1410 1abe
00000130: cd20 783e caa2 533e 247f b93e 58da 92bd
00000140: cb69 14be 39e8 b43d 311a e4bc cf20 0dbe
00000150: 452b 72be a073 213e ef46 3a3e b782 e6bd
00000160: d760 37be 71a5 25be 6dae 68be 0e92 e73e
00000170: 8db2 b13e c12c f6be 3c1e 17be b00e 66be
00000180: 1194 4abd aa02 0b3e 1f99 a73e a124 07be
00000190: e320 d3bd 5d6f da3e a1c5 973d d8ef 643e
000001a0: b71b e3bd 5709 1abe 388d 84be 0174 f63e
000001b0: 0281 74be 06ce 023e cf0d a7bc 543c 693d
000001c0: 4b3a d2bc 0882 253d a83a 99be a696 36bd
000001d0: b4cf 0cbe 7569 9cbe 836b 0dbc 4c57 d7bd
000001e0: 94e6 91be 4757 893d 3d31 a9be e92d d6bd
000001f0: 988d 04bd dd9a 5a3e 2401 a93e 286f 08be
0.07008762 -0.13424048 -0.3705932 -0.18906221 0.029340286 0.33769566 0.38271582 0.5609896
-0.15643959 -0.14746496 0.14321895 0.21662672 -0.47758588 0.040804826 0.33872563 0.15527034
0.1801376 -0.08855922 0.1255104 0.2009035 -0.20487538 -0.10378661 0.24468005 0.22964473
0.06644861 0.1877874 0.3472222 0.03513662 0.11621368 -0.28823593 -0.22539097 0.2269254
0.09551171 -0.14166157 -0.10101709 -0.16132794 -0.14098717 0.1775347 0.13930444 -0.2508993
-0.31880713 0.3254413 -0.1477089 0.33010796 0.2723708 -0.14853399 -0.018695971 0.12919407
-0.02203867 0.0966022 0.1903982 0.019557456 -0.23288396 -0.09780053 0.07489727 0.05613067
0.2515031 0.3243833 -0.20208259 0.09660806 0.26860964 0.07548194 0.120154805 0.21719852
0.11117645 -0.17734763 -0.1950272 0.08784478 0.34222475 -0.0016381905 0.12004624 0.30428758
-0.6520426 0.054951962 0.10201771 -0.15045196 0.24231263 0.20667568 0.36229813 -0.07170552
-0.14493482 0.088333555 -0.02784452 -0.13782047 -0.23649319 0.15766764 0.18191122 -0.11255401
-0.17908035 -0.16176392 -0.22722788 0.45228618 0.34706536 -0.4808102 -0.14757627 -0.2246654
-0.049457613 0.13575235 0.3273401 -0.13197567 -0.10309007 0.42663088 0.074107416 0.22357118
-0.110892706 -0.15042625 -0.2588899 0.4813538 -0.23877338 0.12773904 -0.020392327 0.0569423
-0.025662562 0.04040721 -0.29927564 -0.044577263 -0.13751107 -0.30549207 -0.00863159 -0.105146974
-0.2849623 0.067061 -0.33045378 -0.104579754 -0.032361597 0.21348138 0.33008683 -0.13323653

action_net.weight f4 [127, 128]
00000000: dd28 7f3f 0450 bc3e 5199 8abe a0ff 6f3f
00000010: 800f 4dbf 14dd 1840 5e39 bcbe 3865 b7bf
00000020: baae 903f aa21 5dbf 384b cebe dd6e 2a40
00000030: bbd8 99bf dc6b e33f b608 09c0 c02b 67bf
00000040: c336 3cc0 11ab 2d3e 8592 90bf 2931 fb3e
00000050: 8f20 a4bf 7e0b efbf 97ce 843f c894 563f
00000060: a99e d2bf c0c0 80be 78c1 8fbf 938e 62bf
00000070: d900 ebbf b3cc c0bf 95dd 0440 16a1 923f
00000080: d70d febf 710a c6bd c8da f63e f174 33bf
00000090: 5ce3 41bf 7149 913f a576 953f d02c 96be
000000a0: 960a 693e c759 d63f 522e 09bf 7ef9 953f
000000b0: 0c29 5bc0 e241 303f 6c48 a6bf e512 ed3e
000000c0: 6a03 2a40 6ced a13f 5c84 46c0 a710 823f
000000d0: 132a ab3f 68c7 3f40 8bd9 b93f 7249 dc3f
000000e0: a981 97be 7ceb 03c0 a696 0440 3a89 483e
000000f0: 8fae 63bf 8b8a 9b3f ddd6 4240 aa9c afbf
00000100: 639b eebf ef73 e3be 1354 84bf 7968 05c0
00000110: 243f 073f c3d4 853f 513b 713f c0df b23e
00000120: 5612 d5bf 106f 2740 f7b8 283f e960 0a40
00000130: 3332 04c0 9b49 0440 d083 dbbf fe22 03bf
00000140: b36b d5bc fa64 433f 8ec9 5cbe 09c5 14c0
00000150: 7665 d4bf 11f1 59bf fc92 6fbf 0712 3840
00000160: a759 3cbe e766 b9bf ade5 17c0 3a17 85bf
00000170: d4aa 0cbf 53f2 7e3f 9c57 143f 8c40 f9bf
00000180: c976 333f 9cfc d6bf 3cc7 59bf 0105 bcbe
00000190: 86cb b3bf 0b05 03c0 e593 1f3f 43b3 5fbe
000001a0: b2ef 6fbf cf8e 253f b2ec 613f 9659 3940
000001b0: 7a5c b6bf be31 1c40 54b7 1fc0 f80e 0dc0
000001c0: c335 ae3f 1980 883f 35fb db3e b12d 81bf
000001d0: 14c8 11c0 5f50 b7bf a0f1 853f d5bf dabf
000001e0: 1633 253f 84a9 ddbf a9f2 fdbe 7d89 e2bf
000001f0: 0795 1cbf 7c5c e8bf 95af e8bf 5b57 65be
00000200: abce 943f 57a9 0f3f e1f6 1c3f 5d6c c43f
00000210: e36e 58bf 5677 ff3f a9cf 9a3f b8de 07be
00000220: e830 7ebf 45f0 96bf e4aa 45bf 045d c63f
00000230: 98a7 053f 2389 773f adca c5bf 52d3 6cbf
00000240: 7d52 edbf d945 a73f 4846 b4be d9e2 d23f
00000250: a1fe 15bf 25bc e4bf 9e21 df3f e901 7fbe
00000260: a515 363e 53b1 2ebf 56af 6c3f 9c84 7cbf
00000270: dc93 82bf f95d 62bf fa4d f43e d76e ccbe
00000280: 719d d1bf 7015 9dbe 989f 063d 1a16 99bc
00000290: b504 b73f 6e17 133f 6e2d 203f 02fa 14bf
000002a0: ae70 94bf a921 7b3f 642a a0be c52a b03d
000002b0: 2c5d b9bf 28f6 1e3f 13d9 103e 46d2 87bf
000002c0: f50d 923f 72ad e93f 9232 a0bf e4a3 913f
000002d0: ab5d 553f 4eda b53f 0386 c53f 3141 0140
000002e0: 281b c6be 9757 c4bf 78de 973f 67e0 823d
000002f0: f3f2 343f 5920 8a3f 18bc 0bbd 1750 fcbe
00000300: d282 ebbf b912 d3be 3d6b ae3f 2fe8 a3bf
00000310: 2fb9 bb3e 7db3 9c3f b858 003f e612 733e
00000320: 1d7b 58bf 4a0f 903f 91a1 a4bf 8655 573f
00000330: a6e5 bfbf e02f 4a3f 55f7 a3bf 35cd 1a3f
00000340: 969b ff3e b020 dfbd 6a7d 2f3f 49be 00c0
00000350: 9e55 95bf 8723 073f 69a2 8ebf 4417 b83f
00000360: 9ce3 773f d380 343e 0c96 c5bf 01d8 903f
00000370: 41c1 89bf b5ef d93e d9ba 35bf 2ab5 89bf
00000380: 90a3 543f 1b5b 74bf 8e1b 4a3f 8e05 0740
00000390: b328 8fbf 7197 03c0 b9c4 943e ec11 bf3f
000003a0: aca9 96bd bb5b 5ebf e830 363f 0a70 0040
000003b0: 76e1 38bf eacb 8d3f c5bc b3bc c838 babe
000003c0: 2ace 5d3f 342d babf 7cf4 9c3e 883a fcbe
000003d0: 04b2 dfbe 9ad8 1ebe 864d 263f d076 933e
000003e0: f66f 453f 03b1 04c0 2b37 823e 6cdb 92bf
000003f0: 6500 89bf 14b8 d8bf ce29 98be 3200 6dbf
0.9967173 0.36779797 -0.27070096 0.9374943 -0.80101776 2.3884935 -0.36762518 -1.4327765
1.1303322 -0.8637949 -0.40291762 2.6630166 -1.2019266 1.7767291 -2.1411567 -0.9030113
-2.9408424 0.16959788 -1.1294714 0.49060944 -1.2822436 -1.8675382 1.0375546 0.8382077
-1.6454669 -0.25147057 -1.1230917 -0.884988 -1.8359634 -1.5062469 2.0760243 1.145541
-1.9847974 -0.0966996 0.48213792 -0.70100313 -0.7573755 1.1350538 1.1676832 -0.29331064
0.22757944 1.6746148 -0.53586304 1.1716764 -3.4243803 0.6885053 -1.2990851 0.46303478
2.6564584 1.265058 -3.1018286 1.0161332 1.3372215 2.9965458 1.4519514 1.7209914
-0.2959111 -2.0612478 2.0716949 0.19583598 -0.8893823 1.2151655 3.0443642 -1.3719685
-1.864117 -0.44424388 -1.0338157 -2.0845015 0.5283072 1.0455555 0.94231135 0.34936333
-1.6646221 2.6161537 0.65907234 2.162165 -2.065564 2.0669925 -1.7149601 -0.5122527
-0.026052332 0.76325953 -0.21561262 -2.324526 -1.6593463 -0.85133463 -0.93583655 2.8761003
-0.18393575 -1.4484528 -2.3733933 -1.0397713 -0.54948163 0.9958851 0.5794618 -1.9472823
0.70103127 -1.679584 -0.8506963 -0.36722568 -1.4046485 -2.0471828 0.62335044 -0.21845727
-0.9372512 0.64671034 0.88251793 2.896093 -1.4246972 2.440536 -2.4955645 -2.2040386
1.3610157 1.0664092 0.42965093 -1.0092069 -2.2778368 -1.4321402 1.0464363 -1.7089792
0.64531076 -1.7317357 -0.49599198 -1.7698208 -0.611649 -1.8153224 -1.8178583 -0.22396605
1.162557 0.5611777 0.6131421 1.534557 -0.845442 1.9958293 1.2094623 -0.13268554
-0.99293375 -1.1792074 -0.77213883 1.5497136 0.5220885 0.9669363 -1.5452477 -0.9250995
-1.8540798 1.3068191 -0.3520987 1.6475478 -0.5859166 -1.7869917 1.7432134 -0.24903072
0.17781694 -0.68239325 0.9245504 -0.98639846 -1.0201373 -0.8842464 0.4771574 -0.39928314
-1.6376172 -0.30680418 0.032867044 -0.018687297 1.4298311 0.57457626 0.6256932 -0.5819398
-1.1596887 0.98098236 -0.3128234 0.08601908 -1.4481559 0.62094355 0.14145307 -1.0611045
1.1410509 1.8256056 -1.2515433 1.137814 0.8334605 1.4207246 1.5431522 2.019604
-0.38692594 -1.533923 1.1864767 0.063904576 0.7068321 1.0791122 -0.034114927 -0.49279854
-1.8399298 -0.41225222 1.3626477 -1.2805232 0.3666472 1.2242275 0.50135374 0.23737678
-0.84562856 1.1254666 -1.2861806 0.84114873 -1.4991958 0.789793 -1.2809855 0.6046937
0.4992339 -0.108949065 0.6855074 -2.011614 -1.1666753 0.52788585 -1.1143314 1.43821
0.9683168 0.17627268 -1.5436416 1.1315919 -1.0762101 0.42565694 -0.7098823 -1.0758412
0.83062077 -0.95451516 0.78948295 2.109714 -1.1184295 -2.0561182 0.29056337 1.4927344
-0.07356581 -0.8685872 0.71168375 2.0068383 -0.72219026 1.1077855 -0.021940598 -0.36371446
0.86642706 -1.4545045 0.30655277 -0.49263406 -0.43690503 -0.15512314 0.6496204 0.28801584
0.77123964 -2.073304 0.25432715 -1.1473212 -1.0703245 -1.6931176 -0.29719394 -0.92578423

action_net.bias f4 [127]
00000000: 52ae 4540 bdc6 b9be c4cc f63f 008f f93f
00000010: ae58 1640 7634 be3f 1648 0f40 b995 d33f
00000020: 1b34 a03f 82e4 1740 a5ce c03f 2e13 5040
00000030: 2f5c 0140 a2b8 e83f 10c2 0c40 4a99 db3f
00000040: 559a f93f 67b8 dc3f f1b3 0140 d370 f83f
00000050: f6d3 1c40 c9e6 1540 8922 f63f c785 0040
00000060: 488d f93f d746 0440 b2fd ff3f 94bf e83f
00000070: 4ac6 0340 0e4e d63f b069 f23f 21b7 f73f
00000080: d882 3040 a407 0540 a334 c63f 7d13 dd3f
00000090: 20a6 f23f 74da df3f a509 c53f ed08 e53f
000000a0: 6645 823e fcbe 2dbe f561 55bf f2cb c3bf
000000b0: 9955 01c0 3c46 dbbf 1039 a1bf 4a02 d0bf
000000c0: afd4 b1bf 484f ecbf b6ec f7bf 2076 08c0
000000d0: 6eb9 04c0 d154 fbbf dec2 07c0 11d5 0dc0
000000e0: ac45 11c0 0479 2dc0 c818 37c0 4972 08c0
000000f0: 0355 26c0 b264 1bc0 9f5d 0dc0 9f4f 2cc0
00000100: f379 2bc0 ac2a 1fc0 65dd 30c0 4077 1ac0
00000110: 578d 60c0 0f85 31c0 c38d 8dc0 db00 27c0
00000120: 52c5 8cc0 6fa4 12c0 12a9 8cc0 4b89 31c0
00000130: 0a5c 5fc0 f58b 8cc0 34d7 8cc0 23cd 4cc0
00000140: 17d5 8cc0 ccde 8cc0 96b2 8cc0 14be 5fc0
00000150: a4db 8cc0 a551 60c0 66b8 60c0 2b83 8cc0
00000160: 14cb 5fc0 37e3 8cc0 967b 8cc0 a3a8 8cc0
00000170: a5a0 8cc0 ada0 8cc0 6356 8cc0 00ba 60c0
00000180: 9ae0 5fc0 1ed6 8cc0 80dc 60c0 0eba 62c0
00000190: f5e9 8bc0 f2a4 8cc0 11a6 8cc0 c9be 8cc0
000001a0: 1ccc 8cc0 fdd5 8cc0 b516 8dc0 68a0 8cc0
000001b0: 35d1 8cc0 d5a1 8cc0 9dd4 8cc0 0b55 60c0
000001c0: 608d 60c0 784c 8cc0 de87 79c0 caee 5fc0
000001d0: bae3 8cc0 a8c4 8cc0 37a4 8cc0 94b0 8cc0
000001e0: 3dda 8cc0 2cd1 8cc0 6674 60c0 cea7 60c0
000001f0: 91d4 8cc0 21d9 8cc0 539f 8cc0
3.0887647 -0.36284438 1.928124 1.9496765 2.3491626 1.485976 2.2387748 1.6530067
1.2515901 2.373322 1.5063063 3.2511706 2.0212514 1.8181345 2.1993446 1.7156155
1.9500223 1.7243775 2.0266078 1.9409431 2.450437 2.342211 1.9229289 2.0081651
1.9496241 2.0668237 1.9999297 1.8183465 2.0589776 1.674257 1.8938503 1.9352762
2.757986 2.0785913 1.5484813 1.7271572 1.8956947 1.7488542 1.5393568 1.7893349
0.25443572 -0.16967386 -0.83352596 -1.5296614 -2.0208495 -1.7130809 -1.2595539 -1.6250699
-1.3893031 -1.8461695 -1.9369113 -2.1322098 -2.0738177 -1.9635259 -2.1212687 -2.2161295
-2.2698774 -2.7105112 -2.8608875 -2.1319754 -2.5989387 -2.428021 -2.2088392 -2.6923597
-2.6793182 -2.4869795 -2.7635128 -2.4135284 -3.5086267 -2.7737463 -4.423555 -2.6094272
-4.399087 -2.2912862 -4.3956385 -2.7740047 -3.4899926 -4.3920846 -4.40127 -3.2000206
-4.401012 -4.402197 -4.3968 -3.4959764 -4.4018116 -3.5049832 -3.5112548 -4.3910117
-3.49677 -4.402736 -4.390086 -4.3955855 -4.39461 -4.3946137 -4.3855453 -3.5113525
-3.4980836 -4.4011374 -3.5134583 -3.5426059 -4.372309 -4.395135 -4.395272 -4.398289
-4.3999157 -4.4011216 -4.409022 -4.394581 -4.400538 -4.394755 -4.400954 -3.5051906
-3.5086288 -4.3843346 -3.8989177 -3.4989495 -4.4027987 -4.399006 -4.3950458 -4.396555
-4.4016404 -4.4005337 -3.5071044 -3.510242 -4.400948 -4.401505 -4.3944488

value_net.weight f4 [1, 128]
00000000: 286e 0dbf 7a48 01bf 0839 ac3f d6ba 86be
00000010: 088d 883e cc63 aa3e dd12 34be c006 edbe
00000020: e070 adbe 08f4 61be e563 c33e 7015 a4be
00000030: 6b29 00bf 1271 5e3e d702 18bf 66f6 233e
00000040: 9582 423e 831c c3be d362 453e 5960 833d
00000050: fc8e 703d cf3b 92bf 83f9 2fbf 33d7 e5be
00000060: d56c 62be 6592 753f 5601 4dbf b857 02be
00000070: ba71 b73e dac3 593f 3f56 9d3d 5404 f03d
00000080: 0925 c53e c0bf f8bd 48e8 1fbe 6845 763f
00000090: 685f b0bd 6d34 613f d6b4 c93e 0d33 6fbf
000000a0: c4b9 f6bd 8b1f b1bf 9a16 00c0 5c52 1abe
000000b0: 260d 71bf f5c8 2fbd 4af4 de3e 8b10 dc3d
000000c0: 1313 b3bf 7d34 513e 18b8 5fbf b41c 6e3e
000000d0: 7ad9 c7b9 9d07 90be c9c5 ba3f 6585 9a3e
000000e0: f1dd a3bf 7c46 4bbf 2174 5dbe 9b80 0abe
000000f0: 0577 babe 3f50 7a3e 2e8f 56bf c5bf 163e
00000100: c0ec d6bf ec34 243f 63bf 50bf 6b24 663e
00000110: 61a5 3abf 416a b0be 4fcf 8fbf 36d1 e43e
00000120: 7584 0b3f 39a1 153f 2346 253f aeb9 103f
00000130: fc2c b23e f749 0dbf ef4b 2bbe 7f43 99be
00000140: b226 713e 2622 603e 7ab6 31bf 3f8d e6be
00000150: fec2 0c3f 0551 c83f 2163 343e f0fd 07bf
00000160: d0ff c93e 0179 b2bd 0218 05bd b12f 8bbe
00000170: fa34 1dbe 5d65 00bf c0ce b03e ae34 2cbe
00000180: 3951 fcbe eb2e b8bd 9923 88be 84b5 a1be
00000190: 2010 f4be 634c 0b3f 9c8b 0ac0 7335 453e
000001a0: d5da a0be 7061 c4be f726 17bf a0b2 82bd
000001b0: 7327 c8be 90ac ad3e e77a d4bc abd9 843f
000001c0: 6c8a 783f 5c47 673f cf21 013f 7edb 3b3f
000001d0: 6b15 d03d 7749 883f 8f5b 38bd ac1f 47bf
000001e0: 02d4 83bf 5c45 e2bd 4597 683f 5ced 89be
000001f0: a9a1 f5bf b71d ff3d 4bc1 c43e 4c38 3b3f
-0.5524621 -0.50501215 1.3454905 -0.2631442 0.26670098 0.33279264 -0.17585321 -0.46294212
-0.3387518 -0.22065747 0.3816215 -0.32047606 -0.500632 0.2172282 -0.59379333 0.16011962
0.18995126 -0.3810769 0.1927598 0.06414861 0.05873011 -1.1424502 -0.687401 -0.44890746
-0.22111829 0.95926505 -0.80080163 -0.12728775 0.35828954 0.8506447 0.07682466 0.117195755
0.38504818 -0.121459484 -0.15615952 0.96199656 -0.08611947 0.8797062 0.3939578 -0.9343727
-0.12047151 -1.3837751 -2.0013795 -0.1507048 -0.9416069 -0.042916257 0.43545753 0.10745343
-1.3990196 0.20430179 -0.8739028 0.23253137 -0.0003811827 -0.28130808 1.4591609 0.30179897
-1.2802106 -0.79404426 -0.21626331 -0.13525622 -0.3641893 0.24444674 -0.83812225 0.14721592
-1.6791 0.6414325 -0.8154203 0.2247483 -0.729086 -0.34456065 -1.123514 0.44690865
0.5449899 0.5844913 0.64560145 0.56533325 0.34799945 -0.55190986 -0.16728185 -0.29934308
0.23549917 0.21888027 -0.6941906 -0.45029637 0.54985034 1.5649725 0.1761594 -0.5312185
0.39452982 -0.08714486 -0.0324936 -0.27184823 -0.1535224 -0.5015467 0.34532738 -0.1681697
-0.49280718 -0.08993324 -0.2658966 -0.31583798 -0.47668552 0.5441343 -2.164771 0.1925867
-0.31416956 -0.3835559 -0.5904383 -0.06381726 -0.39092597 0.33920717 -0.02593751 1.0378927
0.97086215 0.9034326 0.5044221 0.73381793 0.10160335 1.064742 -0.045009192 -0.777827
-1.0299075 -0.110483855 0.9085582 -0.26938903 -1.918996 0.124568395 0.3842872 0.7313278
