kayles_80pins.onnx (onnx, 332465 bytes, 11 tensors)

mlp_pi.0.weight f4 [128, 128]
0.464376 0.7045068 0.415384 0.15034549 0.53350323 0.5954937 0.2641926 0.22238077
-0.04304579 -0.8354196 -1.1735259 -1.1490914 0.67888576 0.3144955 0.17022099 -1.5134217
-1.7052212 -2.0329669 -0.57896113 0.15462978 0.23567136 0.37506598 0.369448 0.56200236
0.39998493 0.5025158 -0.17676961 -0.53125185 -0.1793063 -0.1924963 -0.8765678 -0.5209912
0.17539234 -0.13019307 -0.18460284 -0.45272043 0.45836967 0.2604596 0.031557303 0.018895552
0.18650298 0.7397209 0.085887775 -0.5728234 -0.41048524 0.5992194 0.20865141 -1.0063534
-1.2027723 -0.16888264 -0.03845727 -0.98861474 -1.3944426 -0.49176493 -0.23788793 -0.7737757
-0.04617565 0.25840983 -0.1323125 -0.01770996 0.4822592 0.3042031 0.6977474 0.2299088
0.27900347 0.2051844 0.33598393 -0.26551312 0.4761431 0.16309348 0.39213443 0.008884185
-0.014781104 0.00075580773 -0.14970042 0.50676167 0.35404158 -0.049497228 0.025600918 0.22954425
-0.20078377 -0.032013584 -0.034350693 -0.27809 -0.009146648 -0.07936793 0.08562283 0.15479183
0.0014735027 -0.10803074 0.17531164 -0.19312672 -0.095993586 -0.08565666 0.19394663 0.093827985
-0.13696732 -0.05053263 0.0013832293 0.063729234 0.0640603 -0.051725116 0.1088044 0.014111706
0.1584315 0.111285664 -0.0025105176 -0.075564526 -0.08504269 -0.06657803 -0.000121473626 -0.012640971
-0.04998602 -0.07479596 0.00304345 0.17893124 0.044977024 -0.22448778 -0.023636742 0.033682697
-0.1283173 0.047164816 0.23099458 0.015953114 -0.09033749 0.25656143 0.014030664 0.06450724
-1.3286694 -1.7135332 -0.7544403 0.57632965 0.66035336 0.1700391 0.05576874 -0.26692793
0.6147807 0.09641059 0.7036537 -0.4755644 0.44560924 0.306128 -0.05329301 0.5373345
-0.32186952 -0.37145153 -0.40585452 -0.076995455 0.022270346 0.37461025 -0.049665615 -0.9552241
-0.92266804 0.18882261 0.12089772 -0.5910052 0.29289106 -0.056570277 0.11454126 -0.2554246
0.011865982 0.6932138 0.08551865 0.49604902 0.19608487 -0.22380158 -0.23347041 -1.3119862
-1.3272039 -1.1233094 -0.653915 -0.0813763 -0.026604366 -0.132158 0.42260668 -0.27412677
-0.10047346 0.36231926 0.4033248 0.16367966 -0.72714186 -1.6044258 -0.09010697 -0.41614565
-0.6531456 -0.20064753 -0.3440363 -1.5068518 -1.1247159 0.46864104 1.4209251 0.68755805
0.33231035 0.46320218 -0.27980807 -1.0469267 -0.5442148 -0.8127542 -0.6662732 -1.506478
-0.76318514 -0.06368328 0.6026031 1.1212388 0.7621835 0.13818607 -0.1490881 -0.27979156
0.044251725 -0.035094015 0.18824683 -0.060433697 0.12947991 -0.10303739 -0.16905273 0.07128969
0.05425904 -0.007738904 -0.076706514 -0.06518038 0.041397955 -0.006396498 -0.15831381 -0.19289789
-0.11352643 -0.082653075 -0.018039543 0.21500334 0.045946725 0.023423107 0.12797353 -0.21107803
0.04247694 0.084571354 0.06090417 0.018279321 0.05989813 0.01954257 -0.060268644 0.057717483
-0.09796477 0.16304085 0.012642969 0.089455724 0.019780757 0.15136336 0.042326793 -0.06303633
-0.0003802502 -0.19905847 0.23121166 -0.06754508 -0.05729014 0.12672676 0.032103036 0.31771907
00000000: b1c2 ed3e 8f5a 343f 36ad d43e 2bf4 193e
00000010: ab93 083f 4672 183f 4144 873e c9b7 633e
00000020: c850 30bd 0fde 55bf 1936 96bf 6d15 93bf
00000030: 75cb 2d3f 8e05 a13e 694e 2e3e cdb7 c1bf
00000040: b044 dabf 211c 02c0 cc36 14bf 4557 1e3e
00000050: d553 713e a608 c03e 4a28 bd3e 63df 0f3f
00000060: d3ca cc3e e0a4 003f 1803 35be 1f00 08bf
00000070: 129c 37be c01d 45be bf66 60bf ae5f 05bf
00000080: 0d9a 333e 5551 05be 8708 3dbe f9ca e7be
00000090: 6eaf ea3e f65a 853e 3b42 013d d8ca 9a3c
000000a0: a3fa 3e3e 595e 3d3f eee5 af3d 8ea4 12bf
000000b0: 1f2b d2be 7166 193f b7a8 553e 30d0 80bf
000000c0: 71f4 99bf 92ef 2cbe 5f85 1dbd db15 7dbf
000000d0: 187d b2bf 9dc8 fbbe e598 73be 2a16 46bf
000000e0: ae22 3dbd 4b4e 843e ee7c 07be 7a14 91bc
000000f0: aeea f63e 82c0 9b3e 939f 323f 366d 6b3e
00000100: 8bd9 8e3e dc1b 523e 1606 ac3e 56f1 87be
00000110: 07c9 f33e fa01 273e d8c5 c83e f98e 113c
00000120: 722c 72bc 6621 463a 114b 19be 22bb 013f
00000130: f044 b53e 9bbd 4abd 04b9 d13c a60d 6b3e
00000140: 439a 4dbe ad20 03bd 50b3 0cbd d061 8ebe
00000150: d3db 15bc a78b a2bd 065b af3d c081 1e3e
00000160: 8c22 c13a 383f ddbd e584 333e 03c3 45be
00000170: 4998 c4bd c26c afbd f299 463e e328 c03d
00000180: 2941 0cbe 4efb 4ebd 794d b53a 7984 823d
00000190: 0c32 833d b7dd 53bd d7d4 de3d c934 673c
000001a0: de3b 223e bde9 e33d 7f87 24bb 93c1 9abd
000001b0: dd2a aebd 105a 88bd a8bf feb8 131c 4fbc
000001c0: 24be 4cbd a02e 99bd 9e74 473b c039 373e
000001d0: d439 383d 20e0 65be d7a1 c1bc def6 093d
000001e0: 9c65 03be e52f 413d d889 6c3e 1bb0 823c
000001f0: dd02 b9bd 055c 833e dfe0 653c 5f1c 843d
00000200: d711 aabf 0e55 dbbf 0023 41bf 578a 133f
00000210: eb0c 293f bb1e 2e3e c36d 643d c7aa 88be
00000220: 4562 1d3f ea72 c53d a622 343f 2d7d f3be
00000230: e526 e43e cfbc 9c3e c549 5abd c18e 093f
00000240: 15cc a4be e52e bebe 2acc cfbe cbaf 9dbd
00000250: 4d70 b63c eacc bf3e 2c6e 4bbd 9189 74bf
00000260: f933 6cbf b75a 413e 3999 f73d 1e4c 17bf
00000270: d1f5 953e 3cb6 67bd 9c94 ea3d 03c7 82be
00000280: 8969 423c 7676 313f 6724 af3d 23fa fd3e
00000290: 79ca 483e 3e2c 65be de12 6fbe 2aef a7bf
000002a0: d1e1 a9bf 9ac8 8fbf f966 27bf 9ea8 a6bd
000002b0: 66f1 d9bc 6d54 07be e75f d83e 585a 8cbe
000002c0: 08c5 cdbd e981 b93e 9780 ce3e a49b 273e
000002d0: f825 3abf d35d cdbf 018a b8bd 0b11 d5be
000002e0: 8d34 27bf 8c76 4dbe 8725 b0be 85e0 c0bf
000002f0: b1f6 8fbf b8f1 ef3e e0e0 b53f ce03 303f
00000300: 9524 aa3e d628 ed3e 0143 8fbe b201 86bf
00000310: a951 0bbf a910 50bf e190 2abf 45d4 c0bf
00000320: 1a60 43bf 616c 82bd 3244 1a3f c184 8f3f
00000330: 751e 433f a680 0d3e 8daa 18be d740 8fbe
00000340: 4c41 353d bebe 0fbd c7c3 403e 5389 77bd
00000350: 6296 043e 4405 d3bd 291c 2dbe 5400 923d
00000360: ba3e 5e3d a296 fdbb 4e18 9dbd 4b7d 85bd
00000370: e790 293d b799 d1bb 041d 22be 0687 45be
00000380: 8c80 e8bd 0446 a9bd aac7 93bc d629 5c3e
00000390: a232 3c3d d1e1 bf3c 7e0b 033e d724 58be
000003a0: 4dfc 2d3d bf33 ad3d a776 793d 84be 953c
000003b0: be57 753d bd17 a03c 41dc 76bd 2b69 6c3d
000003c0: c1a1 c8bd 2ef4 263e 7524 4f3c 9034 b73d
000003d0: 410b a23c fffe 1a3e dc5e 2d3d 3119 81bd
000003e0: 515c c7b9 fcd5 4bbe c0c2 6c3e 1355 8abd
000003f0: 11a9 6abd a9c4 013e 797e 033d 13ac a23e

mlp_pi.0.bias f4 [128]
2.666981 1.5995659 -0.9378825 -0.81168544 0.80028164 -4.190798 1.5840487 -0.5962476
-0.84720325 -0.84365004 -1.4421735 -3.705271 -0.6657802 -0.2141094 5.122563 -1.6130726
0.46680462 3.9898787 0.18544045 -1.5620464 0.3239592 -0.96895164 1.3093158 -1.0751183
1.0802253 0.32770562 -1.1121581 -1.368916 1.1079412 -0.21848208 -1.5572178 -0.14014989
1.5369939 0.7071181 -1.2840763 0.79497945 -2.370571 -0.92788213 0.4050362 -0.5260556
1.3043255 -0.045599084 -0.24965674 -1.5374697 -1.1194804 0.99623865 2.144846 0.9761381
2.9556148 -0.79152846 -0.13837884 0.586238 -1.0541686 -0.27242297 0.058751278 -1.6665523
1.5323098 -1.0757589 -0.30369568 0.813652 -0.6059532 1.6836741 -0.8769884 2.5047202
-2.177551 -1.3867795 0.95055604 0.0590635 -0.34636113 1.5999953 1.5602739 -2.653864
0.19390757 1.1819546 0.9352782 -2.0382926 -0.5077916 -0.86027765 -0.5518127 0.35703623
3.2271814 -3.1978018 -2.2720323 -0.0048690788 -0.03272578 -0.6498787 -1.3715363 0.9494401
-0.89536977 0.2826647 1.0045184 0.8395197 -0.6916364 -1.9048935 2.1056786 -1.0948583
1.2025254 0.3927733 -0.635176 0.60749745 1.34056 0.9131942 -0.28151292 -1.6529489
2.1240413 -0.7032803 0.68837404 0.5054498 1.641629 5.8006644 1.3986382 -1.0321594
0.449465 1.4582648 3.3629332 -1.4521756 -0.42871547 1.2381024 -0.20339979 1.4411657
-1.7256857 1.8970563 -0.39623284 0.39746732 0.5597786 1.9206303 1.058353 -0.32841435
00000000: d1af 2a40 93be cc3f 1119 70bf 9eca 4fbf
00000010: 42df 4c3f 041b 86c0 1cc2 ca3f afa3 18bf
00000020: 50e2 58bf 73f9 57bf 2499 b8bf 2923 6dc0
00000030: 9270 2abf 7f3f 5bbe 09ec a340 2a79 cebf
00000040: 0401 ef3e 2c5a 7f40 1ae4 3d3e 23f1 c7bf
00000050: fbdd a53e 370d 78bf a997 a73f 7a9d 89bf
00000060: d344 8a3f 08c9 a73e 325b 8ebf a438 afbf
00000070: 04d1 8d3f c4b9 5fbe ea52 c7bf 7483 0fbe
00000080: 37bc c43f b105 353f 9d5c a4bf c683 4b3f
00000090: 6fb7 17c0 af89 6dbf e860 cf3e 94ab 06bf
000000a0: 23f4 a63f 1bc6 3abd 04a6 7fbe cfcb c4bf
000000b0: 224b 8fbf 7f09 7f3f 2845 0940 30e4 793f
000000c0: cb28 3d40 9ca1 4abf 2fb3 0dbe b213 163f
000000d0: ffee 86bf 067b 8bbe 2ea5 703d 9651 d5bf
000000e0: ba22 c43f 78b2 89bf 007e 9bbe 7f4b 503f
000000f0: c01f 1bbf a282 d73f 5082 60bf 564d 2040
00000100: ff5c 0bc0 fe81 b1bf a457 733f 92ec 713d
00000110: 3f56 b1be a5cc cc3f 0eb7 c73f e8d8 29c0
00000120: b58f 463e 4a4a 973f 646e 6f3f 6373 02c0
00000130: a1fe 01bf 283b 5cbf 9943 0dbf 74cd b63e
00000140: 248a 4e40 c9a8 4cc0 fa68 11c0 cb8c 9fbb
00000150: 780b 06bd 735e 26bf 808e afbf 820e 733f
00000160: f436 65bf 6db9 903e 0f94 803f c3ea 563f
00000170: 150f 31bf 8dd3 f3bf 70c3 0640 5124 8cbf
00000180: 5aec 993f 9519 c93e e59a 22bf f484 1b3f
00000190: 7897 ab3f 18c7 693f 7622 90be d493 d3bf
000001a0: 4bf0 0740 2e0a 34bf 4839 303f 2865 013f
000001b0: e620 d23f 0b9f b940 9406 b33f cd1d 84bf
000001c0: 4720 e63e 6ca8 ba3f 4c3a 5740 e4e0 b9bf
000001d0: 9880 dbbe 247a 9e3f 0948 50be 1e78 b83f
000001e0: 45e3 dcbf bed2 f23f 08df cabe d680 cb3e
000001f0: a64d 0f3f 37d7 f53f 1c78 873f ed25 a8be

mlp_pi.2.weight f4 [128, 128]
-0.20006713 0.34977037 0.6635404 -0.2867919 -0.14947656 2.547612 1.2956432 2.1274676
-0.076110564 -0.5863311 0.47183624 1.090716 1.1855689 0.7877268 -2.895879 -0.19383432
-0.71062744 1.3739312 -0.1218562 -1.5918913 -0.078096844 -0.5589842 0.027744021 1.4046631
-0.84236294 0.57353085 0.032586485 -0.4118113 -0.31127456 0.19557463 0.36395273 0.64770985
-0.20557615 0.2278888 2.6555762 -0.87600064 1.5920653 0.88970053 2.1477807 0.089843795
-0.77346414 0.061720878 0.71699405 0.92334217 -0.055533476 1.2567058 0.022728821 -0.35478
0.0012787026 0.79053766 -1.2674243 -0.56223696 0.38385218 0.80452394 -0.010220064 -0.7585244
-1.4245504 0.29478264 -1.7872988 -0.0910748 0.93924755 0.032908008 1.4828767 -0.4968486
0.185089 0.7469976 -0.73329806 -0.7300624 -0.27056482 -0.66940504 -0.27990505 -3.055641
-0.02315487 0.5895102 0.8179654 0.62495667 -0.4888089 0.21833612 -0.83561695 -0.5409646
-0.66132814 -0.90979636 0.28378707 0.82349074 -0.051299438 -0.8546043 0.5665713 -1.1824638
-0.82845944 -0.6752505 0.43537036 -0.053810246 -0.4267896 0.83721554 -1.3737627 -0.3688364
-0.21462025 1.0251178 0.43251437 -0.25502172 -0.058727503 -0.2754281 1.1150705 0.9595449
0.8358268 -1.193901 0.5939271 -1.6125748 -0.58853036 0.24855852 -0.9482475 0.18164882
0.1312689 -0.66912204 -0.9632192 0.40974128 -0.933446 -0.59277755 -0.33698624 0.3401518
-0.3679329 0.13848792 0.36600035 -1.4401414 -0.71050483 -0.7746469 0.34383827 0.40761533
1.468578 -0.4104329 0.3480827 -1.0633221 0.50288737 -0.05597517 -0.380224 1.0355815
-0.23681597 0.5809938 0.31322226 0.98874444 -0.23667096 0.012515374 -0.4482077 -0.2653508
-0.8304368 0.4814166 -0.43815568 -2.102893 -0.37815484 -0.71029735 -0.77547467 -1.4055843
0.8894418 1.0048661 2.0192096 1.5214678 -0.39996538 -0.17264941 -1.633232 -0.29800895
-0.43457747 -1.751814 -0.043185282 -0.4649128 0.86053526 0.6955346 0.3512035 -1.2368896
-0.43458846 1.3911982 -0.35052413 1.0907798 0.18806683 0.8284348 1.5820459 -0.88488233
0.56177866 -1.0655634 0.3857897 -0.8549004 0.8149565 0.3130485 -0.48705602 -0.2612406
-0.7368994 -1.044523 0.8214492 1.082211 -0.13261302 0.22715807 -0.42705393 -0.98121357
0.70372933 1.1752053 0.23411171 -1.8670217 -0.18754564 -0.3860442 -0.20642461 -0.13916732
0.943005 0.25281677 -0.009245282 0.41139603 0.6852185 -1.0954025 -1.3963811 -0.26784375
-0.08094736 0.23306273 -0.26958755 0.55169386 -0.2927359 0.06428709 -0.89330304 0.16831692
-0.016052704 -0.8646748 -2.09942 0.42198148 -0.20906033 -0.9171059 1.098911 -0.2243143
-0.21678466 -0.4327231 -1.4428912 0.43137264 0.23242316 0.13421237 0.25494647 -1.3115797
0.13226464 0.07017621 -0.24076308 0.032338608 1.0702798 0.8061942 -0.14971451 -1.0408903
0.75842404 0.45001063 -0.19271304 -0.9799485 0.6350059 0.94221526 -0.2657921 0.73467857
0.76544577 -0.57651174 -0.7081462 -0.13470328 2.0185487 1.0369107 0.92992127 0.23897813
00000000: 66de 4cbe 1a15 b33e c9dd 293f 63d6 92be
00000010: 6210 19be 130c 2340 a3d7 a53f 6e28 0840
00000020: dbdf 9bbd cc19 16bf 8594 f13e 959c 8b3f
00000030: b9c0 973f 77a8 493f 1556 39c0 817c 46be
00000040: aeeb 35bf fadc af3f be8f f9bd 18c3 cbbf
00000050: 3df1 9fbd 9719 0fbf 6e47 e33c 00cc b33f
00000060: 19a5 57bf ebd2 123f 6879 053d eed8 d2be
00000070: 615f 9fbe b744 483e 0358 ba3e 50d0 253f
00000080: 8e82 52be ae5b 693e f6f4 2940 9441 60bf
00000090: ccc8 cb3f 6ac3 633f 3d75 0940 0600 b83d
000000a0: bf01 46bf 08cf 7c3d ec8c 373f 2760 6c3f
000000b0: 1277 63bd bcdb a03f cb31 ba3c b9a5 b5be
000000c0: 249a a73a ad60 4a3f f63a a2bf c3ee 0fbf
000000d0: 4688 c43e 48f5 4d3f 0e72 27bc a82e 42bf
000000e0: ab57 b6bf c0ed 963e 35c6 e4bf 6d85 babd
000000f0: 8772 703f 8cca 063d e7ce bd3f f162 febe
00000100: f987 3d3e 3c3b 3f3f 6cb9 3bbf 5fe5 3abf
00000110: 7987 8abe 215e 2bbf b74f 8fbe 9f8f 43c0
00000120: 48af bdbc 24ea 163f 2e66 513f 29fd 1f3f
00000130: 2945 fabe 8193 5f3e feea 55bf a87c 0abf
00000140: cd4c 29bf 6ae8 68bf 8a4c 913e 4ad0 523f
00000150: 5c1f 52bd 59c7 5abf d10a 113f f95a 97bf
00000160: eb15 54bf 37dd 2cbf dde8 de3e 2268 5cbd
00000170: 2b84 dabe c253 563f 75d7 afbf 20d8 bcbe
00000180: 69c5 5bbe 0f37 833f 8672 dd3e 3592 82be
00000190: 408c 70bd e904 8dbe a1ba 8e3f bca4 753f
000001a0: bff8 553f bfd1 98bf 9b0b 183f da68 cebf
000001b0: eda9 16bf 2086 7e3e 59c0 72bf 2602 3a3e
000001c0: 5b6b 063e 954b 2bbf 8995 76bf 9cc9 d13e
000001d0: 51f6 6ebf 45c0 17bf 7689 acbe 6028 ae3e
000001e0: b361 bcbe c7cf 0d3e 6664 bb3e 8e56 b8bf
000001f0: a5e3 35bf 424f 46bf 920b b03e f5b2 d03e
00000200: 5dfa bb3f 4324 d2be e537 b23e f01a 88bf
00000210: 3abd 003f 3846 65bd b8ac c2be ef8d 843f
00000220: e37f 72be 02bc 143f ab5e a03e 5b1e 7d3f
00000230: df59 72be 490d 4d3c 7b7b e5be 0fdc 87be
00000240: 8297 54bf 3d7c f63e f155 e0be cd95 06c0
00000250: 839d c1be 0cd6 35bf 8285 46bf 30ea b3bf
00000260: 75b2 633f 749f 803f bb3a 0140 75bf c23f
00000270: 43c8 ccbe 02cb 30be bf0d d1bf a194 98be
00000280: f080 debe 713b e0bf 0de3 30bd 0d09 eebe
00000290: 0a4c 5c3f 8e0e 323f f2d0 b33e 6652 9ebf
000002a0: 6182 debe c812 b23f e677 b3be ac9e 8b3f
000002b0: 9794 403e 4e14 543f 7b80 ca3f a687 62bf
000002c0: bad0 0f3f 6264 88bf 3a86 c53e c1da 5abf
000002d0: fda0 503f e547 a03e 685f f9be 54c1 85be
000002e0: 70a5 3cbf eeb2 85bf 7f4a 523f e485 8a3f
000002f0: b5cb 07be 209c 683e d0a6 dabe d030 7bbf
00000300: 9b27 343f 216d 963f fbba 6f3e 91fa eebf
00000310: f70b 40be 96a7 c5be f960 53be e181 0ebe
00000320: c768 713f 3371 813e 8679 17bc 80a2 d23e
00000330: 7b6a 2f3f 2636 8cbf 9ebc b2bf d122 89be
00000340: bbc7 a5bd ffa7 6e3e 6107 8abe cf3b 0d3f
00000350: 7be1 95be f3a8 833d 82af 64bf 455b 2c3e
00000360: f680 83bc 545b 5dbf e65c 06c0 f50d d83e
00000370: e913 56be 74c7 6abf 1ea9 8c3f a6b2 65be
00000380: ccfc 5dbe e28d ddbe a9b0 b8bf e0dc dc3e
00000390: 5600 6e3e f86e 093e 5888 823e d8e1 a7bf
000003a0: 6270 073e 8bb8 8f3d 998a 76be 7d75 043d
000003b0: eefe 883f be62 4e3f c34e 19be e53b 85bf
000003c0: 1428 423f cb67 e63e 9156 45be e8dd 7abf
000003d0: bf8f 223f 0535 713f e715 88be e513 3c3f
000003e0: 41f4 433f 4696 13bf 1249 35bf a8ef 09be
000003f0: e72f 0140 7db9 843f 520f 6e3f afb6 743e

mlp_pi.2.bias f4 [128]
0.8922538 0.38213378 -0.16069846 0.83530426 -0.8301554 1.4787593 0.35126343 -1.119406
0.8046059 -0.8378005 -0.2344466 1.1522617 -1.2119753 0.6105082 -1.6664679 0.28629524
-1.2880841 -1.2533655 -0.7625583 0.9081597 -0.42325702 -0.8160223 0.5576738 0.7062671
0.098024644 0.4028905 0.48472548 1.8136079 -0.8268821 -0.022782603 2.5490286 0.09252989
-0.9431913 -0.38876006 1.0325797 -0.8918297 -0.10386031 0.824622 0.29114518 -0.09318652
-0.7096783 0.58831483 0.10316523 0.51455057 -1.5160685 0.11749209 -0.4090575 0.16315275
0.88372606 1.0398533 -0.98300385 1.2781465 0.49712408 1.7020537 0.55620235 1.0514
0.16099659 -1.3625674 0.42815542 0.121515155 -0.35436246 0.24028063 0.88976854 -0.6640281
-0.7107637 0.32123482 -0.5272006 -0.8787992 1.1690817 -0.033819273 0.9554523 -0.102880776
-0.62668735 0.12506534 -0.03162184 1.1328048 -0.44586095 0.88543695 -0.92839533 0.22359072
0.4771524 -0.08673287 0.0014181638 -1.1594639 -0.78933084 -0.1452233 -0.27762377 0.73879904
-0.4752202 0.06037871 -0.8888612 -0.44070393 0.15576115 1.7591887 1.3502494 -1.7325323
0.10793662 -1.515204 -0.048326198 -0.5944542 -0.07252802 -0.8487689 0.064053535 0.11959596
-0.0013466091 0.7430887 0.28768548 1.276374 -1.1164342 0.87151575 0.8262023 -1.0169371
0.8678141 0.412274 0.25546747 -0.080557406 -1.4652818 -0.037356295 2.031602 -1.093533
-0.2692898 -1.6457858 -0.9828704 -0.62558544 0.17208663 -1.5112525 -2.1453223 0.5009144
00000000: bf6a 643f 0aa7 c33e 238e 24be 80d6 553f
00000010: 1085 54bf fc47 bd3f cdd8 b33e b248 8fbf
00000020: a7fa 4d3f 187a 56bf c512 70be 507d 933f
00000030: 0222 9bbf 444a 1c3f d24e d5bf 4a95 923e
00000040: f1df a4bf 486e a0bf 0537 43bf 277d 683f
00000050: 25b5 d8be d6e6 50bf b6c3 0e3f eccd 343f
00000060: 25c1 c83d aa47 ce3e f02d f83e 4e24 e83f
00000070: 8cae 53bf 95a2 babc 4923 2340 5080 bd3d
00000080: fc74 71bf 8f0b c7be 922b 843f f44e 64bf
00000090: b7b4 d4bd 6d1a 533f fb10 953e 93d8 bebd
000000a0: 7aad 35bf cd9b 163f 4b48 d33d 96b9 033f
000000b0: 880e c2bf b19f f03d fc6f d1be 8411 273e
000000c0: df3b 623f ea19 853f 24a6 7bbf 4e9a a33f
000000d0: 0c87 fe3e e5dc d93f 4763 0e3f 4694 863f
000000e0: 4adc 243e 9c68 aebf 3037 db3e f0dc f83d
000000f0: ff6e b5be 200c 763e dfc7 633f bffd 29bf
00000100: 9cf4 35bf e478 a43e 9ef6 06bf fcf8 60bf
00000110: 78a4 953f 1486 0abd 8698 743f 28b3 d2bd
00000120: 956e 20bf 2111 003e e785 01bd bfff 903f
00000130: e347 e4be ffab 623f 51ab 6dbf f7f4 643e
00000140: 524d f43e 01a1 b1bd aee1 b93a 5069 94bf
00000150: 9611 4abf 6bb5 14be b424 8ebe ef21 3d3f
00000160: 1050 f3be ab4f 773d 688c 63bf f2a3 e1be
00000170: da7f 1f3e 182d e13f f9d4 ac3f 9ec3 ddbf
00000180: e00d dd3d 34f2 c1bf b1f1 45bd 272e 18bf
00000190: 9289 94bd eb48 59bf 802e 833d baee f43d
000001a0: b480 b0ba 103b 3e3f 834b 933e 3960 a33f
000001b0: 51e7 8ebf a81b 5f3f fe81 533f ff2a 82bf
000001c0: 1129 5e3f 9415 d33e a2cc 823e 48fb a4bd
000001d0: 5b8e bbbf ea02 19bd c405 0240 e4f8 8bbf
000001e0: 5ae0 89be 1ca9 d2bf 659d 7bbf 5e26 20bf
000001f0: 7a37 303e b970 c1bf f64c 09c0 ed3b 003f

mlp_vf.0.weight f4 [128, 128]
-0.14084911 -0.6104845 -0.27478826 -0.013555203 -0.054963764 0.20941016 -0.36481577 0.18029949
-0.07338979 0.13707869 -0.24758355 0.035865933 -0.054988794 0.25098637 -0.08316303 -0.07575236
-0.0939596 0.2382138 0.14507964 0.1355971 0.035786208 0.16692331 0.11605163 0.10081403
-0.19658802 -0.066788696 -0.06559564 0.14150491 0.025702389 -0.0077562174 0.018593548 0.13075624
-0.032306183 -0.16239622 0.020207366 0.013730649 0.12265876 -0.088483304 0.34986454 0.11605683
0.28260094 -0.24306647 0.41761523 0.2573452 0.47392288 0.12340965 0.19151123 0.77307534
0.31353265 0.19768105 -0.7608588 -1.0376493 -0.7020833 1.0412334 1.3517381 0.23743062
-1.0037985 -0.5912503 0.352251 0.66400504 0.5295363 -0.043170717 0.06829897 0.00976678
0.07769666 0.21716958 0.060203344 0.12155134 -0.08897259 -0.16183563 0.18618791 0.1810881
0.14823557 0.1969516 0.068490095 -0.106978856 -0.08502502 -0.10990663 0.3163475 -0.18514651
-0.0081424 0.08224341 -0.13700172 0.15139607 0.16257681 0.051935073 0.07939319 -0.024960596
0.11836123 -0.09218348 0.030259619 -0.037521333 0.17427748 -0.02015406 0.22507061 0.03289295
-0.015072075 0.023026522 -0.17281231 0.26373383 0.10202172 -0.022906454 0.009422969 0.08267678
0.009786456 0.036547944 -0.028472887 0.17221348 0.08832304 0.036403287 -0.05245002 -0.09874159
-0.21326347 0.008458361 0.1508686 0.07051004 -0.118724875 -0.15228105 -0.07956499 -0.13722226
-0.07745692 0.15718262 -0.12544177 -0.008613162 -0.010647063 -0.14501007 0.035727352 -0.062407818
-0.052934945 0.26948467 -0.08647556 0.20341429 0.17722669 0.39160353 0.067429975 0.34476438
0.23733743 -0.20219594 0.38703373 -0.022204937 0.20858812 0.030175656 0.0053630047 -0.0114754075
0.08935486 0.095941134 0.20491247 -0.08504407 0.41999558 0.13756002 0.31394783 0.14869618
-0.07645239 0.09765596 0.23480855 0.21332903 0.36438096 0.5681771 0.15284821 0.09048802
0.33330956 -0.23314615 -0.16597828 0.44722077 0.10200169 0.1757089 0.13251275 0.525772
-0.31903192 0.46053454 0.01176575 0.01192126 0.6323065 0.15649529 0.031433295 0.44903848
0.12504838 0.06582154 0.22656675 0.015829481 0.3263267 0.5083723 0.21884723 -0.028556626
0.5922057 0.27832863 -0.38116962 0.42317137 -0.21590827 -0.21021901 0.7037344 -0.13992248
0.7468413 0.35882756 0.6309231 0.47879896 -0.4968301 0.782017 -0.30378088 0.24721184
0.055981237 0.3117697 0.33133212 -0.43621236 0.62205434 0.41447487 -0.22118337 -0.134833
0.15935858 -0.039277423 0.074893534 -0.06007218 0.1606933 0.06952377 -0.05579901 0.17301525
0.021417895 0.011841082 0.03429337 0.0914648 0.039573714 0.018282719 0.14188457 0.3193148
0.24364147 -0.08056796 -0.07227065 0.03842674 -0.13173707 0.21483028 -0.17876549 0.0126854135
0.14572294 -0.094403565 0.01555415 0.05936789 -0.110373326 0.024686594 0.001068577 0.014928251
-0.11810944 0.06662798 -0.26614484 -0.19194108 0.056914266 0.18515062 0.028405005 -0.016938267
-0.028527558 -0.036649868 -0.17063035 -0.14607914 -0.05332737 -0.12988986 0.16843668 0.019970631
00000000: c03a 10be b648 1cbf 0cb1 8cbe a416 5ebc
00000010: af21 61bd 9e6f 563e 22c9 babe 6ea0 383e
00000020: 634d 96bd 5b5e 0c3e 8b86 7dbe 28e8 123d
00000030: ee3b 61bd 4981 803e 6151 aabd 0e24 9bbd
00000040: e46d c0bd 52ee 733e c28f 143e f7d9 0a3e
00000050: 8f94 123d f2ed 2a3e 7aac ed3d 9677 ce3d
00000060: 5f4e 49be 83c8 88bd 0257 86bd aae6 103e
00000070: d18d d23c de27 febb 7f51 983c f7e4 053e
00000080: 7d53 04bd 324b 26be eb89 a53c 84f6 603c
00000090: 8434 fb3d bc36 b5bd 7221 b33e 34af ed3d
000000a0: 12b1 903e 6be6 78be aad1 d53e c0c2 833e
000000b0: 05a6 f23e 33be fc3d 851b 443e 44e8 453f
000000c0: 5a87 a03e e76c 4a3e a4c7 42bf b1d1 84bf
000000d0: bbbb 33bf 2347 853f c105 ad3f 0321 733e
000000e0: 787c 80bf 2e5c 17bf 3e5a b43e 3cfc 293f
000000f0: b18f 073f c7d3 30bd 55e0 8b3d d804 203c
00000100: 6d1f 9f3d b461 5e3e c897 763d e9ef f83d
00000110: 4337 b6bd 3db8 25be 0ba8 3e3e 296f 393e
00000120: 11cb 173e aead 493e 8944 8c3d bb17 dbbd
00000130: 9921 aebd ba16 e1bd 4df8 a13e 0c97 3dbe
00000140: b367 05bc 3c6f a83d 2e4a 0cbe 9207 1b3e
00000150: 897a 263e dfb9 543d e698 a23d 2a7a ccbc
00000160: 5f67 f23d b1ca bcbd 05e3 f73c f8af 19bd
00000170: cc75 323e 211a a5bc e978 663e c2ba 063d
00000180: ddf0 76bc 1ea2 bc3c b6f5 30be 1f08 873e
00000190: c3f0 d03d 51a6 bbbc cc62 1a3c 7252 a93d
000001a0: 5f57 203c 4cb3 153d f93f e9bc bb58 303e
000001b0: b6e2 b43d 9d1b 153d d5d5 56bd 0839 cabd
000001c0: bd61 5abe f094 0a3c 4c7d 1a3e 9167 903d
000001d0: 0726 f3bd 90ef 1bbe f8f2 a2bd fe83 0cbe
000001e0: bca1 9ebd 7bf4 203e cf73 00be 381e 0dbc
000001f0: 0571 2ebc 857d 14be d856 123d 579f 7fbd
00000200: 50d2 58bd e5f9 893e 191a b1bd d64b 503e
00000210: ea7a 353e 4280 c83e ba18 8a3d f584 b03e
00000220: 9508 733e 740c 4fbe 4929 c63e 21e7 b5bc
00000230: 2098 553e f032 f73c 25bc af3b 5903 3cbc
00000240: aeff b63d c97c c43d 93d4 513e 962b aebd
00000250: a909 d73e 89dc 0c3e c5bd a03e d043 183e
00000260: 1293 9cbd d9ff c73d a771 703e ed72 5a3e
00000270: 2490 ba3e 0e74 113f 3e84 1c3e c851 b93d
00000280: 8da7 aa3e ddbd 6ebe 36f6 29be 1ffa e43e
00000290: 43e6 d03d 09ed 333e 6cb1 073e fe98 063f
000002a0: 2758 a3be 2fcb eb3e 22c5 403c 6351 433c
000002b0: d7de 213f 4d40 203e 33c0 003d 5fe8 e53e
000002c0: af0c 003e 72cd 863d 1d01 683e d4ac 813c
000002d0: 4b14 a73e b024 023f 7d19 603e 96ef e9bc
000002e0: cb9a 173f 1781 8e3e aa28 c3be eba9 d83e
000002f0: 0f17 5dbe a743 57be f027 343f d747 0fbe
00000300: fe30 3f3f 3fb8 b73e 2d84 213f 2325 f53e
00000310: 8460 febe 4432 483f 2b89 9bbe 1a25 7d3e
00000320: 954c 653d 47a0 9f3e 5da4 a93e 3a57 dfbe
00000330: f43e 1f3f 0d36 d43e e57d 62be a911 0abe
00000340: e52e 233e 5de1 20bd c861 993d 3f0e 76bd
00000350: c98c 243e 7a62 8e3d 818d 64bd e92a 313e
00000360: 9574 af3c 1901 423c 3477 0c3d e651 bb3d
00000370: 0c18 223d a4c5 953c 304a 113e 3b7d a33e
00000380: 267d 793e d100 a5bd a202 94bd 5b65 1d3d
00000390: 15e6 06be 78fc 5b3e 4d0e 37be 7bd6 4f3c
000003a0: 6538 153e a856 c1bd d5d6 7e3c bf2b 733d
000003b0: 690b e2bd 8a3b ca3c 7f0f 8c3a 9f95 743c
000003c0: 5de3 f1bd 4074 883d 2344 88be 348c 44be
000003d0: ef1e 693d 2098 3d3e 9db1 e83c 1fc2 8abc
000003e0: a0b2 e9bc 2c1e 16bd b9b9 2ebe c595 15be
000003f0: cd6d 5abd d901 05be aa7a 2c3e 7399 a33c

mlp_vf.0.bias f4 [128]
-1.6774365 1.1000271 -2.0894852 0.8078413 -1.1556683 1.7551173 1.7078872 -0.48839492
-0.69609034 2.0561686 0.45665058 0.4973194 -2.0541248 1.4666699 -1.5999777 -0.030917412
-1.9377037 -2.1021237 0.7407491 1.0391204 -1.9333596 0.90757436 1.7670232 1.9869318
1.9051034 -1.4999862 -0.7391734 -0.07552042 0.06421946 -2.0264468 0.8991137 0.5267741
-1.4007953 0.9834895 -2.1083987 -1.1710867 -0.7159816 -1.6740702 2.3579936 -1.34276
-1.8587779 -0.9151741 0.7209226 0.6393415 -1.663249 0.19057415 0.40629455 -4.015107
-2.4557729 2.5320928 1.2494034 -0.9251556 -1.3787754 2.3621192 2.3916423 0.15941902
2.9662464 2.0183687 -2.0495422 0.9736885 -1.4029485 0.8163374 0.5609652 0.45031205
-0.65413237 1.0485334 -0.043494105 -1.3301723 1.07857 -1.428038 0.6677895 -0.101998486
0.81510717 1.4427668 -2.26239 0.01579451 -0.3956476 -0.10987795 1.930288 1.6094974
-1.1634666 0.9661732 0.0046797995 0.54161364 -2.972869 0.7557103 -2.1954503 2.7533305
-2.3658082 -1.8957382 -2.096269 -0.06548468 1.8247024 1.6674384 -0.31150764 -3.098955
0.85514396 -2.0098495 1.2756821 -0.85184485 2.4275944 0.5085558 0.015039719 -2.330668
-0.040792715 -0.4277671 0.66817683 -2.6027296 1.2023718 1.0111121 -0.51609206 -1.965499
-1.5415074 0.7142158 0.28197423 -0.16955519 -1.5009397 1.3923812 -0.5513269 -0.22779383
0.74893624 3.2770185 -0.4243517 1.7120419 2.7293086 1.7512591 -0.10415616 -2.4850965
00000000: 3db6 d6bf b0cd 8c3f 20ba 05c0 b0ce 4e3f
00000010: f0ec 93bf afa7 e03f 0c9c da3f e60e fabe
00000020: fa32 32bf 4498 0340 1bce e93e a6a0 fe3e
00000030: c876 03c0 d7bb bb3f 12cc ccbf 8346 fdbc
00000040: ad06 f8bf 3289 06c0 bca1 3d3f e601 853f
00000050: 5478 f7bf cb56 683f d12d e23f c853 fe3f
00000060: 6eda f33f 8cff bfbf 783a 3dbf 73aa 9abd
00000070: 7e85 833d 4eb1 01c0 512c 663f abda 063f
00000080: 434d b3bf f8c5 7b3f 01f0 06c0 2be6 95bf
00000090: 924a 37bf ef47 d6bf 5ee9 1640 8fdf abbf
000000a0: 6fec edbf da48 6abf 628e 383f e2ab 233f
000000b0: 58e5 d4bf df25 433e d705 d03e c27b 80c0
000000c0: 622b 1dc0 cf0d 2240 73ec 9f3f ffd6 6cbf
000000d0: b67b b0bf f62c 1740 ab10 1940 bd3e 233e
000000e0: fbd6 3d40 f42c 0140 b32b 03c0 a643 793f
000000f0: d193 b3bf 7dfb 503f 6a9b 0f3f 4d8f e63e
00000100: 3875 27bf 5836 863f e026 32bd 1643 aabf
00000110: 950e 8a3f f3c9 b6bf 41f4 2a3f 95e4 d0bd
00000120: ddaa 503f 95ac b83f ffca 10c0 7d63 813c
00000130: 5292 cabe b107 e1bd ad13 f73f 0304 ce3f
00000140: 79ec 94bf 2057 773f 0159 993b 31a7 0a3f
00000150: 7c43 3ec0 3b76 413f 4282 0cc0 9136 3040
00000160: 6769 17c0 8da7 f2bf 4529 06c0 d51c 86bd
00000170: d98f e93f 9f6e d53f ee7d 9fbe 4755 46c0
00000180: b7ea 5a3f 60a1 00c0 8d49 a33f 8112 5abf
00000190: b55d 1b40 b730 023f 2769 763c aa29 15c0
000001a0: 4316 27bd 4a04 dbbe a30d 2b3f 1f93 26c0
000001b0: 52e7 993f 1f6c 813f 9c1e 04bf 7995 fbbf
000001c0: 1d50 c5bf d9d6 363f ed5e 903e e09f 2dbe
000001d0: cb1e c0bf 8c39 b23f c223 0dbf c942 69be
000001e0: 49ba 3f3f acba 5140 a044 d9be 3024 db3f
000001f0: feac 2e40 4229 e03f d34f d5bd d20b 1fc0

mlp_vf.2.weight f4 [128, 128]
-0.08733139 0.24697512 -0.04494484 0.06870817 0.014887622 0.4362956 0.43430573 -0.39453617
-0.0025102226 0.54698694 0.2059983 -0.07143881 -0.18318471 0.09469457 -0.17512602 -0.06420857
-0.19096656 -0.3242641 -0.1131353 -0.1394891 -0.5007867 -0.02480676 0.033759225 0.1302599
0.16214404 0.28417167 -0.09368165 -0.52580756 -0.30584368 -0.25511518 0.20960264 -0.19817683
-0.42603362 0.1565358 -0.46631777 -0.500965 -0.495326 -0.5760351 -0.091386616 0.27097479
0.11767894 -0.3931366 -0.07549167 0.13123569 0.6357777 0.0069013247 0.3348207 -0.07583887
-0.18736379 0.039005794 0.2963315 -0.4539535 0.13881038 0.06781397 0.53086644 0.051530775
0.51083505 0.05553237 -0.6382204 -0.107914016 0.48696578 0.6319331 -0.0122341 -0.41714033
-0.58402133 0.14883803 -0.340833 0.05606818 -0.21148463 -0.25755513 -0.04436673 -0.41094828
0.022071 -0.19781938 -0.43694946 0.02232926 -0.21471536 -0.24726912 0.28033045 0.3848839
-0.08740575 0.33237633 -0.25129944 0.17002381 -0.35660845 -0.10170904 0.28590557 0.24394664
-0.44126168 -0.04947555 -0.082109235 -0.27471438 -0.10608674 0.10961692 -0.25420558 -0.20947817
0.51130563 -0.31279203 0.07957994 -0.055255916 0.25312844 -0.06764866 0.24081987 -0.18173839
-0.5017133 0.49057868 -0.43518013 -0.30760586 -0.14526957 0.2809146 -0.06261802 -0.16321602
-0.430259 0.1587426 0.13191825 -0.09051335 -0.08871911 0.15048224 -0.049455356 -0.10079847
-0.4901452 0.20681351 -0.09360235 0.3012328 -0.080436595 0.37123 -0.032382477 -0.08687019
0.09230555 -0.002141952 0.1927832 0.27910414 0.08370316 -0.38862452 -0.51609004 0.2820953
-0.013217123 -0.23138022 -0.16197558 -0.19709116 0.21488 -0.30268365 0.5010514 -0.21416546
0.34128362 0.10242608 -0.16671157 -0.59336036 0.29011682 -0.24915962 -0.22193332 -0.12188408
0.1278548 -0.1088425 0.37025756 0.22125095 0.1982484 -0.057192963 -0.35820282 0.16262029
0.05782025 -0.18296248 0.13419394 0.2245928 0.45701116 -0.004872173 0.22100696 0.028654117
-0.20011924 0.4263724 0.1002474 0.051257875 -0.4516208 -0.022757096 -0.23188816 0.21953255
0.032132275 0.25613838 -0.46814317 0.6657931 -0.045368485 -0.123940185 -0.21251081 -0.32879072
-0.008044178 -0.11529093 0.17091168 0.25470784 -0.120814145 -0.3079076 0.064269274 0.35405067
0.21051693 -0.2149739 0.35782352 0.09213248 -0.22743176 0.38208386 0.012110918 0.36420202
0.2616669 -0.1918706 0.23515628 0.1689595 -0.11340114 0.59926087 -0.14676201 -0.16744134
0.20576319 -0.4220079 0.058949485 -0.17874259 0.25635347 -0.068574704 -0.06607147 -0.16623078
0.23699062 0.11036646 0.22322898 0.1797887 -0.19034715 -0.1835959 0.3358152 0.26968193
-0.44648132 0.373223 -0.023168335 0.06970028 -0.21170637 0.28153715 -0.18757041 0.1842064
0.33137324 -0.12615694 0.27188596 0.02116021 0.26582652 -0.3146975 -0.19740008 0.33920228
0.3624004 0.0135037005 -0.20679623 0.31450266 0.0066023893 -0.1831687 0.104012586 -0.044707607
0.13610949 -0.47513354 0.10528018 -0.060635757 -0.0078038312 -0.15922083 -0.1807364 0.3202409
00000000: cdda b2bd 0ce7 7c3e 1518 38bd deb6 8c3d
00000010: 36eb 733c 2362 df3e 525d de3e a500 cabe
00000020: 8c82 24bb 5607 0c3f 38f1 523e 834e 92bd
00000030: c694 3bbe 3aef c13d 3c54 33be c87f 83bd
00000040: bd8c 43be f205 a6be 7bb3 e7bd 3bd6 0ebe
00000050: 8f33 00bf 8c37 cbbc 1d47 0a3d da62 053e
00000060: 1609 263e f37e 913e 2adc bfbd 539b 06bf
00000070: 8b97 9cbe 759e 82be 13a2 563e deee 4abe
00000080: 1421 dabe ec4a 203e 34c1 eebe 3e3f 00bf
00000090: 5f9b fdbe 0977 13bf e828 bbbd 35bd 8a3e
000000a0: a801 f13d 3349 c9be 609b 9abd a662 063e
000000b0: 54c2 223f 8224 e23b 9e6d ab3e 6951 9bbd
000000c0: 4bdc 3fbe 8ac4 1f3d c3b8 973e 986c e8be
000000d0: 4f24 0e3e 0de2 8a3d dde6 073f ef11 533d
000000e0: 16c6 023f e975 633d 6a62 23bf 0602 ddbd
000000f0: 9453 f93e 5ec6 213f 8971 48bc 6b93 d5be
00000100: 6c82 15bf ff68 183e aa81 aebe bfa7 653d
00000110: 6d8f 58be 44de 83be e3b9 35bd d067 d2be
00000120: 3ece b43c 2a91 4abe d7b7 dfbe daeb b63c
00000130: 58de 5bbe 1e34 7dbe 7987 8f3e 810f c53e
00000140: c901 b3bd 3b2d aa3e 52aa 80be b91a 2e3e
00000150: 6295 b6be d44c d0bd 3762 923e 26cd 793e
00000160: 0ded e1be e0a6 4abd e328 a8bd 5da7 8cbe
00000170: 0144 d9bd d67e e03d 3c27 82be 7281 56be
00000180: ede4 023f 4726 a0be cffa a23d 0754 62bd
00000190: 0d9a 813e 618b 8abd 7c99 763e a119 3abe
000001a0: 4870 00bf 212d fb3e eecf debe 847e 9dbe
000001b0: 8cc1 14be 0ad4 8f3e e03d 80bd 1a22 27be
000001c0: e84a dcbe 6c8d 223e 9415 073e 105f b9bd
000001d0: 5db2 b5bd 0418 1a3e b391 4abd 6e6f cebd
000001e0: 50f4 fabe ecc6 533e 97b2 bfbd 303b 9a3e
000001f0: f1bb a4bd dc11 be3e 7da3 04bd 00e9 b1bd
00000200: b10a bd3d fe5f 0cbb f668 453e bde6 8e3e
00000210: 906c ab3d cbf9 c6be 7a1e 04bf cc6e 903e
00000220: a28c 58bc f0ee 6cbe eddc 25be 44d2 49be
00000230: 8109 5c3e 5af9 9abe e844 003f 314e 5bbe
00000240: babc ae3e c4c4 d13d 70b6 2abe 77e6 17bf
00000250: 318a 943e b323 7fbe 7d42 63be 5c9e f9bd
00000260: 5eec 023e d1e8 debd 6692 bd3e 9c8f 623e
00000270: a101 4b3e 2b43 6abd 5c66 b7be ef85 263e
00000280: edd4 6c3d 845a 3bbe 236a 093e a8fb 653e
00000290: 5efd e93e c0a6 9fbb a64f 623e 0abc ea3c
000002a0: 0fec 4cbe 7c4d da3e 824e cd3d c7f3 513d
000002b0: d73a e7be 176d babc 1774 6dbe 24cd 603e
000002c0: 229d 033d 9224 833e 76b0 efbe 6b71 2a3f
000002d0: 4ed4 39bd 5ad4 fdbd 6f9c 59be 4257 a8be
000002e0: bacb 03bc a71d ecbd 7903 2f3e 1169 823e
000002f0: 686d f7bd 11a6 9dbe 9c9f 833d 2146 b53e
00000300: c091 573e 1e22 5cbe a534 b73e f4af bc3d
00000310: dfe3 68be 7fa0 c33e df6c 463c b078 ba3e
00000320: 34f9 853e ba79 44be cfcc 703e b803 2d3e
00000330: db3e e8bd 2969 193f c848 16be be75 2bbe
00000340: 96b3 523e 6b11 d8be 0475 713d 4c08 37be
00000350: c340 833e e570 8cbd 7b50 87bd 6738 2abe
00000360: abad 723e d007 e23d 2396 643e 871a 383e
00000370: 5dea 42be 9000 3cbe f8ef ab3e c013 8a3e
00000380: 3399 e4be 1617 bf3e 85cb bdbc 05bf 8e3d
00000390: 8ec9 58be a325 903e 7512 40be 9aa0 3c3e
000003a0: c1a9 a93e 492f 01be a334 8b3e 2d58 ad3c
000003b0: 6a1a 883e 0820 a1be 3f23 4abe ecab ad3e
000003c0: 8c8c b93e a03e 5d3c 64c2 53be 7e06 a13e
000003d0: db58 d83b 9390 3bbe 8d04 d53d 531f 37bd
000003e0: 4960 0b3e b444 f3be 239d d73d 335d 78bd
000003f0: 48b7 ffbb c90a 23be f612 39be 9ef6 a33e

mlp_vf.2.bias f4 [128]
0.07008773 -0.13425332 -0.36744523 -0.19004545 0.027828714 0.28808355 0.34595868 0.5609896
-0.15655208 -0.14736028 0.14321356 0.22459212 -0.46801397 0.03710979 0.3490804 0.15451199
0.21234111 -0.05784128 0.11222045 0.20096429 -0.20749825 -0.08513725 0.22681324 0.23113026
0.06983482 0.18778749 0.34722626 0.035127874 0.11819127 -0.28823593 -0.22177361 0.22554928
0.095548116 -0.13975792 -0.1027223 -0.16132794 -0.14098497 0.20481168 0.1392651 -0.20910946
-0.31734437 0.3254413 -0.16338108 0.28048658 0.2723708 -0.1502831 -0.018696403 0.12577997
-0.034395512 0.09639209 0.1903982 -0.025570953 -0.23309007 -0.09701267 0.07158215 0.056123458
0.2515031 0.3270486 -0.20207657 0.0019228057 0.2906829 0.074913114 0.092875175 0.21719769
0.11510685 -0.17734762 -0.19502181 0.09062312 0.34222475 -0.0014181244 0.11976472 0.29792905
-0.622743 0.054980233 0.10200478 -0.1504511 0.2361615 0.2066664 0.36208135 -0.07097531
-0.14342849 0.08732739 -0.023650076 -0.13764149 -0.23649365 0.16533265 0.18190624 -0.14473824
-0.1776551 -0.15756723 -0.22573103 0.4507016 0.3458608 -0.5033951 -0.14640304 -0.21521237
-0.04406938 0.13484809 0.3063271 -0.12147019 -0.1032338 0.43235475 0.075889856 0.22357118
-0.11129662 -0.15051115 -0.25868657 0.4282713 -0.23862448 0.12774774 -0.015878962 0.05909388
-0.013202883 0.040549 -0.30394462 -0.055553116 -0.1358118 -0.30549207 -0.00889608 -0.10443256
-0.28495878 0.06342415 -0.35003683 -0.1063362 0.008202574 0.21126378 0.3293494 -0.13323627
00000000: 288a 8f3d b479 09be c821 bcbe 469b 42be
00000010: 0bf9 e33c b07f 933e 7f21 b13e 049d 0f3f
00000020: 304f 20be 9de5 16be 93a6 123e 7afb 653e
00000030: 879f efbe 6f00 183d abba b23e 6438 1e3e
00000040: f36f 593e faea 6cbd d6d3 e53d 95c9 4d3e
00000050: 6c7a 54be 705c aebd bb41 683e 69ad 6c3e
00000060: 8f05 8f3d 5d4b 403e a4c7 b13e 3fe2 0f3d
00000070: 440e f23d a993 93be 9f18 63be 64f6 663e
00000080: bbae c33d b31c 0fbe 1260 d2bd 2733 25be
00000090: 5d5e 10be 27ba 513e 839b 0e3e ca20 56be
000000a0: f67a a2be 3ea0 a63e 5f4d 27be f09b 8f3e
000000b0: 2f74 8b3e d0e3 19be 3329 99bc 77cc 003e
000000c0: 4fe2 0cbd 3769 c53d bff7 423e 2d7a d1bc
000000d0: 2aaf 6ebe 94ae c6bd aa99 923d b6e1 653d
000000e0: 04c5 803e ea72 a73e 29ed 4ebe a706 fc3a
000000f0: 64d4 943e 0c6c 993d 5735 be3d 1269 5e3e
00000100: 24bd eb3d 9d9a 35be ccb3 47be 9d98 b93d
00000110: 1538 af3e 5ce0 b9ba 3547 f53d 288a 983e
00000120: 166c 1fbf f432 613d e2e7 d03d da0f 1abe
00000130: 52d4 713e 5ba0 533e ba62 b93e 815b 91bd
00000140: ebde 12be b4d8 b23d cebd c1bc e4f1 0cbe
00000150: 642b 72be f64c 293e a145 3a3e 4336 14be
00000160: 38eb 35be 4e59 21be 0926 67be 5cc2 e63e
00000170: ab14 b13e 80de 00bf aeea 15be a260 5cbe
00000180: 1882 34bd 9e15 0a3e e8d6 9c3e 5dc5 f8bd
00000190: 3e6c d3bd 9a5d dd3e 246c 9b3d d8ef 643e
000001a0: 7bef e3bd 981f 1abe 9172 84be 6046 db3e
000001b0: fa59 74be 4ed0 023e 9914 82bc 6d0c 723d
000001c0: e850 58bc b516 263d a19e 9bbe aa8b 63bd
000001d0: 4012 0bbe 7569 9cbe ddc0 11bc bde0 d5bd
000001e0: 1ee6 91be 85e4 813d 0738 b3be cbc6 d9bd
000001f0: 1764 063c 8855 583e 7ca0 a83e 176f 08be

action_net.weight f4 [127, 128]
0.90604 0.45468968 -0.24911073 0.97810215 -0.7786336 2.331491 -0.2902428 -1.3869578
1.0812215 -0.75252056 -0.259198 2.6077046 -1.142454 1.7369637 -2.0917757 -0.9498777
-2.884083 0.20619018 -1.124905 0.49596095 -1.2166175 -1.6164656 0.8299003 0.7764638
-1.5041858 -0.2359708 -1.2482924 -0.89331204 -1.9208684 -1.6739578 2.0300689 0.954303
-1.702044 -0.30583754 0.42383608 -0.6812052 -0.51799536 1.1845688 1.2593832 -0.19050719
0.34715357 1.5924265 -0.5761425 1.157953 -3.355663 0.60157126 -1.0460005 0.4185052
2.6056523 1.20277 -3.0771039 0.9472445 1.1401318 2.9673193 1.4586704 1.6681517
-0.24513239 -2.0095623 2.023472 0.31779653 -0.79057294 1.2608836 2.9842746 -1.110872
-1.7657883 -0.45478943 -1.2280462 -2.0268192 0.47934747 0.97378457 0.859072 0.54056376
-1.6223735 2.3656697 0.6449022 2.1431997 -2.0617177 2.0265706 -1.5241727 -0.5003163
-0.03594531 0.7945658 -0.31703293 -2.2648764 -1.6306859 -0.7448086 -0.85591906 2.813447
-0.12106068 -1.4070084 -2.3371181 -1.0027215 -0.5772334 0.93237954 0.5231068 -1.8984938
0.67168915 -1.6176233 -0.8844551 -0.28273675 -1.189743 -1.9107368 0.68335456 -0.08166193
-0.81658024 0.63580525 0.7173594 2.8341026 -1.3664227 2.3864005 -2.448531 -2.1509085
1.2921014 0.98031574 0.19064322 -0.94864523 -2.2221682 -1.2269578 0.97671634 -1.6534394
0.5018369 -1.655198 -0.4312319 -1.7537696 -0.61943656 -1.7587299 -1.7638948 -0.13481735
1.1599581 0.5583818 0.6105483 1.5320299 -0.84284943 1.9932307 1.2118416 -0.13437921
-0.9955273 -1.1766088 -0.7693443 1.5470914 0.5246863 0.9641263 -1.5426301 -0.9277206
-1.8514767 1.3042204 -0.3495111 1.6499476 -0.583266 -1.7843266 1.7439214 -0.2511399
0.18060617 -0.67979175 0.92674357 -0.98383987 -1.0175387 -0.88686705 0.47974557 -0.39706364
-1.6350207 -0.3042139 0.030087033 -0.015874065 1.4316198 0.5719827 0.6229013 -0.5845321
-1.1568948 0.9783644 -0.3100297 0.08326393 -1.4508246 0.61814886 0.14420621 -1.0637333
1.1429285 1.8229997 -1.2519277 1.1352154 0.830675 1.4181232 1.5403566 2.0167985
-0.384151 -1.5311676 1.1836635 0.06654374 0.70423967 1.0817349 -0.031299185 -0.48997194
-1.8373015 -0.40966365 1.360049 -1.2832242 0.36934328 1.2268325 0.4987587 0.24021089
-0.8430027 1.1228482 -1.2889303 0.8385517 -1.4964145 0.78716606 -1.2783864 0.60728717
0.50183636 -0.11176232 0.68390757 -2.0089924 -1.1640654 0.5305158 -1.1170068 1.4408275
0.9709643 0.17832077 -1.5463192 1.134192 -1.0749327 0.4230685 -0.70891976 -1.0732125
0.8310731 -0.9519201 0.7868515 2.1071088 -1.1158252 -2.0533614 0.28890607 1.4899383
-0.070956424 -0.8711898 0.7143121 2.009638 -0.72480583 1.1104026 -0.024523463 -0.3610959
0.8637957 -1.4571031 0.3091735 -0.49002805 -0.43949386 -0.15253387 0.6470036 0.28545505
0.7738539 -2.0706987 0.25695822 -1.1447693 -1.0677259 -1.6904577 -0.29458952 -0.92297465
00000000: 3df2 673f 16cd e83e e216 7fbe e764 7a3f
00000010: 8854 47bf 2637 1540 b49a 94be d587 b1bf
00000020: 7765 8a3f 30a5 40bf 9ab5 84be a2e4 2640
00000030: ef3b 92bf d454 de3f a7df 05c0 2f2b 73bf
00000040: d194 38c0 8523 533e e3fc 8fbf 98ee fd3e
00000050: 1fba 9bbf 58e8 cebf 5974 543f 55c6 463f
00000060: 2989 c0bf 54a2 71be 0cc8 9fbf 19b0 64bf
00000070: 04df f5bf 4044 d6bf a6ec 0140 344d 743f
00000080: 94dc d9bf bd96 9cbe 0b01 d93e 7763 2ebf
00000090: 589b 04bf f39f 973f 7833 a13f 5114 43be
000000a0: 1dbe b13e a2d4 cb3f 137e 13bf ce37 943f
000000b0: 2fc3 56c0 9300 1a3f 58e3 85bf 5046 d63e
000000c0: 02c3 2640 5ef4 993f 45ef 44c0 9e7e 723f
000000d0: d7ef 913f 8fe8 3d40 b6b5 ba3f ff85 d53f
000000e0: fc03 7bbe ab9c 00c0 9180 0140 3ab6 a23e
000000f0: fd62 4abf a264 a13f 5bfe 3e40 0e31 8ebf
00000100: 5a05 e2bf 29da e8be 9e30 9dbf 68b7 01c0
00000110: 086d f53e f249 793f 25ec 5b3f 6362 0a3f
00000120: efa9 cfbf 2267 1740 5018 253f 2f2a 0940
00000130: 2ff3 03c0 55b3 0140 1718 c3bf bb14 00bf
00000140: 643b 13bd aa68 4b3f 2452 a2be bcf3 10c0
00000150: 51ba d0bf c7ab 3ebf 831d 5bbf 840f 3440
00000160: a9ee f7bd da18 b4bf 5893 15c0 2e59 80bf
00000170: 91c5 13bf 6db0 6e3f 54ea 053f d801 f3bf
00000180: d2f3 2b3f 480e cfbf a66b 62bf dfc2 90be
00000190: 8049 98bf 0693 f4bf 53f0 2e3f 5f3e a7bd
000001a0: 670b 51bf 22c4 223f dea4 373f f061 3540
000001b0: f0e6 aebf c9ba 1840 bbb4 1cc0 7ca8 09c0
000001c0: 9463 a53f f9f5 7a3f fa37 433e 6ada 72bf
000001d0: 0138 0ec0 f40c 9dbf 150a 7a3f e7a3 d3bf
000001e0: 6278 003f 87dd d3bf 6dca dcbe 867b e0bf
000001f0: 6593 1ebf 101e e1bf 4ec7 e1bf 8f0d 0abe
00000200: 8279 943f 1cf2 0e3f e54c 1c3f 8e19 c43f
00000210: fbc4 57bf 2f22 ff3f a01d 9b3f b49a 09be
00000220: e1da 7ebf 1e9b 96bf bff3 44bf 1707 c63f
00000230: d751 063f fbd0 763f e774 c5bf 197f 6dbf
00000240: 30fd ecbf b2f0 a63f 1ef3 b2be 7c31 d33f
00000250: ec50 15bf d064 e4bf d138 df3f 6995 80be
00000260: d3f0 383e d506 2ebf 113f 6d3f eedc 7bbf
00000270: b53e 82bf b809 63bf 36a1 f53e ed4b cbbe
00000280: 5c48 d1bf edc1 9bbe 1579 f63c 540a 82bc
00000290: 513f b73f 756d 123f 7676 1f3f e5a3 15bf
000002a0: 2115 94bf 1776 7a3f 36bc 9ebe 4886 aa3d
000002b0: 9fb4 b9bf 013f 1e3f cbaa 133e 6a28 88bf
000002c0: 7b4b 923f 0e58 e93f 2b3f a0bf bd4e 913f
000002d0: 1ea7 543f 1085 b53f 682a c53f 3a13 0140
000002e0: 71af c4be 4dfd c3bf 4982 973f 1648 883d
000002f0: 0d49 343f 4a76 8a3f 9333 00bd 9add fabe
00000300: b22c ebbf 6fbf d1be 1616 ae3f b140 a4bf
00000310: 901a bd3e d908 9d3f 4d5d ff3e d8f9 753e
00000320: 06cf 57bf 7db9 8f3f abfb a4bf 53ab 563f
00000330: 838a bfbf b783 493f 2aa2 a3bf 2c77 1b3f
00000340: 5978 003f a5e3 e4bd 9114 2f3f 5593 00c0
00000350: 1800 95bf e2cf 073f 14fa 8ebf 096d b83f
00000360: 1e91 783f b899 363e caed c5bf 342d 913f
00000370: 6597 89bf 6f9c d83e c47b 35bf 075f 89bf
00000380: 35c1 543f 09b1 73bf 1a6f 493f dfda 0640
00000390: 5cd3 8ebf 466a 03c0 7feb 933e 4cb6 be3f
000003a0: 9a51 91bd 4b06 5fbf 28dd 363f e99d 0040
000003b0: e08c 39bf ac21 8e3f 6ee5 c8bc 90e1 b8be
000003c0: b721 5d3f 5b82 babf fd4b 9e3e f5e4 fabe
000003d0: 5705 e1be d731 1cbe 07a2 253f 2a27 923e
000003e0: 4a1b 463f 5486 04c0 0790 833e cd87 92bf
000003f0: 3eab 88bf eb60 d8bf 70d4 96be 1148 6cbf

action_net.bias f4 [127]
3.032705 -0.36025622 1.9018823 1.8911452 2.3074467 1.3936988 2.1591392 1.5845486
1.219401 2.3008127 1.4720795 3.213246 1.973314 1.7810916 2.1589248 1.6648935
1.9138376 1.6534861 1.9681724 1.8819468 2.4102154 2.299125 1.9167767 1.9507275
1.9072163 2.029416 1.9462296 1.7971991 2.0297883 1.6600507 1.8904451 1.875337
2.6888766 2.0167644 1.4714642 1.6563189 1.8648452 1.6933277 1.4906173 1.7517312
0.2289822 -0.24457735 -0.89350384 -1.6451163 -2.0419106 -1.7870716 -1.3173538 -1.6674632
-1.409924 -1.9035205 -1.9720576 -2.160357 -2.138545 -2.0129912 -2.159208 -2.2732887
-2.2983024 -2.7573647 -2.8865116 -2.1230388 -2.6439123 -2.461164 -2.2142892 -2.726054
-2.7035546 -2.5257907 -2.794674 -2.456574 -3.4740808 -2.8397322 -4.4103737 -2.6501777
-4.387077 -2.3278553 -4.385799 -2.7655432 -3.4551687 -4.3755856 -4.390018 -3.48342
-4.388625 -4.389388 -4.3872147 -3.4647028 -4.3908453 -3.4777565 -3.4788327 -4.3806844
-3.4641166 -4.391433 -4.379767 -4.384047 -4.3850636 -4.3848443 -4.3756065 -3.4846935
-3.472221 -4.38831 -3.4878092 -3.5093446 -4.3608327 -4.385462 -4.3857293 -4.388227
-4.390234 -4.3904514 -4.396394 -4.383384 -4.3908806 -4.3852644 -4.388459 -3.4785142
-3.475377 -4.374311 -3.8905177 -3.4679646 -4.389961 -4.3879037 -4.385541 -4.3868647
-4.388968 -4.389994 -3.4772358 -3.4775138 -4.3902965 -4.3905907 -4.3848124
00000000: d717 4240 8173 b8be e170 f33f 0c11 f23f
00000010: 35ad 1340 b964 b23f 562f 0a40 7dd2 ca3f
00000020: 5515 9c3f 8440 1340 1a6d bc3f d3a5 4d40
00000030: 8e95 fc3f cffa e33f d32b 0a40 3b1b d53f
00000040: a1f8 f43f 6fa5 d33f 13ed fb3f a2e3 f03f
00000050: f840 1a40 dd24 1340 f058 f53f 70b1 f93f
00000060: aa1f f43f f4e1 0140 0d1e f93f 9f0a e63f
00000070: 0de8 0140 8b7c d43f 1bfa f13f 0b0b f03f
00000080: 8e16 2c40 ab12 0140 f058 bc3f 4202 d43f
00000090: 3fb3 ee3f f6be d83f 8ccc be3f ba38 e03f
000000a0: 4f7a 6a3e 7c72 7abe abbc 64bf 2c93 d2bf
000000b0: aaae 02c0 c3be e4bf 0d9f a8bf 6f6f d5bf
000000c0: 6478 b4bf 8fa6 f3bf 626c fcbf 4a43 0ac0
000000d0: ecdd 08c0 d9d4 00c0 7730 0ac0 907d 11c0
000000e0: 6317 13c0 aa78 30c0 9bbc 38c0 dedf 07c0
000000f0: dc35 29c0 b683 1dc0 eab6 0dc0 ab77 2ec0
00000100: 0a07 2dc0 8ea6 21c0 f0db 32c0 8238 1dc0
00000110: 5757 5ec0 2cbe 35c0 c821 8dc0 839c 29c0
00000120: ef62 8cc0 95fb 14c0 7758 8cc0 a9fe 30c0
00000130: 7c21 5dc0 cc04 8cc0 077b 8cc0 5af0 5ec0
00000140: 9e6f 8cc0 de75 8cc0 1064 8cc0 b1bd 5dc0
00000150: ce81 8cc0 9093 5ec0 32a5 5ec0 912e 8cc0
00000160: 16b4 5dc0 9e86 8cc0 0d27 8cc0 1d4a 8cc0
00000170: 7152 8cc0 a550 8cc0 f804 8cc0 3805 5fc0
00000180: de38 5ec0 096d 8cc0 4438 5fc0 1a99 60c0
00000190: f18b 8bc0 b455 8cc0 e557 8cc0 5b6c 8cc0
000001a0: cc7c 8cc0 947e 8cc0 42af 8cc0 af44 8cc0
000001b0: 1882 8cc0 1654 8cc0 426e 8cc0 fa9f 5ec0
000001c0: 946c 5ec0 5bfa 8bc0 3efe 78c0 22f3 5dc0
000001d0: 8f7a 8cc0 b569 8cc0 5a56 8cc0 3261 8cc0
000001e0: 6d72 8cc0 d57a 8cc0 088b 5ec0 968f 5ec0
000001f0: 4f7d 8cc0 b87f 8cc0 6250 8cc0

value_net.weight f4 [1, 128]
-0.5516969 -0.5057801 1.3566072 -0.26386955 0.26747754 0.38631043 -0.17208531 -0.46216646
-0.33952734 -0.22142346 0.38239723 -0.339638 -0.41182652 0.21800433 -0.5881278 0.16088316
0.20965245 -0.35659453 0.19403875 0.0648965 0.05795376 -1.0832825 -0.6866493 -0.45938072
-0.22775578 0.96003026 -0.8000365 -0.12805595 0.3590546 0.8498795 0.07609262 0.11794093
0.385823 -0.122230455 -0.1569173 0.96123135 -0.0868899 0.8314497 0.3947331 -0.9341055
-0.12123044 -1.3830036 -2.0020936 -0.15043272 -0.9408417 -0.04361866 0.43468186 0.10822775
-1.3951551 0.20506968 -0.8731376 0.009595231 -0.0009921022 -0.2820847 1.4599324 0.30257446
-1.2794391 -0.86885405 -0.21703114 -0.2750113 -0.36068526 0.24521737 -0.84057254 0.1479838
-1.679874 0.6406673 -0.81618553 0.22542433 -0.7283208 -0.34533578 -1.1227429 0.3511759
0.302982 0.5852565 0.6463668 0.5645681 0.32600603 -0.5511446 -0.16651423 -0.3001165
0.23473704 0.21965365 -0.65739834 -0.4510715 0.54908514 1.5642031 0.1769271 -0.5168504
0.39376396 -0.08803192 -0.033246312 -0.27109057 -0.15275885 -0.51552993 0.34479576 -0.16895646
-0.49357983 -0.08917623 -0.2929533 -0.3942453 -0.4774603 0.55331004 -2.1985462 0.1933546
-0.31494254 -0.3843299 -0.5912038 -0.058417607 -0.39170143 0.33998275 -0.026759233 1.0373629
0.9709446 0.90267116 0.5041262 0.74320686 0.10084731 1.0639704 -0.044244137 -0.7785928
-1.030679 -0.10975885 0.90585804 -0.2701511 -1.9197845 0.12542722 0.3850606 0.73056257
00000000: 023c 0dbf ce7a 01bf 4ea5 ad3f e919 87be
00000010: d1f2 883e 7bca c53e 2237 30be 15a1 ecbe
00000020: 87d6 adbe d5bc 62be 92c9 c33e 08e5 adbe
00000030: edda d2be 873c 5f3e 8b8f 16bf 8ebe 243e
00000040: 22af 563e 8f93 b6be 18b2 463e 75e8 843d
00000050: ec60 6d3d 00a9 8abf 40c8 2fbf f333 ebbe
00000060: d038 69be 8bc4 753f 31cf 4cbf 1921 03be
00000070: 01d6 b73e b491 593f 73d6 9b3d 048b f13d
00000080: 988a c53e f653 fabd eeae 20be 4213 763f
00000090: 55f3 b1bd e3d9 543f 751a ca3e 8a21 6fbf
000000a0: aa47 f8bd 4306 b1bf 4d22 00c0 090b 1abe
000000b0: 00db 70bf 7ba9 32bd 9f8e de3e 83a6 dd3d
000000c0: 7194 b2bf c9fd 513e f285 5fbf 5135 1d3c
000000d0: 6d09 82ba 686d 90be 11df ba3f 0aeb 9a3e
000000e0: a9c4 a3bf 386d 5ebf 693d 5ebe 48ce 8cbe
000000f0: bdab b8be 431a 7b3e c32f 57bf 1189 173e
00000100: 1c06 d7bf c602 243f 89f1 50bf a3d5 663e
00000110: 3b73 3abf dacf b0be 0ab6 8fbf 54cd b33e
00000120: 7520 9b3e 5fd3 153f 4b78 253f 8987 103f
00000130: 43ea a63e d017 0dbf b582 2abe dfa8 99be
00000140: e85e 703e e3ec 603e 424b 28bf d8f2 e6be
00000150: d890 0c3f cf37 c83f 612c 353e 4f50 04bf
00000160: 6e9b c93e 144a b4bd 492d 08bd 62cc 8abe
00000170: d16c 1cbe c5f9 03bf 1289 b03e ec02 2dbe
00000180: 7fb6 fcbe 07a2 b6bd fafd 95be 85da c9be
00000190: ad75 f4be baa5 0d3f fbb4 0cc0 c0fe 453e
000001a0: 2640 a1be e3c6 c4be 2259 17bf 4d47 6fbd
000001b0: 178d c8be 3812 ae3e 2e36 dbbc 4fc8 843f
000001c0: d38f 783f 7515 673f 6a0e 013f ce42 3e3f
000001d0: 0989 ce3d 2f30 883f 5739 35bd dc51 47bf
000001e0: 4aed 83bf 3fc9 e0bd 50e6 673f 3f51 8abe
000001f0: 80bb f5bf fe6f 003e aa26 c53e 2606 3b3f
