kayles_81pins.onnx (onnx, 332465 bytes, 11 tensors)

mlp_pi.0.weight f4 [128, 128]
00000000: f0fc c63e 8df9 193f 1431 b73e 0477 ab3a
00000010: c5f3 173f 075d 303f 55ad 103f 0524 9e3e
00000020: 9e46 d7bd b1b4 48bf fc91 9fbf 05b8 93bf
00000030: c342 3f3f 4825 1a3e 81d6 d4bd a03b bebf
00000040: 3477 d9bf ed01 0ac0 d519 17bf 7dcf 903e
00000050: b2fa 543e 1c20 c33e 5378 bf3e 1950 e03e
00000060: 3eb2 383e 2e81 ec3e 6473 65be 1e73 1cbf
00000070: f4f4 60be 7fee e3bd 597c 32bf cf61 00bf
00000080: 2ba9 f43d 3b4d 65be 6d11 37be 16d6 d1be
00000090: c2f2 033f 07c7 9a3e 14dc 033d 3144 083e
000000a0: 7ab1 5a3e 7f95 313f b658 b63e 132f a6be
000000b0: e4f0 ebbe be75 0a3f 494e 843e bb96 75bf
000000c0: dcc1 80bf 0768 40bd ae4a c4bd 9039 7abf
000000d0: f351 a8bf 8041 f2be b7dd a1be 9599 4bbf
000000e0: afa9 14bd 14bf 963e 9cf9 2fbe 24dd a8bd
000000f0: c1ad 023f 1cad 913e 2f29 2b3f 2dfd 5b3e
00000100: 3553 a43e b0a2 373e 7240 f73e 2ff2 24be
00000110: 0d95 db3e 2ae7 103e a76f 8f3e 4288 a8bd
00000120: 83dc 833c 7230 0bbc 3fdc f2bd db13 013f
00000130: 66f6 9e3e 82da a2ba ba72 063d 14bb ae3e
00000140: de75 9fbd ad20 03bd 50b3 0cbd d061 8ebe
00000150: d3db 15bc a78b a2bd 065b af3d c081 1e3e
00000160: 8c22 c13a 383f ddbd e584 333e 03c3 45be
00000170: 4998 c4bd c26c afbd f299 463e e328 c03d
00000180: 2941 0cbe 4efb 4ebd 794d b53a 7984 823d
00000190: 0c32 833d b7dd 53bd d7d4 de3d c934 673c
000001a0: de3b 223e bde9 e33d 7f87 24bb 93c1 9abd
000001b0: dd2a aebd 105a 88bd a8bf feb8 131c 4fbc
000001c0: 24be 4cbd a02e 99bd 9e74 473b c039 373e
000001d0: d439 383d 20e0 65be d7a1 c1bc def6 093d
000001e0: 9c65 03be e52f 413d d889 6c3e 1bb0 823c
000001f0: dd02 b9bd 055c 833e dfe0 653c 5f1c 843d
00000200: caf0 a6bf 6883 e1bf 5bfb 4abf 0d58 1a3f
00000210: 4584 b03e 2709 ce3c 4f32 113e 48b5 01bf
00000220: fa11 dd3e bcb8 51bb ef84 ee3e f2c4 47bf
00000230: 9b30 e83e 926d 983e 2262 64be abfe 063f
00000240: 7e6e aebe 11b0 dfbe 2922 a4be 8c58 0ebe
00000250: c69c a4bd 979d d23e bda1 99be d37e a5bf
00000260: 5b7d 44bf 8d78 753e ef34 bebc 009e 15bf
00000270: c862 3a3e e62b 413e 0b2d 853e 2b73 aabe
00000280: 6416 7dbe e6f1 dc3e d874 203e 4e6d e13e
00000290: 7f72 063e 0847 e1bd 1f22 abbd fd55 89bf
000002a0: 340e cabf 5784 8dbf 5c17 0ebf 7c6b 2abe
000002b0: d492 0dbe 18c6 6fbe 5075 c43e 59dd a1be
000002c0: 4f76 93bd b5ee 603e 7bef c53e 74f8 473e
000002d0: 51ff 59bf 3658 9dbf a50e a93d 5df0 1fbf
000002e0: 8153 16bf 4de5 c0be 64a4 cebe 4b71 abbf
000002f0: 82b8 73bf 06ee fc3e b6d2 aa3f efb2 873f
00000300: a69e cc3e 34ef 4a3e 9173 93be 7927 56bf
00000310: 79e8 ccbe 4918 5cbf b1ad 23bf 10b2 e0bf
00000320: 444a 5ebf 04bd 44bd 2b3f 3d3f df98 7d3f
00000330: e7ae 2b3f 23bf a53e 95d3 1abd f859 79be
00000340: 69cc 6e3d bebe 0fbd c7c3 403e 5389 77bd
00000350: 6296 043e 4405 d3bd 291c 2dbe 5400 923d
00000360: ba3e 5e3d a296 fdbb 4e18 9dbd 4b7d 85bd
00000370: e790 293d b799 d1bb 041d 22be 0687 45be
00000380: 8c80 e8bd 0446 a9bd aac7 93bc d629 5c3e
00000390: a232 3c3d d1e1 bf3c 7e0b 033e d724 58be
000003a0: 4dfc 2d3d bf33 ad3d a776 793d 84be 953c
000003b0: be57 753d bd17 a03c 41dc 76bd 2b69 6c3d
000003c0: c1a1 c8bd 2ef4 263e 7524 4f3c 9034 b73d
000003d0: 410b a23c fffe 1a3e dc5e 2d3d 3119 81bd
000003e0: 515c c7b9 fcd5 4bbe c0c2 6c3e 1355 8abd
000003f0: 11a9 6abd a9c4 013e 797e 033d 13ac a23e
0.3886485 0.6014641 0.3577963 0.0013081734 0.5935634 0.6889195 0.56514484 0.30886856
-0.10511516 -0.78400713 -1.2466426 -1.1540533 0.74711245 0.15053284 -0.10392476 -1.4861946
-1.6989503 -2.1563675 -0.5902379 0.282833 0.20798758 0.38110435 0.37396488 0.4381111
0.18036744 0.46192306 -0.224073 -0.61113155 -0.21968442 -0.11129474 -0.6972099 -0.50149244
0.11946329 -0.22392742 -0.17877741 -0.40983647 0.51542294 0.3022997 0.032192305 0.13307263
0.21356764 0.6936874 0.35614556 -0.3245779 -0.46082222 0.5408591 0.25840977 -0.9593312
-1.0059161 -0.04697421 -0.095845565 -0.97744083 -1.3150009 -0.47315598 -0.31614468 -0.7953122
-0.036294635 0.29442656 -0.17185062 -0.08245304 0.5104638 0.28452384 0.66859716 0.21483298
0.32094732 0.17933154 0.48291355 -0.1610801 0.42887154 0.14150682 0.2801487 -0.08229114
0.01609636 -0.008495437 -0.11858415 0.5042092 0.31047362 -0.001242474 0.032824256 0.34127104
-0.07786153 -0.032013584 -0.034350693 -0.27809 -0.009146648 -0.07936793 0.08562283 0.15479183
0.0014735027 -0.10803074 0.17531164 -0.19312672 -0.095993586 -0.08565666 0.19394663 0.093827985
-0.13696732 -0.05053263 0.0013832293 0.063729234 0.0640603 -0.051725116 0.1088044 0.014111706
0.1584315 0.111285664 -0.0025105176 -0.075564526 -0.08504269 -0.06657803 -0.000121473626 -0.012640971
-0.04998602 -0.07479596 0.00304345 0.17893124 0.044977024 -0.22448778 -0.023636742 0.033682697
-0.1283173 0.047164816 0.23099458 0.015953114 -0.09033749 0.25656143 0.014030664 0.06450724
-1.3042233 -1.7618227 -0.7928979 0.60290605 0.34475914 0.025150849 0.14179347 -0.5066724
0.43177778 -0.003200098 0.46585795 -0.7803489 0.45349583 0.29771096 -0.2230306 0.5273234
-0.34068674 -0.43689016 -0.32057312 -0.13900965 -0.08037715 0.41135857 -0.3000621 -1.2929329
-0.7675378 0.23971768 -0.0232186 -0.58444214 0.18201745 0.18864402 0.26010928 -0.3329099
-0.24715573 0.43153304 0.15669572 0.44028705 0.13129614 -0.10999876 -0.083561175 -1.0729367
-1.5785584 -1.1056012 -0.55504394 -0.16642565 -0.13825542 -0.2341541 0.38370752 -0.31614187
-0.072003 0.2196606 0.38659272 0.19528371 -0.85155207 -1.2292545 0.08254746 -0.6247614
-0.58721167 -0.37674943 -0.40359795 -1.3393949 -0.9520341 0.49400347 1.3345554 1.0601481
0.3996479 0.19817811 -0.28799108 -0.8365398 -0.40021113 -0.85974556 -0.6393691 -1.755434
-0.8683207 -0.04803182 0.7392451 0.9906139 0.67063755 0.32372388 -0.037799437 -0.24350727
0.05830041 -0.035094015 0.18824683 -0.060433697 0.12947991 -0.10303739 -0.16905273 0.07128969
0.05425904 -0.007738904 -0.076706514 -0.06518038 0.041397955 -0.006396498 -0.15831381 -0.19289789
-0.11352643 -0.082653075 -0.018039543 0.21500334 0.045946725 0.023423107 0.12797353 -0.21107803
0.04247694 0.084571354 0.06090417 0.018279321 0.05989813 0.01954257 -0.060268644 0.057717483
-0.09796477 0.16304085 0.012642969 0.089455724 0.019780757 0.15136336 0.042326793 -0.06303633
-0.0003802502 -0.19905847 0.23121166 -0.06754508 -0.05729014 0.12672676 0.032103036 0.31771907

mlp_pi.0.bias f4 [128]
00000000: 6934 3140 838c e03f 2f32 7abf c76e 5abf
00000010: b30a 563f f591 85c0 3f95 d33f 9f8d 40bf
00000020: da88 48bf 6b94 54bf cf33 c6bf ca7a 6fc0
00000030: 99de 32bf 1efa aabd cf3f a840 971b c9bf
00000040: c889 db3e 7da3 7f40 e930 0d3e 7bdc c8bf
00000050: 60a7 863e a16d 81bf b645 a43f 4426 87bf
00000060: 314e 8f3f 6d31 de3e 0ab2 95bf 8385 b5bf
00000070: d3ae 873f 13da 80be 5f22 c0bf 14f3 12be
00000080: a5fb cd3f 9734 433f dee8 a5bf 15d9 463f
00000090: 85d7 25c0 e8b4 7ebf d858 c73e d5a7 eabe
000000a0: 339b c03f f444 a0bd 3577 50be dfef c1bf
000000b0: 40ff 97bf 4c1d 853f b313 0740 bb7c 883f
000000c0: 7b3a 3e40 b06a 34bf b643 1ebe ab19 213f
000000d0: 475d 9fbf 35a4 9abe 7947 be3d a158 dcbf
000000e0: b068 cc3f 3411 7bbf 2176 9cbe 0cfb 3b3f
000000f0: 3e10 21bf 81e9 e33f ed62 77bf c0e8 1f40
00000100: d47f 0dc0 91b6 b5bf f4b2 6b3f 5746 72bd
00000110: 09f6 b4be 77be e93f 801d c23f 3a64 31c0
00000120: ca2f 633e 14fa 8f3f 4a2f 893f 8705 00c0
00000130: 482c 1ebf 4637 4ebf 6cda 03bf 1352 8d3e
00000140: 9a52 5140 4f4a 4fc0 ae8e 13c0 821d ec3c
00000150: 0c66 50bc 0dbf 34bf fa1e acbf ef4f 393f
00000160: 56d6 65bf 04e2 893e 22e0 893f c978 6b3f
00000170: 36af 2ebf 43fd 03c0 650f 0440 ad81 82bf
00000180: c0c8 9e3f 2fdd ed3e ca98 28bf 5d7c 233f
00000190: 4b31 a53f 8f8c 643f 2d56 bcbe 8c6f d6bf
000001a0: 3d3b 0940 7037 52bf 6fc5 313f 1788 e83e
000001b0: b82c dc3f 8a2d b740 b7e9 9f3f 0ee6 80bf
000001c0: b6a2 dd3e 867a b73f 317e 5a40 de83 b8bf
000001d0: 40eb 17bf 2665 9f3f b769 86be 5689 b43f
000001e0: f678 dabf b7ad f03f c331 cfbe a902 a93e
000001f0: 47d2 1e3f 6d9d ed3f fbeb 8f3f d513 aebe
2.7688239 1.7542881 -0.97732824 -0.8532528 0.83610076 -4.174067 1.6529921 -0.75216097
-0.7833382 -0.8303897 -1.5484561 -3.7418694 -0.6987091 -0.08348487 5.257789 -1.5711545
0.42878556 3.9943535 0.13788189 -1.5692285 0.26299572 -1.0111581 1.2833774 -1.0558553
1.1195737 0.43397084 -1.1694958 -1.418137 1.0600227 -0.25166377 -1.5010489 -0.1435054
1.6092421 0.7625212 -1.296169 0.7767499 -2.5912793 -0.9949479 0.3893497 -0.4583117
1.5047363 -0.07825652 -0.20357974 -1.5151328 -1.1874771 1.0399566 2.1105773 1.0663065
2.9723194 -0.7047529 -0.15455517 0.6292979 -1.2450341 -0.30203405 0.09290976 -1.7214547
1.5969448 -0.98073125 -0.30558875 0.7342994 -0.6291541 1.7805635 -0.96635324 2.498581
-2.210927 -1.419634 0.92069936 -0.059149113 -0.3534396 1.826125 1.5165253 -2.7717423
0.22186199 1.1248193 1.0717556 -2.0003374 -0.6178632 -0.8055309 -0.5150516 0.2760168
3.2706666 -3.2389104 -2.3055835 0.028822664 -0.012719642 -0.7060402 -1.3446953 0.72387594
-0.89780176 0.2693025 1.0771525 0.9198118 -0.682361 -2.0623329 2.0634396 -1.0195824
1.2405014 0.46457812 -0.6585814 0.6386164 1.2905668 0.89276975 -0.36784497 -1.6752791
2.1442406 -0.8211584 0.69441885 0.45416328 1.7201147 5.724309 1.2493199 -1.0070207
0.432882 1.4334266 3.413952 -1.4415243 -0.5934334 1.2452743 -0.2625253 1.4104412
-1.7068164 1.8803014 -0.40467653 0.33009842 0.6203961 1.8563668 1.124389 -0.33999506

mlp_pi.2.weight f4 [128, 128]
00000000: 4758 12be 3c58 443f cff1 263f 6cfa 80bd
00000010: 041f 72be 6c18 2140 df0e c63f 6f53 0040
00000020: 5558 fbbe 1ed5 12bf 4498 343e 10cf 883f
00000030: 6120 8e3f ced7 733f bbbe 28c0 57cd 2ebe
00000040: db8e 2abf 0358 a33f 608a 81be 1ff4 c8bf
00000050: 0937 283e eb2e 0abf 1814 c4bd f666 bb3f
00000060: de9a 90bf cd76 e43e 9b90 413d c6b6 52bf
00000070: b8af b6bd 8021 1b3e 104b ff3c 6636 553f
00000080: 2c89 16be 4af1 a53e e53c 2940 0ae8 33bf
00000090: d0f8 a23f 1890 733f e9fb fe3f 716f ad3c
000000a0: 681f 4bbf f301 453e 2242 0f3f 0e7a 703f
000000b0: 0222 113d d98c 7a3f 4c3e 143d daeb 2bbf
000000c0: 1952 5a3d 92ea 3f3f cb81 a5bf 26d1 e4be
000000d0: 079e 1c3e 9516 f03e 3e8a b73c 1ce8 3fbf
000000e0: 0f8f a5bf 4f26 733e b619 f7bf 0be5 853d
000000f0: 15db 883f a2ac 573d 0f0f bc3f f3cf 25bf
00000100: b514 9c3e 97d6 513f 78c6 61bf 669f 1bbf
00000110: cc9f 82bd e2f2 46bf b378 20bf d933 4ec0
00000120: 02d2 ab3e c884 f43e 8a89 543f 8cfd 513f
00000130: e12a 02bf ea27 d13e d78c 8abf 29e9 26bf
00000140: e6bb 45bf 3627 83bf 1e95 a73e 510b 6e3f
00000150: 4d5d 38be bb9e 6dbf 18d0 033f e48c a8bf
00000160: fdc5 30bf ca6f d1be 082e e03e d331 3cbe
00000170: 545f 35bf fd19 153f b629 a1bf 5915 0bbf
00000180: e077 02be 2435 423f 5e9c dc3e 222c 1a3e
00000190: 0a4e 7ebe 7c7f 08bd 1bca 883f c885 6c3f
000001a0: 7a44 583f f4d3 aabf 0e72 fd3e a3a5 d7bf
000001b0: c81f 09bf 1677 173f 8403 8ebf 0284 8d3e
000001c0: 483e 923d 33cd 2cbf 757a 3ebf 6c86 a13e
000001d0: cd87 60bf df0f 1fbf 43ea 3abe eb31 123f
000001e0: 685b e5be a433 283e e4fb fb3d f90b d2bf
000001f0: 4d90 5bbf 92f9 48bf c83f bc3e 3cc7 653e
00000200: 082c b63f ee9e 6ebe 32d1 bc3d bfa4 a1bf
00000210: e21e 353f 5660 f5bc 4f5a 93be 8e3c 833f
00000220: d9fa febe 3b4a 193f f57e 013f 1f53 823f
00000230: 9fa5 c83d e954 723d d547 c4be 84f7 5cbe
00000240: 60f0 80bf 8e83 e83e 0105 42bf 2cda 03c0
00000250: 45b0 d6be d0e2 3bbf f806 00bf baf3 c0bf
00000260: cec9 843f b170 8c3f 71ae 0a40 1760 be3f
00000270: 6e12 c7be cd05 cbbd 3f21 d3bf 2c46 85be
00000280: f40b c3be ce4c c1bf ac36 93bd b4cf 1fbf
00000290: 069f 463f a393 f33e 5708 a03e 3d1d b4bf
000002a0: f59c dcbe c76a a53f d53f 3abd 38aa 913f
000002b0: b40a 013f a249 5c3f 49eb c33f 49fa 65bf
000002c0: dc22 3d3f 6788 8bbf 74a1 f83e 9c41 46bf
000002d0: bb20 623f 0fbd 873e 5954 0dbf 15ec e7be
000002e0: dbea 4abf 8618 91bf 0cbd 5b3f eaa6 573f
000002f0: 6acc 97be 5ad6 823e 34dc fdbe 966e 8dbf
00000300: b027 3d3f e1f1 793f 8173 50be 832f c6bf
00000310: 36a9 10bd f8a3 b9be ee90 14be e6ea b9bd
00000320: c1da 4b3f 1f48 d33e c97b 99be fb36 a43d
00000330: 0998 493f e3cf 6dbf 04bf c9bf 12db f7be
00000340: 9558 22be a85f 1d3f 0cc6 91be c369 c83e
00000350: 8e2e babe bfa8 3f3e d33e 81bf 642f 6d3e
00000360: 1cdb 83bd b204 64bf e7b9 0ac0 4729 e43e
00000370: c68e 87be e115 34bf c29f 793f 4c77 d3be
00000380: 2371 92bd 14e0 80be be4a d4bf 78b2 233f
00000390: c2d1 e73b 343a 423e e5e5 783e 89bd 99bf
000003a0: e2ff 023e 7191 6f3d ecb0 fdbd 976e 1cbc
000003b0: c2cd 723f 5586 4e3f fde5 3dbe 4ce2 71bf
000003c0: bb5d 4f3f a82f bd3e f762 19be d638 58bf
000003d0: b3f1 213f 5626 923f 8622 b6bd 0dc1 823f
000003e0: 6ad6 1b3f b9a7 26bf 0089 40bf 4b9c 8cbe
000003f0: 7c0c 0140 d9c9 453f 51a5 7d3f e8ab 833e
-0.14291488 0.76697135 0.6521272 -0.06297764 -0.23644644 2.5171156 1.5473288 2.0050924
-0.4909083 -0.5735644 0.1763621 1.068819 1.1103631 0.95251167 -2.6366413 -0.17070518
-0.6662423 1.2761234 -0.25300884 -1.56995 0.16427244 -0.5397784 -0.09574145 1.4640796
-1.1297262 0.44621888 0.047257047 -0.8231014 -0.089202344 0.15149498 0.031163722 0.8328613
-0.14700764 0.3241065 2.6443417 -0.7027594 1.2732182 0.95141745 1.9920627 0.021171303
-0.793448 0.19239025 0.55960286 0.9393624 0.035432823 0.97871166 0.036192223 -0.67156756
0.05330095 0.749673 -1.2930235 -0.44690818 0.15294658 0.4689223 0.022404786 -0.74963546
-1.2934283 0.23745082 -1.9304721 0.06537827 1.0691859 0.05265487 1.4692096 -0.6477043
0.30484548 0.81968063 -0.88193464 -0.607901 -0.06378135 -0.7771436 -0.6268417 -3.2219145
0.3355866 0.47757554 0.8302237 0.82027507 -0.5084668 0.40850765 -1.0824231 -0.65199524
-0.77239835 -1.0246341 0.32730955 0.9298602 -0.18004341 -0.9282033 0.514894 -1.3167996
-0.69052106 -0.409056 0.4378512 -0.18378381 -0.70848584 0.5824278 -1.2590854 -0.5432945
-0.12741041 0.75862336 0.4308805 0.15055898 -0.24834457 -0.033324704 1.0686678 0.92391634
0.84479487 -1.3345933 0.4950108 -1.6847423 -0.5356412 0.59166086 -1.1094823 0.27639776
0.071407855 -0.6750061 -0.74405605 0.31547868 -0.87707216 -0.6213359 -0.18253426 0.5710742
-0.447963 0.1642595 0.12303904 -1.6409904 -0.8576706 -0.78505814 0.3676741 0.22439283
1.4232187 -0.23302814 0.09219588 -1.2628402 0.7075025 -0.029953163 -0.28779837 1.0252855
-0.49800757 0.5987889 0.50584346 1.0181617 0.09797215 0.059163008 -0.38336053 -0.21578795
-1.0073357 0.45412868 -0.75788885 -2.0601912 -0.41931358 -0.73392963 -0.50010633 -1.507438
1.0374086 1.0971891 2.166897 1.4873074 -0.38881248 -0.09913216 -1.6494521 -0.260301
-0.38095057 -1.5101564 -0.07188162 -0.62426305 0.775864 0.47573575 0.31256363 -1.4071423
-0.430885 1.2923211 -0.04547103 1.1380072 0.50406957 0.86049855 1.5306178 -0.8983503
0.73881316 -1.0901002 0.4856068 -0.7744386 0.8833119 0.26511428 -0.5520683 -0.45297304
-0.7926461 -1.1335609 0.8583534 0.84239066 -0.29648143 0.25554162 -0.49582064 -1.1049373
0.73888683 0.976347 -0.20356561 -1.548325 -0.035317622 -0.3625791 -0.14508411 -0.090780064
0.79630667 0.41265962 -0.29977253 0.08018299 0.7874761 -0.92895335 -1.5761418 -0.48409325
-0.15854104 0.61474085 -0.2847141 0.3914319 -0.36363643 0.18716715 -1.0097297 0.2316261
-0.06438276 -0.89069664 -2.1675966 0.44562742 -0.26476115 -0.70345885 0.97509396 -0.41301954
-0.07150485 -0.25170958 -1.658531 0.63944197 0.0070745656 0.18967515 0.24306448 -1.2010967
0.12792924 0.058488313 -0.12387261 -0.009547851 0.9484521 0.80673724 -0.18544765 -0.94485927
0.81002396 0.3695042 -0.14979158 -0.84461725 0.6325943 1.1417949 -0.088933036 1.0215164
0.60874045 -0.65099674 -0.75209045 -0.27462992 2.016387 0.7726112 0.9908038 0.25717092

mlp_pi.2.bias f4 [128]
00000000: e492 623f 61c4 b03e df26 22be 38b8 553f
00000010: c4ec 52bf 5401 d13f ef90 b13e bc43 7fbf
00000020: 1e16 4e3f a336 68bf 7be8 59be f3e7 a63f
00000030: 60eb 99bf 29d7 323f e6fe cdbf d51f a73e
00000040: 0c8f babf f28c 9fbf 001e 2abf 98f5 693f
00000050: d95e ebbe 8a0e 55bf 414e 0e3f 98d5 213f
00000060: bb59 343e 4c14 ea3e 8e76 033f 7b75 e73f
00000070: 9fc6 53bf a960 9bbc 6577 2540 196b ae3d
00000080: 565d 7ebf 84d7 c0be fbcb 8b3f 8791 53bf
00000090: 1d3d 0cbe 70a9 4f3f 62ab 8d3e c05b 90bd
000000a0: 3555 44bf 0279 153f da44 b93d ed7e e13e
000000b0: 4493 c3bf 8b63 303e 9463 dcbe 2779 f93d
000000c0: 3f16 6e3f c858 8d3f ae15 6dbf ae7f ad3f
000000d0: 792e ea3e 6489 cc3f 66ea 0b3f 6fae 833f
000000e0: 6c7a 393e 1f8c bbbf 2751 b13e b019 b63d
000000f0: 9db5 9abe 1075 1a3e d4d1 4f3f 9c6b 3bbf
00000100: ec0c 37bf 1678 b73e 7d6e 07bf d0cf 68bf
00000110: 05d9 9f3f 5e73 afbd 7513 833f b003 8ebd
00000120: b990 26bf 36d0 d83d 4a41 3ebd 525c 8f3f
00000130: c86d d0be b7f3 6d3f 042f 67bf beef 6c3e
00000140: 914a c83e dd82 01be a170 3c3c d9e8 9ebf
00000150: db3f 3cbf 58c9 ebbd 20b1 88be d37b 0b3f
00000160: 0528 e6be 550f d23d b949 40bf 3979 aebe
00000170: fada 033e 8bcc e93f 8a3c a63f 1c3c ecbf
00000180: 5628 253e 34cc cbbf ae01 cbbd da42 15bf
00000190: 2750 a3bd b534 42bf 0f9b 0cbc 380d de3d
000001a0: cd7f 2abd 5bb6 393f 382c 8a3e 8790 aa3f
000001b0: 9016 96bf ca22 613f 4320 593f ff8e 93bf
000001c0: 491d 6a3f aed3 ab3e 44e5 8d3e 6e2c 99bd
000001d0: 18fe afbf 0618 b23c 299d f63f f354 89bf
000001e0: f502 a5be 5863 c7bf 79ed 8bbf ba49 24bf
000001f0: ba2c 2e3e 1321 d2bf 0aef 08c0 883d 043f
0.8850539 0.34524825 -0.1583514 0.8348422 -0.82392526 1.632853 0.34680888 -0.9971273
0.805025 -0.9070837 -0.2128009 1.3039535 -1.2024956 0.6985956 -1.6093414 0.32641473
-1.4574904 -1.2464888 -0.66452026 0.9139037 -0.459708 -0.8322531 0.55588156 0.63216543
0.17612354 0.4571861 0.51352775 1.8082727 -0.82724947 -0.01896699 2.5854123 0.08516521
-0.9936117 -0.37664425 1.0921625 -0.8264393 -0.13695188 0.81117916 0.27669817 -0.0704875
-0.76692516 0.5838777 0.090463355 0.4404215 -1.5279317 0.17225473 -0.43044722 0.12181311
0.93002695 1.1042719 -0.92611206 1.355459 0.4573858 1.5979428 0.5465454 1.0287608
0.18113106 -1.4652137 0.34632227 0.08891618 -0.30216685 0.15083718 0.8117955 -0.73211074
-0.7150409 0.35833806 -0.52902967 -0.90942097 1.2488104 -0.085669264 1.0240313 -0.06934297
-0.6506458 0.10586588 -0.046448983 1.1200049 -0.40708756 0.92950004 -0.90306115 0.2313833
0.3911939 -0.12647577 0.011501462 -1.241481 -0.73534936 -0.11513013 -0.26697636 0.54485816
-0.44952407 0.102568306 -0.7511249 -0.3407686 0.12876502 1.8265547 1.2987225 -1.8455844
0.16128668 -1.5921693 -0.0991243 -0.5830513 -0.07974272 -0.75861675 -0.008581891 0.10842365
-0.041625787 0.7254388 0.2698686 1.3325356 -1.1725636 0.8794371 0.8481485 -1.1528014
0.91450936 0.33559936 0.27713978 -0.074791774 -1.3749418 0.02173997 1.9266711 -1.072905
-0.3222882 -1.5577192 -1.0931846 -0.64175 0.1700925 -1.6416343 -2.1395898 0.5165639

mlp_vf.0.weight f4 [128, 128]
00000000: e413 30be 5446 22bf e038 aebe bcd0 85bd
00000010: b43c b5bd 3ec6 5d3e f09f c1be ff3b 263e
00000020: 4ea6 fabd da06 b73d f451 b2be f6b3 203b
00000030: 8f76 80bd 9159 283e aba2 02be 587c a8bd
00000040: 474e 23be 344c 613e af47 ac3d bfc3 1d3d
00000050: 5a02 afbc 77d5 393e 8e46 113e cc58 e13d
00000060: ac03 70be 55d5 33bd b337 e7bd 868a 853d
00000070: 6057 d43d 1b5f 7bbd 29b8 993d c366 c13d
00000080: 6999 7cbd 35ab 40be 6eb1 bfbc 8d68 213e
00000090: 4421 d83d 640a f2bd e10a ae3e 0812 fa3d
000000a0: 8dfe 7d3e 39e9 7fbe 5d36 b83e aaf3 3d3e
000000b0: c2b6 0c3f a806 cd3d e21a 0a3e 08a2 313f
000000c0: cc46 7c3e 46b9 303e c237 3fbf 4937 80bf
000000d0: d030 32bf 7f4f 853f 3ac2 a93f f4ba f83d
000000e0: d413 8abf 3ccb 19bf ffd5 8d3e ea45 123f
000000f0: 4291 fb3e cd4c 9fbd f8f2 5a3d ee53 38bd
00000100: faee df3d b968 873e 8c74 863d f5a3 103e
00000110: fc90 d4bd 35f5 79be 297b 523e 7ad1 fe3d
00000120: 2b1c 1f3e ff62 b13c 783d 043d 0797 0abe
00000130: b774 b2bd f4fb eebd 8537 413e e7e5 34be
00000140: 7234 1dbe 3c6f a83d 2e4a 0cbe 9207 1b3e
00000150: 897a 263e dfb9 543d e698 a23d 2a7a ccbc
00000160: 5f67 f23d b1ca bcbd 05e3 f73c f8af 19bd
00000170: cc75 323e 211a a5bc e978 663e c2ba 063d
00000180: ddf0 76bc 1ea2 bc3c b6f5 30be 1f08 873e
00000190: c3f0 d03d 51a6 bbbc cc62 1a3c 7252 a93d
000001a0: 5f57 203c 4cb3 153d f93f e9bc bb58 303e
000001b0: b6e2 b43d 9d1b 153d d5d5 56bd 0839 cabd
000001c0: bd61 5abe f094 0a3c 4c7d 1a3e 9167 903d
000001d0: 0726 f3bd 90ef 1bbe f8f2 a2bd fe83 0cbe
000001e0: bca1 9ebd 7bf4 203e cf73 00be 381e 0dbc
000001f0: 0571 2ebc 857d 14be d856 123d 579f 7fbd
00000200: a232 29bd b171 923e e5c2 92bd 3cf5 8a3e
00000210: 40fc 1a3e 85ee 9e3e ee04 a23d 1108 a73e
00000220: c98d 873e 115f f3bd d38a d13e 71ac 883c
00000230: cfa3 453e 33de d7bc 17b1 143d 5acd b4bb
00000240: 7f36 ad3d 2b00 183e c659 843e 8078 a9bd
00000250: 0077 c83e 8860 1e3e 29aa a23e 2c9e 5c3e
00000260: be61 68bd 7d3a c63d 4fc5 973e 68be 573e
00000270: 10a6 b83e c49b 083f cbbc 213e 8d50 033e
00000280: 4390 973e 794b 55be 4707 b1bd b730 e63e
00000290: ca38 cd3d e15b 563e 03be 023e 465e 0a3f
000002a0: 7925 41be 05ed 0e3f 6e6a e4bc 76b7 6f3c
000002b0: c0f9 1e3f 102e 483e 0a21 273d cfb5 d63e
000002c0: 0d72 cd3d 38b2 483c 53b7 7a3e e9b5 203c
000002d0: fc5e a43e 6d3b f43e a952 593e e70e 233d
000002e0: 6700 0c3f c8ef 863e 947c b2be ec3b dc3e
000002f0: fe00 0bbe 67a8 40be adcf 353f db3a f4bd
00000300: 6dda 383f f123 cb3e 3c65 213f f562 f73e
00000310: 7a7c dfbe 983e 533f 7ac3 b6be 8eb1 883e
00000320: 5e5d e53d 1dcf 6f3e abfa c93e 7ab2 2dbf
00000330: e80c 443f 6592 353f 5afe c7be f17c 783d
00000340: bfd3 c13e 5de1 20bd c861 993d 3f0e 76bd
00000350: c98c 243e 7a62 8e3d 818d 64bd e92a 313e
00000360: 9574 af3c 1901 423c 3477 0c3d e651 bb3d
00000370: 0c18 223d a4c5 953c 304a 113e 3b7d a33e
00000380: 267d 793e d100 a5bd a202 94bd 5b65 1d3d
00000390: 15e6 06be 78fc 5b3e 4d0e 37be 7bd6 4f3c
000003a0: 6538 153e a856 c1bd d5d6 7e3c bf2b 733d
000003b0: 690b e2bd 8a3b ca3c 7f0f 8c3a 9f95 743c
000003c0: 5de3 f1bd 4074 883d 2344 88be 348c 44be
000003d0: ef1e 693d 2098 3d3e 9db1 e83c 1fc2 8abc
000003e0: a0b2 e9bc 2c1e 16bd b9b9 2ebe c595 15be
000003f0: cd6d 5abd d901 05be aa7a 2c3e 7399 a33c
-0.17195088 -0.6338856 -0.34027767 -0.065339535 -0.08849469 0.21657655 -0.37817335 0.16233824
-0.12238751 0.08936854 -0.3482815 0.0024521328 -0.06272613 0.16440417 -0.12757365 -0.08226842
-0.15947829 0.22001725 0.0841211 0.038516756 -0.021363426 0.18147837 0.1418707 0.11003265
-0.234389 -0.04390462 -0.11289921 0.06520562 0.10368228 -0.061369997 0.07505829 0.09443428
-0.06166974 -0.1881531 -0.023400035 0.15762539 0.1055322 -0.11818388 0.33992675 0.122104704
0.24804135 -0.24991311 0.35978976 0.18549982 0.54966366 0.10011035 0.13486817 0.69387865
0.24636382 0.17258176 -0.74694455 -1.0016872 -0.6960573 1.0414885 1.3262398 0.121450335
-1.0787301 -0.60075736 0.2770233 0.5713793 0.4913426 -0.077783205 0.05345437 -0.045001917
0.10934253 0.26447085 0.06565198 0.14125045 -0.10379216 -0.24409945 0.20554794 0.12442298
0.15538089 0.02165365 0.032285184 -0.13534175 -0.08713668 -0.1166915 0.18868835 -0.17665826
-0.15352038 0.08224341 -0.13700172 0.15139607 0.16257681 0.051935073 0.07939319 -0.024960596
0.11836123 -0.09218348 0.030259619 -0.037521333 0.17427748 -0.02015406 0.22507061 0.03289295
-0.015072075 0.023026522 -0.17281231 0.26373383 0.10202172 -0.022906454 0.009422969 0.08267678
0.009786456 0.036547944 -0.028472887 0.17221348 0.08832304 0.036403287 -0.05245002 -0.09874159
-0.21326347 0.008458361 0.1508686 0.07051004 -0.118724875 -0.15228105 -0.07956499 -0.13722226
-0.07745692 0.15718262 -0.12544177 -0.008613162 -0.010647063 -0.14501007 0.035727352 -0.062407818
-0.041308053 0.28602365 -0.071660794 0.27140224 0.15135288 0.3104135 0.079110965 0.32623342
0.2647536 -0.11883367 0.40926227 0.016683789 0.1930077 -0.02635107 0.0363017 -0.005517644
0.0845766 0.14843814 0.25849742 -0.08274937 0.3915329 0.15466511 0.31770447 0.21544713
-0.05673384 0.096791245 0.29642722 0.21068728 0.36064196 0.5336268 0.15794675 0.12823696
0.2960225 -0.20829572 -0.08643966 0.4495904 0.10020597 0.20933487 0.12767796 0.540501
-0.18861951 0.55830413 -0.02788278 0.014631143 0.6209984 0.19548821 0.040802993 0.41935584
0.10031519 0.012249522 0.24483995 0.009808996 0.32103717 0.47701588 0.21222939 0.039809134
0.54688114 0.26354814 -0.3486067 0.43014467 -0.13574597 -0.1881424 0.71020013 -0.11925288
0.7220829 0.3967586 0.63045096 0.48317686 -0.43649656 0.82517385 -0.35696012 0.26697963
0.11199449 0.23418851 0.39449057 -0.6785046 0.76582193 0.70926505 -0.39061242 0.06066603
0.37856862 -0.039277423 0.074893534 -0.06007218 0.1606933 0.06952377 -0.05579901 0.17301525
0.021417895 0.011841082 0.03429337 0.0914648 0.039573714 0.018282719 0.14188457 0.3193148
0.24364147 -0.08056796 -0.07227065 0.03842674 -0.13173707 0.21483028 -0.17876549 0.0126854135
0.14572294 -0.094403565 0.01555415 0.05936789 -0.110373326 0.024686594 0.001068577 0.014928251
-0.11810944 0.06662798 -0.26614484 -0.19194108 0.056914266 0.18515062 0.028405005 -0.016938267
-0.028527558 -0.036649868 -0.17063035 -0.14607914 -0.05332737 -0.12988986 0.16843668 0.019970631

mlp_vf.0.bias f4 [128]
00000000: 4144 e2bf e860 8b3f b5a6 e8bf 43c7 4c3f
00000010: baa8 93bf 23a4 db3f 6dc1 d83f cd25 0bbf
00000020: 7c14 22bf b4a7 0440 de80 f83e 1d7c 013f
00000030: b55f 09c0 2f23 b43f 4a8c cebf 53b3 d03b
00000040: 68f8 e3bf f2a3 05c0 ccfb 493f f96c 903f
00000050: 8455 f7bf 8cd4 7b3f 9553 ea3f ba4d f93f
00000060: eae1 e23f c835 c1bf 13b5 3ebf 29ed 77bd
00000070: 5f05 593d 4ce2 f8bf fe1a 643f 2b00 f43e
00000080: 9ea0 b2bf 5683 803f e171 05c0 2b0e 90bf
00000090: c44e 3fbf c083 dabf 782c 1940 30ae a7bf
000000a0: d118 edbf 5c38 83bf 3979 333f a113 353f
000000b0: d200 d7bf 5291 2d3e e13a e83e bfae 81c0
000000c0: 3759 1dc0 dac3 1f40 dd4f 9a3f 078b 68bf
000000d0: 6a75 afbf 5f28 1740 4627 1a40 3979 fb3d
000000e0: b564 3e40 86d9 0240 039d 02c0 954f 7f3f
000000f0: b0f7 b8bf a18c 5a3f 8239 143f 6ae3 d23e
00000100: 9f10 20bf 2208 813f 6d26 84bd ca61 bebf
00000110: 002b 873f 5a64 b3bf 85c6 243f 1aac 7bbe
00000120: 5abb 503f c8d0 bf3f ae62 14c0 5797 bf3b
00000130: 4edb e6be 0141 a3bd 7ac0 f53f 52c3 cb3f
00000140: 1ab7 9cbf 0dec 793f 1203 89bd 776f 0e3f
00000150: 48f8 3dc0 82fa 4b3f 6dee 0cc0 89e4 3140
00000160: 1c49 19c0 2fb6 f5bf e778 eebf c546 b3bd
00000170: 04b8 f23f fa56 e43f 03aa b0be 11c8 45c0
00000180: 3167 4f3f 5f75 01c0 f3f1 a13f df85 5abf
00000190: 9ffa 1b40 5ac0 f93e 96e4 053d 7dc8 14c0
000001a0: 538e febd d090 dcbe 73e0 1e3f 7ab4 28c0
000001b0: 7c56 993f e313 803f 7da9 ecbe c888 fcbf
000001c0: 371a c2bf 3087 3f3f ba43 9e3e fd08 80be
000001d0: 36bd bdbf 16e1 ac3f 7cf9 23bf 6caf 63be
000001e0: 6d03 123f a091 5040 106b ccbe 0c13 de3f
000001f0: 01d9 3240 347e ea3f 7469 9fbd 58bc 1fc0
-1.767708 1.0888948 -1.8175875 0.7999155 -1.1535866 1.7159466 1.6934029 -0.54354554
-0.63312507 2.0727358 0.48535818 0.50580007 -2.1464665 1.4073237 -1.6136563 0.0063690334
-1.7810183 -2.0881314 0.78899837 1.1283256 -1.9322972 0.98371196 1.8306757 1.9476845
1.7725194 -1.5094538 -0.7449505 -0.060528908 0.052983638 -1.944406 0.89103687 0.47656378
-1.3955266 1.004008 -2.0850756 -1.1254324 -0.7472956 -1.7071457 2.3933392 -1.3100033
-1.8523198 -1.0251575 0.70106846 0.70733076 -1.6797125 0.16949967 0.4535742 -4.0525813
-2.4585702 2.4963288 1.2055622 -0.9083714 -1.3707707 2.361839 2.408647 0.12278981
2.9748967 2.0445266 -2.0408332 0.9973081 -1.4450588 0.8537083 0.5790025 0.41189128
-0.6252536 1.0080607 -0.06452642 -1.4873593 1.0559998 -1.4015 0.64365417 -0.2457737
0.81535876 1.498559 -2.318523 0.0058468985 -0.4508919 -0.07971383 1.9199364 1.5918982
-1.2243378 0.9762581 -0.06690039 0.5563883 -2.968279 0.7967912 -2.2020524 2.7795737
-2.3950872 -1.9196223 -1.8630646 -0.087537326 1.8962407 1.7839043 -0.3450471 -3.090336
0.8101683 -2.0227888 1.2651962 -0.8536052 2.4371717 0.48779565 0.0326887 -2.3247368
-0.1242949 -0.43079233 0.6206123 -2.6360154 1.1979518 1.0006069 -0.4622306 -1.9729242
-1.516425 0.74815655 0.30911046 -0.25006858 -1.4823368 1.3506191 -0.6405256 -0.22234887
0.5703648 3.2588882 -0.39925432 1.7349563 2.7944949 1.8319764 -0.077837855 -2.4958706

mlp_vf.2.weight f4 [128, 128]
00000000: cdda b2bd 0ce7 7c3e 1518 38bd deb6 8c3d
00000010: 36eb 733c 2362 df3e 525d de3e a500 cabe
00000020: 4c83 24bb 5607 0c3f 38f1 523e 834e 92bd
00000030: c694 3bbe 3aef c13d 3c54 33be c87f 83bd
00000040: bd8c 43be f205 a6be 7bb3 e7bd 3bd6 0ebe
00000050: 8f33 00bf 8c37 cbbc 1d47 0a3d da62 053e
00000060: 1609 263e f37e 913e 2adc bfbd 539b 06bf
00000070: 8b97 9cbe 759e 82be 13a2 563e deee 4abe
00000080: 1421 dabe ec4a 203e 34c1 eebe 3e3f 00bf
00000090: 5f9b fdbe 0977 13bf e828 bbbd 35bd 8a3e
000000a0: a801 f13d 3349 c9be 609b 9abd a662 063e
000000b0: 54c2 223f b524 e23b 9e6d ab3e 6951 9bbd
000000c0: 4bdc 3fbe 8ac4 1f3d c3b8 973e 986c e8be
000000d0: 4f24 0e3e 0de2 8a3d dde6 073f ef11 533d
000000e0: 16c6 023f e975 633d 6a62 23bf 0602 ddbd
000000f0: 9453 f93e 5ec6 213f 8671 48bc 6b93 d5be
00000100: 6c82 15bf ff68 183e aa81 aebe bfa7 653d
00000110: 6d8f 58be 44de 83be e3b9 35bd d067 d2be
00000120: 3ece b43c 2a91 4abe d7b7 dfbe daeb b63c
00000130: 58de 5bbe 1e34 7dbe 7987 8f3e 810f c53e
00000140: c901 b3bd 3b2d aa3e 52aa 80be b91a 2e3e
00000150: 6295 b6be d44c d0bd 3762 923e 26cd 793e
00000160: 0ded e1be e0a6 4abd e328 a8bd 5da7 8cbe
00000170: 0144 d9bd d67e e03d 3c27 82be 7281 56be
00000180: ede4 023f 4726 a0be cffa a23d 0754 62bd
00000190: 0d9a 813e 618b 8abd 7c99 763e a119 3abe
000001a0: 4870 00bf 212d fb3e eecf debe 847e 9dbe
000001b0: 8cc1 14be 0ad4 8f3e e03d 80bd 1a22 27be
000001c0: e84a dcbe 6c8d 223e 9415 073e 105f b9bd
000001d0: 5db2 b5bd 0418 1a3e b391 4abd 6e6f cebd
000001e0: 50f4 fabe ecc6 533e 97b2 bfbd 303b 9a3e
000001f0: f1bb a4bd dc11 be3e 7da3 04bd 00e9 b1bd
00000200: 650b bd3d b826 0cbb 6668 453e c1e6 8e3e
00000210: d96a ab3d d0f9 c6be 771e 04bf 986e 903e
00000220: dea0 58bc 55ee 6cbe 65dc 25be dad2 49be
00000230: 6509 5c3e 95f9 9abe e844 003f 9b4d 5bbe
00000240: 86bc ae3e b9c2 d13d 14b6 2abe 77e6 17bf
00000250: 008a 943e 3e24 7fbe e341 63be d59c f9bd
00000260: f1ec 023e 11e7 debd 5d92 bd3e b88f 623e
00000270: 0a02 4b3e 7e47 6abd 5766 b7be 6385 263e
00000280: 6dd1 6c3d ef59 3bbe 7169 093e 2bfb 653e
00000290: 63fd e93e 9ec4 9fbb 3250 623e 96b3 ea3c
000002a0: 82ec 4cbe 964d da3e aa4e cd3d 73f8 513d
000002b0: 003b e7be b763 babc 1e74 6dbe 89cc 603e
000002c0: b198 033d c324 833e 65b0 efbe 6b71 2a3f
000002d0: 35d3 39bd 92d2 fdbd 8e9c 59be 7057 a8be
000002e0: b8ba 03bc c61b ecbd eb02 2f3e 1169 823e
000002f0: 5d6e f7bd 11a6 9dbe f99f 833d ef45 b53e
00000300: 3f91 573e a521 5cbe a934 b73e acae bc3d
00000310: 15e3 68be 44a0 c33e a77c 463c b678 ba3e
00000320: 2ff9 853e fd79 44be 33cc 703e 5603 2d3e
00000330: 9740 e8bd 2969 193f ca48 16be be75 2bbe
00000340: 37b3 523e 3b11 d8be 6676 713d a507 37be
00000350: 9240 833e 9271 8cbd 3252 87bd cb37 2abe
00000360: 4fad 723e 2c06 e23d 8495 643e a81a 383e
00000370: 2cea 42be 1f00 3cbe 11f0 ab3e 8f13 8a3e
00000380: 3099 e4be e516 bf3e e2d4 bdbc 88bc 8e3d
00000390: f2c8 58be 6925 903e ce11 40be fe9f 3c3e
000003a0: a2a9 a93e 262f 01be c934 8b3e 8559 ad3c
000003b0: 7a1a 883e e81f a1be 6923 4abe bbab ad3e
000003c0: 878c b93e a838 5d3c 4bc2 53be 7e06 a13e
000003d0: 703f d83b 0f91 3bbe 0203 d53d e81e 37bd
000003e0: 4660 0b3e 8344 f3be 359b d73d c258 78bd
000003f0: 469a ffbb 3e0a 23be 5312 39be 81f6 a33e
-0.08733139 0.24697512 -0.04494484 0.06870817 0.014887622 0.4362956 0.43430573 -0.39453617
-0.0025102673 0.54698694 0.2059983 -0.07143881 -0.18318471 0.09469457 -0.17512602 -0.06420857
-0.19096656 -0.3242641 -0.1131353 -0.1394891 -0.5007867 -0.02480676 0.033759225 0.1302599
0.16214404 0.28417167 -0.09368165 -0.52580756 -0.30584368 -0.25511518 0.20960264 -0.19817683
-0.42603362 0.1565358 -0.46631777 -0.500965 -0.495326 -0.5760351 -0.091386616 0.27097479
0.11767894 -0.3931366 -0.07549167 0.13123569 0.6357777 0.0069013485 0.3348207 -0.07583887
-0.18736379 0.039005794 0.2963315 -0.4539535 0.13881038 0.06781397 0.53086644 0.051530775
0.51083505 0.05553237 -0.6382204 -0.107914016 0.48696578 0.6319331 -0.012234097 -0.41714033
-0.58402133 0.14883803 -0.340833 0.05606818 -0.21148463 -0.25755513 -0.04436673 -0.41094828
0.022071 -0.19781938 -0.43694946 0.02232926 -0.21471536 -0.24726912 0.28033045 0.3848839
-0.08740575 0.33237633 -0.25129944 0.17002381 -0.35660845 -0.10170904 0.28590557 0.24394664
-0.44126168 -0.04947555 -0.082109235 -0.27471438 -0.10608674 0.10961692 -0.25420558 -0.20947817
0.51130563 -0.31279203 0.07957994 -0.055255916 0.25312844 -0.06764866 0.24081987 -0.18173839
-0.5017133 0.49057868 -0.43518013 -0.30760586 -0.14526957 0.2809146 -0.06261802 -0.16321602
-0.430259 0.1587426 0.13191825 -0.09051335 -0.08871911 0.15048224 -0.049455356 -0.10079847
-0.4901452 0.20681351 -0.09360235 0.3012328 -0.080436595 0.37123 -0.032382477 -0.08687019
0.09230689 -0.0021385383 0.19278106 0.27910426 0.08369989 -0.38862467 -0.51608986 0.28209376
-0.0132219475 -0.23137791 -0.16197355 -0.1970934 0.21487959 -0.3026854 0.5010514 -0.21416323
0.34128207 0.102422185 -0.1667102 -0.59336036 0.29011536 -0.24916169 -0.22193103 -0.121881165
0.12785698 -0.10883916 0.3702573 0.22125137 0.19824997 -0.057197087 -0.35820267 0.1626182
0.05781691 -0.18296026 0.13419129 0.22459094 0.4570113 -0.0048757335 0.22100905 0.028650086
-0.20012096 0.42637318 0.100247696 0.05126233 -0.451622 -0.022752626 -0.23188826 0.21953024
0.03212804 0.25613984 -0.46814266 0.6657931 -0.04536744 -0.12393679 -0.21251127 -0.3287921
-0.008040123 -0.11528735 0.17090957 0.25470784 -0.12081597 -0.3079076 0.06426997 0.35404918
0.210515 -0.2149721 0.35782364 0.092130035 -0.22742875 0.3820821 0.01211468 0.3642022
0.26166674 -0.1918716 0.23515396 0.16895804 -0.113404445 0.59926087 -0.14676204 -0.16744134
0.20576178 -0.42200646 0.058950804 -0.1787401 0.256352 -0.06857599 -0.066074744 -0.16622846
0.23698924 0.110363334 0.2232266 0.17978919 -0.19034642 -0.18359421 0.33581594 0.26968047
-0.44648123 0.37322155 -0.0231728 0.06969553 -0.21170405 0.28153542 -0.18756792 0.18420407
0.33137232 -0.12615642 0.2718871 0.02116085 0.265827 -0.31469655 -0.1974007 0.33920082
0.36240026 0.013502277 -0.20679586 0.31450266 0.006599359 -0.18317054 0.10400964 -0.04470721
0.13610944 -0.47513208 0.1052765 -0.06063152 -0.0078003732 -0.15921876 -0.18073396 0.32024005

mlp_vf.2.bias f4 [128]
00000000: 288a 8f3d 1879 09be c1ba b9be 6899 44be
00000010: c1cb e53c 2286 973e dad8 d23e 049d 0f3f
00000020: 813f 20be e600 17be 75a6 123e fbe7 643e
00000030: ae51 e8be 8db0 1a3d b899 bd3e 314e 1e3e
00000040: 6e2b 693e d67b b3bd 0596 fb3d bdc3 4d3e
00000050: a6aa 55be d26a aabd f639 693e 3190 753e
00000060: 63bc 8a3d 5c4b 403e ecc7 b13e fce2 0f3d
00000070: c186 ec3d a993 93be bad9 63be 8b15 693e
00000080: 4ead c33d 7f2a 11be 0b61 d1bd 2733 25be
00000090: 3347 10be 2540 393e 579b 0e3e 8b10 65be
000000a0: 3e18 a2be 3ea0 a63e 78f5 0bbe b2f9 9a3e
000000b0: 2f74 8b3e 67dc 18be 9c2c 99bc 2243 fe3d
000000c0: eecb 02bd 736a c53d bff7 423e 66ac a13c
000000d0: e711 6fbe 6ca4 c6bd 56bd 983d 3fe4 653d
000000e0: 04c5 803e bc5b c23e 9cee 4ebe 088a 813d
000000f0: 7479 8e3e 011f 9a3d fbea fe3d 4a69 5e3e
00000100: b5b3 e33d 9d9a 35be 61b5 47be 8dcb c03d
00000110: 1538 af3e 953f b4ba 2b0c f53d 6f49 8c3e
00000120: 5cb3 23bf 3833 613d 8ae9 d03d d30f 1abe
00000130: 9956 433e 51a0 533e b668 b93e eb9f 91bd
00000140: c546 13be 9c66 b23d f64c dfbc 41f2 0cbe
00000150: 642b 72be eb1a 263e a346 3a3e 9547 0dbe
00000160: c51a 36be 7bbb 26be aaa8 67be b1dc e63e
00000170: bc66 b13e 1d3e f6be c040 12be 8715 5abe
00000180: 1dd5 3abd 8976 0a3e 35e0 9b3e 2fe9 d0bd
00000190: 406c d3bd 4c7e d03e 2baf a83d d8ef 643e
000001a0: 7311 e4bd f820 1abe 0073 84be b5fb 003f
000001b0: 6a57 74be 4ed0 023e f8e8 62bc c518 733d
000001c0: a36f 72bb 3a14 233d 4f6e a9be 7095 9dbd
000001d0: 348a 0bbe 7569 9cbe 6b3b 0dbc 8092 d6bd
000001e0: 1ee6 91be 250f 833d fd2b 97be 3107 d9bd
000001f0: b7f1 cebc 52b1 583e c6a4 a83e 186f 08be
0.07008773 -0.134251 -0.36275294 -0.19199145 0.028051259 0.29594523 0.4118107 0.5609896
-0.15649225 -0.14746436 0.14321311 0.22354119 -0.45374817 0.03776603 0.3703134 0.15459515
0.22770473 -0.08763854 0.12284473 0.200942 -0.20865878 -0.083211556 0.22776017 0.23980786
0.06774213 0.18778747 0.3472284 0.03512858 0.1154914 -0.28823593 -0.22251025 0.22762124
0.095545396 -0.14176367 -0.102235876 -0.16132794 -0.1408966 0.18090875 0.13926445 -0.22369592
-0.3165912 0.3254413 -0.13667858 0.30268627 0.2723708 -0.14927827 -0.01869803 0.12415148
-0.031932764 0.09639444 0.1903982 0.019735526 -0.23346673 -0.0969933 0.07457988 0.056125876
0.2515031 0.37960613 -0.2020821 0.063251555 0.27827036 0.07525445 0.12447163 0.21719852
0.11118261 -0.17734762 -0.19502784 0.09413824 0.34222475 -0.0013751859 0.119652115 0.27399775
-0.63945556 0.054980487 0.10200794 -0.15045099 0.19076003 0.20666625 0.362127 -0.0711058
-0.14382465 0.087109774 -0.027258378 -0.13764288 -0.23649365 0.16221206 0.18191008 -0.13796838
-0.1778365 -0.16282456 -0.22622934 0.4509025 0.34648693 -0.48094264 -0.14282513 -0.21297275
-0.045613397 0.1352178 0.30444494 -0.10200726 -0.103233814 0.40721357 0.08236536 0.22357118
-0.11136141 -0.15051639 -0.25868988 0.50384074 -0.23861471 0.12774774 -0.013849489 0.059349794
-0.003699281 0.03981421 -0.3309197 -0.076945186 -0.13626939 -0.30549207 -0.008620123 -0.104771614
-0.28495878 0.06399373 -0.29525748 -0.10597075 -0.025261743 0.21161392 0.32938212 -0.13323629

action_net.weight f4 [127, 128]
00000000: 97c9 713f e97d 003f 1422 8fbe 922c 803f
00000010: 9d19 48bf 74e3 1840 b571 89be 078c b6bf
00000020: 2838 913f b37e 5bbf 6b98 94be ee72 2a40
00000030: a9a0 99bf 38e7 e33f 0350 09c0 9ed2 5dbf
00000040: a71e 3cc0 a529 9d3d bc51 94bf d9e4 1f3f
00000050: 25b5 a4bf 035a cebf eeff 733f 7152 553f
00000060: 46b5 c6bf 2098 50be aa17 8ebf 54dc 5fbf
00000070: 3cac f4bf 80d6 c6bf 450a 0240 cab9 933f
00000080: 0c4f e2bf 6770 45be d2b8 f83e 38e7 32bf
00000090: 74e1 f1be a510 863f e816 893f 5fb1 92be
000000a0: 8fcf ac3e 05c1 d33f b073 b2be 5121 983f
000000b0: 971e 5cc0 bcde 233f f6c4 81bf 647d f43e
000000c0: 48ee 2940 50de a13f ed64 47c0 202e 803f
000000d0: e865 7a3f 0201 4140 baf0 ab3f 3c31 d93f
000000e0: 2175 56bd aa09 04c0 ad01 0540 099a c43e
000000f0: 2158 50bf 88ad 983f 9fcc 4140 30ad 8fbf
00000100: 48c4 eabf c08c ccbe cdce a1bf 9362 05c0
00000110: 6668 073f 4080 573f 8d99 633f 2eb8 0d3f
00000120: 15be d5bf 253e 2340 c4d6 293f f72d 0a40
00000130: 35f7 09c0 5acb 0440 f350 c1bf 3fc9 10bf
00000140: 9310 983c 2b7e 313f a774 7bbe 9b98 14c0
00000150: 171b c8bf 2a5d 18bf 0e7e 72bf 8cca 3740
00000160: b300 66be 20a3 bebf e5db 18c0 a6a7 77bf
00000170: 53a3 ecbe ed72 7f3f 0466 143f b6bb f8bf
00000180: 2d8a 263f 8505 d7bf 1bbd 5ebf aa5c 3ebf
00000190: 52c1 a7bf b2d2 f4bf 56fe da3e c739 18be
000001a0: e025 4ebf f970 2b3f a5f0 6b3f c101 3840
000001b0: 7756 b6bf 2b36 1c40 980a 1bc0 9124 0dc0
000001c0: cf2f ad3f 2423 823f 6e39 953e c74e 4cbf
000001d0: 6893 11c0 150d 8ebf 172d 853f 42d0 dabf
000001e0: 6db3 103f ff7a ddbf 96bb fdbe 56b4 dcbf
000001f0: 6231 21bf da62 e8bf 5fcd e8bf de06 bd3d
00000200: 15d2 943f 54a3 0f3f 19fe 1c3f 9e6f c43f
00000210: 1a76 58bf c17a ff3f 40cc 9a3f 82c2 07be
00000220: b029 7ebf b0f3 96bf faa4 45bf 4960 c63f
00000230: b8a0 053f 1a82 773f 19ce c5bf 66cc 6cbf
00000240: be55 edbf 4449 a73f 2d55 b4be 12e1 d23f
00000250: 5303 16bf febd e4bf a724 df3f 4b1e 7fbe
00000260: 0e2d 363e d3b6 2ebf 40b5 6c3f d38b 7cbf
00000270: 4797 82bf 0557 62bf 113f f43e 517b ccbe
00000280: d7a0 d1bf 4d24 9dbe db48 063d be33 98bc
00000290: aa01 b73f 8e1e 133f 7927 203f cbf2 14bf
000002a0: a46d 94bf af28 7b3f b81e a0be 8e00 b03d
000002b0: 0c5e b9bf 35f0 1e3f a6e6 103e 3ccf 87bf
000002c0: 5a0b 923f ddb0 e93f 9f35 a0bf 4fa7 913f
000002d0: 3958 553f a4dd b53f fa82 c53f ad3f 0140
000002e0: 730f c6be dd55 c4bf 0edb 973f 43b1 823d
000002f0: 2afa 343f 201d 8a3f a843 0bbd 7643 fcbe
00000300: e285 ebbf a221 d3be a86e ae3f 83e7 a3bf
00000310: 1fb8 bb3e 43b0 9c3f ad5f 003f 022f 733e
00000320: 9f81 58bf a312 903f 22a3 a4bf bc5c 573f
00000330: 16e3 bfbf 5036 4a3f c0fa a3bf 06c6 1a3f
00000340: ba8c ff3e 2459 dfbd e183 2f3f c8bf 00c0
00000350: aa58 95bf 971d 073f 80a1 8ebf d813 b83f
00000360: 5fe0 773f c467 343e 3595 c5bf 98d4 903f
00000370: 4ec4 89bf 94fe d93e efc1 35bf 35b8 89bf
00000380: b29c 543f 4162 74bf bb21 4a3f 2807 0740
00000390: ee2b 8fbf 8d96 03c0 deb8 943e e20e bf3f
000003a0: 84e7 96bd c654 5ebf b82a 363f 8e71 0040
000003b0: 52da 38bf 86c8 8d3f a7c5 b2bc f746 babe
000003c0: 0dd4 5d3f c929 babf 90e6 9c3e 8448 fcbe
000003d0: 1da3 dfbe 33f7 1ebe 7a54 263f c36b 933e
000003e0: bd68 453f 9db2 04c0 bd2a 823e d5de 92bf
000003f0: d003 89bf 80b9 d8bf 9536 98be 3ff9 6cbf
0.94448227 0.50192124 -0.27955687 1.0013602 -0.7816408 2.3888826 -0.26844564 -1.4261483
1.1345263 -0.857402 -0.29022536 2.6632648 -1.2002155 1.7804937 -2.1455085 -0.866495
-2.9393709 0.07673959 -1.1587443 0.6245857 -1.2867781 -1.6121219 0.9531239 0.8332892
-1.552407 -0.20370531 -1.1100972 -0.8744557 -1.9115062 -1.553421 2.0318768 1.1541073
-1.7680373 -0.1928116 0.48578507 -0.6988406 -0.4724232 1.047383 1.0710115 -0.28650948
0.33752105 1.654328 -0.34853888 1.1885167 -3.439367 0.6401174 -1.0138233 0.47751915
2.6551685 1.2645969 -3.115535 1.0014076 0.97811747 3.0156865 1.3432839 1.696815
-0.052357797 -2.0630898 2.0782273 0.3839877 -0.81384474 1.1927958 3.028114 -1.1224728
-1.834115 -0.39951134 -1.2641236 -2.0841415 0.52893674 0.8418007 0.88906175 0.5535916
-1.6698633 2.550668 0.6634333 2.1590555 -2.1557133 2.0749116 -1.5102829 -0.5655708
0.01856259 0.6933314 -0.24556218 -2.3218143 -1.5633267 -0.5951716 -0.94723594 2.8717375
-0.22461204 -1.4893532 -2.3884213 -0.96740186 -0.46218356 0.9978474 0.57968163 -1.9432285
0.6505459 -1.679856 -0.870073 -0.74360144 -1.3105872 -1.9126799 0.42772168 -0.1486579
-0.8052654 0.6696926 0.9216407 2.875107 -1.4245137 2.4408062 -2.4225216 -2.2053568
1.3530215 1.0166974 0.29145378 -0.79807705 -2.274622 -1.1097742 1.0404385 -1.7094805
0.5652378 -1.730316 -0.4955718 -1.7242534 -0.6296598 -1.8155167 -1.8187674 0.092298254
1.1626612 0.56108594 0.6132522 1.5346563 -0.8455521 1.9959337 1.2093582 -0.13257793
-0.9928236 -1.1793118 -0.7720486 1.5498134 0.5219836 0.96682894 -1.5453521 -0.9249939
-1.8541791 1.3069234 -0.35221234 1.6474936 -0.5859882 -1.7870481 1.743306 -0.249139
0.17790624 -0.6824772 0.92464066 -0.98650855 -1.0202416 -0.8841403 0.47704366 -0.39937833
-1.637721 -0.30691758 0.032784324 -0.01857936 1.4297383 0.574685 0.6256023 -0.5818297
-1.159596 0.98108953 -0.31273437 0.08593856 -1.4481826 0.62085277 0.14150485 -1.0610118
1.1409714 1.8257099 -1.2516364 1.1379184 0.8333774 1.4208264 1.5430596 2.0195115
-0.38683662 -1.5338703 1.1863725 0.06381466 0.7069422 1.0790138 -0.03400007 -0.4927022
-1.8400233 -0.41236597 1.362752 -1.2805027 0.3666391 1.2241291 0.5014599 0.23748401
-0.84572786 1.1255687 -1.2862284 0.84125876 -1.4991176 0.78989124 -1.2810898 0.6045841
0.49912053 -0.10905674 0.68560606 -2.0117054 -1.1667683 0.52779526 -1.1143036 1.4381056
0.9682674 0.17617708 -1.5436159 1.1314878 -1.0763032 0.4257704 -0.70999044 -1.075934
0.830516 -0.95462424 0.7895772 2.1098118 -1.1185281 -2.056064 0.29047292 1.4926417
-0.07368377 -0.86848104 0.71158934 2.0069308 -0.7220813 1.107682 -0.021822764 -0.36382267
0.8665169 -1.4544002 0.30644655 -0.49274075 -0.43679133 -0.15523987 0.6497265 0.28793153
0.7711294 -2.0734017 0.25423232 -1.1474253 -1.0704288 -1.693161 -0.29729143 -0.9256782

action_net.bias f4 [127]
00000000: deb0 4540 a6d5 b9be c96e f53f 58b6 f73f
00000010: eab2 1440 e2b5 b73f 1666 0d40 e008 ce3f
00000020: 0b25 9d3f a76e 1640 41b8 be3f 1c3f 4f40
00000030: 4959 0040 809c e53f 9e00 0c40 e712 d93f
00000040: ccfb f63f 851a d83f 51e9 fe3f 8628 f53f
00000050: a434 1c40 c32b 1540 5a0e f63f 4df6 fb3f
00000060: 9dca f53f 2240 0340 3d3c fd3f f19c e63f
00000070: 46e8 0240 9c30 cf3f 58f4 ee3f 3a80 f23f
00000080: 5417 2e40 ad30 0340 bfa7 c23f 6ab9 d93f
00000090: 09cb ef3f 45de da3f 5844 c13f ee8b e33f
000000a0: f3ca 6e3e 5641 5ebe 9f31 5fbf 9d33 c8bf
000000b0: ada3 00c0 bc47 e2bf 42c7 a5bf 7e2a d5bf
000000c0: ecb4 afbf 808d f0bf 885a fbbf 2048 09c0
000000d0: 5891 07c0 8315 febf f9a0 08c0 b126 10c0
000000e0: 3207 12c0 4e8a 2ec0 0ad0 37c0 61b2 07c0
000000f0: c423 26c0 b564 1bc0 e1e3 0ec0 36eb 2dc0
00000100: c037 2cc0 b8da 20c0 7e33 32c0 e545 1cc0
00000110: 523c 60c0 f6cb 33c0 9b75 8dc0 915c 28c0
00000120: 70ac 8cc0 20d1 14c0 239b 8cc0 b038 32c0
00000130: 41e3 5ec0 e56e 8cc0 a5c3 8cc0 bb26 5ac0
00000140: 20bf 8cc0 1dc6 8cc0 a7a5 8cc0 d852 5fc0
00000150: 4bc9 8cc0 bbe7 5fc0 896f 60c0 f572 8cc0
00000160: 0784 5fc0 9edc 8cc0 466b 8cc0 bf93 8cc0
00000170: 2393 8cc0 be92 8cc0 d046 8cc0 ca57 60c0
00000180: d079 5fc0 24bd 8cc0 d578 60c0 bc72 62c0
00000190: 4fd3 8bc0 0397 8cc0 1a99 8cc0 c8af 8cc0
000001a0: 79be 8cc0 9ac4 8cc0 b5fe 8cc0 7e8d 8cc0
000001b0: 99c3 8cc0 c494 8cc0 58bd 8cc0 91e3 5fc0
000001c0: f747 60c0 b83c 8cc0 605a 79c0 8273 5fc0
000001d0: 19cb 8cc0 61b3 8cc0 4197 8cc0 55a3 8cc0
000001e0: 06c2 8cc0 23c0 8cc0 2805 60c0 4157 60c0
000001f0: 3cc3 8cc0 ebc6 8cc0 1691 8cc0
3.08892 -0.36295813 1.9174434 1.9352522 2.32342 1.4352381 2.2093558 1.6096458
1.227693 2.3505037 1.489998 3.238227 2.0054495 1.7938385 2.1875377 1.6958894
1.9295592 1.6883093 1.9914953 1.9152992 2.440713 2.330796 1.922313 1.968454
1.9202458 2.0507894 1.9784008 1.8016645 2.0454268 1.618671 1.8668318 1.8945382
2.7201738 2.049846 1.5207442 1.7009709 1.8733836 1.7099081 1.5098982 1.7777078
0.23319606 -0.21704611 -0.8718509 -1.5640751 -2.00999 -1.7678142 -1.2951434 -1.6653593
-1.3727088 -1.8793182 -1.9637003 -2.1450272 -2.118246 -1.9850315 -2.134825 -2.2523615
-2.2816892 -2.7271914 -2.8720727 -2.1202624 -2.595933 -2.4280217 -2.2326586 -2.7174811
-2.6909027 -2.5133495 -2.7843928 -2.441766 -3.5036817 -2.8093238 -4.420606 -2.6306498
-4.3960495 -2.325264 -4.3939376 -2.78471 -3.4826205 -4.388537 -4.3988824 -3.408614
-4.3983307 -4.3991838 -4.395221 -3.4894314 -4.399572 -3.4985187 -3.5068076 -4.389033
-3.4924333 -4.401931 -4.388095 -4.3930354 -4.392961 -4.392913 -4.383644 -3.5053582
-3.4918098 -4.3980885 -3.507375 -3.5382528 -4.3695445 -4.393434 -4.393689 -4.3964577
-4.398251 -4.398999 -4.406092 -4.392272 -4.3988767 -4.39316 -4.3981133 -3.4982646
-3.5043924 -4.382412 -3.896141 -3.491425 -4.399792 -4.396897 -4.3934636 -4.394938
-4.3986845 -4.398454 -3.5003147 -3.5053256 -4.3988323 -4.399282 -4.3927107

value_net.weight f4 [1, 128]
00000000: 7c55 0bbf 8c61 03bf c390 ac3f 3de7 8abe
00000010: 0cc0 8c3e 5eec a73e 1ced 29be e5d3 e8be
00000020: c0a3 b1be ce58 6abe c396 c73e 6115 aabe
00000030: 789e 2abe 21d8 663e e0a6 14bf 3a5a 2c3e
00000040: 60a8 643e d2a2 babe 4342 4e3e 3d21 943d
00000050: 08f1 4e3d 927e 8ebf a9e1 2dbf 6591 dabe
00000060: 138b 61be 11ab 773f aae8 4abf c3bc 0abe
00000070: 14a4 bb3e 2eab 573f 959f 8c3d 6161 003e
00000080: cd57 c93e 97c4 04be ba4b 28be bc2c 743f
00000090: 0f29 c1bd 7fbb 5f3f a6e7 cd3e 8f07 71bf
000000a0: 62c3 03be 7013 b0bf 6d9c 00c0 1c66 12be
000000b0: 7af4 6ebf 2a34 51bd 6ec1 da3e 3fe3 ec3d
000000c0: 1eb3 b5bf 9399 593e 6c9f 5dbf 069a 223e
000000d0: 6583 0abc 983a 94be dfd1 bb3f 3db8 9e3e
000000e0: d6d1 a2bf 0393 50bf 38d9 65be 906b 2dbe
000000f0: 246d b4be a25a 813e 430d 55bf da24 1f3e
00000100: d9f8 d7bf 401c 223f 0fd8 52bf 9575 6e3e
00000110: b58c 38bf 209d b4be 36c3 8ebf 364d 723e
00000120: c115 fd3e e5b9 173f d15e 273f 03a1 0e3f
00000130: dab5 a83e 4a31 0bbf e4e6 22be 0e76 9dbe
00000140: 8cc2 683e 0389 683e d257 22bf 07c0 eabe
00000150: 52aa 0a3f fa44 c73f 36c8 3c3e 6e37 06bf
00000160: d7cd c53e 8d70 c3bd 2a9f 26bd 98fe 86be
00000170: 6ad0 14be 6de5 05bf 4fba ac3e 45a1 34be
00000180: bc41 00bf 316a a7bd fd09 8bbe 3c30 95be
00000190: e842 f8be 3277 863e a95f 0bc0 8a9a 4d3e
000001a0: 6f0d a5be 2394 c8be a93f 19bf 5538 53bd
000001b0: 445a ccbe 68df b13e 5a4b 0cbd 7ed5 833f
000001c0: f58b 763f be2e 653f fc22 fe3e dda2 3f3f
000001d0: 9051 bf3d 5c3d 873f 41cd 16bd 5f38 49bf
000001e0: 1de0 84bf 878d d1bd 6406 663f 9e1e 8ebe
000001f0: cdad f6bf 4b04 083e dbf3 c83e a01f 393f
-0.54427314 -0.5132072 1.3481678 -0.27129546 0.2749027 0.3279752 -0.16594356 -0.45474163
-0.34695244 -0.22885439 0.3898221 -0.33219436 -0.16662014 0.22543384 -0.5806713 0.16831294
0.22329855 -0.36452347 0.20142464 0.07232902 0.050522834 -1.1132376 -0.67922455 -0.42689052
-0.22025709 0.967454 -0.7926127 -0.1354857 0.3664862 0.84245574 0.06866375 0.12537147
0.393248 -0.12965618 -0.16435137 0.9538076 -0.094316594 0.8739547 0.40215796 -0.9415216
-0.12867501 -1.3755932 -2.0095475 -0.14296764 -0.9334179 -0.05107514 0.427257 0.11566781
-1.4195287 0.2124999 -0.86571383 0.15879068 -0.008454178 -0.28950953 1.4673423 0.30999938
-1.2720287 -0.8147432 -0.22446144 -0.16935563 -0.35239518 0.2526446 -0.8322336 0.15541402
-1.6872817 0.63324356 -0.8236093 0.23287041 -0.720897 -0.35276127 -1.1153324 0.23662266
0.4943066 0.5926803 0.65379053 0.55714434 0.32951242 -0.54372084 -0.1590839 -0.3075413
0.22730464 0.22708516 -0.63415253 -0.4584963 0.5416614 1.5567925 0.1843575 -0.5242833
0.38633606 -0.09542952 -0.040679134 -0.26366115 -0.14532629 -0.523032 0.33735892 -0.17639644
-0.501003 -0.08174551 -0.27156058 -0.29138362 -0.48488545 0.26262814 -2.1777136 0.20078483
-0.32236812 -0.3917552 -0.5986276 -0.051567394 -0.39912617 0.34740758 -0.03425155 1.0299528
0.9630731 0.8952445 0.49636066 0.74857885 0.09341729 1.05656 -0.03681684 -0.7860164
-1.0380894 -0.10232072 0.898535 -0.27757734 -1.927179 0.13282888 0.39248547 0.7231388
