kayles_60pins_misere_model.onnx (onnx, 87014 bytes, 11 tensors)

mlp_extractor.policy_net.0.weight f4 [64, 60]
-0.25989082 0.05569339 0.101425916 0.07520175 0.32868865 0.10390395 -0.078582525 0.13738023
0.12246458 0.15654726 -0.15026756 0.18015821 -0.13852684 -0.035474222 0.271114 -0.0108990455
-0.5406462 -0.0948268 0.31406936 0.2381985 -0.1572836 0.09986643 -0.040514708 -0.12850551
-0.13995875 -0.46899894 -0.07413359 0.13140513 -0.18647279 -0.10553515 -0.06479636 -0.08051842
-0.4473876 -0.105791494 -0.29226822 0.0348583 0.0508092 0.27752614 0.11288724 0.080792464
0.14609674 -0.3967482 -0.13685523 0.20939994 0.016185403 -0.36134177 0.24635278 -0.4477766
0.13318585 -0.062541254 0.061374538 -0.015366422 -0.2647542 -0.1516569 0.29134065 -0.14405517
-0.085766375 -0.09026588 0.24470948 0.06362732 0.07470537 0.06924988 0.06461448 -0.32040745
0.11233878 0.05386842 -0.35908923 0.13579015 0.09090449 -0.5014489 -0.18717657 0.2647537
0.11835039 0.37028056 0.09992536 0.18027653 0.122766584 0.27892873 -0.21271093 0.012286721
-0.3439667 -0.037581816 -0.2335159 0.27743262 -0.045716967 -0.082423456 -0.37679508 -0.023527123
0.08276875 -0.16573259 -0.11717758 0.22713524 0.23218174 0.06339601 -0.122014366 0.39456847
0.07828602 -0.015088581 0.27067974 -0.11570751 -0.1801527 0.3039425 0.089631684 0.09375899
0.24149781 -0.10661025 -0.05456202 0.34664074 0.513298 0.0010573826 -0.0912029 -0.23048104
0.0828835 0.1758411 -0.26904225 0.0130980015 0.019055158 0.081798516 0.08266507 0.113461964
0.048109166 0.44080195 -0.23657593 0.0837957 -0.39517775 0.1412801 -0.12277768 0.045968793
-0.15408984 0.17933527 -0.13613254 -0.1402354 0.0006060895 0.18247472 0.35996744 0.058971975
0.13419254 0.11870904 -0.25144967 -0.0573509 0.050152402 0.45719826 0.27427807 0.06417677
0.10476831 -0.08026168 0.013766541 0.1110615 -0.18392639 0.17314617 -0.19205326 0.17474256
0.070573315 -0.12498118 0.08994935 -0.050261922 -0.077037014 -0.4787678 -0.10865868 0.06376472
0.113670796 -0.18197766 0.19307867 0.40243292 0.49199668 0.15621793 -0.20950031 -0.0752192
0.33078802 -0.38552737 -0.03488517 0.047382753 0.19002934 0.060441833 -0.00054726505 -0.013820726
-0.017112544 0.005821216 -0.09721418 0.0031738165 -0.053161975 -0.19725586 0.067497954 -0.06435413
-0.0016016471 -0.031233136 -0.070605755 0.011987958 -0.071230605 -0.005565666 -0.08933941 -0.27641845
0.43582803 0.077761255 -0.2595874 0.05017292 0.18212296 -0.044531487 0.46451643 0.23286496
-0.050485436 0.0974897 -0.37471995 0.09291293 0.07873202 -0.06174301 -0.11888201 0.05278574
0.067759834 0.34952223 0.08268687 0.08138716 0.10871428 -0.13017277 -0.19856562 -0.37957394
-0.19247335 0.1208778 0.23498619 0.1498721 0.0677498 0.20226015 0.20066178 -0.21212085
-0.11734669 -0.020535279 -0.04081867 -0.09673456 -0.4917129 -0.34779325 0.45245743 -0.2631159
-0.02651178 -0.18433441 -0.09107289 0.042147968 -0.38761812 -0.06500511 0.21008867 -0.15015465
-0.06939336 -0.22629574 0.06271564 0.053100225 -0.07678749 0.40301308 0.2923299 -0.104134925
0.19524845 -0.12270075 -0.10787521 -0.012982699 -0.08389177 0.3026841 0.06630891 -0.065993935
00000000: 6910 85be c11e 643d 64b8 cf3d 6003 9a3d
00000010: e149 a83e 98cb d43d e0ef a0bd 67ad 0c3e
00000020: b6ce fa3d ed4d 203e bddf 19be 657b 383e
00000030: fbd9 0dbe 6b4d 11bd 74cf 8a3e e991 32bc
00000040: ca67 0abf 8e34 c2bd b3cd a03e 4fea 733e
00000050: f40e 21be c586 cc3d c0f2 25bd f396 03be
00000060: 5951 0fbe a120 f0be 5ad3 97bd 118f 063e
00000070: b9f2 3ebe d022 d8bd f4b3 84bd d7e6 a4bd
00000080: fd0f e5be 36a9 d8bd 2ea4 95be 94c7 0e3d
00000090: 4f1d 503d e817 8e3e 6d31 e73d 8576 a53d
000000a0: 629a 153e 9422 cbbe c723 0cbe f06c 563e
000000b0: 4097 843c ca01 b9be e743 7c3e f942 e5be
000000c0: df61 083e a115 80bd de63 7b3d 72c3 7bbc
000000d0: dd8d 87be f24b 1bbe 9a2a 953e 3383 13be
000000e0: 48a6 afbd 51dd b8bd 1f95 7a3e 0a4f 823d
000000f0: 21ff 983d e2d2 8d3d 9954 843d 720c a4be
00000100: e011 e63d 22a5 5c3d 8bda b7be 930c 0b3e
00000110: 222c ba3d f55e 00bf 37ab 3fbe cc8d 873e
00000120: b061 f23d 6a95 bd3e aba5 cc3d 699a 383e
00000130: 0c6d fb3d bfcf 8e3e e5d0 59be 3e4e 493c
00000140: 671c b0be 64ef 19bd cb1e 6fbe a60b 8e3e
00000150: b741 3bbd a1cd a8bd 49eb c0be f4bb c0bc
00000160: aa82 a93d ceb5 29be cdfa efbd 2496 683e
00000170: 0dc1 6d3e c4d5 813d abe2 f9bd e104 ca3e
00000180: 6c54 a03d 1836 77bc 8996 8a3e 0ff8 ecbd
00000190: f379 38be 5a9e 9b3e d190 b73d b704 c03d
000001a0: 344b 773e 7a56 dabd 6d7c 5fbd e57a b13e
000001b0: 7f67 033f df97 8a3a 96c8 babd 3903 6cbe
000001c0: d3be a93d b00f 343e e8bf 89be 0099 563c
000001d0: 9019 9c3c fb85 a73d 4e4c a93d bf5e e83d
000001e0: 1e0e 453d cbb0 e13e f640 72be 149d ab3d
000001f0: bd54 cabe bbab 103e dd72 fbbd c649 3c3d
00000200: bac9 1dbe aaa3 373e 5466 0bbe de99 0fbe
00000210: fae1 1e3a a7da 3a3e a74d b83e 998c 713d
00000220: c569 093e ba1d f33d 03be 80be c7e8 6abd
00000230: 9b6c 4d3d e415 ea3e 2d6e 8c3e 1c6f 833d
00000240: c590 d63d 3c60 a4bd 0f8d 613c 3674 e33d
00000250: 3357 3cbe 3b4d 313e 9ca9 44be b7ef 323e
00000260: be88 903d 22f6 ffbd 5d37 b83d 72df 4dbd
00000270: 95c5 9dbd 0e21 f5be 7188 debd 1497 823d
00000280: 3ccc e83d 5a58 3abe 6ab6 453e b00b ce3e
00000290: fde6 fb3e 98f7 1f3e 4087 56be 860c 9abd
000002a0: 0c5d a93e d863 c5be c1e3 0ebd 6b14 423d
000002b0: 0d97 423e db91 773d 5676 0fba 5470 62bc
000002c0: 9b2f 8cbc e6bf be3b 3a18 c7bd ceff 4f3b
000002d0: 5fc0 59bd 71fd 49be 5e3c 8a3d 19cc 83bd
000002e0: 5cee d1ba a2dc ffbc c099 90bd 2469 443c
000002f0: 5ae1 91bd 3160 b6bb 95f7 b6bd b886 8dbe
00000300: da24 df3e 4b41 9f3d a4e8 84be 1f82 4d3d
00000310: 717e 3a3e a666 36bd 19d5 ed3e 2774 6e3e
00000320: d1c9 4ebd aea8 c73d 4bdb bfbe 2249 be3d
00000330: 413e a13d 3de6 7cbd 6978 f3bd dc35 583d
00000340: abc5 8a3d 94f4 b23e bc57 a93d 50ae a63d
00000350: 98a5 de3d 034c 05be c954 4bbe 8457 c2be
00000360: bc17 45be c88e f73d 38a0 703e 1278 193e
00000370: 68c0 8a3d 491d 4f3e 487a 4d3e 3536 59be
00000380: 7653 f0bd 9a39 a8bc 7a31 27bd c51c c6bd
00000390: cbc1 fbbe f511 b2be 80a8 e73e 21b7 86be
000003a0: 3c2f d9bc 29c2 3cbe 6c84 babd 59a3 2c3d
000003b0: e275 c6be 6621 85bd 7c21 573e 24c2 19be
000003c0: 1b1e 8ebd 12ba 67be 0f71 803d 9f7f 593d
000003d0: c242 9dbd bb57 ce3e 44ac 953e b144 d5bd
000003e0: 36ef 473e 884a fbbd aeed dcbd 63b5 54bc
000003f0: 73cf abbd 69f9 9a3e f7cc 873d d427 87bd

mlp_extractor.policy_net.0.bias f4 [64]
0.0498716 -0.03730796 -0.07925091 0.049316924 0.07248422 -0.022847055 0.099008866 -0.0067126555
-0.0352251 -0.043933466 -0.049192995 0.031184467 -0.07793752 0.03361057 -0.017565427 0.046250824
0.06262911 -0.013715943 0.13901037 -0.036790058 0.0059332373 0.019629039 0.04623583 0.029718036
-0.048592143 -0.07604961 0.000119141565 -0.027156739 0.030130878 -0.0011024101 0.06078456 0.041736465
0.07342297 0.007418695 -0.019115107 -0.035002604 -0.021770393 -0.07150776 -0.035191953 -0.01443559
-0.03459339 -0.06649995 0.017287903 -0.098290674 0.0005257301 -0.024746142 -0.05812257 -0.06002393
-0.021400262 0.0687353 0.06607937 -0.15038836 0.07032646 -0.037050646 0.08857408 -0.07560175
-0.05505854 0.10699508 0.034685444 0.0014419826 0.04138331 0.06588601 0.06517402 0.049724624
00000000: 2a46 4c3d 3bd0 18bd 4d4e a2bd 8b00 4a3d
00000010: 9b72 943d bf29 bbbc 29c5 ca3d d6f5 dbbb
00000020: 3248 10bd 94f3 33bd 987e 49bd 9176 ff3c
00000030: b59d 9fbd 3dab 093d 5fe5 8fbc 8171 3d3d
00000040: b143 803d d6b8 60bc bc58 0e3e 2cb1 16bd
00000050: 9a6b c23b 14cd a03c c861 3d3d 3d73 f33c
00000060: 8e08 47bd e6bf 9bbd a4db f938 cf77 debc
00000070: 08d5 f63c bf7e 90ba 3bf9 783d dbf3 2a3d
00000080: c85e 963d 8618 f33b 4997 9cbc e45e 0fbd
00000090: d357 b2bc a972 92bd 7025 10bd 4183 6cbc
000000a0: ccb1 0dbd 2031 88bd 5c9f 8d3c 9f4c c9bd
000000b0: 26d1 093a 6cb8 cabc ef11 6ebd a7db 75bd
000000c0: 9a4f afbc 18c5 8c3d 9f54 873d 68ff 19be
000000d0: 5207 903d 6bc2 17bd 5466 b53d 17d5 9abd
000000e0: 1085 61bd 3d20 db3d 5312 0e3d e800 bd3a
000000f0: 8c81 293d 3fef 863d f579 853d 0cac 4b3d

mlp_extractor.policy_net.2.weight f4 [64, 64]
0.588931 0.048333827 -0.033153452 0.17633379 -0.16816206 0.18115735 -0.098818354 0.20041806
-0.120098025 0.49847987 0.083870165 -0.19523512 -0.26689053 -0.13089941 -0.02670953 -0.23740523
-0.10502236 -0.072777525 -0.28153116 -0.24230666 -0.12570965 0.1527508 -0.2611416 0.18831481
-0.2447094 -0.031654812 -0.10374452 -0.22751413 0.20628743 -0.1998852 -0.07627203 0.40548
0.03285644 0.002625919 0.3703866 -0.34616008 -0.12927383 -0.3941878 0.14643678 -0.32769805
-0.015853211 -0.28005868 0.2871089 -0.35415354 -0.32093146 -0.39016938 0.32367104 -0.06610508
-0.04910608 0.5034722 0.0082359 0.08542155 0.4142953 0.048421446 0.016707415 0.26386148
0.0953525 0.26870516 -0.46813884 -0.0138307195 -0.16954488 0.025517317 -0.14695689 0.12185031
0.15741514 -0.205789 0.05309802 0.059028327 0.22486168 0.23063368 0.03774568 -0.38486698
-0.14962843 0.107005805 -0.35810116 -0.19838147 -0.03370095 -0.05066222 -0.19528434 0.3056371
-0.3069888 -0.1695877 0.36680135 0.31820032 -0.2924089 0.13811423 -0.0036150247 -0.059500128
-0.19592223 0.09056697 -0.1692385 0.43320614 -0.14722359 0.21439075 -0.29059526 -0.25055638
0.1486432 -0.18135238 -0.087469995 0.70221794 0.2570146 0.012669753 -0.12130527 0.19805433
0.20876181 -0.26649004 -0.35620224 0.35955474 0.36062306 0.20301796 -0.17218812 0.14379452
0.13180627 -0.038510345 -0.22633262 0.04606202 0.18843272 -0.020608567 0.43753913 -0.013150191
0.2308908 -0.38774416 0.24972206 0.3441694 0.0804583 0.21738726 -0.033725817 0.11169078
-0.034140527 0.2434306 -0.20950921 0.41931802 0.14081985 -0.10869734 0.10096535 -0.27472803
-0.073976465 0.17435052 0.00853315 -0.049035113 -0.00029643855 -0.0109578045 0.06228941 0.12891053
-0.46449748 0.11163492 -0.039463058 0.008785204 0.64808494 0.38074768 0.075119875 0.51883215
-0.26936013 0.2577928 0.34667987 -0.2795899 0.35201263 -0.012923495 0.2544752 0.1352544
0.13943231 0.07173201 0.4071472 -0.059889384 0.013508616 -0.19150965 0.0051401258 0.14694715
-0.06694342 -0.16947411 0.31549332 -0.26403618 -0.16543885 -0.5099062 0.19134471 0.024877798
-0.4400946 0.37791792 0.25238937 0.16726331 0.13124038 0.10722531 -0.07213959 0.046082117
-0.11001958 0.19769947 0.25301045 -0.09917354 -0.0091270385 -0.44666696 0.2264098 -0.19017585
-0.08917839 0.20994532 -0.1549793 0.0022613856 -0.34852168 0.07443557 0.35635266 0.08072512
0.33805817 0.5795117 0.14319012 0.1505297 -0.23756868 0.1494086 -0.1491807 -0.18649514
0.16057423 0.21982941 -0.29018244 0.05038893 0.13246436 0.3483811 -0.071387626 0.2857712
-0.23340376 0.26341724 -0.14384036 -0.41977072 0.35010716 -0.13346359 0.0037180048 -0.046711784
-0.42009827 0.0022596123 0.33381775 0.030637415 -0.14377552 -0.18364835 -0.027956836 -0.39166716
0.0636616 -0.03582304 0.21965274 -0.16710386 -0.06653642 0.11926896 0.09890529 -0.25965968
-0.02777144 -0.31417146 0.23418386 -0.19343787 0.42220813 -0.36001676 -0.0041269273 -0.011859757
0.47904512 -0.007630232 0.17422128 -0.27650973 0.11268295 0.21750537 0.087666385 -0.60498446
00000000: 2fc4 163f b1f9 453d eacb 07bd d890 343e
00000010: ad32 2cbe 5081 393e 4761 cabd 643a 4d3e
00000020: f4f5 f5bd c138 ff3e 1fc4 ab3d b7eb 47be
00000030: e0a5 88be 7f0a 06be f2cd dabc 5b1a 73be
00000040: f715 d7bd 620c 95bd da24 90be 3d1f 78be
00000050: 08ba 00be b56a 1c3e 5ab4 85be 99d5 403e
00000060: 1a95 7abe 7aa8 01bd 0278 d4bd 77f9 68be
00000070: 033d 533e b5ae 4cbe 8334 9cbd 139b cf3e
00000080: 7994 063d 9c17 2c3b 50a3 bd3e e53b b1be
00000090: 5c60 04be fcd2 c9be 86f3 153e 0ac8 a7be
000000a0: 98de 81bc da63 8fbe f0ff 923e 9d53 b5be
000000b0: 2151 a4be 48c4 c7be 36b8 a53e 1a62 87bd
000000c0: 7523 49bd 8ee3 003f deef 063c 7ef1 ae3d
000000d0: 831e d43e 9155 463d fddd 883c da18 873e
000000e0: 2c48 c33d b993 893e e5af efbe 3e9a 62bc
000000f0: 2c9d 2dbe b109 d13c de7b 16be a88c f93d
00000100: 6f31 213e 5aba 52be 4f7d 593d b0c7 713d
00000110: 2442 663e 3c2b 6c3e 379b 1a3d 490d c5be
00000120: 3238 19be dc25 db3d 0959 b7be 8324 4bbe
00000130: 020a 0abd 3083 4fbd 9ef8 47be 777c 9c3e
00000140: a32d 9dbe 66a8 2dbe 63cd bb3e 27eb a23e
00000150: 9fb6 95be d16d 0d3e 0dea 6cbb 68b6 73bd
00000160: d69f 48be 2d7b b93d db4c 2dbe 32cd dd3e
00000170: c8c1 16be 4089 5b3e e7c8 94be ed48 80be
00000180: ec35 183e 70b4 39be 7823 b3bd 8ec4 333f
00000190: 6b97 833e cc94 4f3c e66e f8bd c1ce 4a3e
000001a0: a8c5 553e 6271 88be 2460 b6be 8f17 b83e
000001b0: 96a3 b83e f1e3 4f3e 1552 30be df3e 133e
000001c0: 39f8 063e 06bd 1dbd bdc3 67be 87ab 3c3d
000001d0: 82f4 403e 4cd3 a8bc 2105 e03e e673 57bc
000001e0: a36e 6c3e 6786 c6be 24b7 7f3e f936 b03e
000001f0: 52c7 a43d c49a 5e3e 1524 0abd 23be e43d
00000200: f0d6 0bbd df45 793e 9589 56be dab0 d63e
00000210: 1433 103e b69c debd ecc6 ce3d 27a9 8cbe
00000220: f980 97bd f188 323e a0ce 0b3c 0bd9 48bd
00000230: 4f6b 9bb9 5d88 33bc 2e23 7f3d 1f01 043e
00000240: 9dd2 edbe d9a0 e43d 04a4 21bd d1ef 0f3c
00000250: e5e8 253f 5cf1 c23e 73d8 993d 2fd2 043f
00000260: 92e9 89be 6bfd 833e 0680 b13e 6826 8fbe
00000270: 003b b43e 11bd 53bc 934a 823e 2180 0a3e
00000280: 58c7 0e3e 3be8 923d 9975 d03e 924e 75bd
00000290: 3e53 5d3c 1b1b 44be 806e a83b 5079 163e
000002a0: a219 89bd 9f8a 2dbe 5788 a13e c02f 87be
000002b0: cd68 29be 3689 02bf deef 433e 86cc cb3c
000002c0: 1454 e1be 757e c13e 2e39 813e 1347 2b3e
000002d0: e163 063e f198 db3d ecbd 93bd 9ac0 3c3d
000002e0: f251 e1bd bb71 4a3e 968a 813e 7f1b cbbd
000002f0: 9389 15bc 88b1 e4be f8d7 673e 75bd 42be
00000300: 29a3 b6bd e8fb 563e e5b2 1ebe c133 143b
00000310: 6f71 b2be ad71 983d db73 b63e 3653 a53d
00000320: f615 ad3e e15a 143f 6ea0 123e 7524 1a3e
00000330: 3445 73be 91fe 183e d3c2 18be 95f8 3ebe
00000340: 926d 243e f61a 613e cb92 94be 9f64 4e3d
00000350: bda4 073e 025f b23e ad33 92bd 9a50 923e
00000360: 6501 6fbe a0de 863e e34a 13be 30ec d6be
00000370: 3f41 b33e aeaa 08be c5a9 733b db54 3fbd
00000380: 1f17 d7be 0116 143b 29ea aa3e 51fb fa3c
00000390: e439 13be 500e 3cbe bc05 e5bc 9988 c8be
000003a0: 0361 823d 2ebb 12bd a6ec 603e 461d 2bbe
000003b0: 3f44 88bd 4943 f43d db8e ca3d 1df2 84be
000003c0: ee80 e3bc 15db a0be e5cd 6f3e 9414 46be
000003d0: aa2b d83e 1e54 b8be 2d3b 87bb 6d4f 42bc
000003e0: 6745 f53e 0607 fabb 1067 323e af92 8dbe
000003f0: 52c6 e63d bab9 5e3e 6f8a b33d 43e0 1abf

mlp_extractor.policy_net.2.bias f4 [64]
-0.06378006 0.07990841 -0.024310976 -0.110825315 0.031200226 -0.03240925 0.19251814 -0.04340244
-0.027254183 0.039248575 0.04237176 0.050382923 0.018944647 0.06588994 0.018191515 0.058800526
0.04853823 -0.050508216 0.068739034 -0.009894745 -0.13572207 -0.08126998 0.11278657 -0.0045130868
0.01925375 0.07144726 0.07822522 -0.018750427 0.012571082 -0.10191325 -0.03869196 -0.06792093
-0.0047513843 -0.17758195 -0.06919796 0.10038405 -0.084327385 0.010633335 -0.002026802 -0.034069564
-0.002761423 -0.012479745 -0.13739797 -0.004914985 0.06252027 0.050634064 -0.057412416 -0.07635065
0.12300273 0.1037911 0.07200499 -0.059992332 -0.1250044 -0.004642546 -0.10601194 -0.084839955
0.0645949 -0.078742184 -0.0009826127 -0.04313982 -0.09038739 -0.049281746 -0.011036443 -0.004905592
00000000: 1f9f 82bd 05a7 a33d d027 c7bc 62f8 e2bd
00000010: 9e97 ff3c 90bf 04bd 7a23 453e c2c6 31bd
00000020: 2a44 dfbc 1dc3 203d 038e 2d3d 535e 4e3d
00000030: ce31 9b3c 4ef1 863d 5f06 953c d2d8 703d
00000040: 06d0 463d b4e1 4ebd 0dc7 8c3d 921d 22bc
00000050: bafa 0abe e070 a6bd a5fc e63d 84e2 93bb
00000060: 0aba 9d3c f152 923d 8b34 a03d 7f9a 99bc
00000070: f1f6 4d3c e5b7 d0bd 767b 1ebd 211a 8bbd
00000080: 80b1 9bbb 0bd8 35be a9b7 8dbd 2796 cd3d
00000090: d6b3 acbd 7137 2e3c 18d4 04bb 878c 0bbd
000000a0: fdf8 34bb d877 4cbc 0eb2 0cbe e20d a1bb
000000b0: a10a 803d aa65 4f3d 4829 6bbd bb5d 9cbd
000000c0: dbe8 fb3d 6e90 d43d 5a77 933d 85ba 75bd
000000d0: 2701 00be 8020 98bb ca1c d9bd 92c0 adbd
000000e0: 554a 843d 9543 a1bd 03cb 80ba 61b3 30bd
000000f0: 061d b9bd a8db 49bd 32d2 34bc 17bf a0bb

mlp_extractor.value_net.0.weight f4 [64, 60]
0.032622766 -0.039545625 -0.105036974 0.08261365 -0.36891887 0.04315178 -0.07000614 -0.10578354
0.08689762 0.022175197 0.26811352 -0.11479086 0.15072864 -0.1692176 0.06794957 0.067153126
-0.109590866 0.04905265 0.09684273 0.19684753 -0.1790767 -0.0075089056 -0.05596789 0.09038279
-0.19484708 0.11656971 -0.108641624 -0.29886338 0.2825746 -0.098488644 0.12014585 -0.07766251
-0.12223104 0.17431806 -0.13126096 -0.14420466 0.15480141 0.014821399 -0.1382443 0.18016274
-0.25790316 -0.058857396 -0.04282738 -0.10424801 0.105385795 -0.03267798 -0.18006065 -0.10001976
0.0025060626 -0.13333492 0.09503497 -0.09777656 0.0033141389 -0.021438586 -0.21327373 0.044443917
0.1512969 -0.3638293 -0.059746783 0.18436176 0.0025120995 0.081364475 -0.021981763 0.15545335
0.14993902 0.07215407 -0.26886305 0.08640753 -0.08063492 0.30715516 0.049179897 -0.11518845
0.06204569 0.098378755 0.063088894 -0.32976446 0.009520519 0.17580359 -0.14675203 0.07273496
0.16896792 0.10855098 -0.023601748 -0.3682016 0.2468484 -0.00027888032 0.1723197 -0.095308535
0.10166784 -0.033254694 0.084217966 0.09778984 -0.0040215594 0.11989346 0.3969756 0.23114799
0.28153804 0.07599129 0.23791802 -0.017398763 0.2832774 -0.048076693 -0.05913846 0.020737845
0.00037384537 0.25107896 0.05877283 0.23347542 -0.16768266 0.17192934 0.27067128 0.049835663
0.007822773 -0.09838658 0.17041093 -0.06708755 0.0592834 0.021364123 0.105135225 0.29930356
0.038498957 0.09342325 0.13924345 -0.04789683 -0.11743167 0.038067367 -0.24594973 0.14658111
-0.021194628 0.093584366 0.32798377 0.060220767 0.009976263 0.10216416 -0.101483494 0.15864114
0.2799824 -0.19189845 0.14165103 -0.12385578 0.061224364 -0.023116328 0.20316823 -0.10243037
-0.1275447 0.06951993 -0.07200585 0.3222623 -0.13196343 -0.22796683 0.22873119 0.061701514
0.10846955 0.2663478 -0.21555237 0.21358883 -0.096961014 0.09474028 0.020924073 -0.2548472
0.21845558 -0.14768487 0.1066881 0.0054491656 -0.16408291 0.018137954 0.08340857 -0.0008906402
0.065893926 -0.14412117 -0.06585318 0.058753043 -0.07321363 0.049369432 0.23602717 0.22105296
0.019763166 -0.106490366 0.024761384 0.10511994 0.17346519 0.04816202 -0.023968171 -0.0424216
0.20944025 -0.05672441 0.27800035 0.45144543 0.29027402 0.10716737 0.30419216 -0.17263083
0.5430274 0.049398925 0.047845125 0.2089388 0.13523635 0.16373093 -0.17903322 0.04969619
0.16618505 0.0092505785 -0.13884072 0.047786932 -0.07477597 0.17663874 0.10056961 0.013854212
0.0041799285 0.11355087 0.011551113 0.14274515 -0.037364498 0.032630056 -0.059218433 0.16538045
0.08281072 0.20258895 0.21379845 0.36383322 -0.1322138 0.24015355 0.42915466 0.117285885
-0.25704426 0.15820393 0.22889642 0.13017222 -0.101148225 0.11482311 0.08130186 0.11717666
0.107086636 0.09869271 0.03291138 0.18209556 0.015965797 0.23859684 0.12461682 0.0947192
0.26699254 -0.045379438 -0.019300682 0.26855645 -0.06465105 0.070169695 -0.09562762 0.19425452
-0.05928636 0.090821914 -0.018402094 0.041021727 -0.005421835 0.07648089 -0.03118219 -0.041516703
00000000: 739f 053d 98fa 21bd a01d d7bd 5831 a93d
00000010: efe2 bcbe ecbf 303d 615f 8fbd 0aa5 d8bd
00000020: 61f7 b13d c2a8 b53c 2d46 893e 7817 ebbd
00000030: 9c58 1a3e 6147 2dbe 2529 8b3d 9487 893d
00000040: 2d71 e0bd 6eeb 483d 7b55 c63d 6692 493e
00000050: e25f 37be 440d f6bb 963e 65bd 9d1a b93d
00000060: fe85 47be 1abc ee3d 807f debd 9f04 99be
00000070: 9ead 903e 6ab4 c9bd 070f f63d 860d 9fbd
00000080: 4454 fabd 6f80 323e 4669 06be 63aa 13be
00000090: 4384 1e3e 74d5 723c ea8f 0dbe 957c 383e
000000a0: e20b 84be 7414 71bd c36b 2fbd fb7f d5bd
000000b0: 82d4 d73d 58d9 05bd d261 38be 29d7 ccbd
000000c0: c13c 243b f388 08be b2a1 c23d 143f c8bd
000000d0: 0632 593b f99f afbc 6e64 5abe d30a 363d
000000e0: 93ed 1a3e d647 babe 0bb9 74bd 54c9 3c3e
000000f0: 09a2 243b 6ba2 a63d 1913 b4bc 2a2f 1f3e
00000100: 9d89 193e 83c5 933d 6ba8 89be 6ef6 b03d
00000110: ec23 a5bd 7143 9d3e dc70 493d ece7 ebbd
00000120: 9f23 7e3d cd7a c93d c034 813d e3d6 a8be
00000130: f3fb 1b3c db05 343e 2a46 16be 11f6 943d
00000140: ed05 2d3e fa4f de3d 7458 c1bc ec84 bcbe
00000150: d4c5 7c3e af36 92b9 9374 303e 1f31 c3bd
00000160: 3a37 d03d 1336 08bd 787a ac3d 0a46 c83d
00000170: 49c7 83bb b48a f53d 6340 cb3e 0fb2 6c3e
00000180: c125 903e 52a1 9b3d c8a0 733e da87 8ebc
00000190: bc09 913e 11ec 44bd 2b3b 72bd 6ae2 a93c
000001a0: ad00 c439 6c8d 803e c7bb 703d 2e14 6f3e
000001b0: 01b5 2bbe 3f0e 303e 6d95 8a3e 7b20 4c3d
000001c0: 172b 003c e77e c9bd 3480 2e3e 3365 89bd
000001d0: 27d3 723d d003 af3c 2351 d73d 513e 993e
000001e0: 15b1 1d3d b054 bf3d d695 0e3e 772f 44bd
000001f0: 0480 f0bd 87ec 1b3d 3fda 7bbe 5c19 163e
00000200: 5ba0 adbc 29a9 bf3d 7ded a73e 0daa 763d
00000210: 7b73 233c 713b d13d 94d6 cfbd d372 223e
00000220: da59 8f3e 0781 44be f80c 113e 19a8 fdbd
00000230: 66c6 7a3d 745e bdbc 550b 503e 04c7 d1bd
00000240: 149b 02be 7760 8e3d ce77 93bd 90ff a43e
00000250: 6c21 07be 2370 69be 8238 6a3e baba 7c3d
00000260: 4925 de3d bd5e 883e c3b9 5cbe 08b7 5a3e
00000270: 7f93 c6bd 3107 c23d f668 ab3c 557b 82be
00000280: d2b2 5f3e b43a 17be 4a7f da3d ea8e b23b
00000290: 5a05 28be 0c96 943c 1dd2 aa3d da79 69ba
000002a0: 65f3 863d 8094 13be 08de 86bd 08a7 703d
000002b0: 07f1 95bd 9a37 4a3d 1bb1 713e b55b 623e
000002c0: 5de6 a13c 9f17 dabd 63d8 ca3c 2049 d73d
000002d0: dca0 313e 8a45 453d e658 c4bc 46c2 2dbd
000002e0: 8177 563e db57 68bd 1056 8e3e db23 e73e
000002f0: cc9e 943e 917a db3d 13bf 9b3e 23c6 30be
00000300: d803 0b3f 8756 4a3d 40f9 433d 0ef4 553e
00000310: 667b 0a3e 15a9 273e 7c54 37be 3b8e 4b3d
00000320: 6a2c 2a3e bd8f 173c 432c 0ebe 3bbc 433d
00000330: 2524 99bd c9e0 343e 71f7 cd3d c7fc 623c
00000340: c8f7 883b 5c8d e83d e140 3d3c c92b 123e
00000350: 840b 19bd 18a7 053d 078f 72bd 7e59 293e
00000360: ab98 a93d 7a73 4f3e fbed 5a3e 5948 ba3e
00000370: 0e63 07be d0ea 753e 29ba db3e 9533 f03d
00000380: 4e9b 83be 3600 223e d363 6a3e de4b 053e
00000390: cd26 cfbd 6128 eb3d 9781 a63d 51fa ef3d
000003a0: 3d50 db3d 671f ca3d 15ce 063d 4277 3a3e
000003b0: b4ca 823c bb52 743e 1a37 ff3d 24fc c13d
000003c0: 3fb3 883e cadf 39bd 771c 9ebc 3b80 893e
000003d0: c567 84bd 21b5 8f3d 6ad8 c3bd a8ea 463e
000003e0: 41d6 72bd d700 ba3d fdbf 96bc 6606 283d
000003f0: a6a9 b1bb 03a2 9c3d cb71 ffbc 6b0d 2abd

mlp_extractor.value_net.0.bias f4 [64]
-0.047329042 0.090348236 0.12466229 0.18583888 -0.024618262 0.23217987 -0.24373397 0.07480926
-0.03290291 -0.12495049 0.13773829 0.20887609 0.26875162 0.15935737 0.041807767 -0.11830757
0.23727742 -0.0021427236 0.32022542 0.031250708 -0.17032535 0.09889381 -0.14755861 0.074369356
0.16495728 -0.2893453 0.046232253 0.042768892 -0.27959967 0.094293 -0.0011938455 0.012298874
-0.016001647 0.19933444 0.0481356 0.0416283 0.111587785 -0.01849136 -0.14357679 0.018004222
0.04529306 -0.025935939 -0.059391435 -0.010104051 -0.10928109 0.08844379 -0.16437593 -0.048977844
0.047648884 -0.21990806 0.03010495 0.181088 0.18399107 0.15467246 0.15846671 0.018244935
0.0070647476 0.07896012 -0.060378287 -0.01315735 -0.112360545 -0.07116251 -0.12354068 0.24200337
00000000: 19dc 41bd 7f08 b93d f14e ff3d 8c4c 3e3e
00000010: 3dac c9bc 8fc0 6d3e 6695 79be 9935 993d
00000020: 34c5 06bd 0be6 ffbd 440b 0d3e 9de3 553e
00000030: d099 893e 942e 233e 9f3e 2b3d 3d4b f2bd
00000040: daf8 723e f06c 0cbb 96f4 a33e be00 003d
00000050: c569 2ebe d688 ca3d 9b19 17be f64e 983d
00000060: 90ea 283e 1125 94be 085e 3d3d 6f2e 2f3d
00000070: b027 8fbe b01c c13d cf7a 9cba 3781 493c
00000080: e315 83bc 541e 4c3e d629 453d 7082 2a3d
00000090: 2388 e43d 317b 97bc cb05 13be 977d 933c
000000a0: 3785 393d 9b77 d4bc 6f44 73bd 768b 25bc
000000b0: c4ce dfbd 0522 b53d 2a52 28be fe9c 48bd
000000c0: 7a2b 433d 942f 61be a89e f63c 226f 393e
000000d0: 2868 3c3e 7562 1e3e 1945 223e 6776 953c
000000e0: 667f e73b d8b5 a13d 394f 77bd ed91 57bc
000000f0: 491d e6bd a6bd 91bd e502 fdbd bbcf 773e

mlp_extractor.value_net.2.weight f4 [64, 64]
-0.1466418 0.16652454 0.087512374 0.11071919 0.078089274 0.27075276 -0.089097016 -0.055680037
0.12773463 -0.06343129 -0.17436543 0.023947336 0.18056995 0.2699477 -0.2328482 -0.28768766
0.09312405 -0.014307427 -0.22591159 0.061497137 0.047296014 -0.03145076 0.012556369 -0.2236207
-0.29077202 0.18568374 0.12390209 -0.03305411 0.3421299 0.31874478 0.25421295 0.26645467
-0.19762859 0.2731565 -0.010373011 -0.045973662 -0.17396677 0.0065917666 0.019169107 0.09993078
0.022617385 0.33560154 -0.06789829 0.1133144 -0.17752963 0.20252919 -0.2775019 0.02076871
0.22581029 -0.06480874 -0.048658323 -0.12011107 -0.16400848 -0.24625666 0.0873401 0.028923362
-0.14609799 -0.2032177 -0.23415196 -0.052776203 0.108612224 -0.10345525 0.044780415 -0.28483993
-0.1162088 -0.0103611 -0.22366267 -0.09059701 0.18520702 0.10730122 0.13809572 -0.21964493
-0.34643576 -0.12161267 0.02542822 0.10530851 -0.15658274 -0.18081424 -0.15755704 -0.0013680558
0.13390347 0.0393952 0.21406692 -0.022328563 0.09562726 0.05317562 0.13678224 -0.12098473
0.041681882 -0.0686671 -0.13859147 0.21235335 -0.29697552 0.029058127 0.14175433 -0.040893815
0.1353884 -0.39541543 -0.06773236 -0.14397573 0.018572362 0.1939103 0.06570846 0.07016712
-0.21353692 -0.06692107 -0.14086954 -0.1270701 -0.2056721 0.152997 -0.35379282 0.34672207
0.12153968 -0.02066988 0.22276972 -0.2854314 -0.021915836 0.023243865 0.33891416 0.020378163
-0.1522062 -0.12699218 0.045086663 -0.3039662 -0.08522712 -0.20830126 0.011672764 0.051011845
0.049310103 -0.19236687 -0.13667555 0.27799773 -0.17849147 -0.56980574 -0.042509586 -0.10556503
-0.2880822 -0.037673295 0.054217175 -0.09376244 -0.031008633 -0.11559333 -0.2517834 0.11516444
0.11360313 0.004702606 0.1795028 -0.11263057 -0.31515375 0.14778644 0.02759732 -0.14938636
0.20168684 -0.37908658 0.23533574 -0.10515085 0.25005522 0.3790072 -0.052482475 -0.06859109
-0.13791451 -0.20457333 0.06590861 -0.12827572 -0.10115711 -0.09705088 0.1174305 -0.1093338
0.09336486 0.12423644 0.04157728 -0.09399788 0.07611686 -0.04285022 0.1535678 0.008884254
0.14012194 0.08586424 -0.23922293 0.09739549 0.1127694 -0.048716817 0.009220552 0.10109456
-0.1296452 -0.11874069 -0.0986182 -0.06648595 0.104971 -0.046786524 -0.07930085 -0.26879025
0.20080742 -0.36507717 0.1932535 0.028377714 0.11055803 0.1609736 -0.19033483 -0.044583686
0.012747563 -0.018102985 -0.03380223 -0.030042129 0.10820403 0.27447683 -0.21699633 -0.025158435
0.08453361 -0.33148488 0.03031445 -0.028252572 -0.25515532 -0.027316399 0.4543715 -0.06012126
0.104262814 0.04827138 -0.009199878 -0.3002705 0.03690922 0.11013883 -0.1282863 0.35363275
0.2557294 -0.13150723 0.09472979 0.098318346 0.027593466 0.2845558 -0.048587587 -0.04744937
0.10373346 -0.23755994 -0.2848209 -0.050911687 -0.08917176 -0.1826633 0.02146299 0.013230613
0.15078844 0.2736059 -0.040816817 -0.007195338 -0.23834197 0.21647464 -0.13161276 0.066622004
-0.10319801 -0.03989839 0.18866165 -0.024462458 0.17822734 -0.0759274 0.207893 0.090643264
00000000: 4529 16be 6985 2a3e b039 b33d bec0 e23d
00000010: 45ed 9f3d 1ba0 8a3e 7f78 b6bd c010 64bd
00000020: decc 023e 44e8 81bd da8c 32be 342d c43c
00000030: 54e7 383e 9636 8a3e c26f 6ebe cc4b 93be
00000040: d2b7 be3d b369 6abc 5e55 67be 6ce4 7b3d
00000050: 77b9 413d 83d2 00bd 3bb9 4d3c d3fc 64be
00000060: 12e0 94be e123 3e3e 61c0 fd3d bf63 07bd
00000070: a62b af3e 8432 a33e 3328 823e bf6c 883e
00000080: 265f 4abe 2bdb 8b3e 90f3 29bc e14e 3cbd
00000090: 5824 32be bfff d73b 8808 9d3c 82a8 cc3d
000000a0: 1848 b93c f7d3 ab3e 420e 8bbd 6111 e83d
000000b0: 54ca 35be d063 4f3e bb14 8ebe 2423 aa3c
000000c0: d03a 673e 72ba 84bd f34d 47bd cbfc f5bd
000000d0: d7f1 27be b52a 7cbe 5edf b23d b0f0 ec3c
000000e0: b69a 15be 4d18 50be 88c5 6fbe dc2b 58bd
000000f0: 1670 de3d 59e0 d3bd ab6b 373d 8ad6 91be
00000100: e1fe edbd 9ac1 29bc d407 65be ed8a b9bd
00000110: e9a6 3d3e bec0 db3d f768 0d3e 9aea 60be
00000120: 0760 b1be 1010 f9bd d84e d03c fdab d73d
00000130: 3a57 20be 5e27 39be a256 21be 5650 b3ba
00000140: fe1d 093e dc5c 213d 5c34 5b3e 64ea b6bc
00000150: 3ad8 c33d aece 593d a510 0c3e d8c6 f7bd
00000160: 9fba 2a3d 56a1 8cbd ecea 0dbe 2873 593e
00000170: 2d0d 98be 4f0b ee3c 0c28 113e 4680 27bd
00000180: 42a3 0a3e e473 cabe 43b7 8abd 606e 13be
00000190: 1125 983c 6c90 463e 2892 863d c7b3 8f3d
000001a0: 6ca9 5abe ea0d 89bd 1b40 10be aa1e 02be
000001b0: b59b 52be 3fab 1c3e 5524 b5be 8e85 b13e
000001c0: cce9 f83d e153 a9bc bf1d 643e 1124 92be
000001d0: d788 b3bc eb69 be3c 2886 ad3e 1bf0 a63c
000001e0: f1db 1bbe 3d0a 02be cbac 383d 75a1 9bbe
000001f0: 8e8b aebd ed4c 55be 1f3f 3f3c ccf1 503d
00000200: 64f9 493d d2fb 44be adf4 0bbe b855 8e3e
00000210: 78c6 36be cade 11bf 881e 2ebd 7a32 d8bd
00000220: 837f 93be 504f 1abd d412 5e3d 8606 c0bd
00000230: d105 febc 32bc ecbd c1e9 80be 55db eb3d
00000240: c2a8 e83d 5118 9a3b 95cf 373e dbaa e6bd
00000250: d55b a1be 5455 173e c613 e23c bdf8 18be
00000260: ff86 4e3e a317 c2be dafb 703e 5459 d7bd
00000270: 3d07 803e 3b0d c23e ddf7 56bd 7c79 8cbd
00000280: 7639 0dbe ac7b 51be 18fb 863d b65a 03be
00000290: 752b cfbd 9dc2 c6bd 677f f03d 66ea dfbd
000002a0: 1336 bf3d ad6f fe3d f04c 2a3d f681 c0bd
000002b0: 28e3 9b3d b683 2fbd e140 1d3e 438f 113c
000002c0: 207c 0f3e 97d9 af3d dbf6 74be 4977 c73d
000002d0: a5f3 e63d 498b 47bd cc11 173c aa0a cf3d
000002e0: b6c1 04be 522e f3bd 57f8 c9bd c929 88bd
000002f0: 09fb d63d 3aa3 3fbd 7c68 a2bd e09e 89be
00000300: 76a0 4d3e 65eb babe 3fe4 453e 6178 e83c
00000310: 406c e23d 43d6 243e 22e7 42be 629d 36bd
00000320: 28db 503c b64c 94bc 3574 0abd e91a f6bc
00000330: 139a dd3d 3a88 8c3e 4934 5ebe 1019 cebc
00000340: f51f ad3d 63b8 a9be 0256 f83c f071 e7bc
00000350: b8a3 82be a4c6 dfbc 62a3 e83e b641 76bd
00000360: be87 d53d 36b8 453d 16bb 16bc 0ebd 99be
00000370: 1f2e 173d 7890 e13d 7c5d 03be 5a0f b53e
00000380: f7ee 823e d5a9 06be b101 c23d 215b c93d
00000390: b10b e23c 4cb1 913e c703 47bd 455a 42bd
000003a0: 3572 d43d ea42 73be 0cd4 91be c688 50bd
000003b0: af9f b6bd 170c 3bbe 27d3 af3c 37c5 583c
000003c0: 4968 1a3e 1316 8c3e 892f 27bd dfc6 ebbb
000003d0: eb0f 74be 87ab 5d3e 7fc5 06be 1e71 883d
000003e0: 7a59 d3bd 7f6c 23bd 8530 413e 7e65 c8bc
000003f0: 3a81 363e d37f 9bbd e7e1 543e 2da3 b93d

mlp_extractor.value_net.2.bias f4 [64]
-0.059337296 0.07487452 0.057319295 -0.07039814 -0.15829612 0.077712245 -0.06131846 -0.15966514
-0.11986691 -0.078749865 -0.0764405 -0.06555027 0.16432913 0.06792094 0.065112345 -0.07072567
-0.06309584 -0.13028595 -0.074292764 -0.06154165 0.066839576 -0.050427437 0.077747226 -0.07430703
-0.06065364 -0.07775087 -0.06865269 -0.058177214 -0.0068569114 -0.069383755 0.063106626 -0.06643197
-0.06980669 0.06822803 0.07182339 0.15795937 -0.18455295 -0.07435302 0.06372436 0.17888501
0.14210178 -0.060555544 0.056115974 0.06789292 0.07621273 -0.18660578 0.055346947 0.06401743
0.18405034 -0.07010519 -0.056729954 -0.10099112 0.052664995 -0.06489182 0.12670852 0.072029725
0.16015634 0.067374304 -0.06254716 0.051225968 -0.0709185 -0.05136409 -0.04949286 -0.060763463
00000000: aa0b 73bd d057 993d a3c7 6a3d e62c 90bd
00000010: 6118 22be 9927 9f3d 1129 7bbd 427f 23be
00000020: c87c f5bd 9c47 a1bd d68c 9cbd 383f 86bd
00000030: e545 283e 221a 8b3d 9f59 853d 9fd8 90bd
00000040: 6438 81bd ae69 05be ce26 98bd 1913 7cbd
00000050: 30e3 883d 008d 4ebd f039 9f3d 492e 98bd
00000060: f46f 78bd d93b 9fbd c899 8cbd 3b4b 6ebd
00000070: f1af e0bb 1219 8ebd 0c3e 813d 7c0d 88bd
00000080: cff6 8ebd 23bb 8b3d 2418 933d 1ac0 213e
00000090: 73fb 3cbe 6546 98bd eb81 823d a22d 373e
000000a0: 2183 113e 1709 78bd ddd9 653d 710b 8b3d
000000b0: 6b15 9c3d 9615 3fbe 7bb3 623d 921b 833d
000000c0: b177 3c3e 4f93 8fbd ab5d 68bd 6fd4 cebd
000000d0: 40b7 573d 01e6 84bd e1bf 013e 5284 933d
000000e0: 0600 243e 8afb 893d ba18 80bd 52d2 513d
000000f0: b83d 91bd 2763 52bd 06b9 4abd 1ce3 78bd

action_net.weight f4 [59, 64]
-0.06212658 0.16677625 -0.14740165 -0.08135656 -0.080864385 0.017573245 0.089732155 0.077001944
-0.08021746 -0.22493164 0.12542786 0.22431026 0.13175678 0.08984642 0.019795317 0.071838304
0.079841174 0.08968581 -0.15677558 -0.09084754 -0.077259324 -0.1014562 0.25542694 0.0106200725
0.05340223 0.056396656 0.054332078 0.097786464 0.06398653 0.10283714 -0.32135272 -0.05719861
-0.08316627 -0.06867604 0.05208773 0.049597256 0.013595379 -0.03932082 0.09194814 -0.09630052
0.22660215 -0.074524224 -0.10845704 -0.1695646 0.072770365 0.13243917 -0.07892902 0.010739973
0.052126642 0.08781836 0.14606862 0.006263833 -0.21814944 0.021287058 -0.05442964 -0.08871391
-0.016657257 -0.065601334 -0.006499107 -0.0028413457 -0.09445143 0.13980263 -0.1676602 -0.11099893
0.10950627 -0.14565687 0.12100792 0.12695974 -0.0629668 0.12424505 -0.1684574 0.117326654
0.20758279 -0.12509917 -0.08820057 -0.13226278 -0.13094692 -0.12518524 0.16596761 -0.15471895
-0.10960413 0.04243434 -0.0002605183 -0.20197126 0.11372698 0.12862393 -0.12381959 0.09989222
-0.10926398 -0.16783084 -0.12625735 -0.1176674 -0.13583854 0.11334812 -0.078099705 0.14306086
0.11211382 0.12441029 0.15367116 -0.113527365 0.07575836 -0.14478269 -0.18771379 -0.038153842
-0.012192275 0.06416888 0.13845675 -0.10637888 -0.12722655 0.120550774 0.144585 0.14279108
-0.07392899 -0.12552787 -0.015036762 0.1146698 0.021368615 0.15058017 0.111234866 0.13956052
0.026040027 0.12588586 0.06703279 0.109387465 0.24397582 0.08256019 0.020218903 -0.07329773
-0.022762984 0.07265771 0.012126617 -0.078810826 0.06240622 -0.13978355 0.10897321 -0.023263272
-0.06818726 0.026826035 0.19037366 0.13289848 0.098434895 0.12881842 0.012582324 0.064657725
0.07357557 0.06421338 -0.055474225 0.020156028 -0.09037032 -0.10781115 -0.10589673 -0.111459844
0.17173885 0.11085805 0.08393415 0.022153975 0.101587944 -0.11004342 -0.024865434 -0.08013328
-0.10725946 -0.09221829 -0.07677193 0.08264438 -0.13520716 -0.008460863 0.11502211 -0.116423726
0.004490661 -0.28738362 -0.124094054 -0.005727232 0.09990026 -0.049859963 -0.09750493 -0.09559347
0.1942301 0.084466875 0.055821594 -0.23638843 0.14547619 -0.09188888 -0.05664152 -0.097225204
0.081632674 -0.12606847 -0.18468058 0.09012912 -0.0995042 -0.07988228 -0.32003367 -0.020346064
0.08314236 -0.122193724 0.1512911 0.14438502 -0.14187369 0.12160918 -0.13888817 0.06485208
0.13584183 -0.1448128 0.12513776 -0.08623505 -0.11790309 -0.13533427 0.0884683 -0.12600932
-0.041680053 0.07197964 -0.008457163 -0.19750565 0.0981772 0.17452128 -0.042954154 0.08072084
-0.09401493 -0.14109093 -0.14910395 -0.1407372 -0.11854772 0.047643065 -0.091669545 0.12982213
0.12752923 0.13933687 0.17168605 -0.13341439 0.05959307 -0.116835855 -0.068119116 -0.050751418
0.0989615 0.047387607 0.1109198 -0.0838552 -0.098531 0.2319293 0.12039631 0.10216932
-0.16099584 -0.14179026 0.026756339 0.14359988 0.09933134 0.14506227 0.12269814 0.15010624
0.033546846 0.14502697 0.041976806 0.045294907 0.19457038 0.08818684 0.09685123 -0.0780582
00000000: 7178 7ebd 65c7 2a3e 75f0 16be 459e a6bd
00000010: 3a9c a5bd c4f5 8f3c 7ec5 b73d 32b3 9d3d
00000020: 0d49 a4bd 7b54 66be 2970 003e 97b1 653e
00000030: 40eb 063e 6601 b83d ca29 a23c f61f 933d
00000040: c583 a33d 32ad b73d c789 20be 460e babd
00000050: 233a 9ebd 45c8 cfbd 52c7 823e d0ff 2d3c
00000060: 4cbc 5a3d 2e00 673d 508b 5e3d 4544 c83d
00000070: 5f0b 833d 479c d23d 5888 a4be 1749 6abd
00000080: 1453 aabd 06a6 8cbd f259 553d 7e26 4b3d
00000090: 27bf 5e3c de0e 21bd 4e4f bc3d 3539 c5bd
000000a0: 650a 683e 28a0 98bd b91e debd 58a2 2dbe
000000b0: a108 953d 229e 073e 8aa5 a1bd b6f6 2f3c
000000c0: bf82 553d 1dda b33d 0393 153e d740 cd3b
000000d0: 9162 5fbe 3262 ae3c 9df1 5ebd a3af b5bd
000000e0: cd74 88bc fe59 86bd 76f6 d4bb df35 3abb
000000f0: c06f c1bd 6c28 0f3e 1eaf 2bbe 6853 e3bd
00000100: d344 e03d 1327 15be 00d3 f73d bc01 023e
00000110: bdf4 80bd 3074 fe3d 1980 2cbe f548 f03d
00000120: 9590 543e ff19 00be 80a2 b4bd e56f 07be
00000130: f316 06be 8f30 00be 6af3 293e a56e 1ebe
00000140: 2178 e0bd a1cf 2d3d 2d96 88b9 8ed1 4ebe
00000150: b1e9 e83d feb5 033e 2095 fdbd 4b94 cc3d
00000160: cbc5 dfbd d9db 2bbe 9b49 01be 9bfb f0bd
00000170: 4219 0bbe 0f23 e83d bdf2 9fbd 8c7e 123e
00000180: ee9b e53d d2ca fe3d f95b 1d3e 0981 e8bd
00000190: 3327 9b3d ea41 14be 0b38 40be 3447 1cbd
000001a0: 1cc2 47bc f96a 833d 9bc7 0d3e 2cdd d9bd
000001b0: ad47 02be 53e3 f63d 170e 143e d337 123e
000001c0: 1568 97bd 618a 00be c05c 76bc 00d8 ea3d
000001d0: 3c0d af3c b031 1a3e 1bcf e33d f4e8 0e3e
000001e0: e551 d53c 39e8 003e 7d48 893d 8906 e03d
000001f0: ccd4 793e 5115 a93d 1da2 a53c 1f1d 96bd
00000200: 7079 babc 91cd 943d b8ae 463c 9267 a1bd
00000210: aa9d 7f3d 6b23 0fbe 592d df3d 9e92 bebc
00000220: c3a5 8bbd 46c2 db3c 50f1 423e 8a16 083e
00000230: 3c98 c93d fae8 033e 1826 4e3c 456b 843d
00000240: caae 963d 4e82 833d f138 63bd 411e a53c
00000250: 1314 b9bd 18cc dcbd 63e0 d8bd 0f45 e4bd
00000260: 4fdc 2f3e 8c09 e33d abe5 ab3d 417c b53c
00000270: 570d d03d 725e e1bd 98b2 cbbc eb1c a4bd
00000280: d9aa dbbd f1dc bcbd 9a3a 9dbd 7541 a93d
00000290: bf73 0abe 6e9f 0abc b690 eb3d 906f eebd
000002a0: 6526 933b f223 93be 0625 febd 81ab bbbb
000002b0: 8298 cc3d f639 4cbd aab0 c7bd 82c6 c3bd
000002c0: 41e4 463e f8fc ac3d 2fa5 643d cf0f 72be
000002d0: b6f7 143e 3d30 bcbd f000 68bd 021e c7bd
000002e0: 082f a73d 1818 01be e81c 3dbe 9e95 b83d
000002f0: dcc8 cbbd 5299 a3bd 74db a3be caac a6bc
00000300: 8b46 aa3d b440 fabd 0eec 1a3e abd9 133e
00000310: 5647 11be 3c0e f93d b338 0ebe 2bd1 843d
00000320: 1f1a 0b3e cf49 14be 1d24 003e 009c b0bd
00000330: 2d77 f1bd 1195 0abe de2e b53d 9608 01be
00000340: b4b8 2abd 106a 933d ea8f 0abc ec3e 4abe
00000350: 2111 c93d b5b5 323e b2f0 2fbd f850 a53d
00000360: e68a c0bd 247a 10be b5ae 18be 6a1d 10be
00000370: 26c9 f2bd 6025 433d 3ebd bbbd 18f0 043e
00000380: 0697 023e 53ae 0e3e 78ce 2f3e c89d 08be
00000390: dd17 743d a347 efbd 0982 8bbd b8e0 4fbd
000003a0: 54ac ca3d 8219 423d ec29 e33d 46bc abbd
000003b0: 9fca c9bd e07e 6d3e 5792 f63d 263e d13d
000003c0: 18dc 24be 7731 11be 1c30 db3c d90b 133e
000003d0: 3b6e cb3d 348b 143e 2a49 fb3d 73b5 193e
000003e0: 6b68 093d f381 143e dfef 2b3d 2787 393d
000003f0: 753d 473e 4d9b b43d f059 c63d fadc 9fbd

action_net.bias f4 [59]
0.079757415 -0.13696347 0.08575059 -0.12850504 -0.005987812 -0.15884086 0.062335584 -0.0039209207
-0.020015499 -0.114244014 -0.0036183777 0.037239254 -0.18500635 0.08073608 -0.07861546 0.09849894
-0.08104644 0.14987963 -0.09019564 -0.06612815 -0.22073753 0.033278435 -0.18145028 0.037107885
0.0014567706 0.10776745 -0.12114574 -0.039186355 -0.26729566 0.0296334 -0.17465158 0.047378387
-0.054104995 0.083838105 0.027512725 0.10297273 -0.076292515 0.12950696 -0.03874114 0.06936875
-0.15954553 0.03866424 -0.18415093 0.017955754 -0.063154 0.08122846 0.06561648 0.08006215
-0.073263414 -0.09701213 0.023997044 -0.05855656 0.014477902 -0.23924573 -0.02056137 -0.15629968
-0.009061908 -0.1573686 -0.061985448
00000000: db57 a33d 2740 0cbe 019e af3d d396 03be
00000010: 6835 c4bb 2ea7 22be 9953 7f3d 117b 80bb
00000020: 8bf7 a3bc c4f8 e9bd 4e22 6dbb 3088 183d
00000030: 4e72 3dbe f558 a53d 2401 a1bd d0b9 c93d
00000040: adfb a5bd 0c7a 193e 7eb8 b8bd 326e 87bd
00000050: 0509 62be f84e 083d 1ace 39be 70fe 173d
00000060: 1cf1 be3a 2eb5 dc3d 421b f8bd df81 20bd
00000070: fada 88be bec1 f23c ddd7 32be d70f 423d
00000080: 339d 5dbd 50b3 ab3d 5e62 e13c 5ee3 d23d
00000090: 403f 9cbd 799d 043e 08af 1ebd 3411 8e3d
000000a0: e75f 23be 655e 1e3d 1092 3cbe f217 933c
000000b0: e256 81bd 1b5b a63d ef61 863d a0f7 a33d
000000c0: 210b 96bd 4cae c6bd 7395 c43c 01d9 6fbd
000000d0: b934 6d3c d5fc 74be 5170 a8bc 060d 20be
000000e0: 6678 14bc 3c25 21be 74e4 7dbd

value_net.weight f4 [1, 64]
0.016496304 -0.02886095 -0.06452831 0.09934833 0.1346489 -0.018521482 0.06252243 0.045373533
0.035260435 0.023845674 0.0333045 0.0054434165 -0.059476968 -0.009009223 -0.09739246 0.0112905735
0.057654135 0.054447226 0.04520127 0.03987574 -0.024703167 0.11908353 -0.048763767 0.029186206
0.1586168 0.112988085 0.029260308 0.0137473745 -0.0040860814 0.078236364 -0.16094305 0.02535494
-0.0043175723 -0.1088428 -0.014966187 -0.10580631 0.13909471 0.025716072 -0.037035577 -0.09212027
-0.053000897 0.13359112 -0.03241491 -0.0049927253 -0.008171534 0.13561533 -0.015575137 -0.10457997
-0.14560021 0.11288453 0.012976826 0.023597753 -0.037416145 0.0038855437 -0.044785533 -0.0092057735
-0.17504187 -0.014581702 0.007704002 0.0055564796 0.031786043 0.04631133 0.026981032 -0.0007445921
00000000: 4223 873c cd6d ecbc 6b27 84bd 2377 cb3d
00000010: 67e1 093e 5dba 97bc c30b 803d 99d9 393d
00000020: 3f6d 103d 0158 c33c 4d6a 083d b05e b23b
00000030: 1f9e 73bd 6c9b 13bc b375 c7bd 19fc 383c
00000040: be26 6c3d 0e04 5f3d f824 393d be54 233d
00000050: 4c5e cabc 11e2 f33d 84bc 47bd e917 ef3c
00000060: 716c 223e 4c66 e73d 50b3 ef3c ab3c 613c
00000070: 89e4 85bb 633a a03d 41ce 24be 2ab5 cf3c
00000080: 6c7a 8dbb f9e8 debd bd34 75bc fbb0 d8bd
00000090: d86e 0e3e 83aa d23c 9eb2 17bd 8da9 bcbd
000000a0: 7817 59bd 1ccc 083e 7fc5 04bd 049a a3bb
000000b0: e6e1 05bc bfde 0a3e dc2e 7fbc 062e d6bd
000000c0: 3918 15be 0130 e73d c19c 543c 1350 c13c
000000d0: ac41 19bd 9ba4 7e3b 0971 37bd d0d3 16bc
000000e0: 2d3e 33be 17e8 6ebc da71 fc3b 2113 b63b
000000f0: 1532 023d f3b0 3d3d 5307 dd3c bb30 43ba
