model.onnx (onnx, 529963 bytes, 7 tensors)

fc1.weight f4 [256, 130]
00000000: 4370 003d f8f1 d03d 07e2 e0bd 10fa 3b3d
00000010: 81d2 813d b894 b63e b243 cd3d 0aaf c93e
00000020: 79e3 97bd 387e 83bd affa b33c 12dc ffbd
00000030: 858e 14be 4cc9 9c3c 1a8b 0d3e fd14 b23d
00000040: 6d8c 303d 6b49 083d 2a67 40bd c0b4 e5bc
00000050: bec9 843d e7a3 44be bc7c c6bd 2534 ea3d
00000060: 6170 cfbc e2d7 0b3d 16df c6bd 3a85 8bbd
00000070: 803f 1f3e 1094 35bd dbb6 c03d 066c 8cbd
00000080: 6477 c13c 2092 0a3c aa92 523b 9548 ae3d
00000090: 5fee 51bc bb5d b4bc ad28 bc3c 0a54 bdba
000000a0: 5be3 ceba d4c6 13bc fdbe e1bb e021 3ebc
000000b0: 3583 acbc db1e ab3b c325 2fb9 2889 063d
000000c0: f9d0 0a3d 9113 793c fd7d ccbc 6e94 903c
000000d0: d7e5 c4bb aa95 53ba b5d0 ec3b 631d 8c3b
000000e0: d099 b23c 5f14 983c 1970 b23c b537 803c
000000f0: e0a3 0000 1e89 0080 6c8e 0000 c789 0000
00000100: 2d92 0080 9d8b 0000 2c89 0080 a58b 0000
00000110: c08c 0000 378b 0000 bc89 0080 f5a8 0000
00000120: 2b89 0000 e68a 0000 1f8a 0000 158a 0000
00000130: 918b 0000 6e8f 0080 f98d 0080 6689 0080
00000140: 1b8b 0080 f489 0000 0e8d 0080 349b 0000
00000150: 818a 0000 8cae 0080 b58b 0000 f58a 0000
00000160: cb8b 0000 ca90 0080 038d 0080 a289 0000
00000170: 1a8c 0080 2e8b 0080 ed88 0000 518a 0000
00000180: dc88 0080 3e91 0080 aaa1 0000 538b 0080
00000190: 8b8b 0080 1291 0000 c0a9 0080 6389 0000
000001a0: cb88 0080 d78b 0080 7e8a 0000 ee8c 0000
000001b0: d38a 0080 6c8b 0000 7d8a 0080 109b 0080
000001c0: ea88 0000 4089 0080 fb88 0080 908a 0080
000001d0: eea2 0000 5889 0080 578c 0000 088c 0000
000001e0: 9c55 0280 f888 0000 29a4 0080 278b 0000
000001f0: ee8a 0080 8289 0000 1a8c 0000 f089 0080
00000200: 518a 0080 58c0 12be 19db 523e 37cf 923e
00000210: 1169 82be a8b7 ba3e 81d2 58be 3193 653d
00000220: a0bc 91bc 74c0 cebd 5c16 183e 02ba c13d
00000230: 6e02 35bd 3c10 ae3c bd07 98bb e3f6 a9bd
00000240: b403 6abd e162 35bd 641e 9c39 a681 06be
00000250: 532e 66be 0a1a 93bd 5e9f a8bc 7f2c f2bc
00000260: 316a a23d e030 1ebe 9835 373d f651 013d
00000270: 3b03 013d 91b0 90bc f332 34be 7a92 1f3d
00000280: e84e 413d bed3 09bd ba67 d73d a81f 2c3c
00000290: 7a11 553b fd6b 78bc c0c7 fe3c ef12 03bd
000002a0: ed19 39bd 8cfb 00bd 5adf 00bd cd12 1ebd
000002b0: 8cf2 0cbd b246 1abd aee4 f7bc ac51 d2bc
000002c0: c0e6 bfbb 5e6b bebb 1b1c c93b 1912 9f3c
000002d0: 13ea 9e3c 0674 303c 4355 2f3c 4c40 1cb9
000002e0: b403 65b8 4612 65b8 feed 50b8 949d 0000
000002f0: c09c 0080 1da4 0080 5399 0080 ab8a 0080
00000300: b08a 0000 cb88 0000 37aa 0080 00a6 0080
00000310: 69ae 0000 1ea9 0080 0c97 0000 8b8f 0080
00000320: 4a8b 0000 6c8c 0080 c288 0080 2689 0080
00000330: 1fad 0000 db8a 0080 b48a 0080 a189 0000
00000340: 78a9 0000 5c8f 0000 3e8b 0080 1289 0000
00000350: 708a 0080 6d8a 0080 a892 0080 b98a 0000
00000360: 6e9e 0080 6d90 0080 b890 0000 2c8d 0080
00000370: 198a 0080 8e8a 0080 b389 0000 ee95 0000
00000380: 168b 0000 e88a 0080 82ab 0080 358a 0000
00000390: 9989 0080 4389 0000 318a 0080 6789 0000
000003a0: 71aa 0000 e48a 0080 408a 0080 2f94 0080
000003b0: ab57 0180 5e89 0000 cd8a 0080 9f8a 0080
000003c0: 5c8d 0080 c08b 0080 6990 0000 4489 0080
000003d0: 55a7 0000 f088 0080 ed89 0080 c5ad 0000
000003e0: e892 0080 cd8a 0000 458e 0080 ba8b 0080
000003f0: 8d90 0080 e78a 0080 7691 0000 d489 0080
0.03135706 0.10202402 -0.10980611 0.045892775 0.063389786 0.35660338 0.100226775 0.39391357
-0.07416434 -0.06420559 0.021970121 -0.12493147 -0.14507492 0.019138955 0.13822594 0.086954094
0.04310267 0.03327314 -0.046973385 -0.02804029 0.06483792 -0.19203149 -0.0969176 0.11435727
-0.025322141 0.03414143 -0.09710519 -0.0681252 0.15551567 -0.044330657 0.09409877 -0.06856541
0.0236165 0.0084576905 0.0032130876 0.08509938 -0.01281318 -0.02201735 0.022968614 -0.0014444601
-0.001578431 -0.009019572 -0.0068892227 -0.011604756 -0.021058658 0.005222184 -0.00016703368 0.032845646
0.033890698 0.015202419 -0.02496242 0.017648902 -0.0060088444 -0.0008071313 0.0072270283 0.004275964
0.02180186 0.018564401 0.021781968 0.015651563 5.8787e-41 -4.9188e-41 5.1091e-41 4.9425e-41
-5.2438e-41 5.0084e-41 -4.9208e-41 5.0095e-41 5.0492e-41 4.9941e-41 -4.941e-41 6.061e-41
4.9207e-41 4.9827e-41 4.9549e-41 4.9534e-41 5.0067e-41 -5.1453e-41 -5.093e-41 -4.9289e-41
-4.9902e-41 4.9488e-41 -5.0601e-41 5.5676e-41 4.9686e-41 -6.2616e-41 5.0117e-41 4.9848e-41
5.0148e-41 -5.194e-41 -5.0585e-41 4.9373e-41 -5.0259e-41 -4.9928e-41 4.912e-41 4.9619e-41
-4.9096e-41 -5.2103e-41 5.7994e-41 -4.998e-41 -5.0059e-41 5.2041e-41 -6.0895e-41 4.9285e-41
-4.9072e-41 -5.0165e-41 4.9682e-41 5.0556e-41 -4.9801e-41 5.0015e-41 -4.968e-41 -5.5626e-41
4.9116e-41 -4.9236e-41 -4.914e-41 -4.9707e-41 5.8448e-41 -4.927e-41 5.0344e-41 5.0234e-41
-2.14382e-40 4.9135e-41 -5.889e-41 4.9918e-41 -4.9839e-41 4.9329e-41 5.0259e-41 -4.9483e-41
-4.9619e-41 -0.14331186 0.20591392 0.28673717 -0.25470784 0.36468244 -0.21174051 0.056048576
-0.017790139 -0.10095301 0.1485228 0.09459306 -0.04419177 0.021247976 -0.0046395944 -0.08299043
-0.057132438 -0.04428375 0.0002977728 -0.13135394 -0.22478609 -0.07182701 -0.020583805 -0.029562233
0.07930411 -0.15448332 0.044728845 0.031572305 0.03149722 -0.017662318 -0.1759756 0.03895805
0.04719439 -0.0336492 0.10517831 0.010505594 0.0032511638 -0.015162465 0.031101108 -0.03200048
-0.04519074 -0.031489894 -0.031463005 -0.03859215 -0.034411 -0.037665077 -0.03026041 -0.02567371
-0.005856365 -0.005811139 0.0061373836 0.01941781 0.019398725 0.01076985 0.01070148 -0.00014901272
-5.4601303e-05 -5.4614873e-05 -4.9812712e-05 5.6528e-41 -5.6231e-41 -5.8873e-41 -5.5002e-41 -4.9745e-41
4.9752e-41 4.9072e-41 -6.1062e-41 -5.955e-41 6.2567e-41 -6.0668e-41 5.4185e-41 -5.1494e-41
4.9968e-41 -5.0374e-41 -4.906e-41 -4.92e-41 6.2104e-41 -4.9812e-41 -4.9757e-41 4.9372e-41
6.0794e-41 5.1428e-41 -4.995e-41 4.9172e-41 -4.9662e-41 -4.9658e-41 -5.261e-41 4.9764e-41
-5.6834e-41 -5.181e-41 5.1915e-41 -5.0643e-41 -4.954e-41 -4.9704e-41 4.9397e-41 5.3785e-41
4.9895e-41 -4.983e-41 -6.1525e-41 4.958e-41 -4.9361e-41 4.924e-41 -4.9574e-41 4.929e-41
6.1143e-41 -4.9825e-41 -4.9595e-41 -5.3158e-41 -1.23285e-40 4.9278e-41 -4.9792e-41 -4.9728e-41
-5.071e-41 -5.0133e-41 5.1805e-41 -4.9242e-41 6.0027e-41 -4.9124e-41 -4.9478e-41 6.2337e-41
-5.27e-41 4.9792e-41 -5.1037e-41 -5.0124e-41 -5.1855e-41 -4.9829e-41 5.2182e-41 -4.9443e-41

fc1.bias f4 [256]
00000000: 31d1 ab3d a363 37be 2f6d 3cbe ec79 bb3e
00000010: f022 f43d 3b3b 163e 603f 563d bdc0 843e
00000020: 192b 543e 518b 943e 1bd0 073a 5cc5 02be
00000030: 174a ddbd ce16 0e3e c16b 9d3e 80a5 ab3e
00000040: db88 aa3e a8bb 533e e414 9cbd 98c9 483e
00000050: c6ad 6d3e 35bf 1d3e edd2 dbbc 6684 c13e
00000060: e6d9 9cbc 1b5f f3bd a920 7f3e a58c c33e
00000070: 8cd9 d7bd b4a2 983e 439d 893e 36bd 943e
00000080: 3894 0fbd 8c92 993e 78d6 4b3e a170 383e
00000090: 2fc2 e33d 362a 273e a927 c43d 23fb f03d
000000a0: 74ff 603b e599 2e3e b9d6 0e3e 7267 de3d
000000b0: 39b0 a4bd e324 70bd ab5c f43c a5e0 133d
000000c0: e7bd 993e e6de 813e 4853 403e da64 cb3b
000000d0: f907 4c3e 356b a7bc f565 40bd ae61 943e
000000e0: 26cd 98bd 0a3a 8e3e b70b 07be c89e 2bbe
000000f0: 3ca4 7a3e b085 0b3c c015 e3bc cfb3 653e
00000100: 9957 f93d e2ea b5be 4650 663e 50a9 5cbe
00000110: 608f 3a3d 0546 603d 5019 f0bd fcf4 563e
00000120: ebab 6a3d 97a5 d93d e551 383e 5144 b73d
00000130: 04ca 543e 6b01 b43d 6dae d73d 793f d1bc
00000140: 3a5d 94be 043f d93c 9f46 2b3e bbe9 9abc
00000150: e340 a9bd d656 85be d1f8 77bd 10af 0d3e
00000160: bf6f c1bd c568 35be 3b9b 2f3e e7d1 bc3d
00000170: 4376 52bd 9a94 633e 0c22 43be 84cd 01bd
00000180: ec1b 893e 498c 843e d7ed 9bbc 62aa 76bd
00000190: 30e0 203e 52c5 303e b758 673d 6064 bfbd
000001a0: 88ba 07be 2ba5 42be 7b31 4bbd fefd f03d
000001b0: b6f2 86bd eaa6 86be 9386 963e 5765 bd3d
000001c0: 6150 9e3e c2e9 083e a6f6 c03d 49cd 3a3e
000001d0: 431c 8b3e b205 653e 5216 1a3e 9abf 683e
000001e0: c532 283e 6c92 ae3e b595 733c 89ec 6c3d
000001f0: af75 48be a469 bb3e 63b7 3f3e 3bb2 9f3e
00000200: 62f0 563e 00b3 0d3e 32f7 353e c590 b9bd
00000210: 22d4 553e e15c 9abd 4c9f 8d3e a164 813e
00000220: 9776 26be e83f 193e 84f4 3bbe 75fb 453e
00000230: 8453 023e 393a 503e 07ad 2cbe 7c8b 3ebe
00000240: cf5a 4b3d 2907 60be 92aa 233e b0ed fa3d
00000250: 8869 203e 7280 383e 2204 063d f607 293e
00000260: 0131 3a3e 18f5 9bbe f485 37bd bd85 533e
00000270: 1915 8b3d 10e4 133d fe9c a23e ccda 213e
00000280: 7ba7 dbbd e2c2 c93d cee6 8e3d b9bb 2b3e
00000290: 56fc 883e 4adc 433e ccf1 083d 5769 773e
000002a0: 71b4 ae3c 587a 393e 7142 8cbd 627a 4f3d
000002b0: ddfd c43d 2147 92be bd34 23be a931 5d3e
000002c0: 2450 8abe bfb2 093e 1798 0f3d 3bce b83d
000002d0: b577 a6be c29d f03d 9299 8d3e b39e ba3d
000002e0: cc78 81bd 5107 613e daad 24be 9fc8 c83e
000002f0: 8997 783e 1c4b 2abe 9ede b93c 3073 583d
00000300: 2b2a c03d a518 71be 74bf 123e 22d8 e8bd
00000310: 22c3 a7bc 7e79 673d be35 653d 7a1d 513e
00000320: 1534 183d 7a0c ffbc ad26 923e e7f1 7e3e
00000330: 2f85 373e a3b1 dabd 1585 bc3e 1a58 9e3d
00000340: 9607 813e 3d8d 3c3e 9714 5e3d a03a 8dbd
00000350: 0286 093d e979 373e 5689 023e 2f38 bb3d
00000360: a664 8e3c b579 25be 1f7f 833e 4ccd d3bd
00000370: 26b3 22bd 8cd7 383e c2ab 3fbe ba6f 3e3e
00000380: 1d9e 82bd b7a4 c83d c740 10ba 453c 0bbe
00000390: f13d 65bd 64b4 66be 9d87 063e 8ab1 c83c
000003a0: 2bcc ea3d 7bed c03d e031 5d3d dee3 083e
000003b0: 22cf 243e be57 613e 060d 493e d9ed 23be
000003c0: ac53 873e c2c5 8e3e 5657 b53d aac3 eabd
000003d0: 29f6 f2bd 3d05 323e bde2 0dbe 21c9 903e
000003e0: 7329 583e 4db3 263e 088e 74be ddc0 873e
000003f0: 6624 34be ee7a 453e 027e 6f3e 789f 673e
0.083895095 -0.17909102 -0.18401025 0.36616457 0.11920726 0.14671032 0.052306533 0.25928298
0.20719565 0.2901254 0.00051808514 -0.12770599 -0.10805147 0.13875887 0.30746272 0.33524704
0.33307537 0.20677054 -0.07621172 0.19608152 0.2321082 0.15404971 -0.026833976 0.37796324
-0.01914687 -0.11883374 0.24914803 0.3819324 -0.10539541 0.29811633 0.26877794 0.29050606
-0.03505346 0.2999462 0.19906032 0.18011715 0.11121022 0.16324696 0.09577877 0.117666505
0.003433195 0.17050894 0.13949098 0.108595744 -0.08041424 -0.058628928 0.029829344 0.03610291
0.30027696 0.2536537 0.1878177 0.006207091 0.19924916 -0.020436862 -0.046972234 0.28980774
-0.07461004 0.27778655 -0.13188063 -0.16759789 0.24476713 0.00851576 -0.027720332 0.22431873
0.12174911 -0.35530764 0.2249156 -0.21548963 0.04554689 0.054754276 -0.11723578 0.20991892
0.05729286 0.10627287 0.1799999 0.08948577 0.20780188 0.08789333 0.10531316 -0.025542961
-0.28977376 0.026519306 0.16726159 -0.01891028 -0.08264329 -0.26042813 -0.060540024 0.13836312
-0.09445142 -0.17715748 0.1714906 0.09219723 -0.051382314 0.22224656 -0.19055957 -0.031690136
0.26779115 0.2588828 -0.01903431 -0.060221083 0.1571052 0.17262772 0.05648109 -0.09345317
-0.1325475 -0.19008319 -0.049607735 0.11767195 -0.06589262 -0.2629922 0.29399547 0.09247845
0.309207 0.13370422 0.094220445 0.18242373 0.2717 0.22365454 0.15047577 0.2272934
0.16425617 0.34096086 0.014867236 0.057842765 -0.19576143 0.36604035 0.187223 0.31190667
0.20990136 0.13837814 0.17770079 -0.09060816 0.20881703 -0.075372465 0.27660596 0.25272086
-0.16256176 0.14965785 -0.18354994 0.19334204 0.12727171 0.2033471 -0.1686288 -0.18607897
0.04964715 -0.21877731 0.15983036 0.122523665 0.15665257 0.18017748 0.032718785 0.16506943
0.18182756 -0.3046043 -0.044805482 0.20656486 0.067911334 0.03610617 0.317604 0.1580612
-0.10725304 0.09851624 0.06977616 0.1677083 0.26755017 0.19127002 0.03343372 0.24161278
0.021326276 0.18113077 -0.0684861 0.050653823 0.09618733 -0.28569892 -0.15938087 0.21600975
-0.27014267 0.13447092 0.035057154 0.0902371 -0.32513204 0.1174884 0.27656227 0.09112301
-0.06321868 0.21975447 -0.16081944 0.39215562 0.24276556 -0.16630214 0.02268916 0.052844226
0.09383043 -0.23544557 0.14330846 -0.11369349 -0.020478789 0.05651235 0.055959456 0.204214
0.037159044 -0.031133879 0.28545132 0.24896966 0.179219 -0.10678413 0.36820284 0.07731648
0.252011 0.18413253 0.054218855 -0.068959475 0.033575065 0.17917599 0.12747702 0.091415755
0.017381977 -0.16159709 0.25682923 -0.10341892 -0.03972163 0.18050975 -0.18717864 0.18597308
-0.06377814 0.09797042 -0.00055028166 -0.1359721 -0.055967275 -0.22529751 0.1313767 0.02449872
0.11464723 0.09420296 0.054002643 0.13368174 0.1609464 0.22006127 0.19633874 -0.160087
0.26431024 0.27885252 0.08854549 -0.11463101 -0.118633576 0.17384811 -0.13856025 0.2827845
0.21109562 0.16279335 -0.23882306 0.2651433 -0.1759201 0.19285175 0.23387912 0.22619426

fc2.weight f4 [256, 256]
00000000: 5bee 9b3c 8abe ae3c c487 4d3d 4b2f a43e
00000010: a734 21bd a664 7fbc 5d18 8ebc ea65 923d
00000020: 1021 03be 9de2 073d a001 c0bd b057 d4bb
00000030: 6b95 083d e975 2f3d dee6 5ebd fc95 c2bc
00000040: a1c7 ac3c 51d0 803d b9de 073b c996 c53d
00000050: 66f4 43bd 3615 643c 54b6 303c 792c 713c
00000060: 51b8 953d 48d7 2cbe 0f9f 79bd 5ef5 07be
00000070: 19b1 2f3d ab00 8fbd f437 c63c 5515 0abd
00000080: 226e 3abc 1be5 0d3c 5d99 683d f84c ccb9
00000090: 6be6 1d3e 9e3e 523c 3fa2 bf3d 5fb8 853d
000000a0: 50c1 6c3d ae7e 193e 451b 68bc 1acf 91bc
000000b0: 3391 b33c 7ce4 9a3d 87be 433d 3dd5 70bb
000000c0: ab38 eebc 6e45 d73b 28d8 863d f62b cd3d
000000d0: c971 88bd 763a a5bd 5d91 5d3c 3871 2ebe
000000e0: cf7e 0f3d d291 963c f44c 573d a9cc ce3d
000000f0: 9e24 ae3c c01a 413e a7b5 a83d dd11 53bd
00000100: 94d4 b9b9 3d74 113d 49d3 81bd fc24 90bd
00000110: db9b abbc f9d4 1bbd baf4 29bd 3bc8 1c3d
00000120: 02e7 9e3c df77 9c3c f58a 983d 2b3c d3bd
00000130: 1758 5e3c 4b60 0c3d fc20 edbd 6071 4b3d
00000140: fbf0 d4bc f6e8 67be 393e 473e 7e96 ce3d
00000150: 67e4 aa3d b9b5 c13d 235f 603d e36c 033e
00000160: 9021 703d e8cc ba3d af53 eebd c208 38bd
00000170: aa5a 083d 64f4 373d 4a3e 7ebc dd20 8b3d
00000180: e04f 82be 39af 693d fd75 6a3d bea4 fc3d
00000190: 0422 92bd f445 32bd 5c4c 833e f2f7 e13c
000001a0: a966 4b3d e24f 9a3d 652b 90bd de24 ab3d
000001b0: 1174 493d d5c2 a23c 2370 8a3a febb f43d
000001c0: ba1e 963d 91ec 923d 60e7 86bd 22a7 cbbd
000001d0: 6376 88bd 9326 6dbc ab4b d4bc ecb5 b63c
000001e0: 19b1 64bc 4c14 91bd 2759 983d c0ce cb3c
000001f0: 1d4c 423d 2457 1dbe 7361 143e b0e6 d6bd
00000200: a320 923e f245 8dbd 1e9a ba3d 0b97 e63c
00000210: c4b9 d2bb 9387 593d 6839 c9bc 76a3 af3c
00000220: c8c8 963d d55c 023e 0acd bebc cada 74bb
00000230: 9bc7 3ebd 20e1 2dbe 4fc0 b03d 78f0 203d
00000240: 32bb 9fbd 73a6 69bd 3232 5fbd 692d 2abd
00000250: 8fe4 713d f115 f4bb 9baf 32bd ab22 70bd
00000260: d850 b5bd 688f 183d 7267 343d 408a 8fbc
00000270: 84cb e63d ffb8 bc3d 65c4 9c3c c15d 8dbc
00000280: 8782 7d3d a820 33bd 8987 223d a11e d3bb
00000290: 0b20 5b3d e683 33bd a628 1f3d fd53 a2bc
000002a0: 69d5 183e 6ca6 123d 3957 d13b d9fc 1b3c
000002b0: 1d0c 06bc 9716 cc3d 7408 91bd 26ac e1bc
000002c0: eec2 543c 0b8c da3d 0754 fbba 4f94 153e
000002d0: a9ce 763d 035f 8ebd d5e0 dc3d 3285 893d
000002e0: dd3b 6a3a 285d 1d3d 606b 053d b5f9 69bc
000002f0: 6984 6c3e fd60 5abd d80e 1a3d 1e8c 1e3d
00000300: 6a1b 1bbe adca 663d 2f67 bdbd 29bf a9bc
00000310: 7713 6d3d b5ab 473e efca abbd d435 133c
00000320: 6d88 a63d b8bb 923d 130e 11bc 89c9 a6bc
00000330: 4ef3 c03d 9ac2 ac3d 8836 4bbd c1c7 5b3d
00000340: f7e9 0cbe 31e1 893d fc36 56be 5381 04bd
00000350: 6950 143d b395 da3c 0ea5 7ebe b171 1c3b
00000360: 2738 053e f431 603d 4518 04be bde4 533c
00000370: 21da 65bd d8a4 95bd d4c5 44bc a5e8 623d
00000380: e0ee 18bc 037f 22bd 10eb 953e 95e7 123c
00000390: e3d2 8f3d 5add ba3d 2d33 91bc b8b3 ac3c
000003a0: 33cd 1bbe d323 843d 634a f63d df3e fc3d
000003b0: e230 a3bd e3ff 77ba 622e 1fbc 0593 3eba
000003c0: 94e2 303d 4380 c0bd b39a 243e 4fb0 2cbd
000003d0: 3bb2 cc3d e514 7bbc 1aad a33d c612 483d
000003e0: 197c c93d 1674 853c 8805 453d f2ff 043e
000003f0: 1f77 ab3d 9f09 943c e9d6 82bd 2c38 a03d
0.019034555 0.02133109 0.050178304 0.32067332 -0.039356854 -0.015587961 -0.017345602 0.07148345
-0.12805581 0.0331751 -0.0937531 -0.0064801797 0.03334562 0.042837057 -0.05441939 -0.023753159
0.021091284 0.06289733 0.0020732118 0.096479006 -0.0478405 0.013921073 0.010785658 0.014720076
0.07310546 -0.16878998 -0.060942706 -0.13277194 0.042893503 -0.06982549 0.024196602 -0.03371175
-0.011378797 0.00866058 0.056786884 -0.00038967258 0.15419929 0.012832312 0.09357118 0.065293066
0.057801545 0.1498973 -0.014166658 -0.017798949 0.021919822 0.07563111 0.047789123 -0.0036748194
-0.029079756 0.006569556 0.06584197 0.100181505 -0.06662328 -0.08067791 0.013523427 -0.17035377
0.035033043 0.01838008 0.052563623 0.100976296 0.021257695 0.1885786 0.082377724 -0.051530708
-0.00035444333 0.035511244 -0.063391276 -0.07038304 -0.020948341 -0.038044903 -0.041493155 0.038276892
0.019397262 0.019100128 0.07448379 -0.103142105 0.013570807 0.03427152 -0.11578557 0.04966867
-0.025993815 -0.22647461 0.1945733 0.10087298 0.083443455 0.09458489 0.05477823 0.12834506
0.058625758 0.09121114 -0.11637055 -0.044930227 0.03328959 0.044910803 -0.015517781 0.067933775
-0.25451565 0.05705187 0.05724143 0.123361096 -0.07135394 -0.043523744 0.25644195 0.02758405
0.04965845 0.07534768 -0.07039527 0.08356641 0.049182955 0.019868294 0.0010561984 0.11949919
0.073300794 0.07174028 -0.065871 -0.099439874 -0.066632055 -0.014474529 -0.025914988 0.022303544
-0.013958239 -0.070839494 0.074388795 0.02487886 0.04743587 -0.15365273 0.14490299 -0.10493219
0.28540525 -0.06898107 0.09111427 0.028148195 -0.0064308364 0.05310781 -0.024563506 0.021440249
0.07362515 0.12730725 -0.02329113 -0.0037361854 -0.046577077 -0.1698041 0.0863043 0.03929183
-0.077993765 -0.057043504 -0.05449123 -0.041547213 0.05905586 -0.0074489047 -0.0436245 -0.058626812
-0.0885331 0.037246138 0.044043966 -0.017521977 0.11269286 0.09214973 0.019136617 -0.01725662
0.06189206 -0.043732315 0.039680038 -0.0064428602 0.053497355 -0.04382696 0.038857125 -0.01981544
0.1492516 0.035803244 0.0063885716 0.009520733 -0.008181599 0.09965246 -0.070816904 -0.027547907
0.012985928 0.10671242 -0.0019174822 0.14607356 0.06025568 -0.06951716 0.10785071 0.06714858
0.0008935312 0.03841892 0.032573104 -0.014280726 0.23097385 -0.05331515 0.037611812 0.038707845
-0.15147176 0.05634563 -0.09248196 -0.020721035 0.05787989 0.19499095 -0.08388316 0.008985002
0.0813149 0.07164711 -0.008853453 -0.020359771 0.09421407 0.08435555 -0.049612552 0.053657297
-0.13761126 0.06732405 -0.20919412 -0.032349896 0.036209498 0.02668271 -0.24867651 0.0023871476
0.13009702 0.05473514 -0.12899883 0.012932953 -0.056116227 -0.07306832 -0.0120100565 0.05539765
-0.009334296 -0.03967191 0.292809 0.008966346 0.07022645 0.09124251 -0.017724598 0.02108179
-0.15214996 0.064521454 0.12025907 0.12316679 -0.07968308 -0.00094604323 -0.009715648 -0.00072698324
0.04318483 -0.09399464 0.16074638 -0.04216033 0.09994932 -0.015324806 0.07992001 0.04884603
0.09838123 0.016290706 0.048100978 0.1298826 0.0837233 0.018070994 -0.06388647 0.07823214

fc2.bias f4 [256]
00000000: 0f08 75bd 3b88 303d 8bcf 4ebb cb62 d93b
00000010: 47a9 653c 18b0 053d c2b2 a33d 91f4 18be
00000020: 2f0b d8a1 3ae1 c1bd 3c67 6b3b aa84 7c3d
00000030: b220 553d 9d00 9cbd 110a 413d c280 12bc
00000040: 1747 3c3e be3d 51bd 000b 713d 3035 3fbd
00000050: f855 95bb b5dd e73c 81cf 733d 7e62 683d
00000060: 072e f7bd 681b ad3d fa9e 393e f5c5 873d
00000070: fb29 58bc 8c59 8f3d 7bc1 7abd 9684 d63d
00000080: 1b7f db3d a3d1 2b3d bb7c 49bc 149b a5bc
00000090: 4998 76bc 1851 153d f665 923b dbdf 75bb
000000a0: 5ce8 a13d 2e5a 983c 97aa 0dba e360 c23d
000000b0: b884 543d a441 123e 8a77 7ebd 661a 95bc
000000c0: 9720 a03e dfbb a73b e297 aa3d 8796 b990
000000d0: 6eb8 013d 98db b13d 73d8 9c3b 6e9f 193e
000000e0: 557a 883b 66a4 7bbd d282 e83d f52f 993c
000000f0: 5529 583d 3e71 14bd 4c57 f03d 11ad d93d
00000100: 9904 6ebd 5fa1 a73d 22ce b63c 1c19 813d
00000110: f875 5d3c 24ca 7bbd 8ead 2d3d 7f17 04bd
00000120: 61ea 933e e611 093d 27aa da3d 56f5 80bd
00000130: 8448 cf3d 3daf b73d f9b6 633c 569d 453c
00000140: 8fa7 5dbd 33d0 203e 78ca b03d bdff e43b
00000150: 9144 383c 4b71 a83c 886c f7bd d9cb 15be
00000160: a937 c7bc aa66 f9bc dd18 4e3e fbb6 12bd
00000170: ac5a 713d 2920 5db6 c5b3 8d3d 32d9 8eb3
00000180: a5da 75bd f8cc 9cbc 97c7 053d 5a7d 433d
00000190: d9a5 22bd e013 c2bd 3b99 0cbd 74fe 593e
000001a0: f21c 893d 2d4a e13d 092a 443c 2012 38bb
000001b0: 3ef0 3b3d 9e9d b23d e228 5b3e 5d32 4a3d
000001c0: 98c4 003e d375 593c 8603 2b3d 99ac efbb
000001d0: 44ab a13d 6a82 343d bcd1 a63c 770f ce3d
000001e0: b9a9 8f3e bd63 f3b8 5f20 e83d 5135 b93c
000001f0: 34b1 86bd a4aa 6e3d bfe4 b33d 5505 7c3c
00000200: d2ea 3d3a c3d0 ee3d 6b62 e13d 3bbb 3a3d
00000210: c313 763e bc80 313d 423b 01bd 2860 0d3e
00000220: a9d4 78bd 94b8 adbc 5fd1 51bd 0979 2b3d
00000230: 1756 89bd d59d 463d 5f32 fe3b 625a 383e
00000240: f936 333d d2c9 8d3c 258e 8f3d 79bc dbbd
00000250: 6a75 b03d d3d5 23bd 8d4f 1f3d 4dc2 b6bc
00000260: 150e 243d 331b f23d 0f64 b0bb d49e 933d
00000270: e4ec 2c3d 6971 333d 4e66 3f93 1c8a 7d3d
00000280: ae6c cdbd a48e ffbd 613c 133e 842b afaf
00000290: c474 8a3c 3acc fd3c 82dd cabc be88 303e
000002a0: 1b11 8cbc a753 0e3e 4de0 90bd 2519 eebd
000002b0: c4aa 093e f29a 2fbc b706 83bd c928 a3bd
000002c0: 58e2 66bd 05cb 653d cf1e 40bc aa1e 8db0
000002d0: 5276 973e fe80 adbb 5cf8 cfba 4b03 c3bb
000002e0: 1f69 97bd 8a54 1c3e 6b55 d1bd d14a 153e
000002f0: 5ff3 82b4 be45 a63d e410 39bd a5ba de3c
00000300: 65f1 01be 6a67 af3b 4b69 173d 17bb a2bd
00000310: 131d dcbc b40e ca3c 61b4 933a bdb3 1c3e
00000320: 7a84 e5bc 995f a1bd d4f6 c1af b9a7 16be
00000330: 03ed 95bd e195 b7b7 0b9c c03d 681d 9c3b
00000340: 750f 8b3d 4f3a 253d 2cb2 163e 77a5 57b1
00000350: 2b9a 0ba3 0042 bbbc 6393 fbbc ac62 b7bc
00000360: 5de6 9f3d d960 b23d 4568 f33b 7d04 283d
00000370: 4d7a fb3c 8062 57bd 415d da3d 183b 99bd
00000380: 3b8a 933d d66e afbc 90f9 d4bd 9104 b7bd
00000390: 2ce8 1dbd d533 8f3c b782 b53d abc3 813e
000003a0: 66bf b5bc 27cd a93d c05f aeba 6230 bdbd
000003b0: b750 093e 9dc2 49bd 6452 34bc b003 d0bc
000003c0: a91e 2d3e 8c97 f0a0 5e7f 6f3e 3557 3c3e
000003d0: 5d1a 053e af9a 1d3d fb39 6dba 4758 1b3c
000003e0: c471 5b3e a6e0 6c3d 290d d9bd c25b 8abb
000003f0: 46fc 523e 076c 69bd 0778 5c3e c061 d33d
-0.05982214 0.04309867 -0.003155681 0.0066340915 0.01401741 0.03263864 0.0799308 -0.14937045
-1.463969e-18 -0.09466787 0.0035919687 0.061649956 0.052033134 -0.076173045 0.04712874 -0.008941831
0.18386494 -0.051084273 0.05884838 -0.046681583 -0.0045573674 0.02830396 0.059524063 0.056734554
-0.12069326 0.08452493 0.18127051 0.06629554 -0.013193603 0.069995016 -0.061219674 0.104745075
0.10717603 0.041947972 -0.0122978045 -0.020215549 -0.015050956 0.03645429 0.004467721 -0.0037517461
0.07905647 0.018597689 -0.0005404143 0.09491136 0.051884383 0.14282852 -0.06212572 -0.018201064
0.31274864 0.0051188315 0.083297506 -7.320156e-29 0.031670026 0.08684462 0.004786545 0.15002224
0.0041649737 -0.06143608 0.11353077 0.018699626 0.052773792 -0.03624081 0.117354006 0.10628713
-0.058109853 0.08185076 0.022315089 0.06303617 0.0135168955 -0.061472073 0.042401843 -0.03224897
0.28889754 0.033464335 0.10676985 -0.06296794 0.10121253 0.08968971 0.013898605 0.012061438
-0.054114874 0.15704422 0.08632368 0.006988494 0.011246816 0.020561835 -0.120812476 -0.14628543
-0.024318533 -0.030444462 0.20126672 -0.035819035 0.058924362 -3.2950286e-06 0.06919054 -6.651898e-08
-0.06002297 -0.019140705 0.032661047 0.047726966 -0.039708946 -0.09476447 -0.03432582 0.21288472
0.06694974 0.11000476 0.011972913 -0.0028086975 0.04588341 0.08721469 0.21402314 0.049364436
0.12574995 0.01327272 0.041751407 -0.0073142764 0.078939945 0.044069685 0.020363681 0.100615434
0.28059176 -0.00011605721 0.11334299 0.022608431 -0.065767676 0.058268204 0.08783864 0.015382131
0.0007244769 0.11660912 0.110051 0.045588713 0.24030976 0.04333566 -0.031550653 0.13806212
-0.060749684 -0.021206178 -0.051225062 0.041863475 -0.067058735 0.048490364 0.0077574695 0.18003228
0.043753598 0.01730815 0.07009534 -0.10729308 0.08616145 -0.03999884 0.038894225 -0.022309447
0.040052492 0.11821594 -0.0053830217 0.072080284 0.042218104 0.04380933 -2.415803e-27 0.06189929
-0.10030495 -0.124783784 0.14378501 -3.1863234e-10 0.016901381 0.030981172 -0.024763826 0.17239663
-0.017098 0.13899098 -0.07074032 -0.1162589 0.13444048 -0.010718094 -0.06397765 -0.079667635
-0.056368202 0.056101818 -0.011726095 -1.0267815e-09 0.2958246 -0.005294918 -0.0015866864 -0.0059513203
-0.07393097 0.15266624 -0.1022137 0.14579321 -2.4391463e-07 0.08118771 -0.045182124 0.027188608
-0.12689741 0.005352904 0.03696565 -0.07945841 -0.026869332 0.024665214 0.0011268967 0.1530294
-0.028017271 -0.07879562 -3.5281877e-10 -0.14712419 -0.07320597 -2.1885093e-05 0.09404763 0.0047642477
0.067900576 0.04033881 0.14716405 -3.1380674e-09 -7.5678514e-18 -0.02285862 -0.030709928 -0.022385918
0.0780761 0.087098785 0.0074282014 0.041019905 0.030697966 -0.05258417 0.10662318 -0.07481974
0.072041 -0.021415155 -0.10399163 -0.08936418 -0.038551494 0.01748077 0.088628225 0.25344595
-0.022185992 0.08291083 -0.0013303682 -0.09237744 0.13409697 -0.049257863 -0.011005972 -0.025392383
0.16906227 -4.0757867e-19 0.2338843 0.18392642 0.12998338 0.038477596 -0.0009049472 0.009481496
0.21430117 0.05783143 -0.10598213 -0.004222364 0.20604047 -0.05698779 0.21530162 0.10321379

policy.weight f4 [127, 256]
00000000: 3bd5 92bc b483 c13d dd62 803c 3cb9 1abe
00000010: 5e0c 893c 1565 733d 025c 573e f7c5 e7bb
00000020: a289 0080 886c d63d 5f0c 75bb ed5b 58bc
00000030: 72bb 083d f0d2 993c a4a1 df3d c46f 183d
00000040: de6e 373c 428c c1bc ca99 89bc c600 af3d
00000050: 8ddd 7d39 417b 8c3d 589c 01bd b5ef 473d
00000060: 45fb 8c3d 5f95 a63d 5047 1ebe e8f2 acbc
00000070: d29f 0a3e b053 c63d 4cf7 6dbd 831b d1bd
00000080: 4782 053d 31fd 523d f1ea 6b3c 8a07 4d3d
00000090: f028 84be 70a8 883d 1ece 4fbb aec1 b9bb
000000a0: 5cde ef3c b1f7 4dbd af5b 19bc ae01 8d3d
000000b0: 6c18 25bd faf8 463e 869b 6abc 6f89 cf3d
000000c0: cfc6 d93d 0088 7cbd 6c82 723d ed8c 0080
000000d0: 4d5e 8f3d b7f0 a1bc 289d eb3d 506a 603d
000000e0: 439d 113d 8e06 8d3d fd52 f13d 4bf5 283d
000000f0: 1edf e13d a3ae 073e 86d0 0a3e 9991 08ba
00000100: eaa5 a3bd dc80 203d 13c2 2f3d 7e6e a03d
00000110: 66d6 30bd d213 83bd 8c3e 66bd facd d13d
00000120: 32ea 753d def5 1f3e 4e83 80bd 9b79 4dbd
00000130: 669a 8c3d 9eca 5bbc 0d70 7abb cd5f b8bd
00000140: ec73 a73d 7707 783d b8aa 153d e795 b8bd
00000150: a76a 4a3e 0929 45bc c74c 533e 879c b43c
00000160: 2507 ed3d e9ed b8bc f51a 923d 8fca 19bd
00000170: ceb3 c7bd e588 0080 f96e 233e 4824 fbb7
00000180: 912e eabd 9fc8 b1bd c887 5e3d eb13 c5be
00000190: 7b54 2b3d 26fa 433c 4990 963d bb07 cdbd
000001a0: a90e 8ebd d193 033e bb0c 5d3d fb6b 863d
000001b0: 71b9 e93c 7767 f2bc a08c 2b3d 387e 973c
000001c0: f224 38be 05c4 3e3e 26fa 873d 649b d7bc
000001d0: d3f4 483d f4dc 2dbe a8f7 4839 1b32 153e
000001e0: 4d7c ec3d 5a5a dd3c c993 24bc 315a 543c
000001f0: b6f9 b5bd dffe 983d fa37 413e 1204 0fbd
00000200: 45e9 94bd 0211 f8be 8e75 013e f2ab e33c
00000210: d08e 59be 70dc 21bd 9115 7c3d 791c 133e
00000220: 0dce a33d 3d91 583d 7991 ecba 6d77 e3bc
00000230: e7f6 7fbe 7c4b 373e 196f 3a3d 0bac a7bd
00000240: 2631 aa3b 4681 db3c fec8 afbe 8cdf 74bd
00000250: 967e 8b3d b57b b43d ab5e 993d ba0d af3d
00000260: f733 953c 055b 2abf 0d2b 1fbc 0f44 9b3d
00000270: 3ce8 73bd bf53 82ba 12ac 5c38 f5dd 4dbf
00000280: 9a63 cdbc 1f24 613e 4704 383c bfa1 1681
00000290: 57ad 7d3d a5c0 a63d e9a4 913d 883a a93d
000002a0: a39f 0f3d d52b 223c 3c97 533d f84c 10bd
000002b0: 2de3 5b3d c739 17bc 9ff5 f63c 859a eb3c
000002c0: 6973 93bd c70d 92bd 3566 d3bd 2690 1d36
000002d0: 8f16 2f3d 0afc 24be 56b1 1f3d 0730 c8bd
000002e0: bf38 d2bc dcc7 0c3e 3959 323e 395d b23d
000002f0: fc89 0080 a472 a33d 216b 893d 0e36 723c
00000300: 4c23 86bc 9273 9d3c c685 d83d dc18 b93d
00000310: 73f9 cf3c f515 db3c 593b 303a 53e6 f83c
00000320: 3228 e03d 1241 44bd 2b48 ff30 0f1b b7bd
00000330: 1542 98bc ff4e ac99 2038 d33d a900 a93d
00000340: 9397 48bd e906 213e 7571 503c fc9c 8aba
00000350: 666f 6137 b7db dfbc 47ab 4fbd 47ef 753b
00000360: 91e8 40be ec8d 4abc 0aa1 d73d 89e2 d53d
00000370: f5af 0c3e 094f 973d 8a32 ca3d 77c4 3e3d
00000380: e8d3 c2be 1150 4ebd 11be 873c fd0b e73b
00000390: 5d13 5d3b 20b0 b0bd ecde 893d 0495 793e
000003a0: 46d8 93bc ef9d 263e f81b 2c3c 0a25 ccbc
000003b0: 2906 34bd 0e26 d13b af20 8fbe 578e 083e
000003c0: 37e6 863d 5c2b 2cb5 1573 bb3d 5150 7abd
000003d0: 0172 bf3c 912e b4be cb7f 5ebb 7656 c53d
000003e0: 952a 36bd 81ae c5be 3bd2 893d 15e0 a2bb
000003f0: aa98 2b3e 6655 6b3d b44f 0d3e a6f0 5bbd
-0.017923942 0.094489485 0.015672142 -0.15109724 0.01672953 0.05942257 0.21031192 -0.00707316
-4.9373e-41 0.104699194 -0.0037391407 -0.013205511 0.033381887 0.01877734 0.109195024 0.037215963
0.011195866 -0.02362645 -0.016796965 0.085450694 0.00024210494 0.06859446 -0.03164324 0.048812587
0.06883863 0.08133959 -0.15456891 -0.02111192 0.13537529 0.09683931 -0.05809717 -0.102103256
0.032594945 0.051510993 0.014399276 0.050056018 -0.25812483 0.06672752 -0.0031708549 -0.0056688404
0.029280834 -0.050285045 -0.009360238 0.06885086 -0.040306494 0.19430915 -0.014319306 0.10133635
0.10633623 -0.061653137 0.05920641 -5.0555e-41 0.07000408 -0.019768102 0.115045846 0.054788888
0.035550367 0.06886016 0.11783407 0.041249555 0.11028884 0.13250212 0.13556108 -0.0005209684
-0.0799063 0.03918539 0.042909693 0.07833575 -0.043173216 -0.06400265 -0.056211993 0.10244365
0.0600378 0.15621135 -0.062750444 -0.0501648 0.06865387 -0.013415007 -0.003821376 -0.090026475
0.08176407 0.060553994 0.036539763 -0.090129666 0.19767247 -0.012033709 0.20634757 0.022047294
0.11573628 -0.022574382 0.07134048 -0.03754669 -0.09751092 -4.9109e-41 0.15960301 -2.9938426e-05
-0.11434663 -0.086808436 0.05432871 -0.3849176 0.041828614 0.0119614955 0.07351739 -0.1001124
-0.0693639 0.12849356 0.05396722 0.065635644 0.028530808 -0.029590352 0.041882157 0.018492803
-0.17982844 0.18629463 0.06639509 -0.026319213 0.049061608 -0.16978818 0.00019165745 0.14569895
0.11547146 0.027020622 -0.010045 0.012960956 -0.08885519 0.07470488 0.1886901 -0.03491599
-0.07271055 -0.48450476 0.126425 0.02779195 -0.21245885 -0.039516866 0.061544005 0.1436633
0.079982854 0.052872885 -0.0018048725 -0.027766908 -0.2499653 0.17899889 0.045516107 -0.081871115
0.005193847 0.02679504 -0.34333032 -0.059783503 0.06811254 0.08812658 0.074887596 0.0854754
0.018213255 -0.66545135 -0.009714854 0.075813405 -0.059547648 -0.0009943171 5.261234e-05 -0.80416805
-0.025071908 0.21986435 0.011231489 -2.7666696e-38 0.061932888 0.08142213 0.07111532 0.08263117
0.03506435 0.009898146 0.0516579 -0.035229653 0.05368345 -0.009230084 0.030146418 0.028760204
-0.07199747 -0.07131534 -0.10322229 2.3478729e-06 0.042746123 -0.1611177 0.03898748 -0.097747855
-0.025661824 0.13748115 0.17416848 0.08709187 -4.95e-41 0.0798085 0.06709886 0.014783395
-0.016374253 0.019220147 0.1057239 0.09037945 0.025387501 0.026743868 0.00067227107 0.030383265
0.10945167 -0.04791362 1.8574203e-09 -0.08940708 -0.018586198 -1.781629e-23 0.10313439 0.08252079
-0.048972677 0.15725292 0.012722363 -0.001057535 1.3436982e-05 -0.027326448 -0.050700452 0.0037526654
-0.18838717 -0.012362938 0.10528763 0.10443599 0.13738997 0.07388122 0.09872921 0.046574082
-0.38052297 -0.050369326 0.016570123 0.0070509897 0.0033733465 -0.08627343 0.06731972 0.24373251
-0.018047463 0.16271184 0.010504715 -0.024920005 -0.043951187 0.0063827103 -0.27954623 0.13335548
0.06586879 -6.413809e-07 0.091528095 -0.061111752 0.023369791 -0.35191777 -0.0033950682 0.09635632
-0.044474203 -0.38609698 0.067295514 -0.0049705603 0.16757455 0.05745449 0.13799936 -0.053696297

policy.bias f4 [127]
00000000: d3b7 9b3c 2087 4bbd 279c a93d 7c0e 273a
00000010: 47dd 4abd 715b a63d b3f1 04bd 2eef b73d
00000020: fc39 0abd b6b5 953b 2342 773d 21ed 96bc
00000030: ce88 643d e188 053c 322c ec3c 13dc aebc
00000040: f005 403d 2511 803d 1c00 913d 590d 7a3d
00000050: 7c60 d9bc 2c24 bd3d e5c4 0fbd 4f90 5fbc
00000060: bbe4 28bc ecbd b13c bf1c 023d a1b1 29bd
00000070: c989 c8bc 99ab 2ebd 65ae b2b9 f63e 3bbd
00000080: 9765 933d 2cc5 14bd 3621 91bd 4b34 793c
00000090: c79b 8a3d 7ea6 21bd 9d6a 5b3e c820 353d
000000a0: 9515 103d 69b1 49bd eb63 5bbc 8235 30bd
000000b0: fed9 b5bc 2273 893d 630a b1bc b6f4 ff3d
000000c0: 7206 1f3e d5d4 dbbd cd7b cc3d 6eea 8fbd
000000d0: 8834 043c 9430 3abe f7e3 d2bc 67e7 f4bd
000000e0: 9e87 01bd ed91 9cbd 9a73 20bd 46b6 1cbd
000000f0: 9ec2 93bc 9e62 10bd 4e47 dfbc 1868 e8bc
00000100: 84ec a9bc 6dc8 05bd 21f0 babc 1ad8 0cbd
00000110: 74d2 a7bc aa4e c2bc 4cfb b7bc 3d5e 0dbd
00000120: ce88 e5bc faed babc 84e3 edbc f0b0 f3bc
00000130: ddff ccbc 99fa 9dbc dce7 e2bc 8f1a 8cbc
00000140: 7f61 fcbc 084f f6bc 5aab b9bc 3a58 0bbd
00000150: 6852 ddbc 84ad f6bc 22ee afbc d7ce efbc
00000160: eedc a3bc c238 b8bc f67b b3bc fbf0 bfbc
00000170: 861e acbc b098 0fbd 4aaa 60bc 653d f8bc
00000180: 12f7 b6bc 8094 a9bc 9d18 dcbc e92a d7bc
00000190: 5f8f e7bc 9287 bfbc 58c1 e4bc 5900 86bc
000001a0: 098d 80bc 45e4 f5bc 0fb8 a6bc 6c6a d5bc
000001b0: 4ad8 04bd 89ec aebc 2b6d cebc c74c 08bd
000001c0: a47c bebc 97c2 09bd e991 91bc da0a f8bc
000001d0: 7030 d5bc 7b22 07bd 175e a3bc 7cb3 b5bc
000001e0: d57a b7bc 5167 e7bc 3c49 a1bc c025 c2bc
000001f0: 3e32 01bd c11d ccbc 2b4e 95bc
0.019008553 -0.049689412 0.08281737 0.0006372703 -0.049527433 0.0812291 -0.032457065 0.08981167
-0.033746704 0.004568781 0.060365807 -0.018423619 0.05579453 0.00815031 0.028829668 -0.021345174
0.046880662 0.0625327 0.07080099 0.061047886 -0.026535265 0.09235415 -0.035099883 -0.013645246
-0.01030844 0.021697007 0.031765696 -0.041429166 -0.024479764 -0.042644117 -0.0003408074 -0.04571434
0.07197111 -0.03632085 -0.070864126 0.0152102215 0.067679934 -0.03946542 0.21427388 0.044220716
0.035176832 -0.049241457 -0.0133905215 -0.04301978 -0.022198673 0.06711413 -0.021611398 0.12497847
0.15529802 -0.10733954 0.099845506 -0.07027136 0.008069165 -0.18182594 -0.025743468 -0.11958199
-0.031623475 -0.07645021 -0.039172746 -0.038259767 -0.018037137 -0.0352503 -0.02725568 -0.028369948
-0.020742662 -0.032661844 -0.02281958 -0.034385778 -0.020486094 -0.02371915 -0.022458695 -0.0345137
-0.028019335 -0.022818554 -0.029039152 -0.029747456 -0.025024349 -0.019284533 -0.02769845 -0.017102508
-0.030808209 -0.030066982 -0.022664715 -0.034019686 -0.027016833 -0.030112036 -0.021475855 -0.029273434
-0.020002808 -0.022488002 -0.021909695 -0.023430338 -0.021010648 -0.035057724 -0.013712475 -0.030302713
-0.02233461 -0.020700693 -0.026867205 -0.026265578 -0.028266607 -0.023380075 -0.027924225 -0.016357588
-0.01569225 -0.030016074 -0.020351438 -0.026051722 -0.03243283 -0.021353023 -0.02519854 -0.033276346
-0.023252793 -0.03363284 -0.01776977 -0.030278612 -0.026024073 -0.032991868 -0.019942326 -0.022180311
-0.022397438 -0.028247507 -0.019688241 -0.023699641 -0.031542055 -0.024916532 -0.01822575

value.weight f4 [1, 256]
00000000: 7b0e 273e bc36 203e 67c2 b33b 5f69 8cbd
00000010: 7c73 21be 0b39 ad3d e9f7 4abd 7faf 873d
00000020: 308a 0080 fccc 82bd 184c a4bd 53c5 4fbd
00000030: f4ac f63d 4d87 00be 1169 d23d 0fb8 0bbe
00000040: 9412 e63d 7674 64be 20cf ad3d 8f64 05be
00000050: 7a98 35be 47b7 64be a3a5 2cbd 0f04 ebbd
00000060: 7cb9 0f3d 2453 e13d f333 64be cd95 e0bd
00000070: 33a2 803d 90e4 42be cd06 e4bb 7877 523e
00000080: 3d21 9c3c 5bdb 1b3e 98b8 9cba f2ef 443d
00000090: fb43 b8bd efe5 463d cd2a 1abe b3eb 47bb
000000a0: c1ae d73d e905 25be bbb1 cf3a f0e0 bebd
000000b0: 79f5 5b3e eecc 043e 666f 13be 9c9f 11be
000000c0: b516 9d3c ddcf c83d e92c 053e 7789 0000
000000d0: df8d 5f3e 7cfe 6e3e d60d a0bd af01 71be
000000e0: 09a8 633e 7f34 50be dc61 4f3b 8fe9 bc3d
000000f0: ab7f aa3b 3098 d63d 7324 bb3d 0847 0abd
00000100: e414 cabd e788 453e 1d22 133e 72bd e2bc
00000110: 7c8d 293d 0fab 63bd 6abf 3a3e 4e26 833c
00000120: 80d0 e4bc 625e 8f3d 27e0 44be 820e 433d
00000130: 4604 a8bc e258 863d 8294 15be 350e 1b3e
00000140: 40b0 e3bd 3d1f 2e3e 338e 9bbe 8f3b c3bc
00000150: af42 fe3d 3d93 0bbe 9c51 293e 87a5 55bd
00000160: e99f 47be b13e e53d 525a b0bd 87c1 223d
00000170: 3262 243d d189 0080 273d b4bd 6ca1 463b
00000180: 68b9 dcbd 93df ee3d 6ec9 f1bd 9569 debd
00000190: 47ad 7bbc f66b 243e cab7 6bbe f2ad df3d
000001a0: b628 f1bd cfd2 953d a954 56be c5a4 033e
000001b0: d719 e4bd 7992 283d 45b2 d53c 010b 93bd
000001c0: b238 38be da8c 9cbd 2d1e 173e b269 99bd
000001d0: 6e13 17be c54b 8cbd 2e8e d0bd 9902 89bd
000001e0: 8524 333e 6075 0ebd d754 84bd cee4 3abc
000001f0: 6974 ff3d 1d30 223e 57b8 6fbb d8e5 603e
00000200: 80c1 90bd 8a92 123d 5f58 763e 420a 803d
00000210: 526d 1e3c 4c32 16be 3c74 0f3c 7b2d f9bd
00000220: 273c 07be 4774 09be a8c6 bfbd 9dd9 6f3c
00000230: 9b00 e13d 5c92 c33d 4a9c 06be 538b 84bb
00000240: 9e3b cc3d 13e4 b5bd ba23 4d3f ac43 fcbd
00000250: 5a23 673c 4080 d33d 5295 e93d b58d 15be
00000260: 8ccc e0bd 48cb d2be fb9f 1fbc 16b7 0fbe
00000270: ab48 603e 5ca3 fc3c 12bd 48ba 81d0 a1bd
00000280: 2723 00bc baf1 323d c1c0 773d 7795 9ba9
00000290: 19bb 153e 0d12 38be c22b 50bd 12a8 063e
000002a0: 83d5 043e 9acf c33d 3a87 0f3d 5f6a 273d
000002b0: 79ee 313d e145 d03d 1daa b13d 82c8 71be
000002c0: a21e ce3d 8a5b 093e 3ac7 a43d b429 2fba
000002d0: 8c8a 04be b7ff 66bd 18f6 ca3c 696a 993d
000002e0: 5c3f 283e 08c3 e3bd de4b e5bc 1db2 ab3a
000002f0: 7f1f a7aa 5db6 483e 3f54 e13c 4fe2 57bd
00000300: 1fa3 063e d51d 0e3c 54fe 59bd 5cde 1dbe
00000310: 4740 c2bd 1faa 1c3e 4f58 ae3c 5517 6c3e
00000320: 353e 10be 36ff d13d 57ba 72b7 9f92 26bc
00000330: adc7 61be c047 0030 0f5c 6bbd bdb7 453e
00000340: cc2c cebc 372e 52be 9e88 44bd 03cd 803a
00000350: c395 95ba ebf4 1abe 587b ff3d a4f3 723e
00000360: c5e5 2bbd 5ebd f73d 1f0d 1c3d 3a65 5abe
00000370: e0bf aa3b fa6c 083e e555 4d3e ecde f4bd
00000380: b937 c1bc 6cfe e6bc 1eab 7e3d 930c bb3d
00000390: c7f4 533c 4bfe 4fbe 95cc 663e 0094 22be
000003a0: 65d2 4cbe d8e9 40be 63d3 9a3d bdcc 073e
000003b0: 11b0 1dbe 9a7f 543e 8ba8 c2bd 0242 d13d
000003c0: 4d97 dc3d 5b8a 7eb7 0603 62bb e5a9 0f3e
000003d0: 17a5 fcbd bd32 36be 66c1 ea39 bbf5 a43d
000003e0: 7b11 273e 6263 ef3d 6c6f 95bd 1e35 df3a
000003f0: 742d 0f3d 0396 883d 6dbc f4bd 90ec 373d
0.16314118 0.1564588 0.005485821 -0.068560354 -0.1576671 0.08458146 -0.04955283 0.0662527
-4.9572e-41 -0.06386754 -0.08022326 -0.050725292 0.12044707 -0.12551613 0.10273946 -0.13644432
0.11234012 -0.22310051 0.084867716 -0.13026641 -0.17733946 -0.2233554 -0.04215015 -0.114753835
0.035089 0.11002186 -0.22285442 -0.10966072 0.06280937 -0.19032502 -0.0069588185 0.20553386
0.019058818 0.15220396 -0.0011956869 0.048080392 -0.08997341 0.048559126 -0.1505539 -0.0030505478
0.105313785 -0.16115536 0.0015845814 -0.09320247 0.21480359 0.129688 -0.14397964 -0.14221042
0.019175867 0.09805272 0.13005413 4.9313e-41 0.21831463 0.23339266 -0.07815139 -0.23535798
0.22232069 -0.20332526 0.0031644022 0.09224235 0.0052032075 0.10478246 0.091378115 -0.033759147
-0.09867266 0.19290505 0.14368482 -0.027678225 0.041394696 -0.055583056 0.18237081 0.016009476
-0.027931452 0.07000424 -0.19226132 0.047621258 -0.02050985 0.06559922 -0.14607432 0.15142138
-0.111176014 0.17004104 -0.30381927 -0.02383211 0.12415063 -0.13630386 0.16535038 -0.052159812
-0.19494595 0.11193598 -0.08610977 0.039735343 0.04013271 -4.9439e-41 -0.088007264 0.0030308617
-0.10777551 0.11663737 -0.11805998 -0.10859982 -0.015361137 0.16056809 -0.23019329 0.10921849
-0.11775343 0.07315599 -0.20930733 0.12855823 -0.11137741 0.041155312 0.026085982 -0.07179833
-0.17990378 -0.07644053 0.14757605 -0.07490863 -0.14753506 -0.068503894 -0.101833686 -0.066899486
0.174944 -0.034779906 -0.064614944 -0.01140709 0.12473375 0.15838666 -0.003657838 0.21962678
-0.07068157 0.03578428 0.24057148 0.062519565 0.009669619 -0.14667624 0.00875574 -0.12166878
-0.1320654 -0.13423263 -0.093640625 0.014639285 0.109864436 0.095494 -0.13145557 -0.004044929
0.099723086 -0.08881392 0.8013264 -0.12317595 0.01410755 0.10327196 0.11405434 -0.14604838
-0.10976514 -0.41170716 -0.009742732 -0.14034685 0.2190272 0.030839615 -0.0007657568 -0.07901097
-0.007820881 0.04368756 0.06048656 -6.909311e-14 0.14622153 -0.17975636 -0.05082298 0.13150051
0.12972073 0.09561081 0.03504107 0.040872928 0.043440316 0.10169578 0.08675025 -0.23611644
0.100644365 0.13413826 0.08045812 -0.00066819345 -0.12943476 -0.056396212 0.02477555 0.07490999
0.1643042 -0.11121184 -0.027990278 0.0013099347 -2.9687014e-13 0.19600816 0.027505992 -0.05270606
0.13148163 0.008674105 -0.05322106 -0.15416855 -0.09484916 0.15299271 0.021282343 0.23055775
-0.1408623 0.10253756 -1.446771e-05 -0.010166793 -0.22048827 4.666809e-10 -0.05746084 0.19308372
-0.025167845 -0.20525442 -0.04798185 0.0009826723 -0.001141243 -0.15132491 0.12474698 0.23725754
-0.041967172 0.12096666 0.03809845 -0.21327677 0.0052108616 0.13322821 0.20052297 -0.119565815
-0.023586141 -0.02819749 0.06217491 0.09133258 0.012936777 -0.20311849 0.2253898 -0.1587677
-0.20002134 -0.18839204 0.0755985 0.13261695 -0.15399195 0.20751801 -0.09504803 0.10217668
0.10771046 -1.5171793e-05 -0.0034486665 0.14029653 -0.12336176 -0.17792793 0.0004477605 0.08054682
0.16315262 0.11688878 -0.07296643 0.001702938 0.034955457 0.066692375 -0.11950002 0.044903338
