model.onnx (onnx, 529886 bytes, 7 tensors)

fc1.weight f4 [256, 130]
00000000: e1f9 543d 429e cc3d edd9 e8bd c638 603d
00000010: 4f70 8b3c 40ee 533e 61b8 103c e53e ca3e
00000020: f4bd fb3c d709 a0bd f669 193e 7b1d 2dbd
00000030: 4406 31bc b7cc 3f3d d6a7 893d 0c28 753d
00000040: c11d a33d ba35 903d 8211 23bd b0f2 a039
00000050: 6f7d cd3a bd81 1bbd d51c 223d 1e6a 743d
00000060: 2639 85bd f1aa de3c 758b 0a3d 0ad4 64bc
00000070: abc0 b33d 0e58 99bd 9502 a9ba 8fc5 0b3d
00000080: d63d 3a3c f626 49bc 4ebd 92bd 0921 033d
00000090: c9b5 353d 3592 0fbd 91af f6bc beea 98bb
000000a0: affd 82bb 26fe 043b 0d12 fd3a 3f17 ffba
000000b0: 178a 3eba 5984 35bb 004b 9eba df47 32ba
000000c0: 1621 4ebb 1420 b0b8 636a 40ba f6b3 00bb
000000d0: f329 e2ba fa5c 11ba 971c e6ba 28b8 9dbb
000000e0: c6bd 9cba 9f9c 4dba 389d 9238 5134 25b8
000000f0: e0a3 0000 1e89 0080 6c8e 0000 c789 0000
00000100: 2d92 0080 9d8b 0000 2c89 0080 a58b 0000
00000110: c08c 0000 378b 0000 bc89 0080 f5a8 0000
00000120: 2b89 0000 e68a 0000 1f8a 0000 158a 0000
00000130: 918b 0000 6e8f 0080 f98d 0080 6689 0080
00000140: 1b8b 0080 f489 0000 0e8d 0080 349b 0000
00000150: 818a 0000 8cae 0080 b58b 0000 f58a 0000
00000160: cb8b 0000 ca90 0080 038d 0080 a289 0000
00000170: 1a8c 0080 2e8b 0080 ed88 0000 518a 0000
00000180: dc88 0080 3e91 0080 aaa1 0000 538b 0080
00000190: 8b8b 0080 1291 0000 c0a9 0080 6389 0000
000001a0: cb88 0080 d78b 0080 7e8a 0000 ee8c 0000
000001b0: d38a 0080 6c8b 0000 7d8a 0080 109b 0080
000001c0: ea88 0000 4089 0080 fb88 0080 908a 0080
000001d0: eea2 0000 5889 0080 578c 0000 088c 0000
000001e0: 6848 0280 f888 0000 29a4 0080 278b 0000
000001f0: ee8a 0080 8289 0000 1a8c 0000 f089 0080
00000200: 518a 0080 dbe4 c9bd d688 413e 75c1 853e
00000210: c56e 7dbe a3fc 973e ecb6 15be 4a29 a43d
00000220: c0b8 103c e43a 6f3c 6847 cf3d fc5d b83d
00000230: 2c64 c4bc 4098 983d 2025 433c 68e1 0cbe
00000240: 259a 29bd f158 53bd 5700 f4bc dd50 22bd
00000250: 0213 b1bd f298 34bd 661d ddbc cb28 6fbb
00000260: d5b2 643d 18e1 0dbd f499 e93c 89d3 a2bc
00000270: 467a 1d3d 03e4 113c 8d9c 0cbd c6e1 943c
00000280: 0238 2c3d 3678 923d 8add a83d b759 013a
00000290: d84c 173d 24bb 0ebe 58df 963d 1962 0ebd
000002a0: cf46 adbc 5c57 3b3c 57fd b03c 605d 3e3c
000002b0: 1b63 843c ca12 9bbb 7a8a 863c 5de3 173c
000002c0: 1aea eb3b f57a 0c3c 7979 3d33 fb88 0080
000002d0: 1e15 4e2a c444 a12e 3383 0936 5a8c 0000
000002e0: 872f 8c35 7dc6 0535 89f5 1636 949d 0000
000002f0: c09c 0080 1da4 0080 5399 0080 ab8a 0080
00000300: b08a 0000 cb88 0000 37aa 0080 00a6 0080
00000310: 69ae 0000 1ea9 0080 0c97 0000 8b8f 0080
00000320: 4a8b 0000 6c8c 0080 c288 0080 2689 0080
00000330: 1fad 0000 db8a 0080 b48a 0080 a189 0000
00000340: 78a9 0000 5c8f 0000 3e8b 0080 1289 0000
00000350: 708a 0080 6d8a 0080 a892 0080 b98a 0000
00000360: 6e9e 0080 6d90 0080 b890 0000 2c8d 0080
00000370: 198a 0080 8e8a 0080 b389 0000 ee95 0000
00000380: 168b 0000 e88a 0080 82ab 0080 358a 0000
00000390: 9989 0080 4389 0000 318a 0080 6789 0000
000003a0: 71aa 0000 e48a 0080 408a 0080 2f94 0080
000003b0: 9a87 0100 5e89 0000 cd8a 0080 9f8a 0080
000003c0: 5c8d 0080 c08b 0080 6990 0000 4489 0080
000003d0: 55a7 0000 f088 0080 ed89 0080 c5ad 0000
000003e0: e892 0080 cd8a 0000 458e 0080 ba8b 0080
000003f0: 8d90 0080 e78a 0080 7691 0000 d489 0080
0.051996116 0.09991123 -0.11369691 0.054741643 0.017021326 0.20696354 0.008833022 0.3950111
0.030730225 -0.07814377 0.14981827 -0.042264443 -0.0108047165 0.04682609 0.06721465 0.059852645
0.079646595 0.070414975 -0.03981162 0.00030698394 0.0015677641 -0.037965525 0.039578278 0.059671514
-0.06505041 0.02718112 0.033824403 -0.01396657 0.08776983 -0.07487498 -0.0012894446 0.034123953
0.011367282 -0.012277355 -0.07165013 0.032013927 0.044362817 -0.035051543 -0.030113013 -0.0046666553
-0.0039975266 0.0020293086 0.0019307748 -0.0019461884 -0.0007268502 -0.0027697294 -0.0012076795 -0.0006800871
-0.0031452826 -8.398309e-05 -0.00073400716 -0.0019638515 -0.0017254933 -0.00055451656 -0.0017556128 -0.004813213
-0.0011958412 -0.0007843468 6.991107e-05 -3.938779e-05 5.8787e-41 -4.9188e-41 5.1091e-41 4.9425e-41
-5.2438e-41 5.0084e-41 -4.9208e-41 5.0095e-41 5.0492e-41 4.9941e-41 -4.941e-41 6.061e-41
4.9207e-41 4.9827e-41 4.9549e-41 4.9534e-41 5.0067e-41 -5.1453e-41 -5.093e-41 -4.9289e-41
-4.9902e-41 4.9488e-41 -5.0601e-41 5.5676e-41 4.9686e-41 -6.2616e-41 5.0117e-41 4.9848e-41
5.0148e-41 -5.194e-41 -5.0585e-41 4.9373e-41 -5.0259e-41 -4.9928e-41 4.912e-41 4.9619e-41
-4.9096e-41 -5.2103e-41 5.7994e-41 -4.998e-41 -5.0059e-41 5.2041e-41 -6.0895e-41 4.9285e-41
-4.9072e-41 -5.0165e-41 4.9682e-41 5.0556e-41 -4.9801e-41 5.0015e-41 -4.968e-41 -5.5626e-41
4.9116e-41 -4.9236e-41 -4.914e-41 -4.9707e-41 5.8448e-41 -4.927e-41 5.0344e-41 5.0234e-41
-2.09645e-40 4.9135e-41 -5.889e-41 4.9918e-41 -4.9839e-41 4.9329e-41 5.0259e-41 -4.9483e-41
-4.9619e-41 -0.09858104 0.18899855 0.26124159 -0.24749286 0.29684934 -0.1462056 0.08015688
0.00883311 0.014601443 0.101210415 0.09002301 -0.023973547 0.074509144 0.011910707 -0.1375786
-0.04140677 -0.051598493 -0.029785318 -0.0396279 -0.086462036 -0.044091173 -0.026991557 -0.003649282
0.05583461 -0.034638494 0.028515793 -0.019876258 0.038446687 0.00890446 -0.034328986 0.018174063
0.0420456 0.07151835 0.0824538 0.0004934328 0.03693852 -0.13938576 0.07366818 -0.034761522
-0.021151928 0.011434402 0.021605177 0.011618942 0.016160538 -0.0047324644 0.016423453 0.009270516
0.007199538 0.008574237 4.411547e-08 -4.914e-41 1.8303802e-13 7.3336476e-11 2.0490959e-06 5.0349e-41
1.0444645e-06 4.98352e-07 2.2494662e-06 5.6528e-41 -5.6231e-41 -5.8873e-41 -5.5002e-41 -4.9745e-41
4.9752e-41 4.9072e-41 -6.1062e-41 -5.955e-41 6.2567e-41 -6.0668e-41 5.4185e-41 -5.1494e-41
4.9968e-41 -5.0374e-41 -4.906e-41 -4.92e-41 6.2104e-41 -4.9812e-41 -4.9757e-41 4.9372e-41
6.0794e-41 5.1428e-41 -4.995e-41 4.9172e-41 -4.9662e-41 -4.9658e-41 -5.261e-41 4.9764e-41
-5.6834e-41 -5.181e-41 5.1915e-41 -5.0643e-41 -4.954e-41 -4.9704e-41 4.9397e-41 5.3785e-41
4.9895e-41 -4.983e-41 -6.1525e-41 4.958e-41 -4.9361e-41 4.924e-41 -4.9574e-41 4.929e-41
6.1143e-41 -4.9825e-41 -4.9595e-41 -5.3158e-41 1.4048e-40 4.9278e-41 -4.9792e-41 -4.9728e-41
-5.071e-41 -5.0133e-41 5.1805e-41 -4.9242e-41 6.0027e-41 -4.9124e-41 -4.9478e-41 6.2337e-41
-5.27e-41 4.9792e-41 -5.1037e-41 -5.0124e-41 -5.1855e-41 -4.9829e-41 5.2182e-41 -4.9443e-41

fc1.bias f4 [256]
00000000: 693c b33d 08bd e2bd ea8f 07be b172 a83e
00000010: 9906 f63d cf22 023e e1f0 833d 70e2 5d3e
00000020: 2410 443e 2687 6f3e fc77 d93c f88e bfbd
00000030: c05c 61bd 2c93 043e 963e 8b3e 71df 9c3e
00000040: b3ca 893e 4a19 393e 5dac 8ebd ae7c 313e
00000050: df69 4e3e 5951 193e 2e01 853c 4019 9e3e
00000060: b014 a1bc ff04 09be 0731 633e 0ad0 a33e
00000070: bcdf 00be 9290 8a3e 09d6 6a3e 1f21 7f3e
00000080: 274d de3b e1b5 8d3e 7bb9 513e 8c24 223e
00000090: f8ad 623d 8c23 0f3e b131 d93d 88e4 e83d
000000a0: e763 6b3d 3689 053e 7fbc f53d d8d5 c63d
000000b0: 0900 83bd 6d66 08bd aa12 913d 1d14 3b3d
000000c0: e991 613e 2bc9 603e 4f47 1d3e fcaa a93c
000000d0: 7f85 293e 8781 4ebb 66da 27bc d459 813e
000000e0: 6db6 4bbd fa1a 773e ca98 a1bd 4b40 0ebe
000000f0: 4fbc 6b3e b27f d43b 87be 683c 1346 463e
00000100: 7aff e03d 66ee 82be b7ae 433e e795 25be
00000110: 69df 743d 89e8 5e3d 51d8 d3bd 5f8e 373e
00000120: 5fac 263d 6c9b ea3d 8375 213e 386b d43d
00000130: 186a 143e 0dde ae3d 3f7a b33d cfc1 b83c
00000140: c861 58be 46e3 353d 8a03 ea3d e385 3f3c
00000150: 0ac7 5abd 5710 47be 0386 063c 24e0 053e
00000160: 42e6 5bbd 1018 11be bb57 1a3e 2be3 7c3d
00000170: 233b 17bc 53f3 5a3e cf2f 00be dbf6 723b
00000180: 52e0 843e e22e 543e 3321 b2bb 09bd 60bd
00000190: 60f3 143e a6e0 3f3e db9d 6d3d a4d9 9fbd
000001a0: 03b7 e7bd 606b 0cbe 5537 0fbd a6c8 e03d
000001b0: fcc6 e5bd f9c9 64be 776d 843e 3a5a a23d
000001c0: 6a62 893e 3839 0b3e aa4c d93d 1284 303e
000001d0: d9be 783e f9ef 3a3e 1c63 113e 6cb3 3f3e
000001e0: 6faf 0a3e 07ed 993e d7f9 293d 3517 803d
000001f0: 0f8a 1dbe ba85 9f3e 43e1 193e fb90 793e
00000200: 75b0 123e 0661 0f3e 2cf1 293e bdce 96bd
00000210: 7fad 373e 6fa2 37bd b5c1 793e 2cc8 673e
00000220: c338 f2bd 2548 2a3e 0b36 39be 02a4 f63d
00000230: 417a 933d 1227 473e 2f60 1bbe 61dc 12be
00000240: 6c95 563d 6ef2 43be ba94 233e d286 c33d
00000250: 921d 063e 4c7d 033e 0aa1 ee3c ae65 193e
00000260: 511a 313e 8dd8 5fbe 52f9 2bbd 10dc 443e
00000270: ce60 8c3d 3b88 f33c cd92 8f3e 1a9c 1e3e
00000280: 49ac 93bd 66c3 993d 4f1d a23d 89e7 283e
00000290: 3cad 6f3e e9ed 2b3e 5168 1d3d 15f9 433e
000002a0: f222 f53c bba4 193e e092 2bbd b99c b93d
000002b0: e47f 8b3d ec71 5fbe 88d4 0bbe 3ba1 4c3e
000002c0: 12ce 56be fd4a eb3d a7d3 fe3c e305 b43d
000002d0: 7150 72be 14c9 df3d b517 473e 799d 913d
000002e0: 5bd7 f2bc 1335 503e f31b fbbd 1d63 af3e
000002f0: b2e4 7e3e 17b9 d2bd c664 3a3d 56b6 ae3d
00000300: 49d0 823d b1d5 15be a921 0a3e a2e5 c8bd
00000310: f5d3 1f3c 3e74 823d a1ca 663d 8b5c 393e
00000320: 3835 233d 6176 31bc a92b 873e 4cf3 5c3e
00000330: bf7b 1b3e 7f75 6fbd 1a0a 9a3e 0a53 a53d
00000340: 7594 7b3e b490 193e 2f7f 143d cac7 54bd
00000350: 5142 623c d47f 363e 1c12 0b3e 5183 bd3d
00000360: 9372 7a3c f4b9 efbd 3eac 6a3e 3a90 9cbd
00000370: f434 c9bc 0117 303e 1ed8 f2bd 4829 103e
00000380: de66 03bd 697a c23d 4420 38bc 43ca 01be
00000390: 7fcc 1fbd ed2a 37be ab59 c33d 65eb 243d
000003a0: 0041 c73d 6d2c 993d bdb2 0e3d 483d 213e
000003b0: b96a 243e d081 553e c3f4 493e 15ef aabd
000003c0: 6728 7e3e 08eb 843e 5362 883d 7b5f c6bd
000003d0: 7a28 d4bd c82c 173e 86ad cebd e01a 783e
000003e0: 51a6 3e3e 210b 113e 0895 02be a6a1 3b3e
000003f0: f65a ffbd c8ce 273e 572e 5f3e 9e2c 333e
0.08751757 -0.11071211 -0.13238493 0.32900003 0.12012977 0.12708591 0.064424284 0.2166841
0.19146782 0.23391399 0.02654647 -0.09353441 -0.055020094 0.12946767 0.27196187 0.30639222
0.2691246 0.18076053 -0.069664694 0.17332718 0.20157574 0.14972438 0.016235914 0.3087864
-0.019663185 -0.13380812 0.22186671 0.3199466 -0.12585348 0.27063423 0.2293321 0.24914978
0.0067840996 0.27677825 0.20480911 0.15834254 0.05534169 0.13978404 0.10605181 0.11371714
0.05746832 0.13040623 0.119988434 0.09708756 -0.06396491 -0.033300806 0.07083638 0.04567348
0.22028317 0.2195174 0.15359233 0.020711415 0.16554831 -0.003151031 -0.010244941 0.25263846
-0.04973452 0.24131384 -0.0789047 -0.13891713 0.23021053 0.006484949 0.0142055815 0.19362669
0.10986228 -0.2557251 0.19109617 -0.16170464 0.059783373 0.05442098 -0.103439935 0.17925404
0.04069173 0.114554256 0.15767483 0.10372013 0.14493597 0.085384466 0.08763551 0.022553353
-0.2113105 0.044406198 0.11426456 0.011689636 -0.053412475 -0.19439827 0.008210662 0.13073784
-0.053686388 -0.14169335 0.15072529 0.06174008 -0.009230408 0.21381883 -0.12518238 0.0037073407
0.25952393 0.2072101 -0.0054360866 -0.054867778 0.14545965 0.1873804 0.05801187 -0.078051835
-0.113142036 -0.13712835 -0.034964878 0.10975771 -0.11219594 -0.22342671 0.25864765 0.079273656
0.26832896 0.13596046 0.10610326 0.17237881 0.24291553 0.18255605 0.14197963 0.18720788
0.13543485 0.3006365 0.04149803 0.062544264 -0.15384696 0.31156713 0.15027337 0.24371712
0.14325126 0.14001855 0.16595906 -0.07363651 0.17937277 -0.044832643 0.243903 0.22634953
-0.11827233 0.16629083 -0.18087022 0.12043001 0.072010525 0.19448498 -0.1517341 -0.1434188
0.052388594 -0.19135448 0.15974703 0.09547199 0.13097218 0.12840766 0.029129524 0.14980194
0.17295195 -0.21859951 -0.041985817 0.19224572 0.068544015 0.029728046 0.28041688 0.15489236
-0.07210595 0.075079724 0.079157464 0.16494574 0.23405927 0.16789974 0.038429562 0.19137986
0.02992389 0.15004246 -0.041888118 0.090630956 0.068115026 -0.21820801 -0.13655293 0.1998338
-0.20977047 0.11488912 0.031106783 0.08790185 -0.23663498 0.109270245 0.19442637 0.07110114
-0.029643705 0.20332746 -0.1226119 0.34255305 0.24891928 -0.10289209 0.04550626 0.085308716
0.063873835 -0.14632298 0.13489403 -0.09809424 0.009755124 0.06369828 0.056345586 0.18101709
0.039845675 -0.010831446 0.26400498 0.21577185 0.15183924 -0.058461662 0.30085832 0.08072479
0.2456835 0.14996606 0.036254104 -0.051948346 0.013809756 0.178222 0.13581127 0.09253562
0.015286106 -0.117053896 0.22917268 -0.076446965 -0.024561383 0.17196275 -0.11857627 0.14078248
-0.032080524 0.09496004 -0.0112381615 -0.12674813 -0.039013382 -0.17887469 0.09538587 0.040263552
0.09729195 0.07479177 0.034838427 0.15746033 0.16056336 0.20850301 0.19722275 -0.083463825
0.248201 0.25960565 0.06659379 -0.0968618 -0.10359283 0.14763176 -0.10091691 0.24229002
0.18618132 0.14164402 -0.12752163 0.18323383 -0.12468521 0.16387475 0.21795021 0.17497489

fc2.weight f4 [256, 256]
00000000: 1eb9 fa3c 3903 493d f77e 3b3d 7f4b 953e
00000010: c9f4 30bd 50b8 21bc c203 27bd d9fb 6b3d
00000020: ec14 e7bd 41a4 1b3d 4501 51bd 181b 863a
00000030: 9526 4a3d 6771 023d 3739 61bd 417a ecbc
00000040: 0116 503c 584a 3a3d d18c 983c f6cd d93d
00000050: ac65 88bb 9533 213d dd19 a13b b787 8ebb
00000060: edef 4b3d ac16 2cbe a553 01bd fdc6 c4bd
00000070: 0ab4 6e3d 2525 5bbd ec2f f8bc 37f9 2cbd
00000080: b76c ea3b 952b 71bc 3aaa d43c 1112 c33b
00000090: adc4 3f3e 4ea2 e4bc c4b5 9d3d e506 963d
000000a0: 6ada b93c f6db fe3d 91ac 933c ee7e ccba
000000b0: 8c38 633c 4923 bb3d bf88 843d 6ce8 313c
000000c0: e778 5bbc 2816 a23c d4a0 0f3d 282f cf3d
000000d0: 4eae 9abd d2df b6bd 8ee0 5d3d 920e f2bd
000000e0: 98ea 4b3d 18b4 d93c 7d26 883d d708 df3d
000000f0: 6035 9a3b c59f 313e 176b bb3d d8d7 dabc
00000100: 59db c23c b941 453d 2085 20bd e8ee 7fbd
00000110: 2ba7 c6bc ceb6 6ebd 72e3 adba faf9 093d
00000120: 25b0 2a3d 2007 063d 5914 1f3e a09c 8fbd
00000130: 8de2 473d b9d1 403d 1a81 fdbd cd2d 7d3d
00000140: 7c69 3abc 9a88 46be 94ef 2b3e 36a1 933d
00000150: d849 9e3d 9166 d13d 2105 8c3d 2f42 0e3e
00000160: fc1a a83d 3e34 ef3d 172f e6bd 5f14 443c
00000170: 0a4e 983d b6f2 6e3d c865 cdbc 983a 343d
00000180: c75d 90be f476 8c3d e959 a03d 3ec8 053e
00000190: f465 f7bc b853 21bd 73ad 8d3e eb36 2c3d
000001a0: 85b4 663d d5ad ba3d 06b5 a2bd a2ec 2a3d
000001b0: 222a bf3c 241d 173d c8d9 d8bc 0a96 f33d
000001c0: eaea 5b3d d3fc 9a3d 9232 58bd 8ff8 a5bd
000001d0: 6d93 9dbd f96e 51bb f822 81bd ed41 153d
000001e0: 5740 14bc b781 a3bd 647a 833d a3d4 9c3c
000001f0: 0ebe 6a3d 1f46 38be 3ed9 0c3e 6101 c6bd
00000200: ebab 803e 3387 8ebd 8d2f be3d 47ff 313c
00000210: fb62 bdbb c5cf 633d 9abc 0b3c f550 b0bb
00000220: ffbd af3d 5538 fc3d f948 b0bb 4097 79bc
00000230: 1e13 1ebd 0654 15be 0597 c93d 409f 393d
00000240: 8b2f cdbd c1d7 c3bc 1b7e e2bc 567a 83bd
00000250: 3c7f 193d 64ff fc3c 44c6 10bb fa44 37bd
00000260: d398 c9bd 89c6 433d c2b9 f53c 302e debb
00000270: 7356 ce3d 6c78 993d 30b3 e53c 1031 75bb
00000280: 38bf 9f3d 792f 9ebc f598 073d 801e 08bd
00000290: b1d7 853d e603 6fbd eef1 883b d69d f6bc
000002a0: fdfe 1e3e 25aa 593d 7cdf c43c 8074 7c3b
000002b0: 8ae6 203d f253 f43d a0ca c2bc 6822 4cbd
000002c0: ead1 ed3c 7622 b93d 61d9 c7bc 9606 1e3e
000002d0: 1e6d 8c3d 8ef2 95bd 6f7e e73d abd3 a73d
000002e0: ce1c 6abb 2b61 4f3d f51d 443d fab1 ddbb
000002f0: 162d 243e b4b8 39bd 43ad 3a3d da4d 223d
00000300: c99d 40be a231 c63d b1f9 a1bd 8860 38bb
00000310: 10be 923d 4306 4a3e 56a6 f3bd e230 433c
00000320: 8e7a bb3d fee7 683d 5bcc 0abd b15f 1f3c
00000330: ab3b f33d 62ba b63d c21f 0cbd 8af7 7abc
00000340: a36c 12be a930 453d 4a23 67be c04b 77bc
00000350: dc55 093d 354c f13c 1ab8 6cbe 14da b93a
00000360: cd0e c03d b7ba a33d 7e5b fabd fd42 be3c
00000370: 2282 cbbc 5559 aebd b0da 23bc 8575 5c3c
00000380: 0c70 a9ba 9a58 04bd 3eaa 933e 1bbf ab3b
00000390: aa3b aa3d 5ff9 d83d 2fde ffbb a469 203c
000003a0: 6772 20be b6fe bb3d 2587 fc3d 2bde 0c3e
000003b0: a87e c0bd 9ad6 28bc 07f7 14bc cd94 343c
000003c0: c072 fd3c cf9b b2bd 7301 193e 4d78 95bc
000003d0: 7e95 df3d 3c5e 8dbc d388 cd3d 4998 6a3d
000003e0: 6481 db3d 7039 a9bb f718 663d f86c bc3d
000003f0: 128b cc3d 7d2e c73c 3f84 9ebd a896 bb3d
0.030605849 0.04907534 0.04577538 0.2915916 -0.043202195 -0.009870604 -0.040775068 0.057613228
-0.112832874 0.03799844 -0.0510266 0.0010231463 0.0493532 0.03184643 -0.054986205 -0.028866889
0.012700559 0.045481056 0.018621834 0.10634987 -0.004162511 0.039355833 0.004916413 -0.0043496746
0.049789358 -0.16805524 -0.03157391 -0.096082665 0.058277167 -0.05350222 -0.030296288 -0.042229857
0.007154073 -0.014719863 0.025960077 0.0059530814 0.1872737 -0.027909424 0.07700685 0.07325534
0.022687156 0.12444298 0.018026622 -0.0015601793 0.013868462 0.091375895 0.06471395 0.010858636
-0.013395525 0.019785956 0.035065487 0.10116416 -0.07552777 -0.08929409 0.05416923 -0.11819185
0.049784273 0.026575133 0.06647966 0.10890358 0.00470607 0.17346103 0.09151285 -0.02671425
0.023786234 0.04815838 -0.039189458 -0.062483698 -0.024249634 -0.058279805 -0.0013266637 0.03368566
0.04167189 0.03272164 0.15535106 -0.07012296 0.04880004 0.047075007 -0.1237814 0.061811257
-0.0113776885 -0.19388047 0.1679061 0.07208483 0.07728928 0.10224641 0.06836916 0.13892435
0.08208272 0.11679886 -0.112394504 0.0119677475 0.0743676 0.058336936 -0.025072947 0.04400119
-0.28196546 0.06858626 0.07829649 0.13064668 -0.030199982 -0.03938648 0.27671394 0.04204456
0.0563245 0.09115187 -0.07944684 0.041729577 0.02333552 0.036893025 -0.026471034 0.11893852
0.05369083 0.07567754 -0.052782603 -0.081040494 -0.07694135 -0.0031957014 -0.06305498 0.036439825
-0.009048543 -0.079837255 0.064198285 0.019144362 0.057310157 -0.17995499 0.13754746 -0.09668232
0.25131163 -0.06959381 0.09286413 0.0108640855 -0.0057796217 0.055618066 0.008528853 -0.0053807446
0.08581161 0.12315432 -0.005379793 -0.015233815 -0.03859245 -0.14582834 0.09843258 0.04531789
-0.10018834 -0.02390659 -0.027648022 -0.06419818 0.037474856 0.030883498 -0.0022090832 -0.044743516
-0.09843602 0.04779676 0.029995803 -0.0067804083 0.10075083 0.07493672 0.028039545 -0.0037413277
0.07800144 -0.019309746 0.033104856 -0.033232212 0.065352805 -0.058353327 0.004179231 -0.030104559
0.15526958 0.053140778 0.024032347 0.0038521588 0.03928236 0.11930074 -0.02377826 -0.0498375
0.029030759 0.09039776 -0.024395647 0.154322 0.0685675 -0.07321654 0.11303412 0.08194669
-0.0035722735 0.050629776 0.04788013 -0.006765601 0.16032824 -0.045342162 0.04557539 0.039625026
-0.1881019 0.096774355 -0.07908953 -0.002813371 0.07165158 0.19728951 -0.118969604 0.01191351
0.09154235 0.05686187 -0.033886295 0.009727404 0.11876615 0.089222685 -0.034209974 -0.015317807
-0.14299254 0.04814211 -0.22572055 -0.015093744 0.033529148 0.029455284 -0.23117104 0.0014179372
0.09377823 0.079945974 -0.12224482 0.023225302 -0.024842326 -0.085131325 -0.01000087 0.013455753
-0.0012927069 -0.03231106 0.28840822 0.0052412874 0.08312161 0.10594439 -0.007808469 0.009790812
-0.15668641 0.09179442 0.12330464 0.13756625 -0.09399158 -0.010305071 -0.009092099 0.011021805
0.030938506 -0.087211244 0.14941959 -0.01824584 0.10917185 -0.017256849 0.10035863 0.057274137
0.10718039 -0.005164318 0.056176152 0.09200472 0.09987463 0.02431416 -0.07740068 0.09159595

fc2.bias f4 [256]
00000000: b6da 65bd d5f1 363d 66a1 dfb1 6093 52bc
00000010: 36dc 903c 2568 0b3d 2bcc 8b3d ba73 17be
00000020: 2854 b4b8 42d3 2bbd 6239 bc3b d9be 0f3d
00000030: 7805 393d 8c6c a8bd 88f7 7c3d 8b78 03bd
00000040: 1b71 013e 7854 77bd b7e1 3f3d bdce 10bd
00000050: df80 30bc acc6 9b3c 8f34 303d c85c 983d
00000060: e39b c0bd 7f71 a23d cc44 263e e2cc 8d3d
00000070: 7cf4 92bc e9cc 583d 5237 62bd 5ef7 d33d
00000080: 7081 fc3d babb 853d ab1c d8b2 27e8 8ebb
00000090: 7a1b 14bd 81b8 d0ba 9301 e939 e301 b7b1
000000a0: 2069 833d d5db b63c e17a c8ab 42d1 dd3d
000000b0: 06ec 7d3d 2bf9 1e3e 2286 84bd 2645 9c3c
000000c0: 16eb 713e 0303 523c b7e3 b73d 9bba 3ab6
000000d0: 3b15 0d3d 360a c03d e721 113d e3cc 0f3e
000000e0: 464f 153c 96dd 89bd cd24 e33d 1524 023d
000000f0: 8e44 1d3d 0ffd 0abd b0c3 013e a053 a13d
00000100: fbe5 8ebd dac0 b13d 19c8 0a3d 14a9 743d
00000110: 5e3f 1abc 5c7b d0bd cc11 f13c bf58 87ba
00000120: 5bdb 5e3e 740e b339 da73 e13d 15c1 8abd
00000130: 9d42 8d3d b2ba d13d f9ff 55bb 7c66 7c3b
00000140: 1ef0 26bd 1df9 ec3d c700 a53d 9b90 563c
00000150: b4e5 153d 2c3e 0a3c ca9e c2bd 1e24 1abe
00000160: c8f0 89bc 3864 e8bc 390c 583e 9994 18bd
00000170: 2994 ee3c 2887 b0ba 56b7 e53d cc84 63bb
00000180: 0ddb 82bd 72df febb d819 b93c 4e4f 9b3d
00000190: 0603 4cbc d432 44bd 35c1 14bd 6bba 173e
000001a0: d1c2 373d 6af8 043e 8bac 3c3b dd1c dbbc
000001b0: 8b13 e03c 41cb 943d 19ad ed3d f1ee 443d
000001c0: ba82 d63d b73b d93c ee0b 083d 6b50 43bc
000001d0: 4544 a13d 7f07 3c3d b003 fa3c f750 983d
000001e0: d56b 623e 5236 113c 45fc e63d d5c9 d73c
000001f0: d882 e6bd 610a 6b3d 1040 c83d 696a 38bd
00000200: 34fb 023a 3c33 f43d 45fe df3d 41da 123d
00000210: fae4 373e 3833 a43d 9632 583b 3e55 163e
00000220: 094c 4cbd 3961 68bc 01b3 44bd ab81 233d
00000230: a3fb 9bbd 0320 733d c474 443c a7e0 4c3e
00000240: 26c7 673d 1810 c13c cccb 873d e98c dcbd
00000250: 20ef 8e3d ab0b ffbc 6cc8 1e3d e6ce 113c
00000260: fcab 233d 4288 ee3d f017 b7a0 8fe7 183d
00000270: 0678 383c be4f 1f3d b899 0eb7 efee f43c
00000280: ff4c 01be b714 63bd cea1 e03d 1081 d7ba
00000290: 57f1 9f3c 8f37 d33c 5291 26bd d8a2 233e
000002a0: 6c07 91bc 974c fb3d 0bfb 5dbd 2802 76bd
000002b0: 22bb 033e 3727 37bc 76ea 52bd aba2 94bd
000002c0: 0af9 7dbd bc57 7b3d 11dd fdbb 3e36 bfba
000002d0: 9ef2 633e 1f3f 10bd 7dfb 8f3b d0fd 06ba
000002e0: 504f 68bd e675 1a3e 8644 75bd 0651 163e
000002f0: aba4 1cbb 00b1 bc3d 7496 49bd c1ec ab3b
00000300: 0e91 bcbd 9613 e53c 3ee1 833d 2538 5abd
00000310: 300b 0cbd 7d31 213d 59d9 ce3c 8bff 263e
00000320: a0c3 0cbd 29a7 88bd 3667 29bb 47da 09be
00000330: a422 96bd 8c23 10bc e209 a23d 6e3b 52bb
00000340: c9a3 6b3d 92ca 1b3d 258c 0f3e f67d c6ba
00000350: f514 7eb8 e595 fa3a fda6 bebc e020 9ebc
00000360: 28dc b23d 2b1d cd3d 7ece 093d 5d42 193d
00000370: 4497 8a3d 54c0 e3bc db2e ab3d 4883 aabd
00000380: 11d4 cd3d d997 17bc 432a c5bd 2aa3 92bd
00000390: 32a7 c2bc 641d af3c 731d 533d a4df 5d3e
000003a0: 6156 91bc 3019 9f3d 6b96 963b f25b 86bd
000003b0: f5b9 c63d 0773 1dbc bce4 6dba 8844 b9bc
000003c0: f1ff 393e ea24 b4b7 7faf 313e dfc4 063e
000003d0: cbf4 fe3d 4bb6 233d 99e4 80ac 1b1c 953c
000003e0: d360 363e ac4a 393d 44bb e4bd 2812 6ead
000003f0: feb3 123e 50d5 15bd 7bc5 2e3e 9e40 9f3d
-0.056116782 0.044664223 -6.508503e-09 -0.01285252 0.01768313 0.034034867 0.06826051 -0.1479024
-8.598744e-05 -0.041949518 0.0057441453 0.035094116 0.04517123 -0.08223829 0.0617595 -0.03209738
0.12640803 -0.06038329 0.046846118 -0.03535341 -0.010772913 0.019015633 0.043018874 0.074395716
-0.09404733 0.07931804 0.16237181 0.06923844 -0.017938845 0.052929793 -0.05522854 0.10349916
0.12329376 0.065299466 -2.5158746e-08 -0.004361171 -0.036159016 -0.0015924127 0.00044442396 -5.3262155e-09
0.064165354 0.022321621 -1.424496e-12 0.108309284 0.061992668 0.15524738 -0.06470896 0.019075941
0.23624834 0.012818101 0.0897898 -2.7824778e-06 0.034444075 0.093769476 0.035432722 0.14043002
0.009113139 -0.06731717 0.110910036 0.03177269 0.038395457 -0.03393274 0.12672305 0.07877278
-0.06977459 0.08679362 0.033882234 0.059731558 -0.009414522 -0.10179779 0.029427432 -0.0010326131
0.21763365 0.0003415231 0.11008425 -0.06775109 0.06897471 0.102406874 -0.0032653792 0.0038513234
-0.040756337 0.11570952 0.08056789 0.013096 0.036596015 0.0084376745 -0.09502943 -0.1505284
-0.016838446 -0.0283681 0.21098413 -0.03725109 0.029123383 -0.0013468014 0.11216609 -0.0034716604
-0.06389437 -0.0077781016 0.022595331 0.075834855 -0.012451893 -0.047900036 -0.03631707 0.14817207
0.044863526 0.12985387 0.0028789367 -0.026747162 0.027353069 0.0726533 0.116052814 0.048079435
0.10474153 0.026517732 0.033214502 -0.011921029 0.078743495 0.045905586 0.030519336 0.07437318
0.22111447 0.008863049 0.11278585 0.026341358 -0.11255425 0.057382945 0.09777844 -0.045023356
0.00049965386 0.11923835 0.1093717 0.035852674 0.17958441 0.08017582 0.0032989136 0.14680955
-0.0498772 -0.014183336 -0.048022274 0.039918583 -0.07616355 0.0593567 0.01199073 0.20007573
0.056586407 0.023567244 0.06630668 -0.10769064 0.06979203 -0.031133493 0.038765356 0.008899426
0.03995894 0.11647083 -3.1017246e-19 0.037330206 0.011259085 0.038894407 -8.49965e-06 0.029899089
-0.12627028 -0.055439677 0.10968362 -0.0016441662 0.01952426 0.025783328 -0.040665932 0.15980089
-0.017703734 0.12270468 -0.05419449 -0.06006065 0.12864354 -0.011178783 -0.05149313 -0.07257589
-0.06200508 0.061362967 -0.0077473004 -0.0014588309 0.2226052 -0.035216447 0.0043939934 -0.00051495153
-0.056716263 0.15084037 -0.059879802 0.14679345 -0.002390186 0.092134476 -0.04921575 0.005246729
-0.092073545 0.02796344 0.06439446 -0.0532762 -0.034190357 0.039353836 0.025250124 0.1630842
-0.03436625 -0.06672508 -0.0025848872 -0.13462172 -0.07330826 -0.008797538 0.07912041 -0.003207888
0.057529245 0.038034983 0.14018305 -0.001514374 -6.0577837e-05 0.0019118158 -0.023272986 -0.019302785
0.08733398 0.10015329 0.033644192 0.037416805 0.06767133 -0.02780167 0.08358546 -0.08325821
0.10050214 -0.009252512 -0.096272014 -0.07160027 -0.023761366 0.02137632 0.051541757 0.21667343
-0.017741384 0.07768476 0.004595568 -0.06560506 0.09703437 -0.009609944 -0.00090749166 -0.022615686
0.1816404 -2.1474862e-05 0.17352103 0.13161038 0.12449034 0.03996877 -3.6633582e-12 0.018201878
0.17810373 0.04523723 -0.111685306 -1.3532765e-11 0.14326474 -0.036580384 0.1706752 0.077759966

policy.weight f4 [127, 256]
00000000: 07bb c0bc 65d6 bf3d 4089 0080 7a71 c1bd
00000010: 8b92 013d 265c 973d dea1 413e a766 aabb
00000020: a289 0080 322b 9d3d 3ce1 54bc e21d edbc
00000030: 999a dd3c 53eb f93c 37ff c13d bc3c 363d
00000040: f31c 963c dcd5 5a3c c5d8 1cbc c74e a43d
00000050: e8d4 203c 3723 ac3d 89a9 03bd 0c27 5e3d
00000060: 32fc 823d 0247 4d3d 4f71 f1bd 1b93 a3bc
00000070: 57a8 e53d fb56 ef3d 9679 67bd 91ec 00be
00000080: 6f00 223d 7a43 2d3d 0293 9a32 1db4 423d
00000090: 330d 72be 03bc 343d b2be a63c 7321 f837
000000a0: e4c6 cf3c 1801 b4bd 412b 81af 0993 a63d
000000b0: 9649 37bd 32ec cf3d bf7f 3c3b 6414 d93d
000000c0: 6f24 e03d 6b1e 9dbd 338b 333d ed8c 0080
000000d0: 5542 873d 7062 46bc 55b0 e43d 1e94 563d
000000e0: fcd9 ac3c b4ba ae3d 21e7 933d e54d 093d
000000f0: cd91 c03d 5b50 f03d 8b77 0d3e 9275 a73c
00000100: ecd2 81bd bfcb f13c 48a4 103d 81a1 903d
00000110: 5754 33bd 4672 41bd 11c5 80bd 49db b13d
00000120: 95c6 4e3d 2d61 0f3d 12b2 4dbd dc3e 8abd
00000130: 9881 b23d f592 b9bc 7b4b 00b9 a782 a7bd
00000140: e927 bb3d d3d9 f33c 4769 313d 9775 a2bd
00000150: ea7b 383e 0585 973c 4aeb 373e 74db 173d
00000160: 6375 dc3d cade 003c 9ea8 823d 6a40 1fbc
00000170: 82bc 10bd 1d3a 9f35 0d3b 053e 3ccd 73b9
00000180: 42d5 98bd c972 b7bd c08a a13d e12c 90be
00000190: 7bf3 af3c 882e b73c 98f4 c03d 08bd 90bd
000001a0: ceb6 64bd 7228 fa3d a803 903d 28ce 713d
000001b0: 86ae 5d3d d2e2 49bc 1186 e83c b2f5 f83c
000001c0: a779 09be f2c8 2e3e f85c 853d ce92 91bb
000001d0: 6279 343d 6ee3 e7bd 2391 40bb f728 0a3e
000001e0: 1778 d23d f3bd 293d 3454 c83b 15f8 f23c
000001f0: 694a b2bc 0082 c73d f4b5 1e3e e329 f63c
00000200: aee5 a3bd 5df2 cebe 1e8d c33d 68d0 b33c
00000210: 1118 0ebe 04c2 e7bc f7c1 733d ac91 193e
00000220: 19ab 023d 9b92 473d cc54 853b e7ba 9ebc
00000230: 00e7 84be 2ded 273e 801b f63c 51d7 62bd
00000240: a6f3 b33b cf57 313d 4eff f6be a503 29bd
00000250: 33b5 8e3d df4b ab3d 8994 ae3d db2d 7c3d
00000260: bc7f 703c 415c 21bf 3f93 0080 81bc 4f3e
00000270: 9efb 85bd 51fe b63c d64a 1c3c 4adc 30bf
00000280: a4c3 56ba ab90 ed3d fc88 523c 5b55 16b3
00000290: 87a9 413d a45b df3d 9ca2 833d 5207 733d
000002a0: 51f4 c23c b4b2 8b3b 0db8 7b3d abe9 3fbd
000002b0: d160 6c3d 5934 01bc 8e3c d03c 966f 103d
000002c0: 6130 8bbd a9d5 cabd f162 c9bd a74d 013b
000002d0: 42c1 083d 22ad 06be cf8a 903c f4f3 c6bd
000002e0: a204 1abd 450b de3d 9d4a ef3d c7ba a63d
000002f0: aefe 951d 647c 273d 42a0 873d 1e06 163d
00000300: 24ec aebb 09cf 893c 67f0 d23d c201 c43d
00000310: d7b8 c43c c3cc 663c fd7d ae3c a093 42bc
00000320: 15b9 db3d 7aac 2ebd 9b45 fb3a 19ab acbd
00000330: 0739 79bc a748 5bb7 864e c73d 2902 a83d
00000340: b7ca f2bc 6565 073e e250 523c d6ee cdbb
00000350: c756 883b 3f6d 3abd a0f2 d0bd b255 72bc
00000360: f82e 15be 9ab6 efbc 277e 733d 840d ca3d
00000370: 9a11 c93d fa5b 923d 4df3 ed3d 45cd 7f3d
00000380: 5891 8ebe fccc 50bd e615 d93c cd0c ae3a
00000390: 31d5 8b3b d7cf 25bd f6ee 8b3d c0ce 223e
000003a0: e15d 9f39 fb55 023e ed04 2cbc 6b43 89bc
000003b0: b09c e3bc 4348 4bbb 4686 91be b306 003e
000003c0: 8f10 3a3d d38a 62ba 7d49 be3d 87b2 53bd
000003d0: 60fa b43c fea5 90be b18d 0000 cd1a 963d
000003e0: b30d 4abd 1538 aabe 2ca1 c73d b229 f0ba
000003f0: eb04 123e 22f0 ab3d 5da9 0a3e 946a 61bd
-0.023526682 0.093670644 -4.9236e-41 -0.09445472 0.031633895 0.07390623 0.18909404 -0.0052002254
-4.9373e-41 0.076742545 -0.012993153 -0.028944913 0.027051257 0.03050772 0.094725065 0.044491515
0.018324351 0.013356652 -0.009573166 0.08022838 0.009816386 0.08405154 -0.032144103 0.054236457
0.06395759 0.050116546 -0.1178919 -0.019967606 0.11213749 0.11686512 -0.056512438 -0.12590243
0.039551195 0.04230068 1.7994811e-08 0.04753505 -0.23637848 0.044124614 0.020354602 2.957948e-05
0.025363393 -0.08789271 -2.3495697e-10 0.081335135 -0.04474791 0.101524726 0.0028762666 0.10599592
0.10944449 -0.076718174 0.043833923 -5.0555e-41 0.06604449 -0.01210843 0.11166445 0.05238735
0.021100037 0.085317045 0.07221819 0.03352155 0.09402809 0.117340766 0.13815133 0.020441804
-0.06339058 0.029516099 0.03531292 0.070620544 -0.043781605 -0.04722812 -0.062875874 0.086844034
0.05048235 0.035004783 -0.05021865 -0.06750271 0.08716124 -0.022653082 -0.0001223515 -0.08179217
0.09138472 0.029766953 0.04331329 -0.07932585 0.1801602 0.018496046 0.1796085 0.03707452
0.10764577 0.007865617 0.063798174 -0.009719947 -0.035336025 1.1863336e-06 0.13010807 -0.00023250742
-0.07462551 -0.089574404 0.078877926 -0.2815924 0.021478405 0.022361055 0.094216526 -0.07067305
-0.0558384 0.122147456 0.070319474 0.059034497 0.054121517 -0.012322145 0.02838424 0.030390594
-0.13425313 0.17068842 0.06511873 -0.0044425493 0.044061072 -0.11322676 -0.0029383383 0.1349219
0.102768116 0.041440915 0.0061135534 0.02965931 -0.021763997 0.097415924 0.15499097 0.03004927
-0.08002792 -0.40419284 0.095484 0.021949962 -0.13876368 -0.028290756 0.05951115 0.14996976
0.031901453 0.0487238 0.0040689465 -0.019376231 -0.2595749 0.16399069 0.03004241 -0.055381123
0.0054916916 0.04329663 -0.48241657 -0.04126324 0.06968155 0.08364081 0.085244246 0.06156717
0.014678892 -0.63031393 -5.2822e-41 0.20286752 -0.06542133 0.022338064 0.009539327 -0.69086134
-0.0008192605 0.11599859 0.012850042 -3.5002227e-08 0.047280814 0.10906151 0.064275 0.059333153
0.02379814 0.0042632464 0.06145482 -0.046853703 0.05770952 -0.007886016 0.0254195 0.035262667
-0.06796337 -0.09904034 -0.09833325 0.0019730122 0.03338743 -0.13151982 0.017644314 -0.09714499
-0.037602074 0.10841993 0.11684153 0.08141094 3.9703304e-21 0.040890113 0.066223636 0.036626928
-0.0053382087 0.016822355 0.10299759 0.09570648 0.02401392 0.014086905 0.02130031 -0.011876017
0.10728661 -0.042644955 0.0019170524 -0.08431072 -0.01521135 -1.3070333e-05 0.09731774 0.08203537
-0.029637678 0.13222273 0.012836667 -0.006284575 0.0041607353 -0.04551434 -0.10202527 -0.014790939
-0.14568698 -0.029261876 0.05944648 0.09865859 0.0981781 0.071464494 0.116186716 0.06245162
-0.27845263 -0.05097674 0.0264997 0.0013278961 0.0042673578 -0.040481415 0.068326876 0.15899181
0.00030396788 0.12728111 -0.010499221 -0.01675578 -0.027784675 -0.0031018413 -0.28422755 0.12502556
0.045425948 -0.0008641902 0.092913605 -0.05168393 0.022092044 -0.28251642 5.0829e-41 0.073293306
-0.04932947 -0.33245912 0.09747538 -0.0018322973 0.14259689 0.08395411 0.1354117 -0.05503328

policy.bias f4 [127]
00000000: ae86 d43c 125e 4cbd 53a1 803d 0f24 ae3c
00000010: 8d08 0cbc 71cc 9a3d c3fc 46bd 4b3a b53d
00000020: f9dc 5cbd 1c33 41bc 7122 9e3d 9791 263b
00000030: 35aa b63d d45b 0e3d 3dde 123d 6bd2 95bc
00000040: dd15 593d 7afd 253d ec95 7a3d a450 413d
00000050: f038 93bc 3e2c e33d 1868 e4bc e56e 5b3c
00000060: 7a6b bc3b 69c3 1fbd 3250 e23c 3cef 81bd
00000070: 1ce1 bfbc e79d b5bc 7446 aa3b 33d1 16bd
00000080: acca b43d 57e6 23bd 6784 aebd 98c6 d2bc
00000090: aad7 1b3d a05f 61bd 60cc 403e 6a47 183d
000000a0: e95a d23c 9043 86bd 6dd2 c03c 70be 33bd
000000b0: c6ca 61bd 9314 203d f6de 4abd 786d ab3d
000000c0: 1acf cd3d a348 d0bd 8111 033d 4cf8 b9bd
000000d0: d2ec 0c3b aed0 22be edd0 19bc 7732 ccbd
000000e0: f302 9ebc 3df0 adbd 3973 82bd d5fe 82bd
000000f0: 1a03 583c 382d 80bd 60c8 bfbc 5f17 e7bc
00000100: d55d df3b 7126 45bd 7736 90bb e679 67bd
00000110: 045d fd3b 8ba7 80bb 86bd 57b7 92a9 79bd
00000120: e07f dbbc 9a6a 26bb 41f8 00bd d14f 0dbd
00000130: 291d 85bc ef75 753c 5136 ccbc c32a 4a3c
00000140: dde1 20bd 9394 15bd 4490 d6bb dded 52bd
00000150: 3146 b8bc 99aa 16bd 6294 913b fa3a 04bd
00000160: 18ec ea3b 282b a2bb b245 b23a 6ec2 15bc
00000170: 531b 313b 6add 71bd fa17 9d3c ee9a 1abd
00000180: 0bd9 59bb 3879 1a3c 3423 b2bc ed75 95bc
00000190: 5118 e3bc c174 39bc 1179 d7bc 4485 843c
000001a0: 3b1f b33c bca8 12bd 4cee bd3a 169f 87bc
000001b0: 6a31 4dbd f09b 84b9 4f75 79bc 164a 43bd
000001c0: 34a1 ebbb e269 56bd 1a83 7e3c 6938 16bd
000001d0: 71de 9fbc 9a89 5cbd b811 a03a fdd9 64b9
000001e0: e886 553b d8f0 e2bc b8eb 3f3b 22fb 97bb
000001f0: 71eb 2cbd ce38 6fbc d5d2 6c3c
0.025943127 -0.0498944 0.0628077 0.021257428 -0.008546961 0.07558525 -0.048580896 0.08849009
-0.053921673 -0.011791971 0.07721413 0.0025416368 0.08919183 0.034755543 0.035856474 -0.018288812
0.052999366 0.040524937 0.061178133 0.047196046 -0.017971486 0.11092423 -0.027881667 0.013393139
0.005750117 -0.039004717 0.02762613 -0.063444585 -0.02342277 -0.02217002 0.005196387 -0.0368206
0.08827719 -0.04001459 -0.085213475 -0.025729463 0.03804747 -0.055022836 0.18827963 0.03717748
0.025678115 -0.06555855 0.023537839 -0.043882787 -0.05512502 0.03908212 -0.04952904 0.08370489
0.10049267 -0.10170104 0.031999115 -0.09080562 0.002150346 -0.15899917 -0.009388191 -0.09970563
-0.019288516 -0.084930874 -0.06369633 -0.063962616 0.013184333 -0.06258625 -0.023410976 -0.028209386
0.0068166056 -0.048132364 -0.004401024 -0.056512736 0.0077320356 -0.0039262227 -1.28591255e-05 -0.06095273
-0.026794374 -0.002539313 -0.031486753 -0.034499947 -0.016249256 0.014981731 -0.024928244 0.012339297
-0.0392779 -0.036518645 -0.0065479595 -0.051496375 -0.022494407 -0.03678379 0.0044427374 -0.032282807
0.007169258 -0.0049489923 0.0013601093 -0.009140594 0.0027024343 -0.059049048 0.019176472 -0.03774541
-0.003324094 0.009428315 -0.021745302 -0.018244708 -0.027721556 -0.01131934 -0.026302846 0.016176827
0.021865478 -0.03580545 0.0014490574 -0.01655535 -0.050095953 -0.00025293184 -0.015225722 -0.047678076
-0.007190848 -0.05234707 0.015534187 -0.03667489 -0.019515248 -0.053842165 0.0012212312 -0.00021824981
0.003258163 -0.027702734 0.0029284786 -0.0046380917 -0.042216722 -0.014600946 0.014454563

value.weight f4 [1, 256]
00000000: 673c 003e ad69 d43d e102 c219 7abf 4bbd
00000010: a99b d9bd 6de1 913d 9a86 e5bc 5f22 3a3d
00000020: 308a 0080 3014 84bd cb89 88bd 2c09 15bd
00000030: 23a0 d93d d7bf cdbd 340d 863d 803d ddbd
00000040: 8d58 af3d b4ea 11be ce71 5f3d 89da bebd
00000050: 242c e7bd c27b 12be c68a 07bd e83e b1bd
00000060: 1bc9 8c3c 8960 823d ef3c 49be f80c 94bd
00000070: 5a22 363d 8244 0abe 35c9 32bb bb4e 133e
00000080: 8b4d 823c 27d6 d93d 24b3 f937 dbb9 1b3d
00000090: 059d 93bd 3cd8 2ab9 b221 e4bd 7173 b7ba
000000a0: 9b25 a83d 3896 c4bd ce35 97b9 2615 8dbd
000000b0: aa0f 1c3e 0e7e 013e da4d cbbd b977 c9bd
000000c0: c625 5f3c 0bd5 8f3d 6ad8 c33d 7789 0000
000000d0: 0bdd 343e 6d30 503e 5130 33bd 4d37 2ebe
000000e0: 1f27 2a3e 5bf8 0fbe d476 cb3b 3253 8b3d
000000f0: 5b23 a2bb a711 a93d 435c a53d 37b0 0fbd
00000100: 2248 9ebd 8910 133e 451d d73d d2ca a6bc
00000110: b4c9 4a3d 8570 22bd 26bf e43d 64e7 2a3b
00000120: 082c dabc 748d 303d 30b1 12be 3746 003d
00000130: d2c4 b1bc 41c5 283d 2fe4 e7bd 7d24 fb3d
00000140: 8222 b6bd 8594 bc3d ae95 79be 09e6 2cbc
00000150: ea5a d33d 433e b4bd 82ba f33d 224b 25bd
00000160: 731a 05be 6ab7 b63d 403b 54bd a283 f93c
00000170: f9f2 c43c 68b1 6633 4ea7 b0bd 6b25 e33b
00000180: e756 a7bd 8151 a13d 99c5 b4bd cffe bbbd
00000190: ee7e 09bc 1471 dc3d b315 18be 73b3 ad3d
000001a0: aef5 a6bd 2a00 723d c72e 26be 89bf e53d
000001b0: 8eae acbd a875 843d c58c a23c 5f55 46bd
000001c0: 88e4 15be 28fb 77bd 6a69 fa3d e680 66bd
000001d0: bed8 d9bd 8ccf 47bd b62e 96bd 966f 08bd
000001e0: fb5c 0b3e 22f0 02bd 119f 55bd 2a78 973b
000001f0: a29f a63d ede7 ee3d 33a1 35bb 0d3d db3d
00000200: a374 69bd 8fdf 063d b85d 233e c1a4 0f3d
00000210: 4810 d33c a9ca e4bd a464 40bc ec45 9abd
00000220: bc7e b0bd 5ff1 c7bd 5103 95bd 00c3 8b3c
00000230: 0a38 b13d 8790 663d 9b96 d5bd 0951 42bb
00000240: 6234 8a3d 10fa 94bd 2c64 3b3f c8e3 babd
00000250: 2f27 523c 5d87 943d 29e7 c03d f216 f4bd
00000260: b12a 91bd a45f bfbe a38b 0000 9953 d3bd
00000270: b316 1c3e 5755 d93c 07de 85bb c185 92bd
00000280: ba36 98bb 1641 c43c d52f 5f3d 9b77 f4b8
00000290: 04aa e33d f6b3 ffbd 7c35 c6bd cfd0 e33d
000002a0: bc84 ca3d f475 9a3d f285 ec3c 7785 793c
000002b0: 3e6a 753d b8ad a63d 9a6c 763d ff49 40be
000002c0: 447e 833d 951f ba3d 3657 6e3d b04c c5ba
000002d0: ebf5 e3bd e8de 0abd 6f4e b13c da35 5b3d
000002e0: bb50 e93d c99a bebd c569 11bd 74e9 abb9
000002f0: 4b95 abb7 1c63 0b3e 22da 653c d84e 0ebd
00000300: 0c4b b03d 4515 643c ef52 5dbd 2267 e9bd
00000310: d6e1 9fbd d610 dc3d 9561 423c bbaf 2c3e
00000320: 3193 cabd 9afb 9c3d 8ee9 19bb d9ec dfbb
00000330: 07d0 1fbe cff8 f93a c9f0 2abd 37cf 123e
00000340: 5b77 b5bc f0c6 1abe 02e3 36bd 0130 cd3a
00000350: 1ebf a6bb e71f e2bd 8f0c fb3d 6182 3c3e
00000360: f6fc 39bd 13a8 be3d 23bb bc3c 16c8 20be
00000370: d9ce 203c c701 c43d b643 193e 7025 c7bd
00000380: 005e b5bc 93b6 a9bc 1836 4a3d 3418 723d
00000390: 85ae 9d3c 2ca9 1bbe 6771 0a3e ff95 f6bd
000003a0: acf3 18be 524b 23be 6f3c 5d3d e37f a93d
000003b0: b2aa 04be e3e9 053e d3f9 8abd 60c4 8c3d
000003c0: 3674 8f3d 7268 28b9 6b01 dd3a c36b f33d
000003d0: e814 b2bd 2d70 1cbe fb90 2a2b af6b 5a3d
000003e0: 836f 043e 8728 d03d a5c3 53bd ecd9 6bbb
000003f0: 4d86 ed3c c7f3 b83c af52 c9bd 6720 eb3c
0.12523042 0.103717186 2.0060293e-23 -0.049743153 -0.10625393 0.07123075 -0.028018285 0.045442935
-4.9572e-41 -0.06449163 -0.06666907 -0.0363857 0.10626247 -0.10046356 0.06545487 -0.10802746
0.085618116 -0.14249688 0.054551892 -0.09319026 -0.11287716 -0.14305022 -0.03309133 -0.086545765
0.017185738 0.06366069 -0.1965215 -0.07229036 0.044466354 -0.13502696 -0.0027280573 0.14385502
0.015906116 0.106365494 2.9766532e-05 0.038019042 -0.072076835 -0.00016293017 -0.11139239 -0.0013996196
0.08210298 -0.095989645 -0.00028841052 -0.06888799 0.1524035 0.12645742 -0.099269584 -0.098372884
0.013619846 0.070230566 0.09562762 4.9313e-41 0.17662446 0.20330973 -0.04374725 -0.17013283
0.16616486 -0.14059584 0.006209234 0.068029776 -0.0049480624 0.0825532 0.08074238 -0.03508016
-0.07728602 0.14361776 0.105036296 -0.020360384 0.049508765 -0.03965809 0.11169271 0.002607786
-0.026632324 0.04310365 -0.14325404 0.031316962 -0.021700297 0.04120374 -0.113228194 0.12262819
-0.088933006 0.09208015 -0.24373505 -0.0105528915 0.10320075 -0.08800938 0.11900808 -0.040354855
-0.12998371 0.08921702 -0.051814318 0.030458275 0.02404164 5.3712398e-08 -0.08625661 0.006931951
-0.08170872 0.07876874 -0.08826751 -0.0917946 -0.008392079 0.107637554 -0.14852028 0.08481493
-0.081523284 0.059082188 -0.16228782 0.11218173 -0.08431731 0.06467754 0.019842515 -0.04842126
-0.14637959 -0.060542256 0.122271374 -0.05627527 -0.106370434 -0.048781916 -0.07333128 -0.03330954
0.13609688 -0.03196729 -0.05215365 0.004622479 0.08135916 0.1166533 -0.002771449 0.10705004
-0.056996 0.032928046 0.1595372 0.03506923 0.0257646 -0.11171467 -0.011742745 -0.07532868
-0.08617923 -0.09762835 -0.07276023 0.017060757 0.08653267 0.056290176 -0.10429116 -0.0029650351
0.067482725 -0.07274258 0.73199725 -0.09125477 0.012826725 0.07252381 0.0941909 -0.11918439
-0.07088221 -0.37377656 5.0092e-41 -0.10318679 0.15243034 0.026529951 -0.0040853056 -0.07154418
-0.004645196 0.023956817 0.054488976 -0.00011657105 0.11116412 -0.12485497 -0.0967817 0.111238115
0.09888598 0.07542029 0.028872464 0.015229574 0.059915774 0.08138603 0.060162164 -0.18778227
0.06420568 0.09088055 0.05818864 -0.0015052762 -0.111308895 -0.033903986 0.021643845 0.053518154
0.11392351 -0.09306867 -0.03550126 -0.00032789598 -2.0454308e-05 0.13612026 0.014029058 -0.03474316
0.08608064 0.013921087 -0.05403417 -0.11396624 -0.07806747 0.10745399 0.011864086 0.16863911
-0.09891356 0.07665177 -0.0023485157 -0.0068336544 -0.156067 0.0019071343 -0.041733537 0.14336859
-0.02215164 -0.15114951 -0.044650085 0.0015654565 -0.005088701 -0.11041241 0.12258255 0.1840911
-0.045407258 0.09309401 0.023038452 -0.15701327 0.009814941 0.095706515 0.14967236 -0.097239375
-0.02213955 -0.020716941 0.049367994 0.059105113 0.019248256 -0.15201253 0.13519822 -0.12040328
-0.14936703 -0.15946701 0.054012712 0.082763456 -0.1295574 0.13077502 -0.067859314 0.06873393
0.07004587 -0.00016060637 0.0016861385 0.11885788 -0.08695394 -0.15277167 6.0597333e-13 0.05332535
0.12933163 0.1016398 -0.051700253 -0.0035988046 0.028994704 0.02257718 -0.09830224 0.028701974
