model.onnx (onnx, 529886 bytes, 7 tensors)

fc1.weight f4 [256, 130]
0	0x3e8502cb	0.25978693
1	0x3e9efded	0.31053105
2	0x3bf9cecf	0.0076235305
3	0x3dd269d1	0.10274089
4	0xbdedf016	-0.116180584
5	0xbe46604e	-0.19372675
6	0xbe8e9ed1	-0.27855542
7	0xbce5212c	-0.02796992
8	0x3e611838	0.21981895
9	0x3dc5d607	0.09659963
10	0xbda2ac74	-0.07943049
11	0xbe8eece9	-0.27915123
12	0x3d83b056	0.06430118
13	0x3e240cb0	0.16020465
14	0xbd8a339a	-0.067481235
15	0xbe9ac854	-0.30230963
16	0x3c873d85	0.016508827
17	0x3d4f03c3	0.050540697
18	0xbcddbfb9	-0.02706896
19	0x3cde9040	0.027168393
20	0xbbb03493	-0.005377361
21	0xbe0dfa5a	-0.13865033
22	0xbe3189df	-0.1733775
23	0x3de2f7d0	0.11082423
24	0xbd09162d	-0.033468414
25	0xbe168c16	-0.14701876
26	0xbdcaf22d	-0.099094726
27	0xbda25e6b	-0.07928165
28	0x3e491956	0.19638571
29	0x3db57402	0.08860017
30	0x3d4f3741	0.050589804
31	0xbb8576c2	-0.004072995
32	0xbbf13dce	-0.007362104
33	0xbc7bafc3	-0.015361729
34	0x3e2bda3b	0.16782467
35	0x3dba4ab5	0.090962805
36	0xbd453970	-0.04815048
37	0x3d739c23	0.059475075
38	0xbc103ac7	-0.008803076
39	0x3d9342d8	0.07190484
40	0x3d755125	0.05989184
41	0xbd549e23	-0.051908623
42	0xbc128394	-0.0089425035
43	0x3e65b75e	0.2243323
44	0x3e86fa1a	0.26362687
45	0x3e0e94d0	0.13923955
46	0x3e5f7a5f	0.21824025
47	0x3d97d917	0.074144535
48	0xbc2761e8	-0.010216214
49	0x39809054	0.00024521595
50	0xbe10abc5	-0.14128025
51	0xbe0a79bc	-0.13523
52	0x3d9f9f4c	0.07794055
53	0x3d91e0df	0.07122969
54	0xbd3d71c3	-0.04625107
55	0xbdbf85e6	-0.09351711
56	0xbddaf15d	-0.10690568
57	0xbe052af8	-0.13004673
58	0xbd2355c0	-0.0398767
59	0x3de1032f	0.10986935
60	0x0000aa2f	6.105e-41
61	0x80008dae	-5.0825e-41
62	0x00009737	5.4246e-41
63	0x00008a93	4.9711e-41
64	0x8000a23f	-5.8203e-41
65	0x800097ad	-5.4411e-41
66	0x80008c76	-5.0388e-41
67	0x80008a77	-4.9672e-41
68	0x0000891f	4.919e-41
69	0x00008e11	5.0964e-41
70	0x000089a5	4.9378e-41
71	0x800088de	-4.9099e-41
72	0x80008a78	-4.9673e-41
73	0x80008eef	-5.1275e-41
74	0x8000898e	-4.9345e-41
75	0x80008fb8	-5.1557e-41
76	0x00008a21	4.9551e-41
77	0x80008f09	-5.1311e-41
78	0x00009253	5.2491e-41
79	0x80008cd7	-5.0524e-41
80	0x800088c4	-4.9062e-41
81	0x8000aec9	-6.2701e-41
82	0x00008c74	5.0385e-41
83	0x00008ce8	5.0548e-41
84	0x0000aa86	6.1172e-41
85	0x8000a8ce	-6.0556e-41
86	0x00008f37	5.1376e-41
87	0x80008ee1	-5.1255e-41
88	0x00008b5a	4.999e-41
89	0x80009e51	-5.6793e-41
90	0x8000abb6	-6.1598e-41
91	0x8000a8ee	-6.06e-41
92	0x80008a80	-4.9684e-41
93	0x00009534	5.3524e-41
94	0x00009901	5.4887e-41
95	0x80009215	-5.2404e-41
96	0x80008cd4	-5.052e-41
97	0x80009ae2	-5.5561e-41
98	0x80008b9f	-5.0087e-41
99	0x00008968	4.9292e-41
100	0x00009f41	5.713e-41
101	0x00008c1e	5.0265e-41
102	0x8000952a	-5.351e-41
103	0x00008e0a	5.0954e-41
104	0x8001bdcf	-1.59926e-40
105	0x80009a8c	-5.5441e-41
106	0x80008ad1	-4.9798e-41
107	0x80008ad7	-4.9806e-41
108	0x00008e8e	5.1139e-41
109	0x80008e55	-5.1059e-41
110	0x00008e1e	5.0982e-41
111	0x8000aa49	-6.1087e-41
112	0x80008f2b	-5.1359e-41
113	0x80008a38	-4.9584e-41
114	0x80008ddd	-5.0891e-41
115	0x00008ac4	4.978e-41
116	0x80008f66	-5.1442e-41
117	0x00008af7	4.9851e-41
118	0x8000afa5	-6.301e-41
119	0x000090f5	5.2001e-41
120	0x8001fd62	-1.82732e-40
121	0x000090b4	5.191e-41
122	0x8000afbc	-6.3042e-41
123	0x000089ec	4.9477e-41
124	0x80008c05	-5.023e-41
125	0x000088fd	4.9142e-41
126	0x8000af2c	-6.284e-41
127	0x0000a80b	6.0282e-41
128	0x80008ad9	-4.9809e-41
129	0xbe28747a	-0.16450682
130	0x3e93501e	0.28772062
131	0x3e95b869	0.29242256
132	0x3dc8289a	0.09773369
133	0xbe898e8e	-0.26866573
134	0xbd55e111	-0.052216593
135	0xbc3bd95f	-0.0114653995
136	0xbe35684d	-0.17715569
137	0xbe012ca1	-0.12614681
138	0x3e6705ea	0.2256085
139	0x3e16f272	0.14740923
140	0xbe463d97	-0.19359432
141	0xbdd63ee5	-0.10461215
142	0xbd293fe1	-0.041320685
143	0xbea074d3	-0.3133913
144	0xbed9d53f	-0.42545506
145	0xbe27de25	-0.16393335
146	0x3eccebb0	0.40023565
147	0x3ed39183	0.41321954
148	0x3e1b8c1d	0.15190168
149	0x3c8d3e88	0.017241731
150	0x3e276c9a	0.16350022
151	0xbe296b9d	-0.16544957
152	0xbe540fad	-0.20709105
153	0xbdb2b8dc	-0.087266654
154	0x3d38014b	0.044923108
155	0xbdb219f0	-0.086963534
156	0xbe06dff2	-0.13171366
157	0x3e3bc4a1	0.18336727
158	0x3e4e3331	0.20136715
159	0x3d8ef457	0.06980198
160	0x3dff303c	0.12460372
161	0x3da1d5e0	0.079021215
162	0xba8edefd	-0.0010900196
163	0xbe81425d	-0.25245944
164	0xbc9fe325	-0.01951749
165	0xbcea6c62	-0.028616134
166	0xbd52c707	-0.05145934
167	0xbd47ccc2	-0.048779257
168	0x3dbf5384	0.09342101
169	0xbe431df7	-0.190544
170	0xbec3453a	-0.38138753
171	0x3a7111bf	0.0009196065
172	0x3de354a3	0.111001275
173	0x3db20277	0.086918764
174	0x3d08984c	0.033348367
175	0x3c7b31c1	0.0153316865
176	0xbda31fb8	-0.07965034
177	0xbe0973b1	-0.13423039
178	0xbd635635	-0.055502135
179	0xbdb621ef	-0.08893191
180	0x3d1fbba1	0.038997296
181	0x3d251786	0.040305637
182	0xbcd18ce0	-0.02557987
183	0x3dcdb4d8	0.10044259
184	0x3e297026	0.16546687
185	0x3c8041e3	0.015656417
186	0x3dab3a75	0.08360759
187	0xbd90e552	-0.070749894
188	0xbe286f41	-0.1644869
189	0xbd1cd311	-0.038287226
190	0x80009218	-5.2409e-41
191	0x00009c83	5.6146e-41
192	0x00008f04	5.1304e-41
193	0x00008dfa	5.0932e-41
194	0x000088e2	4.9104e-41
195	0x0000a2db	5.8422e-41
196	0x00014572	1.16748e-40
197	0x800088db	-4.9094e-41
198	0x80008f87	-5.1488e-41
199	0x8000a822	-6.0315e-41
200	0x00008cd5	5.0521e-41
201	0x00008f21	5.1345e-41
202	0x80008eb8	-5.1198e-41
203	0x000094da	5.3398e-41
204	0x800088ca	-4.907e-41
205	0x00008c4b	5.0328e-41
206	0x80008c12	-5.0248e-41
207	0x80008c33	-5.0294e-41
208	0x000095ea	5.3779e-41
209	0x00009d60	5.6456e-41
210	0x000088c3	4.9061e-41
211	0x0000a664	5.969e-41
212	0x00008ba6	5.0096e-41
213	0x00008ca8	5.0458e-41
214	0x8000ae29	-6.2477e-41
215	0x800089b2	-4.9396e-41
216	0x0000a533	5.9262e-41
217	0x800094ec	-5.3423e-41
218	0x80009a72	-5.5405e-41
219	0x000092c8	5.2655e-41
220	0x00008c11	5.0246e-41
221	0x8000899d	-4.9366e-41
222	0x0000acac	6.1943e-41
223	0x00009f1d	5.7079e-41
224	0x80008da2	-5.0808e-41
225	0x8000ab80	-6.1523e-41
226	0x80008c82	-5.0405e-41
227	0x000097ab	5.4408e-41
228	0x00008df3	5.0922e-41
229	0x80008cda	-5.0528e-41
230	0x80008a01	-4.9506e-41
231	0x00008b7a	5.0035e-41
232	0x00009168	5.2162e-41
233	0x80008dd1	-5.0874e-41
234	0x80008ee8	-5.1265e-41
235	0x0000ac1a	6.1738e-41
236	0x00008ffa	5.1649e-41
237	0x00008cf5	5.0566e-41
238	0x80008ca9	-5.046e-41
239	0x80008a12	-4.953e-41
240	0x00008fb3	5.155e-41
241	0x8000a222	-5.8162e-41
242	0x00009586	5.3639e-41
243	0x000093f3	5.3074e-41
244	0x80009bc8	-5.5884e-41
245	0x00008ad5	4.9804e-41
246	0x000090fe	5.2013e-41
247	0x80008a63	-4.9644e-41
248	0x0000a879	6.0437e-41
249	0x0000921a	5.2411e-41
250	0x8000a0ef	-5.7732e-41
251	0x0000891a	4.9183e-41
252	0x00009839	5.4607e-41
253	0x00008d57	5.0703e-41
254	0x00009bbf	5.5871e-41
255	0x0000adb8	6.2319e-41

fc1.bias f4 [256]
0	0xbc5b0c55	-0.013369639
1	0x3df7dd9a	0.12102814
2	0x3e578d6b	0.2105004
3	0x3ed068b9	0.40704897
4	0xbe340651	-0.17580535
5	0x3eab16fa	0.33415967
6	0x3da285c0	0.07935667
7	0xbd04c39f	-0.03241312
8	0x3e3b7ca5	0.18309267
9	0x3dbd3d9c	0.09240267
10	0x3d5196b3	0.05116911
11	0x3e6b1217	0.2295612
12	0x3e3de3ae	0.18543884
13	0xbdd7d2d4	-0.10538259
14	0x3e516e7c	0.20452303
15	0x3e10bcf6	0.14134583
16	0x3e5242de	0.2053332
17	0x3e86568e	0.2623791
18	0xbea9ff9a	-0.3320282
19	0x3e054281	0.1301365
20	0xbe1c9ddc	-0.15294594
21	0xbe0139b9	-0.12619676
22	0x3d6d7cb8	0.05798027
23	0xbd1096f1	-0.0353002
24	0x3e1bf52a	0.15230241
25	0x3dc7a9f6	0.09749214
26	0x3e434223	0.19068198
27	0x3eb9effe	0.36315912
28	0xbd34c0d6	-0.044129215
29	0x3e4e4d36	0.20146641
30	0x3dc95966	0.098315045
31	0xbc84d6f7	-0.016215784
32	0x3df11a48	0.11772591
33	0x3e75cdde	0.24004313
34	0xbb0942d7	-0.002094438
35	0x3d76750d	0.060170222
36	0xbd41ea9c	-0.04734288
37	0x3e2e1c3f	0.17002963
38	0xbe498900	-0.19681168
39	0x3d73d17a	0.059525944
40	0xbd8bc12a	-0.068239525
41	0x3e4d527a	0.20050994
42	0x3d7cec09	0.06174854
43	0x3dc82008	0.097717345
44	0x3e10216d	0.14075251
45	0x3e279459	0.16365184
46	0x3e06a91e	0.1315045
47	0x3e8a6dd6	0.27036923
48	0x3e5db0b7	0.21649443
49	0x3e83b5f9	0.25724772
50	0xbcb3e0c7	-0.021957768
51	0x3e083686	0.13302049
52	0x3e19da91	0.15024783
53	0xbda5d1f8	-0.08096689
54	0x3dfff22b	0.12497362
55	0x3dd5421e	0.104130015
56	0x3ed2115f	0.41028878
57	0x3e3af5d0	0.18257833
58	0x3f2fb286	0.6863178
59	0xbc967f26	-0.018371176
60	0x3e489d18	0.19591177
61	0xbd775f4f	-0.060393628
62	0x3d8c3653	0.06846299
63	0x3e61c5cd	0.22048111
64	0x3e80c8b3	0.2515312
65	0xbd338c23	-0.043834817
66	0x3b6dccf3	0.003628549
67	0x3e10e678	0.14150417
68	0xbe511fed	-0.20422335
69	0xbcb9fe6b	-0.022704324
70	0x3defafc5	0.11703447
71	0x3ee1e5ca	0.44120628
72	0x3d2f954e	0.042866997
73	0x3ea8f0d1	0.32996228
74	0xba946179	-0.0011320553
75	0x3e0291f5	0.1275099
76	0xbd973095	-0.07382313
77	0x3e967b97	0.29391167
78	0xbdd0291f	-0.10164093
79	0x3b2d8f96	0.002648329
80	0x3e25986e	0.16171429
81	0x3deb195d	0.11479447
82	0xbd95debf	-0.07317876
83	0x3df3e29b	0.11908456
84	0x3e2affcf	0.16699146
85	0xbdb5ef96	-0.08883588
86	0xbd6ef6f9	-0.058341
87	0x3c801a24	0.015637465
88	0x3e912a7c	0.28352726
89	0xbdf96aed	-0.121785976
90	0x3e747deb	0.23876159
91	0xbdc2bea4	-0.09509018
92	0xbea8833a	-0.32912618
93	0x3cb14696	0.021640103
94	0x3e8b2087	0.27173254
95	0xbe168b30	-0.14701533
96	0x3e920f9e	0.2852754
97	0x3e41d5bb	0.18929188
98	0x3d85ff12	0.065427914
99	0x3cbb19e3	0.022839492
100	0x3e6ca9cf	0.23111652
101	0x3dbd4f04	0.09243587
102	0x3cb5c866	0.022190284
103	0x3e0d2b8a	0.1378614
104	0x3be4a56c	0.0069777276
105	0xbc56176c	-0.013067108
106	0x3e72236d	0.23646326
107	0xbe251269	-0.16120304
108	0x3e0c9030	0.13726878
109	0xbc8c6a03	-0.017140394
110	0x3e6eff8d	0.23339672
111	0x3e117833	0.14206009
112	0x3e0edae3	0.13950686
113	0x3e7e30a9	0.2482325
114	0xbd73cc0d	-0.05952077
115	0x3d8fce45	0.07021765
116	0xb31d8446	-3.6674713e-08
117	0x3e929d80	0.28635788
118	0x3e0229db	0.12711279
119	0x3e83c159	0.2573345
120	0x3e8954a2	0.26822382
121	0x3e439a51	0.19101836
122	0x3cfbebc9	0.03075208
123	0x3d48082b	0.048835915
124	0xbe4bc3eb	-0.19898956
125	0x3e043efc	0.12914652
126	0x3dfe2ec7	0.12411266
127	0xbb927afd	-0.0044702278
128	0x3e87ef25	0.2654964
129	0x3df4b6ef	0.11948954
130	0x3e005471	0.12532212
131	0x3d3022bc	0.043001875
132	0x3e79e497	0.24403606
133	0x3e067e42	0.13134101
134	0x3e05fc52	0.13084534
135	0x3eb8c7ea	0.36090022
136	0x3bc36e8d	0.0059641064
137	0x3e71cfd9	0.23614444
138	0xbe3819cb	-0.17978589
139	0xbe3a9b60	-0.18223333
140	0x3e3eb3c4	0.18623263
141	0xbdf3b23a	-0.118992284
142	0x3ec2a93a	0.38019735
143	0xbd11ac80	-0.0355649
144	0xbd89840a	-0.067146376
145	0x3d692e3a	0.05692885
146	0xbee13f1a	-0.43993455
147	0x3eb8f716	0.36126012
148	0x3e684295	0.22681649
149	0x3e8c563b	0.2740954
150	0x3dfb87c6	0.12281756
151	0xbe74a3c4	-0.23890597
152	0x3c170ab3	0.0092188595
153	0x3d52b491	0.051441733
154	0x3df8b11c	0.12143156
155	0x3db17800	0.08665466
156	0xbecb2083	-0.39673242
157	0x3dc7e345	0.09760145
158	0x3d9d4c93	0.07680621
159	0xbb224565	-0.00247606
160	0x3d890a73	0.06691446
161	0x3dba5979	0.09099097
162	0xbdc3a238	-0.09552425
163	0x3e1f8f3d	0.15581985
164	0xbe4fb2b7	-0.20283018
165	0x3e125414	0.14289886
166	0x3e6776a9	0.22603859
167	0x3cc5132b	0.024056992
168	0x3d6e13ce	0.058124356
169	0x3e41bb3c	0.1891908
170	0x3e59b3db	0.21260016
171	0xbdf4a4cb	-0.11945494
172	0x3e359085	0.17730911
173	0x3d5cc497	0.05389842
174	0x3dcac56a	0.09900935
175	0xbd597119	-0.053086374
176	0xbe8765a0	-0.2644472
177	0xbe8aa10c	-0.27075994
178	0x3e20fa7f	0.15720557
179	0xbdc02851	-0.0938269
180	0xbce13c94	-0.027494706
181	0xbe623f25	-0.220944
182	0xbe482a2a	-0.19547334
183	0xbd17d375	-0.037066896
184	0x3dfc7b2d	0.123281814
185	0x3e08b6b7	0.1335095
186	0xbdbc6bbf	-0.092002384
187	0x3e92a51c	0.28641593
188	0x3ea419f9	0.32051066
189	0xbc102a6f	-0.008799179
190	0x3e7c8e9f	0.2466378
191	0x3eabec53	0.3357874
192	0xbcded5b6	-0.027201515
193	0x3da60c0c	0.081077665
194	0x3e5ffa5b	0.21872847
195	0xbcb1cb70	-0.021703452
196	0x3df540db	0.11975261
197	0xbd667dc5	-0.056272287
198	0x3e9cd219	0.30629042
199	0x3e97c8e8	0.29645467
200	0x3e4c3950	0.19943738
201	0x3e389522	0.1802564
202	0x3e17bc1d	0.14817853
203	0x3e2e5fc7	0.17028724
204	0xbd496169	-0.049165163
205	0x3e87837f	0.2646751
206	0x3e81508e	0.2525677
207	0xbee22261	-0.44166854
208	0x3e8c3b44	0.27388966
209	0x3e8e050d	0.27738228
210	0xbe07afca	-0.13250652
211	0xbcf89986	-0.030346643
212	0x3e6a0446	0.22853193
213	0x3dcdfe84	0.10058311
214	0x3e08ca6b	0.13358466
215	0xbccb5a0c	-0.024823211
216	0x3e55020b	0.2080156
217	0x9e597cc0	-1.1513682e-20
218	0x3e350b5f	0.17680119
219	0xbe93fb53	-0.28902683
220	0x3e960be2	0.2930594
221	0x3eedee5c	0.46470916
222	0x3dfd9dbb	0.123836
223	0x3ddc960c	0.10770807
224	0x3e1cbfc4	0.15307528
225	0xbc265385	-0.010151749
226	0x3d9dc23d	0.07703064
227	0x3b8566ea	0.004071106
228	0xbe1f73ed	-0.15571566
229	0x3e938700	0.28813934
230	0xbecb09c6	-0.39655894
231	0x3cdcf837	0.026973827
232	0x3d122097	0.03567561
233	0x3eb479f0	0.3524928
234	0xbea2644c	-0.31717145
235	0x3e42cd91	0.1902373
236	0x3e57eb91	0.21085955
237	0x3d922a0e	0.071369275
238	0x3e353211	0.1769488
239	0x3d91b865	0.071152486
240	0x3e8ff646	0.2811758
241	0x3e1681d0	0.14697957
242	0xbdce2d79	-0.10067267
243	0x3dabc86b	0.08387836
244	0x3d8ced6e	0.068812236
245	0xbd1d8086	-0.038452648
246	0x3e1bd450	0.1521771
247	0x3e9ab6b3	0.30217513
248	0x3eff72f6	0.49892396
249	0xbd8738c9	-0.06602628
250	0x3e045c47	0.12925826
251	0x3e353c4a	0.1769878
252	0xbb037513	-0.0020058795
253	0xbdcd7a46	-0.100330874
254	0x3e97f1f6	0.2967679
255	0xbe3fa578	-0.18715465

fc2.weight f4 [256, 256]
0	0xbda5ea56	-0.08101337
1	0x3d8062f8	0.06268877
2	0x3e1d970e	0.15389654
3	0xbc656acd	-0.014002514
4	0xbdc6ce6e	-0.09707342
5	0xbd5da582	-0.05411292
6	0xbe3d15a5	-0.18465288
7	0x3a2436e9	0.0006264286
8	0x3d95f2b8	0.073216856
9	0x3beaa7e5	0.007161128
10	0x3e1cb5da	0.15303746
11	0xbb3bdaf0	-0.0028664432
12	0x3e5001d4	0.20313197
13	0x3cf87cde	0.030332979
14	0x3dd31067	0.10305863
15	0xbd2c4187	-0.04205468
16	0x3e28e26a	0.1649262
17	0x3e142bef	0.14469884
18	0xbd28718d	-0.041123915
19	0x3e0683a6	0.13136157
20	0x3cb233a4	0.02175314
21	0x3c9afd49	0.018919604
22	0x3c896d63	0.016775792
23	0xbd921493	-0.071328305
24	0xbe26c4b1	-0.1628597
25	0x3d745fd9	0.05966172
26	0xbe178bda	-0.14799443
27	0xbbd2ae0f	-0.006429441
28	0x3cce70cf	0.025200276
29	0x3e09767f	0.13424109
30	0x3dfd1341	0.12357188
31	0xbe0d6b3b	-0.13810436
32	0xbccb03ea	-0.02478214
33	0x3c25e340	0.010124981
34	0x3744dab8	1.1733435e-05
35	0xbdb0ea7f	-0.086384766
36	0xbe25d69c	-0.16195148
37	0xbd758474	-0.05994077
38	0x3d94d527	0.07267218
39	0xbd502f5e	-0.050826423
40	0xba078671	-0.00051698746
41	0xbd8ba5f5	-0.06818763
42	0x3e38e6b5	0.18056758
43	0x3dbeb150	0.093111634
44	0x3c47db76	0.01219832
45	0xbd811296	-0.06302373
46	0x3e72c8f0	0.23709464
47	0x3d40afc2	0.047042616
48	0x3b1d7841	0.0024027976
49	0xbe0beeb8	-0.13665283
50	0xbce5a4d9	-0.028032707
51	0xbd36a902	-0.044594772
52	0x3ce3358d	0.027735496
53	0xbe3297a0	-0.17440653
54	0x3d738843	0.05945612
55	0x3da5daa4	0.08098343
56	0xbe13bdf1	-0.14427926
57	0x3d2dabba	0.0424001
58	0x3e88e717	0.26738808
59	0x3d8311a2	0.063998476
60	0xbe0fd945	-0.14047725
61	0x3e92bc38	0.28659225
62	0x3d5d8714	0.0540839
63	0x3d9db87d	0.07701204
64	0xbdddd6c6	-0.108319804
65	0x3e758dad	0.23979826
66	0xbc9fbadb	-0.01949828
67	0xbdb0ee4c	-0.086392015
68	0xba1cfcd0	-0.00059886
69	0x3d47e87c	0.0488057
70	0x3e70bdb4	0.23509866
71	0xbd05ef9e	-0.03269922
72	0x3d7e494c	0.06208162
73	0xbe90c0bc	-0.28272045
74	0xbc9a3b99	-0.018827247
75	0x3d9a3958	0.07530469
76	0x3dfdf710	0.12400639
77	0x3e3d4daf	0.18486665
78	0xbd4c8ab6	-0.049936973
79	0xbe19580a	-0.1497499
80	0xbde0843b	-0.10962721
81	0x39ccc207	0.00039054474
82	0xbdb02fcb	-0.08602866
83	0x3da1b4db	0.078958236
84	0x3d2362fc	0.03988932
85	0xbd9dde32	-0.07708396
86	0x3d75766d	0.059927393
87	0xbd442230	-0.047884166
88	0x3dc465e8	0.095897496
89	0xba021c10	-0.0004963288
90	0x3c02fc7e	0.007994769
91	0xbdc5ca83	-0.09657767
92	0xbe121170	-0.14264464
93	0x3c248f07	0.010043866
94	0xbdce64ae	-0.10077797
95	0xbe7a80fc	-0.24463266
96	0x3cf2f040	0.029655576
97	0x3e91dd24	0.2848903
98	0x3dd022c1	0.10162879
99	0xbd96d1ca	-0.07364233
100	0xbdae43ed	-0.085090496
101	0x3e1be933	0.15225677
102	0xbcbd3e55	-0.023101011
103	0xbce023e5	-0.027360866
104	0x3e141d01	0.14464189
105	0x3c5f9aa3	0.013647708
106	0x3cee9a3c	0.029126279
107	0xbdae62e7	-0.08514958
108	0xbe1f9b33	-0.15586548
109	0x3d8e8c30	0.069603324
110	0x3d7e51e6	0.062089823
111	0x3d50e022	0.050995
112	0x3c65a2e8	0.014015891
113	0xbdd1be40	-0.102413654
114	0xbd094b45	-0.03351905
115	0xbe041959	-0.12900294
116	0x00008997	4.9358e-41
117	0xbdffe8a4	-0.124955446
118	0x3b6689b0	0.0035177283
119	0xbe4cb96b	-0.19992606
120	0xbda8c57d	-0.08240793
121	0xbc8061c4	-0.015671618
122	0xbb879948	-0.0041381456
123	0xbd4f449b	-0.050602537
124	0xbc248ea5	-0.010043775
125	0x3c811086	0.01575495
126	0xbe108803	-0.14114384
127	0xbc9af21b	-0.018914273
128	0xbcda1abd	-0.026624078
129	0xbe4384c7	-0.1909362
130	0x3d2e1abb	0.04250596
131	0xbe0cc2c7	-0.13746177
132	0x3e48f469	0.19624485
133	0x3d3e85cc	0.046514317
134	0x3dc12b99	0.09432144
135	0xbd945806	-0.07243352
136	0xbc5b6676	-0.013391128
137	0x3d3d4e23	0.046217095
138	0x3c8ec6b1	0.017428728
139	0xbdfe8ccd	-0.12429199
140	0xbd647ca5	-0.055782933
141	0xbba0ad50	-0.004903473
142	0x3e828a96	0.25496358
143	0xbe03b4a5	-0.12861879
144	0x3d92d183	0.071688674
145	0xbd8e9189	-0.069613524
146	0xbbed6734	-0.007244969
147	0xbc3f045b	-0.011658753
148	0x3cda9eec	0.026687108
149	0xbd381c45	-0.044948835
150	0xbcd7cce1	-0.026342811
151	0x3db536fe	0.088483796
152	0xbe6f539f	-0.23371743
153	0x3e1ff6a7	0.15621434
154	0x3e2b3ad2	0.16721657
155	0x3b259da6	0.0025270968
156	0xbd5129df	-0.051065322
157	0x3d9ed5a9	0.07755596
158	0x3d2dc53f	0.042424437
159	0xb644dacf	-2.933364e-06
160	0x3cdd2943	0.026997214
161	0xbdee78e8	-0.11644155
162	0x3cc5922c	0.024117552
163	0x3d5cc65e	0.053900115
164	0x3c97edef	0.018546073
165	0x3de43248	0.11142403
166	0x3d5ae0b6	0.053436957
167	0xbdefc221	-0.11706949
168	0x3e470ba5	0.19438036
169	0x3d6075c1	0.0547998
170	0x3d18171a	0.037131406
171	0xbdef5693	-0.116864346
172	0x3e17800d	0.14794941
173	0x3dad48ac	0.08461127
174	0x3daa0242	0.08301212
175	0xbd0cd333	-0.034381103
176	0xbe486650	-0.19570279
177	0xbd2820c8	-0.041046888
178	0x3df29394	0.118445545
179	0xbd2976a9	-0.04137293
180	0x3c349686	0.011022216
181	0xbdd059ff	-0.101734154
182	0x3d49aa21	0.049234513
183	0xbc8d3998	-0.017239377
184	0xbdd049f1	-0.10170353
185	0x3e4aeb30	0.1981628
186	0x3c0534af	0.0081302365
187	0x3db18a63	0.08668973
188	0xba1896d1	-0.0005820813
189	0xb800f9ff	-3.0750405e-05
190	0x3bc4a5d6	0.0060012145
191	0xbdc6a030	-0.09698522
192	0x3d241732	0.040061183
193	0x3d4857a2	0.0489117
194	0x3ddcf266	0.10788421
195	0xbd1e29c3	-0.038614046
196	0xbdc5debc	-0.09661624
197	0x3d6192aa	0.05507151
198	0xbe0c49ee	-0.13700077
199	0xbe2436ee	-0.16036579
200	0xbdb6f423	-0.08933284
201	0x3d955768	0.07292062
202	0x3dae7629	0.08518631
203	0x3d926dae	0.07149826
204	0xbd8411bd	-0.06448696
205	0x3e1947c1	0.14968778
206	0x3dd79241	0.105259426
207	0xbddf0cb5	-0.108910955
208	0xbd2fecef	-0.042950567
209	0xbdbc4a98	-0.09193915
210	0xbcaaa87a	-0.020832289
211	0xbdcb4b69	-0.09926493
212	0x3c94c24c	0.018159054
213	0x3d7f993a	0.062401988
214	0xbd48b131	-0.048997108
215	0xbdc727ec	-0.09724411
216	0x3d86aa12	0.06575407
217	0x80008992	-4.9351e-41
218	0x3c4ae9b7	0.0123848235
219	0x3d8c4da6	0.06850748
220	0xbe24aa9d	-0.16080709
221	0x3e05f4a5	0.13081606
222	0x3a9d671e	0.0012008881
223	0xbdbf3cab	-0.09337743
224	0x3dc2fe10	0.09521115
225	0x3d809c6b	0.06279834
226	0x3e3e4462	0.18580773
227	0x3d9b3203	0.07577898
228	0xbd47bdbe	-0.048764937
229	0x3db9f95b	0.09080764
230	0xbc6f469e	-0.014604239
231	0x3e01de65	0.12682493
232	0xbd6e6aa6	-0.058207177
233	0xbab00f20	-0.0013432242
234	0xbde09bb4	-0.10967198
235	0x3bc45c31	0.0059924354
236	0x3e0f41b5	0.13989909
237	0xbcba5efd	-0.022750372
238	0x3dbf0ef2	0.093290225
239	0x3cdf5112	0.027260337
240	0xbbb5e604	-0.0055511016
241	0xbdd3fb76	-0.10350697
242	0x3c920200	0.01782322
243	0x3d056e9a	0.03257618
244	0x3e48becb	0.19604032
245	0xbd875303	-0.0660763
246	0x3de238e2	0.11046006
247	0x3e72b3bf	0.2370138
248	0x3e35a1f8	0.17737567
249	0xbd8be908	-0.068315566
250	0xbde359b0	-0.11101091
251	0x3d5ea710	0.054358542
252	0xb3a1f34a	-7.541401e-08
253	0xbdec984e	-0.11552487
254	0xbb50085c	-0.0031743264
255	0x3e03e4e8	0.1288029

fc2.bias f4 [256]
0	0x3cf38c78	0.029730067
1	0x3dd1879b	0.10230943
2	0xbb349143	-0.0027552403
3	0x3d074146	0.033021234
4	0x3e04d9bf	0.12973689
5	0x3e6addbe	0.2293615
6	0xbbcab8db	-0.0061865873
7	0x3dd9daef	0.106374614
8	0xbbfb80f5	-0.007675285
9	0xaff47a45	-4.447022e-10
10	0xa8859272	-1.4829477e-14
11	0xb92aaa26	-0.00016275849
12	0x3e0048c4	0.12527758
13	0x3dbf144c	0.09330043
14	0x3d487650	0.048940957
15	0x3c9e4d60	0.019324005
16	0x3d0276ae	0.031851463
17	0xbde76913	-0.11299338
18	0x3d32b88d	0.043633033
19	0x3c8adcb8	0.01695095
20	0x3b33278a	0.00273368
21	0x3e277e64	0.16356808
22	0xbd9585e9	-0.07300932
23	0x3e28d071	0.16485764
24	0xab00c206	-4.5743997e-13
25	0x3deb8dc1	0.11501647
26	0xb989b44b	-0.00026265005
27	0x3da7d133	0.081941985
28	0x3d93f128	0.07223731
29	0xbc79b483	-0.015240791
30	0x3dc6bfc9	0.09704549
31	0x3d48a570	0.0489859
32	0xba860fbf	-0.0010228081
33	0x3d42cbf8	0.0475578
34	0xb4c948bc	-3.749209e-07
35	0x3cc8991b	0.024487069
36	0xbb61cb78	-0.0034453552
37	0x3d4a0826	0.049324177
38	0x3cafc099	0.021454142
39	0xb3bbf806	-8.752981e-08
40	0x3c8385f8	0.016055092
41	0x3da9de89	0.08294398
42	0x3ce33db5	0.027739385
43	0x3dd83c92	0.10558428
44	0x3d077eb2	0.03307981
45	0x3df3d7c0	0.119063854
46	0x3d3582ea	0.044314303
47	0x3d28b8a7	0.041191723
48	0x3e220f4b	0.15826146
49	0x3c807a52	0.015683327
50	0xbd8a976d	-0.067671634
51	0xaec0c1e6	-8.7655924e-11
52	0x3d26e330	0.040744007
53	0x3d9f0158	0.07763928
54	0x3cb5ecb7	0.022207601
55	0x3da1561c	0.07877752
56	0x9025d2a8	-3.2702796e-29
57	0xbc22b3ed	-0.009930593
58	0x3da260c6	0.07928614
59	0x3db01847	0.085983805
60	0x3d881053	0.066437386
61	0x3d4de5d4	0.05026801
62	0x3da5de56	0.08099048
63	0x3d928ef8	0.071561754
64	0x3e0eab78	0.13932598
65	0x3d371bf2	0.044704385
66	0x3d27afa3	0.040938985
67	0x3e164fd1	0.14678885
68	0xb2de90f9	-2.5910127e-08
69	0x3d216133	0.039399337
70	0xbd990751	-0.074720986
71	0x3e12891d	0.14310117
72	0x3d5ce825	0.053932328
73	0x3d6ce4b1	0.057835285
74	0x3c903235	0.017602066
75	0xbbe1b0fd	-0.0068875537
76	0x3cfca94c	0.030842446
77	0xbc16c958	-0.0092032775
78	0x3cf44fa9	0.029823141
79	0x3c9a869c	0.018863015
80	0x3d5e56db	0.05428205
81	0x3dd74337	0.10510867
82	0x3daf2a1e	0.08552955
83	0x3d8585cd	0.06519661
84	0x9eeeeb28	-2.5296489e-20
85	0x3e05c15b	0.1306204
86	0xbaf1310d	-0.0018401459
87	0xbbfbc90f	-0.00768388
88	0xbbbe2527	-0.0058027687
89	0x3bff70a0	0.0077954084
90	0xbb980c1b	-0.004640115
91	0x3dc87740	0.0978837
92	0x3dd31e55	0.1030852
93	0x3e21f236	0.15815052
94	0xad6a959b	-1.3334579e-11
95	0x3c5ec3c5	0.01359648
96	0xb9116bdc	-0.00013868458
97	0x3dd59995	0.10429684
98	0x3d9928c0	0.074784756
99	0x3d7100a9	0.05883852
100	0x3d6bd518	0.05757627
101	0xbc6c1a53	-0.014410573
102	0xbd0bc52f	-0.034123596
103	0x3c8ba35b	0.017045667
104	0x3d354c5b	0.04426227
105	0x3da434ab	0.08017858
106	0xbd262be2	-0.040569194
107	0xbd3cbd5e	-0.046079032
108	0x3d7d13fd	0.06178664
109	0xbd0f16ee	-0.034933977
110	0xbbcbea26	-0.006222981
111	0x3d365e54	0.044523552
112	0x3d88f3b0	0.06687105
113	0x3ca68f0d	0.020331884
114	0xbd5f9a06	-0.054590248
115	0xbde63fde	-0.112426504
116	0x3db2b3c4	0.08725694
117	0x3dedd91c	0.11613676
118	0x3c999cd8	0.018751547
119	0x3dc07139	0.093965955
120	0xbcf18b5f	-0.029485403
121	0x3d9a35f5	0.07529823
122	0xba0affe9	-0.0005302416
123	0xbd15cedd	-0.036574233
124	0xa960691a	-4.9829153e-14
125	0xbd5af8ee	-0.053460054
126	0xb466c96f	-2.14937e-07
127	0xbd765293	-0.060137343
128	0xbc4855b0	-0.012227461
129	0x3cdce692	0.026965413
130	0x3da94600	0.082653046
131	0x3e0a3fc1	0.13500883
132	0x3de20081	0.11035252
133	0x3d11836c	0.035525724
134	0x3e064d64	0.1311546
135	0x3d2cf93c	0.042229876
136	0x3db49732	0.08817901
137	0x3c028527	0.007966316
138	0x3dae5ffa	0.085144
139	0x3cf59353	0.029977476
140	0xa07b050d	-2.1262198e-19
141	0x3e268722	0.16262487
142	0xbce4b850	-0.027919918
143	0x3dab7309	0.083715506
144	0x3ce8b835	0.02840815
145	0x3db3da2d	0.08781848
146	0x3d874d1a	0.06606503
147	0x3e175476	0.14778313
148	0x3d8bda4e	0.06828748
149	0x3d8a5bbb	0.067557774
150	0x3dd3f59b	0.1034958
151	0xbd8583c4	-0.06519273
152	0xbbd29ee2	-0.0064276317
153	0xb1781a3b	-3.610366e-09
154	0x3d9b409f	0.07580685
155	0x3b92b2e2	0.004476891
156	0xbd8ecfa5	-0.06973199
157	0xbb223acc	-0.0024754284
158	0x94820fee	-1.3132929e-26
159	0x3b943ed4	0.0045240913
160	0x3df94994	0.12172237
161	0x3deaa96a	0.114580944
162	0x3ccc13b4	0.024911739
163	0xbca559c4	-0.020184405
164	0x3defa5e9	0.11701567
165	0x3e677d4d	0.22606392
166	0xb88d40a9	-6.735448e-05
167	0x3d2fb743	0.04289938
168	0x3df7ebaf	0.121055
169	0x3e009b53	0.12559251
170	0x3d5d0e6f	0.053968843
171	0x3e2e85cf	0.17043231
172	0xbd5265ee	-0.05136674
173	0x3d73bd56	0.059506737
174	0xbd6a5959	-0.057214115
175	0x3c63d00d	0.013904584
176	0xbd42adea	-0.04752914
177	0x3d727206	0.059190772
178	0x3de5e830	0.11225927
179	0xbccc10e4	-0.024910398
180	0xbad55f53	-0.0016279019
181	0x3e0fb879	0.14035214
182	0x3ceb19d3	0.028698837
183	0xbb65595d	-0.0034995892
184	0xb8fbffd7	-0.000120162666
185	0x3de8deb4	0.11370602
186	0x3d864d4c	0.06557712
187	0x3ddcc1c7	0.107791476
188	0x3a9c237f	0.0011912434
189	0x98777eba	-3.1987982e-24
190	0x3cf99166	0.03046484
191	0x3cc65936	0.024212461
192	0x3ca66e88	0.020316377
193	0x3d581421	0.05275357
194	0x3ca4f37a	0.02013563
195	0xbc8b9284	-0.017037638
196	0x3c3bfaec	0.011473399
197	0x3de0c5d8	0.10975236
198	0x3bf09062	0.0073414305
199	0xbc13b5a5	-0.009015475
200	0x3db4069e	0.08790325
201	0xb11a9c2e	-2.2498727e-09
202	0xbc190e9f	-0.009341865
203	0xb55237a4	-7.8312064e-07
204	0xbd82bd0b	-0.06383713
205	0x3cfed15f	0.031105695
206	0x3d376864	0.04477729
207	0x3cb63f53	0.022246992
208	0x3dd67df3	0.10473242
209	0x3d683d8f	0.05669933
210	0x3c78fbe1	0.015196771
211	0xb881c7ca	-6.188413e-05
212	0xb5d35ba5	-1.5747397e-06
213	0x3d04e224	0.032442227
214	0x94ce351e	-2.0821635e-26
215	0x3c2dae89	0.010600694
216	0xbc13956f	-0.009007796
217	0x3d0fc8e9	0.035103712
218	0x3dd6ae39	0.10482449
219	0x3d3d6a77	0.04624411
220	0x3de9665e	0.11396478
221	0x3e2d93cb	0.1695091
222	0x3dbbbc59	0.09166784
223	0x3d4aa9f9	0.049478505
224	0x3db083fc	0.08618924
225	0x3c994972	0.01871178
226	0xbd314d27	-0.04328647
227	0xbc444277	-0.011978737
228	0x3dc4c41b	0.09607717
229	0x3d65737e	0.056018345
230	0x3dab43c5	0.083625354
231	0x3dc46f1f	0.09591507
232	0xbc463e82	-0.012099864
233	0x3cab7602	0.020930294
234	0x3d50e980	0.051003933
235	0x3ce63e4b	0.028105875
236	0x3b9220c4	0.0044594724
237	0x3c94c9a4	0.018162556
238	0xb38a7622	-6.447614e-08
239	0xbcfb299f	-0.030659495
240	0x3d8060ba	0.06268449
241	0xbc442665	-0.011972045
242	0x3d906069	0.07049639
243	0xbcf64637	-0.030062778
244	0xbd872e86	-0.066006705
245	0x3dd2702c	0.10275301
246	0xbcba545d	-0.022745306
247	0xa3b365b5	-1.9450293e-17
248	0x3d1a0b65	0.037608523
249	0xbb13c774	-0.0022549303
250	0x3cf21ec2	0.029555682
251	0x3d3372ac	0.04381053
252	0xbcd4cb10	-0.025975734
253	0x3d8d071e	0.06886123
254	0x3cbbe466	0.022936057
255	0x3d5b72e5	0.05357637

policy.weight f4 [127, 256]
0	0xbd8fd2c6	-0.07022624
1	0x3d7bc856	0.061470352
2	0x3e8a6226	0.27028006
3	0xbda10c04	-0.0786362
4	0xbcfa8a2a	-0.03058346
5	0x3e2a9e5f	0.16661976
6	0x3d2cc989	0.042184386
7	0xbf22315f	-0.63356584
8	0x3e2baf16	0.16766009
9	0xba7ca98f	-0.00096383033
10	0x308f80a0	1.0441177e-09
11	0xbb21d2e0	-0.0024692342
12	0x3ed4cc39	0.4156206
13	0xbf91b212	-1.1382468
14	0x3dad9148	0.08474976
15	0xbf2f89b3	-0.6856949
16	0x3dd8df95	0.1058952
17	0xbf10b971	-0.5653296
18	0xbe3b9bc5	-0.1832114
19	0x3e216e3a	0.15764704
20	0x3ce0153a	0.027353872
21	0x3f01c0c1	0.50684744
22	0xbf6b0142	-0.91798794
23	0xbe60e9d0	-0.21964192
24	0x3b5646b6	0.0032695956
25	0x3d91dd78	0.0712232
26	0xbd275dc9	-0.040860925
27	0x3da40ee0	0.0801065
28	0x3e3235eb	0.1740338
29	0x3d2ad4e9	0.041706953
30	0xbec2e138	-0.38062453
31	0x3dc8cfad	0.09805236
32	0x3e2211ab	0.15827052
33	0x3e051557	0.12996422
34	0xb92ed3f3	-0.0001667289
35	0xbce160e5	-0.027512023
36	0xbf2485d8	-0.6426673
37	0x3e979a47	0.29609892
38	0x3def5399	0.11685867
39	0xbc952a58	-0.018208668
40	0x3dc2efa8	0.09518367
41	0xbe2c15b8	-0.1680516
42	0x3d1464a8	0.036228806
43	0x3c608308	0.013703115
44	0x3d84beb5	0.06481687
45	0xbe287475	-0.16450675
46	0x3e18e906	0.14932641
47	0x3e81d04c	0.2535423
48	0x3d0caf1c	0.034346685
49	0xbe1a265d	-0.15053697
50	0xbe2668ed	-0.16250964
51	0xbb02d08f	-0.0019960736
52	0x3e027feb	0.1274411
53	0x3de8ae6d	0.11361394
54	0x3e2d8c11	0.16947962
55	0xbc892ce8	-0.016745046
56	0x000088fd	4.9142e-41
57	0x3e0981c6	0.13428411
58	0x3dad9915	0.08476464
59	0xbc1d7842	-0.009611191
60	0x3caf7a05	0.021420488
61	0x3e08e470	0.13368392
62	0x3e1cdccd	0.15318604
63	0x3d2d6db8	0.042340964
64	0xbe2d82e1	-0.16944458
65	0x3d85ab7b	0.06526848
66	0x3eb74907	0.35797903
67	0x3c27e88e	0.010248316
68	0x3938d9e2	0.00017628775
69	0xbe676675	-0.22597678
70	0x3e9c1f7d	0.30492774
71	0x3e2d7d9b	0.16942446
72	0x3d9af4a3	0.07566192
73	0x3cd59a48	0.026074544
74	0x3c3cab2b	0.011515419
75	0xbe3fe8de	-0.18741176
76	0x3df8baca	0.12145002
77	0xbe3ab7fc	-0.18234247
78	0xbe137a39	-0.14402093
79	0x3c09ca49	0.008410045
80	0x3e2c5bf3	0.16831951
81	0xbe15b0fe	-0.14618298
82	0xbea2b2ea	-0.31777126
83	0xbe1058ee	-0.14096424
84	0x30ad5b7e	1.261341e-09
85	0x3e1393a3	0.14411788
86	0x3b133605	0.0022462618
87	0xbc7cc59e	-0.015427975
88	0x350db880	5.2795076e-07
89	0x3daccc25	0.08437375
90	0x3d5d0faa	0.053970017
91	0xbd6a58d9	-0.057213638
92	0xbd2c5347	-0.042071607
93	0xbec65fef	-0.38745067
94	0xbbdf7dc9	-0.0068204147
95	0xbe539ab7	-0.20664488
96	0x3b8de4d2	0.004330256
97	0x3d358233	0.04431362
98	0x3e135a18	0.14389837
99	0xbe2b53a9	-0.16731133
100	0x3d540812	0.05176551
101	0x3e42bca1	0.19017269
102	0xbe41ea5e	-0.1893706
103	0x3d8ce954	0.06880441
104	0xb9f37190	-0.00046433182
105	0xbd8e7895	-0.06956593
106	0xbd6d9047	-0.05799892
107	0xbd5009cc	-0.050790593
108	0xbd35a15b	-0.044343334
109	0x3b706751	0.0036682675
110	0x3d63a582	0.055577762
111	0xbd8043fb	-0.06262966
112	0xbe8fe464	-0.28103936
113	0xbcfe5daf	-0.031050531
114	0xbdb3e8ee	-0.08784662
115	0x3b0127fb	0.0019707668
116	0x3f21813e	0.6308783
117	0x3eb390c0	0.35071373
118	0x3ccd0716	0.025027793
119	0x3e15c7d0	0.14627004
120	0xbc90aa96	-0.017659467
121	0xbd2f6964	-0.042825118
122	0xba42fe1a	-0.0007438377
123	0x3d341583	0.043965828
124	0x00008910	4.9169e-41
125	0x3ca0deb4	0.019637443
126	0xb62757c9	-2.4936037e-06
127	0xbcabd50a	-0.020975608
128	0xbe166098	-0.14685285
129	0xbe126872	-0.14297655
130	0x3db2611a	0.08709927
131	0x3daa4dab	0.08315595
132	0xbea21f7c	-0.31664646
133	0xbdb8881b	-0.09010335
134	0xbe4078e6	-0.18796119
135	0x3c1de46c	0.00963698
136	0x3e093340	0.13398457
137	0xbe20c3de	-0.15699717
138	0x3d2fd645	0.042928953
139	0xbd8b4ddd	-0.068019606
140	0x8690f0be	-5.452052e-35
141	0x3c181bd7	0.009283981
142	0xbb991a36	-0.004672314
143	0xbe5f05bd	-0.21779533
144	0x3da45e5a	0.08025809
145	0xbdb1698c	-0.086627096
146	0xbe177a12	-0.1479266
147	0x3e154ff9	0.14581288
148	0x3eb2c248	0.3491385
149	0x3e759e6c	0.23986214
150	0xbeb161c6	-0.34644908
151	0xbe3dd63d	-0.18538757
152	0xbe6e48d1	-0.23269965
153	0x3c53d6c9	0.012929627
154	0x3de464fc	0.11152074
155	0xbd4cc455	-0.049991924
156	0x3e0ee593	0.13954763
157	0x3e20f3a6	0.15717945
158	0x3794c62c	1.7735256e-05
159	0xbdb03e85	-0.08605675
160	0xbdf38bad	-0.118918754
161	0x3efda86d	0.4954256
162	0xbecfefa6	-0.40612525
163	0xbc558841	-0.013032974
164	0x3e0a9574	0.13533574
165	0xbba222c6	-0.004947993
166	0xbcc0a543	-0.023516303
167	0xbf0265bb	-0.5093648
168	0x3eb254ef	0.34830424
169	0xbe313151	-0.17303969
170	0x3d9bab57	0.0760104
171	0xbe98d4e1	-0.29849914
172	0xbd832739	-0.064039655
173	0x3e435a06	0.1907731
174	0x3e9a7c8f	0.30173156
175	0x3d32a1fa	0.043611504
176	0xbd1cd77f	-0.03829145
177	0x3d5930df	0.053025123
178	0x3d23c9da	0.039987423
179	0xbbb0b152	-0.005392232
180	0xbe4e5a33	-0.20151596
181	0xbe908800	-0.2822876
182	0xbf0ea25c	-0.5571649
183	0xbd998de0	-0.07497764
184	0xb9a11310	-0.00030722516
185	0xbecf9ecf	-0.4055085
186	0x3e316b8c	0.17326182
187	0xbddb844e	-0.107185945
188	0xbd8e6208	-0.06952292
189	0x9a50a003	-4.3142648e-23
190	0x3d9546f1	0.072889216
191	0x3cc1b658	0.023646519
192	0xbe2987d0	-0.16555715
193	0x3d480599	0.048833463
194	0x3aab950c	0.0013090684
195	0x3ded4799	0.11585922
196	0x3b3db123	0.0028944693
197	0x3e98a7a9	0.29815415
198	0x3d7b6046	0.06137111
199	0x3bc5cba1	0.0060362373
200	0x3e09beb7	0.13451658
201	0xbaad0a4f	-0.0013201925
202	0x3d906c0a	0.07051857
203	0xbbf3c2fc	-0.0074390154
204	0x3cf612d7	0.03003828
205	0xbdb19f74	-0.086729914
206	0x3d9e45f9	0.0772819
207	0x3dd6f311	0.1049558
208	0xbe0926e6	-0.13393745
209	0x3e033d30	0.1281631
210	0x3d781354	0.060565308
211	0xb81e71fb	-3.7776288e-05
212	0xba810759	-0.0009844109
213	0xbea4d782	-0.3219567
214	0x285e3090	1.2334006e-14
215	0x3df51a5f	0.119679205
216	0xbd856471	-0.06513298
217	0xbdc794f6	-0.09745209
218	0x3e36dd99	0.1785797
219	0x3db52abf	0.08846044
220	0x3e1f9a7c	0.15586275
221	0x3f5b3dbc	0.85641074
222	0x3e2abde1	0.16673996
223	0x3d560c14	0.052257612
224	0x3ad3d10c	0.0016160323
225	0xbd74f711	-0.059805933
226	0x3cccd2dd	0.025002891
227	0x3e5a6ea2	0.21331266
228	0xbcfe7a7c	-0.031064264
229	0xbe8b5e08	-0.27220178
230	0x3e661257	0.22467934
231	0x3e80a411	0.25125173
232	0xbdb643c2	-0.088996425
233	0x3dfcf01f	0.12350487
234	0xbe286421	-0.16444446
235	0xbdc78396	-0.09741895
236	0xbccab5b2	-0.024744842
237	0x3bb8b528	0.00563683
238	0xb7002133	-7.637124e-06
239	0xbd12f62c	-0.0358793
240	0xbeb37d00	-0.35056305
241	0xbb89ec91	-0.004209109
242	0x3dfc4226	0.12317304
243	0xbe6d0d58	-0.23149621
244	0xbda9c739	-0.08289952
245	0xbdd89c96	-0.105767414
246	0x3d843c9c	0.06456873
247	0x800088e7	-4.9111e-41
248	0xbe8dc7bc	-0.27691448
249	0x3b8bb0ed	0.0042630346
250	0xbdab7870	-0.08372581
251	0xbe39d08b	-0.18145959
252	0xbca8a7b5	-0.020587781
253	0xbda50475	-0.08057491
254	0xbd9ec6eb	-0.07752784
255	0xbe98998d	-0.2980465

policy.bias f4 [127]
0	0x3de7816e	0.11303984
1	0x3d0b8900	0.0340662
2	0xbc771639	-0.015080982
3	0xbd8326a9	-0.06403858
4	0x3dda2c2e	0.10652958
5	0xbce46ea0	-0.027884781
6	0x3e3245f0	0.17409492
7	0xbbac2c48	-0.005254302
8	0x3e2c5ac4	0.168315
9	0xbd647c89	-0.05578283
10	0x3cac3c51	0.021024855
11	0x3db84c51	0.08998931
12	0x3c44c776	0.012010446
13	0x3cbe1178	0.02320169
14	0x3b0f3b76	0.002185551
15	0x3dc80de9	0.09768278
16	0x3c37c307	0.011215932
17	0x3d80ffa4	0.062987596
18	0xbd4e8405	-0.050418872
19	0x3c1f841c	0.009736087
20	0x3c9a9569	0.018870072
21	0xbca2c436	-0.019868951
22	0xbdbbd7ab	-0.09171995
23	0xbb845d0f	-0.0040394138
24	0xbc9214c6	-0.017832171
25	0xbcecb274	-0.028893687
26	0xbc908f4d	-0.017646456
27	0x3c0441b3	0.008072305
28	0x3c74e265	0.014946555
29	0xbdc171a9	-0.09445507
30	0x3ce054ea	0.02738424
31	0x3cfc5e15	0.03080658
32	0x3c6de870	0.014520749
33	0x3d9534c7	0.07285457
34	0xbd5c93c4	-0.053851858
35	0x3d6e7496	0.058216654
36	0x3de8ee7a	0.11373611
37	0xbc94e4b4	-0.01817546
38	0x3d903797	0.07041853
39	0xbd55d9b0	-0.052209556
40	0x3d9dabc5	0.07698778
41	0xbada5be5	-0.0016659467
42	0x3c24cf95	0.010059257
43	0x3d43a731	0.047766868
44	0xbcb4ba12	-0.022061381
45	0x3d5e4472	0.054264493
46	0xbcaff5cd	-0.021479512
47	0x3e26ff9b	0.16308443
48	0xbcbb3291	-0.02285126
49	0x3da30525	0.079599656
50	0x3ba3dd22	0.0050007263
51	0x3dc96576	0.09833805
52	0x3ddede46	0.10882239
53	0xbcd4dd96	-0.025984567
54	0x3cd4ec70	0.025991648
55	0x3c6eb57b	0.0145696355
56	0x3d91bebc	0.07116458
57	0x3d64a4cd	0.05582123
58	0xbd580fe5	-0.052749533
59	0xbc42ea63	-0.011896702
60	0xbc42f74a	-0.011899779
61	0xbc43283f	-0.011911451
62	0xbc4309dc	-0.011904206
63	0xbc4312af	-0.01190631
64	0xbc4328f5	-0.01191162
65	0xbc432022	-0.0119095165
66	0xbc430603	-0.011903289
67	0xbc430d0d	-0.011904967
68	0xbc43198d	-0.011907947
69	0xbc43239a	-0.011910344
70	0xbc432134	-0.011909772
71	0xbc4323b4	-0.011910368
72	0xbc42e39a	-0.011895085
73	0xbc42fb09	-0.011900672
74	0xbc4330dc	-0.011913504
75	0xbc430df3	-0.011905181
76	0xbc42eaa8	-0.011896767
77	0xbc432052	-0.011909561
78	0xbc4312e6	-0.011906361
79	0xbc42eb0a	-0.011896858
80	0xbc42f9cb	-0.011900376
81	0xbc431efe	-0.011909245
82	0xbc42eeeb	-0.011897783
83	0xbc42dd31	-0.011893556
84	0xbc4336da	-0.011914933
85	0xbc431067	-0.011905766
86	0xbc4328b5	-0.011911561
87	0xbc42fb5b	-0.011900748
88	0xbc42f1c2	-0.01189846
89	0xbc42f92b	-0.011900227
90	0xbc432082	-0.011909606
91	0xbc42f9c2	-0.011900367
92	0xbc43209b	-0.011909629
93	0xbc430265	-0.011902426
94	0xbc42e3bf	-0.011895119
95	0xbc42fe00	-0.011901379
96	0xbc4306d0	-0.01190348
97	0xbc433cfa	-0.011916393
98	0xbc43211b	-0.011909748
99	0xbc430e31	-0.011905239
100	0xbc4306d1	-0.011903481
101	0xbc42db69	-0.011893132
102	0xbc430e34	-0.011905242
103	0xbc42e267	-0.011894799
104	0xbc42f8ba	-0.011900121
105	0xbc430ba6	-0.011904633
106	0xbc42de17	-0.011893771
107	0xbc433dd4	-0.011916596
108	0xbc431dac	-0.01190893
109	0xbc42face	-0.011900617
110	0xbc42fa33	-0.011900472
111	0xbc42f520	-0.011899263
112	0xbc4305ff	-0.011903285
113	0xbc432e4e	-0.011912895
114	0xbc42fefa	-0.011901611
115	0xbc42fe56	-0.011901459
116	0xbc42f516	-0.011899253
117	0xbc43265d	-0.011911002
118	0xbc42e6b7	-0.011895827
119	0xbc432552	-0.011910753
120	0xbc434c6c	-0.011920076
121	0xbc4309c8	-0.0119041875
122	0xbc42f2ef	-0.01189874
123	0xbc433731	-0.011915014
124	0xbc42fe37	-0.01190143
125	0xbc42fd58	-0.011901222
126	0xbc42f8b1	-0.011900113

value.weight f4 [1, 256]
0	0x3bcf39c5	0.0063240253
1	0xbd0b9a44	-0.034082666
2	0xbc26efa5	-0.010188972
3	0x3c265ea1	0.010154397
4	0xbd0022e9	-0.031283293
5	0x3c93885c	0.018009357
6	0x3c15181e	0.009099988
7	0x3cecc3b5	0.028901914
8	0xbbd4bfe3	-0.0064926012
9	0xbc812808	-0.015766159
10	0xbb120936	-0.0022283322
11	0xbc2ffefe	-0.010741947
12	0xbc0b2467	-0.008492566
13	0xbda7adf4	-0.08187476
14	0x3b8d6dd3	0.0043160706
15	0xbecbd98c	-0.39814413
16	0x3ba6110f	0.0050679515
17	0xbb197f21	-0.0023421722
18	0xbcb3ebc7	-0.021963013
19	0x3b2311bb	0.0024882394
20	0xbcac22f7	-0.021012766
21	0xbbc10b4f	-0.0058912407
22	0x3c9752f9	0.018472182
23	0xbd16cf06	-0.036818527
24	0xbc1b920d	-0.00949527
25	0xbbf8f3a7	-0.007597405
26	0xbb37ba7f	-0.0028034744
27	0xbacde7ee	-0.0015709379
28	0xbb168505	-0.002296747
29	0xbc500022	-0.012695344
30	0x3c840fa9	0.016120749
31	0x3c938ab7	0.01801048
32	0xbd4ab383	-0.049487602
33	0x3c7dd482	0.01549256
34	0x3b9d2b2f	0.0047964077
35	0xbbae5501	-0.005320192
36	0xbc980a65	-0.018559644
37	0x3c2327a6	0.009958183
38	0xbdc53608	-0.09629446
39	0x3c3485a4	0.0110181905
40	0x3bf56394	0.0074886773
41	0x3d2740b9	0.04083321
42	0x3c5c08c4	0.013429824
43	0xbd6b1413	-0.05739219
44	0x3c9f4821	0.019443573
45	0x3d488d6e	0.048963003
46	0xbccbbbd9	-0.024869846
47	0x3c43843c	0.011933383
48	0x3c2d13d7	0.010563812
49	0xbc07df11	-0.008292929
50	0xbc769633	-0.015050459
51	0xbcaf5550	-0.021402985
52	0x3c2fd1b2	0.010731148
53	0x3cafbbdc	0.021451883
54	0x3c64f589	0.013974556
55	0xbc3af846	-0.011411732
56	0xa308eb8a	-7.422452e-18
57	0xbce2f2d0	-0.027703673
58	0x3c0a2097	0.008430622
59	0x3cd55c7a	0.026045073
60	0x3c8c66b3	0.017138815
61	0x3b9718a0	0.00461109
62	0xbbdc411e	-0.0067216298
63	0x3c908723	0.017642563
64	0xbd39d119	-0.045365427
65	0x3a24b44b	0.0006282969
66	0x3ddd47ce	0.10804711
67	0xbb1f3a4a	-0.0024296218
68	0x3cbe3b03	0.023221498
69	0xbb957f96	-0.0045623286
70	0x3cd65bf8	0.026166901
71	0xbc8496f1	-0.016185256
72	0xbc40ac32	-0.011759805
73	0xba4b6072	-0.0007758207
74	0xbd868b80	-0.06569576
75	0x3c9f09df	0.019413887
76	0x3c341d86	0.010993367
77	0x3d485c2f	0.048916038
78	0xbcc8df97	-0.024520678
79	0x3d7924ca	0.0608261
80	0xb9bcede9	-0.0003603541
81	0xbcaaeb76	-0.02086423
82	0xbc038d07	-0.008029229
83	0xbc9ec4ef	-0.019381015
84	0x388e5e16	6.7886125e-05
85	0xbcb56d53	-0.022146856
86	0xbce6e7f7	-0.028186781
87	0x3b5fbeb9	0.003414078
88	0x3b29352b	0.0025819044
89	0x3d61e1f4	0.055147126
90	0xbd17a613	-0.037023615
91	0x3c422589	0.011849769
92	0xbc2021a7	-0.009773648
93	0xbc308684	-0.0107742585
94	0x3b9eb8f9	0.004843828
95	0x3ccbfbeb	0.024900397
96	0xbb137bcd	-0.002250421
97	0x3ae2eab9	0.0017312384
98	0xbd14cb7c	-0.03632687
99	0xbca24d80	-0.019812346
100	0x3c92d160	0.017922103
101	0x3bc8acaa	0.006124099
102	0xbc2c2fe0	-0.010509461
103	0x3cdc6531	0.02690372
104	0xbdb7660d	-0.089550115
105	0xbc728a72	-0.014803516
106	0x3c46eb5e	0.012141077
107	0x3cf9f8a2	0.030514065
108	0xbccd6068	-0.025070384
109	0x3d4f53d8	0.05061707
110	0xb9d9d983	-0.00041551524
111	0x3d10b2e3	0.03532685
112	0xbc0debc1	-0.008662165
113	0x3cdbaf62	0.026817027
114	0x3d6b406f	0.057434496
115	0xbb14eddf	-0.002272479
116	0xbd020df0	-0.031751573
117	0xbd164cb0	-0.03669423
118	0xbca08555	-0.019594828
119	0x3d08a9aa	0.03336493
120	0x3aa23f96	0.0012378569
121	0x3ba7c1f3	0.005119556
122	0xbc80f4ec	-0.015741788
123	0xbc93a803	-0.01802445
124	0x2b4a0e95	7.1785053e-13
125	0x3d02bc8a	0.031918086
126	0xbc0ef521	-0.0087254355
127	0x3ca7fece	0.020507243
128	0xbcb1973f	-0.021678565
129	0xbbb65818	-0.005564701
130	0x3d68c5f1	0.056829397
131	0x3d05e2b9	0.032686923
132	0xbc1b9f08	-0.009498365
133	0xbd7287ed	-0.05921166
134	0xbbf91e72	-0.0076025063
135	0xbc607229	-0.013699093
136	0x3c2bf67d	0.010495779
137	0xbc306509	-0.010766276
138	0xbd9133e0	-0.070899725
139	0x3c4fac18	0.012675308
140	0x360f4003	2.134592e-06
141	0x3bc367d4	0.005963305
142	0x3b0a7cd5	0.0021131535
143	0xbb8f29c8	-0.0043689944
144	0xb92d5532	-0.00016530303
145	0x3c3dfe27	0.011596239
146	0xbaf33f98	-0.0018558381
147	0xbbc5b08a	-0.006033008
148	0xbc6e30b9	-0.014537984
149	0xbcdd9a1c	-0.027051024
150	0x3b35a236	0.0027715093
151	0x3c09f169	0.008419373
152	0xbdcb07e1	-0.09913612
153	0x3af220fb	0.0018472964
154	0xbc8289d7	-0.015934868
155	0x3ca7ac86	0.020468008
156	0x3d82c26e	0.06384741
157	0x39a8b50f	0.00032178356
158	0x3c4ae132	0.012382792
159	0xbc015569	-0.0078938985
160	0x3cd990f2	0.026558373
161	0xbc1bbaa6	-0.00950495
162	0x3d2be2f2	0.04196448
163	0xbc0db8c9	-0.008650013
164	0x3ba6bcec	0.005088439
165	0x3c727415	0.014798184
166	0x3ca800f3	0.020508265
167	0x3ccfb3e7	0.025354339
168	0xbd25d6d2	-0.04048807
169	0x3cbdf9a7	0.023190333
170	0xbb5b6719	-0.00334782
171	0xbc4ca73a	-0.012491042
172	0x3cd4624f	0.025925783
173	0x3bf61e0d	0.0075109066
174	0x3cc69253	0.024239695
175	0x3c4e81b8	0.01260417
176	0xbc03880d	-0.0080280425
177	0x3b11cf78	0.0022248905
178	0xbc3b6563	-0.011437747
179	0xbbdffeef	-0.0068358104
180	0x3c9915a3	0.018687075
181	0x3c9b1aac	0.018933617
182	0xbbca1d5f	-0.006168052
183	0x3ba55268	0.005045224
184	0xbb5e8807	-0.003395559
185	0xbc8a1d6e	-0.016859736
186	0xbc8f62e9	-0.017503219
187	0xbc775a31	-0.015097187
188	0x3c1340b2	0.0089875925
189	0x98a78ce1	-4.331074e-24
190	0xbc2a322b	-0.010387938
191	0x3b8c1a19	0.004275572
192	0x3c3ee4e2	0.01165125
193	0xb9de38c4	-0.00042385433
194	0x3c87a4d8	0.016558096
195	0x3adec706	0.001699657
196	0xbc7a8437	-0.015290312
197	0xbd245723	-0.040122163
198	0x3cddd1b8	0.02707754
199	0xbcb1847b	-0.021669617
200	0xbc86836a	-0.016420085
201	0x3cbd31de	0.023095068
202	0xbd19db29	-0.037562523
203	0xbc2af60c	-0.010434639
204	0xbcb9d2a7	-0.022683455
205	0x3d8ec178	0.06970495
206	0x3910c97f	0.00013807973
207	0x3c8b3011	0.016990693
208	0x3d31c15c	0.043397292
209	0xbc837878	-0.016048655
210	0xbc046b44	-0.008082215
211	0x3b11f212	0.002226953
212	0x3c17daa2	0.009268435
213	0xbda7f618	-0.082012355
214	0xbc686b06	-0.014185673
215	0x3ca6cb0b	0.02036049
216	0xbbc2578b	-0.005930846
217	0x3c5aca7a	0.013353938
218	0x3bcd045d	0.0062566237
219	0xbc8de530	-0.0173212
220	0xbc2424ed	-0.010018569
221	0x3bfc6fcd	0.0077037574
222	0xbc14bf52	-0.009078817
223	0xbcc2e0ac	-0.023788773
224	0xbd08b6a8	-0.03337732
225	0xba9c402c	-0.001192098
226	0xbd016bc7	-0.031596925
227	0x3d5ed347	0.05440071
228	0x3bf1cde1	0.007379279
229	0x3cf6b62d	0.030116165
230	0x3c8bf15f	0.017082868
231	0xbc913a57	-0.017728014
232	0xbd06ce9b	-0.032911878
233	0xbe1b72d5	-0.15180524
234	0xbce6edd7	-0.028189583
235	0x3b0a16d8	0.0021070745
236	0xbc2c4438	-0.0105143115
237	0x3c2d8344	0.010590378
238	0xbb1128ad	-0.0022149489
239	0x3c6cc1a0	0.014450461
240	0x3d0c3c8f	0.03423744
241	0xbcaecae2	-0.021336976
242	0xbbe2e100	-0.0069237947
243	0x3cbc0b4d	0.022954607
244	0x3b74402b	0.0037269692
245	0xbdb14dbd	-0.086574055
246	0x3c2d6cd8	0.010585032
247	0x2a6a349e	2.080163e-13
248	0x3dc0a49b	0.09406396
249	0x3d075679	0.03304145
250	0xbc9aa9d3	-0.018879807
251	0xbd012271	-0.031526987
252	0x3bcd1a2b	0.006259223
253	0x3bde1f76	0.006778653
254	0xbcc8dffb	-0.024520865
255	0xbba82173	-0.0051309406
