model.onnx (onnx, 529886 bytes, 7 tensors)

fc1.weight f4 [256, 130]
0.29226243 0.34093818 0.031088445 0.24229671 -0.079127684 -0.16707315 -0.26520345 -0.032811765
0.23315184 0.0965389 -0.101052746 -0.31308687 0.037162267 0.1352608 -0.052452635 -0.30384326
0.018022854 0.058660764 -0.005392552 0.0056238864 -0.06366426 -0.11577851 -0.1460662 0.094130695
-0.0376027 -0.11382386 -0.07913557 -0.091966376 0.1849685 0.08925049 0.0387946 -0.029657362
0.0070449593 0.0122033 0.15115042 0.05767223 -0.06526402 0.07973384 -0.0048029693 0.0828274
0.07837335 -0.05072626 -0.0025086775 0.20389448 0.21431705 0.11235266 0.20961048 0.072817124
0.012628017 -0.04427616 -0.16453563 -0.14301884 0.051255412 0.06305606 -0.020649482 -0.052400906
-0.06534509 -0.10388673 -0.06627718 0.09836416 6.105e-41 -5.0825e-41 5.4246e-41 4.9711e-41
-5.8203e-41 -5.4411e-41 -5.0388e-41 -4.9672e-41 4.919e-41 5.0964e-41 4.9378e-41 -4.9099e-41
-4.9673e-41 -5.1275e-41 -4.9345e-41 -5.1557e-41 4.9551e-41 -5.1311e-41 5.2491e-41 -5.0524e-41
-4.9062e-41 -6.2701e-41 5.0385e-41 5.0548e-41 6.1172e-41 -6.0556e-41 5.1376e-41 -5.1255e-41
4.999e-41 -5.6793e-41 -6.1598e-41 -6.06e-41 -4.9684e-41 5.3524e-41 5.4887e-41 -5.2404e-41
-5.052e-41 -5.5561e-41 -5.0087e-41 4.9292e-41 5.713e-41 5.0265e-41 -5.351e-41 5.0954e-41
1.15352e-40 -5.5441e-41 -4.9798e-41 -4.9806e-41 5.1139e-41 -5.1059e-41 5.0982e-41 -6.1087e-41
-5.1359e-41 -4.9584e-41 -5.0891e-41 4.978e-41 -5.1442e-41 4.9851e-41 -6.301e-41 5.2001e-41
-4.3068e-41 5.191e-41 -6.3042e-41 4.9477e-41 -5.023e-41 4.9142e-41 -6.284e-41 6.0282e-41
-4.9809e-41 -0.16305843 0.2845827 0.27972576 0.09057829 -0.24342014 -0.07298931 -0.005148871
-0.18869674 -0.16809197 0.2093641 0.13435146 -0.1932475 -0.10695544 -0.018976197 -0.31777796
-0.39599133 -0.123454496 0.3734579 0.37803826 0.14401095 0.0040143942 0.1304868 -0.17213024
-0.21794167 -0.086943656 0.037815027 -0.078119546 -0.11653081 0.15854335 0.22828954 0.10579042
0.14658335 0.08950913 0.013091968 -0.19775212 0.011041038 -0.07057432 -0.049055364 -0.03810637
0.09206661 -0.17196879 -0.34760305 -0.014401686 0.10073984 0.11487686 0.014479989 -0.041129116
-0.08431078 -0.12977758 -0.035999008 -0.13539734 0.0034415442 0.0262565 -0.06602708 0.06582277
0.12182017 -0.0061468747 0.02092697 -0.17048733 -0.1640199 0.020313043 -5.2409e-41 5.6146e-41
5.1304e-41 5.0932e-41 4.9104e-41 5.8422e-41 -2.98435e-40 -4.9094e-41 -5.1488e-41 -6.0315e-41
5.0521e-41 5.1345e-41 -5.1198e-41 5.3398e-41 -4.907e-41 5.0328e-41 -5.0248e-41 -5.0294e-41
5.3779e-41 5.6456e-41 4.9061e-41 5.969e-41 5.0096e-41 5.0458e-41 -6.2477e-41 -4.9396e-41
5.9262e-41 -5.3423e-41 -5.5405e-41 5.2655e-41 5.0246e-41 -4.9366e-41 6.1943e-41 5.7079e-41
-5.0808e-41 -6.1523e-41 -5.0405e-41 5.4408e-41 5.0922e-41 -5.0528e-41 -4.9506e-41 5.0035e-41
5.2162e-41 -5.0874e-41 -5.1265e-41 6.1738e-41 5.1649e-41 5.0566e-41 -5.046e-41 -4.953e-41
5.155e-41 -5.8162e-41 5.3639e-41 5.3074e-41 -5.5884e-41 4.9804e-41 5.2013e-41 -4.9644e-41
6.0437e-41 5.2411e-41 -5.7732e-41 4.9183e-41 5.4607e-41 5.0703e-41 5.5871e-41 6.2319e-41
00000000: 6ca3 953e 738f ae3e 32ad fe3c a11c 783e
00000010: b20d a2bd 3915 2bbe bfc8 87be a165 06bd
00000020: 5bbf 6e3e 30b6 c53d bef4 cebd ec4c a0be
00000030: 7637 183d cf81 0a3e 93d8 56bd 5891 9bbe
00000040: aaa4 933c 4546 703d 01b4 b0bb 9448 b83b
00000050: 6862 82bd 491d edbd 6192 15be 98c7 c03d
00000060: 4a05 1abd 7c1c e9bd d411 a2bd de58 bcbd
00000070: 6268 3d3e f6c8 b63d 16e7 1e3d fff3 f2bc
00000080: 67d9 e63b 5af0 473c 2dc7 1a3e b739 6c3d
00000090: 24a9 85bd 7f4b a33d 3a62 9dbb 69a1 a93d
000000a0: 3582 a03d 57c6 4fbd a068 24bb b7c9 503e
000000b0: ee75 5b3e 2719 e63d 21a4 563e 2521 953d
000000c0: bee5 4e3c eb5a 35bd 077c 28be 8873 12be
000000d0: 32f1 513d 8923 813d 1a29 a9bc 55a2 56bd
000000e0: a6d3 85bd 91c2 d4bd 55bc 87bd 2673 c93d
000000f0: 2faa 0000 ae8d 0080 3797 0000 938a 0000
00000100: 3fa2 0080 ad97 0080 768c 0080 778a 0080
00000110: 1f89 0000 118e 0000 a589 0000 de88 0080
00000120: 788a 0080 ef8e 0080 8e89 0080 b88f 0080
00000130: 218a 0000 098f 0080 5392 0000 d78c 0080
00000140: c488 0080 c9ae 0080 748c 0000 e88c 0000
00000150: 86aa 0000 cea8 0080 378f 0000 e18e 0080
00000160: 5a8b 0000 519e 0080 b6ab 0080 eea8 0080
00000170: 808a 0080 3495 0000 0199 0000 1592 0080
00000180: d48c 0080 e29a 0080 9f8b 0080 6889 0000
00000190: 419f 0000 1e8c 0000 2a95 0080 0a8e 0000
000001a0: 8e41 0100 8c9a 0080 d18a 0080 d78a 0080
000001b0: 8e8e 0000 558e 0080 1e8e 0000 49aa 0080
000001c0: 2b8f 0080 388a 0080 dd8d 0080 c48a 0000
000001d0: 668f 0080 f78a 0000 a5af 0080 f590 0000
000001e0: 0e78 0080 b490 0000 bcaf 0080 ec89 0000
000001f0: 058c 0080 fd88 0000 2caf 0080 0ba8 0000
00000200: d98a 0080 caf8 26be d3b4 913e 3738 8f3e
00000210: 1c81 b93d 2143 79be 6b7b 95bd dcb7 a8bb
00000220: b839 41be 4d20 2cbe 8b63 563e 6e93 093e
00000230: ace2 45be 740b dbbd f873 9bbc cbb3 a2be
00000240: 60bf cabe b6d5 fcbd e035 bf3e 3b8e c13e
00000250: 9b77 133e 2e8b 833b 559e 053e e942 30be
00000260: 1a2c 5fbe 840f b2bd eee3 1a3d 24fd 9fbd
00000270: b5a7 eebd 3059 223e bcc4 693e a6a8 d83d
00000280: f219 163e 9050 b73d b27f 563c 887f 4abe
00000290: 78e5 343c 4589 90bd 47ee 48bd 6d15 1cbd
000002a0: 6b8d bc3d 9618 30be 07f9 b1be 0df5 6bbc
000002b0: b050 ce3d 8f44 eb3d 7a3d 6d3c 0177 28bd
000002c0: 21ab acbd 6ae4 04be b273 13bd 9aa5 0abe
000002d0: 888b 613b df17 d73c 3539 87bd 17ce 863d
000002e0: da7c f93d b96b c9bb 096f ab3c 3b94 2ebe
000002f0: d5f4 27be 8a67 a63c 1892 0080 839c 0000
00000300: 048f 0000 fa8d 0000 e288 0000 dba2 0000
00000310: ea3f 0380 db88 0080 878f 0080 22a8 0080
00000320: d58c 0000 218f 0000 b88e 0080 da94 0000
00000330: ca88 0080 4b8c 0000 128c 0080 338c 0080
00000340: ea95 0000 609d 0000 c388 0000 64a6 0000
00000350: a68b 0000 a88c 0000 29ae 0080 b289 0080
00000360: 33a5 0000 ec94 0080 729a 0080 c892 0000
00000370: 118c 0000 9d89 0080 acac 0000 1d9f 0000
00000380: a28d 0080 80ab 0080 828c 0080 ab97 0000
00000390: f38d 0000 da8c 0080 018a 0080 7a8b 0000
000003a0: 6891 0000 d18d 0080 e88e 0080 1aac 0000
000003b0: fa8f 0000 f58c 0000 a98c 0080 128a 0080
000003c0: b38f 0000 22a2 0080 8695 0000 f393 0000
000003d0: c89b 0080 d58a 0000 fe90 0000 638a 0080
000003e0: 79a8 0000 1a92 0000 efa0 0080 1a89 0000
000003f0: 3998 0000 578d 0000 bf9b 0000 b8ad 0000

fc1.bias f4 [256]
-0.012701667 0.10611085 0.2001311 0.4221634 -0.15630384 0.3075566 0.047257 -4.013213e-09
0.16365324 0.0734195 0.048202638 0.19933887 0.18805335 -0.094686456 0.21067835 0.14214265
0.21055017 0.23003006 -0.30457222 0.12944114 -0.11663541 -0.11504874 0.07845229 -0.037535425
0.14562815 0.06798846 0.17203385 0.34998912 -0.041664254 0.17155164 0.10128875 -0.0038970232
0.121038646 0.23345661 -0.013023197 0.055778254 -0.043653812 0.1668933 -0.18420391 0.05895245
-0.074899025 0.19939736 0.08124542 0.1067405 0.126831 0.18163547 0.12957846 0.23619409
0.21090975 0.26023394 -0.031053327 0.11247594 0.12259332 -0.07192881 0.13093017 0.10868231
0.40133944 0.15998805 0.6632884 -0.03367852 0.18091239 -0.031241648 0.060349505 0.20431879
0.2605753 -0.04410549 -0.0030192477 0.12272717 -0.18047167 -0.029996026 0.106157534 0.44285187
0.03957116 0.3172844 -0.010843259 0.12018627 -0.06543156 0.29505304 -0.08253995 -0.007391687
0.14182204 0.094055176 -0.072836526 0.12107582 0.16285563 -0.09173242 -0.048932064 0.031209419
0.27710676 -0.11359123 0.2504992 -0.095119834 -0.323242 0.043940883 0.2530141 -0.15196684
0.26582935 0.18432371 0.054119725 0.026599286 0.2380421 0.0778093 0.025151303 0.13099101
0.014073256 -0.020935629 0.22371021 -0.14596544 0.12490741 -0.015514269 0.2385217 0.13474296
0.14264736 0.23714502 -0.044071462 0.07693933 -1.6365562e-05 0.2705094 0.1390972 0.25398934
0.25965786 0.17672911 0.015748149 0.06191212 -0.18243222 0.119598195 0.124340035 -0.0033465617
0.27379185 0.13436602 0.102974266 0.039391182 0.22444995 0.1370884 0.13401721 0.35788858
0.0047777593 0.20252292 -0.16597135 -0.17566717 0.17929032 -0.086098135 0.3787343 -0.030867446
-0.04910784 0.0343757 -0.41126546 0.36947525 0.23163426 0.25408065 0.11065865 -0.21012343
0.02570023 0.047924697 0.11114511 0.08733286 -0.37226605 0.08141452 0.08010467 -0.011928599
0.048648935 0.035536934 -0.06436686 0.14069828 -0.17819035 0.114407055 0.21308592 0.026105145
0.05104584 0.1815721 0.21620512 -0.088297755 0.16264656 0.04582155 0.09987637 -0.038392965
-0.22695915 -0.2359998 0.15588732 -0.08074931 -0.03874419 -0.20834759 -0.17514588 -4.1904107e-29
0.12029324 0.1339867 -0.06644181 0.28600937 0.3230112 -0.02910108 0.22470571 0.31954542
-0.03844538 0.083272345 0.21223973 -0.018159425 0.100517504 -0.0432334 0.2947643 0.28256434
0.1623993 0.1621321 0.13252515 0.15908161 -0.05338306 0.25399232 0.2489532 -0.3992944
0.26047575 0.2895425 -0.13384718 -0.029881364 0.21385716 0.092719324 0.13319227 -0.013964562
0.20508458 -2.6690809e-12 0.17545666 -0.28364357 0.28239202 0.48369724 0.115479745 0.103749104
0.13833493 -0.0013713934 0.055459883 0.008067549 -0.13041909 0.29213014 -0.3657449 0.014332187
0.036906905 0.34090713 -0.31613123 0.1799519 0.22477607 0.08983082 0.17350303 0.08575924
0.2670721 0.14125106 -0.093921624 0.0722613 0.06478771 -0.038438752 0.1178389 0.28380957
0.47619224 -0.050730355 0.12561348 0.15710989 -0.01044811 -0.08836131 0.2717301 -0.17913358
00000000: a71a 50bc a550 d93d 2bef 4c3e cd25 d83e
00000010: 1d0e 20be 0f78 9d3e 8e90 413d 98e4 89b1
00000020: b794 273e f65c 963d 2170 453d 7d1f 4c3e
00000030: 0f91 403e f9ea c1bd 11bc 573e d88d 113e
00000040: 779a 573e 008d 6b3e e4f0 9bbe 388c 043e
00000050: 8cde eebd ac9e ebbd 98ab a03d bfbe 19bd
00000060: 8c1f 153e 893d 8b3d a429 303e c631 b33e
00000070: 23a8 2abd 3cab 2f3e 7a70 cf3d 3365 7fbb
00000080: 1ce3 f73d 400f 6f3e 3f5f 55bc bd77 643d
00000090: 57ce 32bd 14e6 2a3e f39f 3cbe 2078 713d
000000a0: a964 99bd d22e 4c3e 0064 a63d c39a da3d
000000b0: fcdf 013e a6fe 393e 37b0 043e dddc 713e
000000c0: baf8 573e 623d 853e 8c63 febc c959 e63d
000000d0: 3512 fb3d 694f 93bd 8f12 063e d594 de3d
000000e0: 5d7c cd3e e8d3 233e 45cd 293f 7df2 09bd
000000f0: 1941 393e 7cee ffbc 0b31 773d f238 513e
00000100: 206a 853e f5a7 34bd 92de 45bb 6258 fb3d
00000110: 91cd 38be 3aba f5bc 1f69 d93d 7bbd e23e
00000120: 5e15 223d 1a73 a23e eda7 31bc 3824 f63d
00000130: fb00 86bd 3111 973e b50a a9bd f735 f2bb
00000140: cc39 113e 00a0 c03d 512b 95bd 99f6 f73d
00000150: a0c3 263e 35de bbbd fd6c 48bd e5aa ff3c
00000160: f0e0 8d3e 85a2 e8bd 6e41 803e 30ce c2bd
00000170: fa7f a5be 5bfb 333d 108b 813e 329d 1bbe
00000180: c91a 883e 5bbf 3c3e a5ac 5d3d bfe6 d93c
00000190: 4fc1 733e 7b5a 9f3d 1b0a ce3c 8222 063e
000001a0: 8493 663c 3281 abbc 4a14 653e f777 15be
000001b0: 75cf ff3d 8f2f 7ebc 083f 743e 0ffa 093e
000001c0: 2612 123e 25d6 723e 4784 34bd 5e92 9d3d
000001d0: c748 89b7 3580 8a3e 7f6f 0e3e e40a 823e
000001e0: e0f1 843e 7af8 343e 4302 813c 9097 7d3d
000001f0: 83cf 3abe e6ef f43d fda5 fe3d fd51 5bbb
00000200: 722e 8c3e 3f97 093e 2ce4 d23d a658 213d
00000210: 35d6 653e e760 0c3e cf3b 093e 2c3d b73e
00000220: c08e 9c3b 2b62 4f3e 65f4 29be 18e2 33be
00000230: e297 373e 3854 b0bd 76e9 c13e badd fcbc
00000240: 4d25 49bd 89cd 0c3d 6391 d2be dc2b bd3e
00000250: 8831 6d3e dc16 823e 01a1 e23d 992a 57be
00000260: 4a89 d23c b04c 443d 0ca0 e33d 92db b23d
00000270: a899 bebe a8bc a63d eb0d a43d 2c70 43bc
00000280: 1b44 473d 2d8f 113d c6d2 83bd 3613 103e
00000290: 8877 36be 3f4e ea3d 3233 5a3e 75da d53c
000002a0: 7115 513d 09ee 393e e064 5d3e 74d5 b4bd
000002b0: d28c 263e 61af 3b3d fb8b cc3d f141 1dbd
000002c0: fb67 68be eea9 71be eda0 1f3e e55f a5bd
000002d0: 3ab2 1ebd 1259 55be 7159 33be a47a 5490
000002e0: 4d5c f63d cf33 093e a512 88bd d26f 923e
000002f0: b961 a53e 6365 eebc 4119 663e 759b a33e
00000300: e778 1dbd b18a aa3d 5f55 593e 13c3 94bc
00000310: 1fdc cd3d 8115 31bd 59eb 963e 46ac 903e
00000320: 014c 263e f505 263e acb4 073e 4ae6 223e
00000330: 32a8 5abd 480b 823e 96ed 7e3e 5170 ccbe
00000340: 145d 853e ea3e 943e 3c0f 09be c3c9 f4bc
00000350: 5ffd 5a3e a1e3 bd3d 8e63 083e 9ecb 64bc
00000360: b101 523e e3d1 3bac e9aa 333e bb39 91be
00000370: b095 903e 2aa7 f73e a580 ec3d 697a d43d
00000380: aca7 0d3e 54c0 b3ba e729 633d c12d 043c
00000390: 958c 05be 1592 953e ea42 bbbe 8dd1 6a3c
000003a0: b22b 173d 618b ae3e f4db a1be 5045 383e
000003b0: b32b 663e 39f9 b73d c7aa 313e 8aa2 af3d
000003c0: adbd 883e 1ea4 103e fb59 c0bd bcfd 933d
000003d0: 6baf 843d f471 1dbd 8555 f13d 7d4f 913e
000003e0: 78cf f33e a2ca 4fbd d2a0 003e 6ae1 203e
000003f0: 8d2e 2bbc c6f6 b4bd 3520 8b3e cb6e 37be

fc2.weight f4 [256, 256]
-0.039222535 0.070912495 0.12785758 -0.045845587 -0.09765328 -0.07174703 -0.13506372 -5.0903143e-11
-0.0009489064 -0.02570363 0.16985449 -1.3976406e-05 0.20016438 0.04140547 0.08539089 -0.052765105
0.1297087 0.14736973 -0.085778214 0.10690595 -0.013242759 0.0034538931 -0.008958688 0.009845803
-0.1317254 0.03499721 -0.12609924 0.010559123 0.030964233 0.03608671 0.103472956 -0.12453487
-0.020463867 0.02446035 0.0018213247 -0.067373216 -0.106950626 -0.04213552 0.07513874 -0.10085297
0.021400588 -0.016793275 0.13325413 0.14583807 0.020923344 -0.036493048 0.24283905 0.037291393
0.013466901 -0.15591516 -0.022112098 -0.035011355 0.017501561 -0.18517546 0.017740907 0.12732849
-0.13551551 0.08737835 0.17158608 0.07883126 -0.114326805 0.26266885 0.0631018 0.09326786
-0.10742416 0.23090737 -0.043983746 -0.101048216 -0.016799519 0.037843563 0.21713957 -0.034092605
0.0605626 -0.29484737 -0.042179342 0.029819338 0.13010958 0.1846514 -0.0024259535 -0.19637343
-0.107044205 -0.009046925 -0.032958794 0.046045963 0.078402966 -0.06617823 0.028188922 -0.052535966
0.12689842 -0.029011773 -0.0031720325 -0.11370653 -0.16078818 0.01322539 -0.07148474 -0.19044077
-0.0047213775 0.26899084 0.10353354 -0.007615792 -0.09864907 0.11973646 0.0036135071 0.02376179
0.16082254 0.041290443 0.045398433 -0.14747883 -0.15444048 0.061440885 0.06239538 0.008204741
-0.02200278 -0.10578243 -0.038240064 -0.09950735 2.0616055e-36 -0.14541954 -0.07103668 -0.20012262
-0.03051863 -0.020312358 -0.021224666 -0.096173845 0.009949858 -0.030545201 -0.12451094 0.0011808487
-0.015525439 -0.2224367 0.05210241 -0.12870617 0.22048217 0.065453604 0.06926966 -0.057547253
0.008608245 -0.02196949 0.0050492533 -0.10496424 -0.0285506 0.0040206895 0.24241012 -0.0739279
0.10677856 -0.058453422 -0.087863155 0.021178653 0.017024387 -0.0677723 0.024502788 0.048844054
-0.22660269 0.12569506 0.19699915 0.022220034 -0.06662187 0.043254994 0.061601978 -0.00027378442
0.107689925 -0.10183714 0.008291549 0.031550538 0.058534134 0.13746156 0.023219723 -0.17832108
0.16278519 0.031438496 0.039201036 -0.073041104 0.11003725 0.08342903 0.083675556 -0.045116156
-0.19068946 -0.0492819 0.110767424 -0.03718368 0.044196375 -0.11730589 0.047509696 6.066956e-32
-0.099334255 0.11130345 0.008166091 0.06462932 0.008663231 -0.002216334 0.012167258 -0.06847909
0.002961917 0.034512 0.08909289 -0.07622191 -0.12725051 0.044049744 -0.11166218 -0.14398678
-0.1261522 0.078107685 0.13258506 0.081470504 -0.122161806 0.124674544 0.08813863 -0.11508912
-0.03869686 -0.094818935 -0.005972429 -0.092543945 -0.017253743 0.12167497 -0.052993916 -0.08869896
0.059855767 -4.9351e-41 0.009368464 0.048486657 -0.12366845 0.12779312 -0.014706339 -0.07432854
0.019952238 0.079757884 0.19601788 0.077603236 -0.047802344 0.07753689 -0.04439675 0.10407933
-0.073720016 0.01650668 -0.1098149 0.08613965 0.09957728 -0.024732513 0.057494286 -0.024328124
0.028037986 -0.06678563 0.0041145184 0.06872306 0.16538043 -0.06548569 0.10904735 0.19998786
0.16698109 -0.007843969 -0.08291437 0.0340199 -7.9412195e-05 -0.09957876 0.040145136 0.12212093
00000000: cfa7 20bd 923a 913d 19ed 023e 95c8 3bbd
00000010: 71fe c7bd 1bf0 92bd 254e 0abe d8df 5fae
00000020: 08c0 78ba 6b90 d2bc 56ee 2d3e 357c 6ab7
00000030: e4f7 4c3e c898 293d 6be1 ae3d 3920 58bd
00000040: 5cd2 043e 17e8 163e 7dac afbd 82f1 da3d
00000050: 28f8 58bc b65a 623b 76c7 12bc 4a50 213c
00000060: 06e3 06be 3c59 0f3d 2920 01be 2c00 2d3c
00000070: b4a8 fd3c a8cf 133d a1e9 d33d 230c ffbd
00000080: d7a3 a7bc 1261 c83c 84b9 ee3a f8fa 89bd
00000090: ee08 dbbd 4c96 2cbd 57e2 993d 008c cebd
000000a0: 4950 af3c 0d92 89bc c573 083e 9356 153e
000000b0: 6f67 ab3c bc79 15bd cdaa 783e dcbe 183d
000000c0: 47a4 5c3c 39a8 1fbe 6e24 b5bc 1168 0fbd
000000d0: 6f5f 8f3c a39e 3dbe 6155 913c 6662 023e
000000e0: 94c4 0abe 6cf3 b23d 43b4 2f3e 4972 a13d
000000f0: 2c24 eabd 887c 863e 843b 813d 3803 bf3d
00000100: 3301 dcbd fb72 6c3e 4d28 34bd 5ef2 cebd
00000110: 259f 89bc da01 1b3d d659 5e3e b0a4 0bbd
00000120: 7d10 783d 3cf6 96be 3fc4 2cbd af47 f43c
00000130: 723b 053e 4215 3d3e bffc 1ebb 1e16 49be
00000140: fe39 dbbd 8e39 14bc cdff 06bd b19a 3c3d
00000150: bc91 a03d 7488 87bd 74ec e63c f42f 57bd
00000160: a9f1 013e 19aa edbc e0e1 4fbb f8de e8bd
00000170: a8a5 24be 4eaf 583c 9766 92bd e802 43be
00000180: c9b5 9abb 2bb9 893e 6509 d43d e58d f9bb
00000190: 8608 cabd 6438 f53d 97d0 6c3b 16a8 c23c
000001a0: aaae 243e 2b20 293d b5f3 393d b104 17be
000001b0: a525 1ebe 70a9 7b3d 4c92 7f3d 2e6d 063c
000001c0: 2d3f b4bc 75a4 d8bd 9da1 1cbd 82ca cbbd
000001d0: cb61 2f04 dce8 14be ae7b 91bd f2ec 4cbe
000001e0: 3502 fabc 1a66 a6bc 5adf adbc cbf6 c4bd
000001f0: bb04 233c ee39 fabc 97ff febd b5c6 9a3a
00000200: 695e 7ebc 72c6 63be 5669 553d 8dcb 03be
00000210: 14c6 613e 8a0c 863d 40dd 8d3d abb6 6bbd
00000220: 9909 0d3c 5cf9 b3bc 3574 a53b 7ef7 d6bd
00000230: f3e2 e9bc fdbf 833b 5c3a 783e 8367 97bd
00000240: b8ae da3d db6c 6fbd 99f1 b3bd db7e ad3c
00000250: ba76 8b3c 34cc 8abd 12ba c83c b410 483d
00000260: 890a 68be 35b6 003e 25ba 493e ca06 b63c
00000270: 0c71 88bd 262c 313d 5b52 7c3d b98a 8fb9
00000280: 898c dc3d fe8f d0bd 47d9 073c 233b 013d
00000290: 7dc1 6f3d b9c2 0c3e 4a37 be3c cd99 36be
000002a0: 29b1 263e a7c5 003d 4491 203d 9396 95bd
000002b0: 365b e13d d7dc aa3d 175e ab3d b8cb 38bd
000002c0: 1944 43be d1db 49bd 08da e23d ea4d 18bd
000002d0: 4207 353d 123e f0bd 8799 423d d781 9d0b
000002e0: c26f cbbd 10f3 e33d 11cb 053c 605c 843d
000002f0: 39f0 0d3c ea3f 11bb 2e59 473c c43e 8cbd
00000300: b91c 423b 745c 0d3d 5576 b63d 3c1a 9cbd
00000310: f54d 02be 816d 343d 24af e4bd 4571 13be
00000320: 0b2e 01be ecf6 9f3d 61c4 073e 02da a63d
00000330: f82f fabd 5e55 ff3d 0782 b43d d8b3 ebbd
00000340: 9980 1ebd 6e30 c2bd 5eb4 c3bb ae87 bdbd
00000350: b957 8dbc ba30 f93d 2610 59bd cda7 b5bd
00000360: 522b 753d 9289 0080 307e 193c f299 463d
00000370: e245 fdbd 33dc 023e dbf2 70bc 9039 98bd
00000380: e072 a33c 1a58 a33d e9b8 483e 72ee 9e3d
00000390: 64cc 43bd a9cb 9e3d 5ed9 35bd 8b27 d53d
000003a0: 85fa 96bd 0439 873c a2e6 e0bd fc69 b03d
000003b0: 2cef cb3d d79b cabc 217f 6b3d c64b c7bc
000003c0: ebaf e53c e8c6 88bd 15d3 863b adbe 8c3d
000003d0: 7d59 293e 5d1d 86bd 3854 df3d 9ec9 4c3e
000003e0: 17fd 2a3e fe83 00bc 02cf a9bd 7358 0b3d
000003f0: 198a a6b8 f3ef cbbd 3a6f 243d 8a1a fa3d

fc2.bias f4 [256]
0.023865858 0.10371489 -0.0013458726 0.030527765 0.12244851 0.23057039 0.0059556877 0.10762329
-0.008578014 -4.295447e-06 -5.7752794e-09 -0.0038876713 0.124415755 0.085043736 0.057494294 0.016977709
0.034105178 -0.11444459 0.055258762 0.010574537 0.01604884 0.16520059 -0.07460936 0.16939779
-1.531089e-07 0.117310695 -0.0007799395 0.09048095 0.07545381 -0.0028842457 0.10921102 0.06369472
-0.0008587017 0.049633775 -0.00011581783 0.022403765 -0.0045521087 0.058614813 0.014982733 -9.849145e-05
0.00922382 0.09043996 0.023711765 0.108778685 0.037261833 0.13048984 0.03527913 0.030051433
0.15675221 0.022459812 -0.06614811 -1.9605015e-06 0.035520047 0.073422305 0.023279825 0.075602606
-8.496921e-16 -0.01217045 0.073512144 0.09268306 0.06959048 0.038783427 0.07848182 0.08009341
0.14497545 0.06056433 0.035208065 0.13926634 -0.00019074883 0.013540465 -0.058366578 0.12792565
0.039936718 0.060268264 0.01974127 -0.016893232 0.039036456 -0.0023785732 0.037118845 0.021111412
0.057547968 0.11508729 0.078761235 0.058258988 -2.6329093e-12 0.13383076 -0.020045375 -0.038715955
-6.4345873e-19 0.00565605 -0.020233609 0.095950805 0.10216381 0.1537163 -6.078467e-07 0.016100813
-0.010348457 0.0984508 0.07095258 0.044884946 0.04627037 -0.02610109 -0.036687996 0.019425573
0.024673648 0.0799838 -6.884386e-20 -0.04506427 0.062298823 -0.02295599 -0.0136168115 0.049041744
0.067458674 0.018063288 -0.054718953 -0.11381024 0.09613876 0.10965801 0.021944333 0.09800294
-1.213479e-21 0.06949934 -0.009076693 -2.9177326e-21 -6.528927e-09 -0.056841623 -4.3464026e-36 -0.049449377
-0.012083729 0.024985876 0.070966 0.13720961 0.116909996 0.024587238 0.1310782 0.047641072
0.08938009 -0.014339647 0.07419082 0.03284562 -9.6772685e-12 0.16494133 -0.041279513 0.074086785
0.024554268 0.08401801 0.07740104 0.14870855 0.06814763 0.042879984 0.11768939 -0.06813489
-0.006873903 -2.0807744e-05 0.07036905 -0.0019201165 -0.06130087 -0.0043889126 -3.4224365e-13 0.0012402955
0.119338594 0.108661935 0.01416522 4.2754566e-34 0.10995667 0.22801988 -0.003595 0.04291441
0.1294157 0.110420145 0.05624149 0.17667666 -0.05341035 0.05354721 -0.055852655 0.011434367
-2.1503874e-17 0.06014217 0.1200061 -1.7506518e-23 -0.00038807408 0.14926052 0.042138755 0.0024764822
-0.003235443 0.103552744 0.060573097 0.11959926 0.009295867 -2.676887e-18 0.03658495 0.028937817
0.024444876 0.051907223 0.026795655 -0.010769633 0.016292335 0.09847196 0.012589459 -2.4150294e-30
0.09292876 -1.8041048e-05 -0.0032484971 -0.0002992803 -0.05836025 0.03055552 0.03250889 0.023244916
0.09959956 0.05487587 0.021755233 -0.0035220706 -0.00043057016 0.038666997 -4.9468926e-14 -0.0032059292
-0.0073798415 0.039374437 0.104868405 0.04289042 0.12466339 0.15557688 0.09032299 0.045883317
0.082716666 0.018067272 -2.6266868e-20 -0.017962018 0.106771424 0.05109059 0.08268973 0.08147809
-0.004561464 0.016248494 0.055165388 0.03708017 -0.0014099706 0.020042896 -4.993903e-05 -1.887544e-23
0.059876814 -0.03766874 0.07262933 -0.0131125 -0.070924826 0.103455596 -0.018272476 -8.605823e-11
0.047507577 -0.023566412 0.026794499 0.049028896 -1.315399e-27 0.06605375 0.012390849 0.061766006
00000000: 5582 c33c 7968 d43d fe67 b0ba 5d15 fa3c
00000010: 49c6 fa3d a51a 6c3e ee27 c33b 9969 dc3d
00000020: cc8a 0cbc 9c21 90b6 e56f c6b1 4dc8 7ebb
00000030: b0cd fe3d 692b ae3d 237f 6b3d d614 8b3c
00000040: dfb1 0b3d ed61 eabd 0357 623d d340 2d3c
00000050: db78 833c 582a 293e cbcc 98bd 9d76 2d3e
00000060: 4166 24b4 9740 f03d db74 4cba 144e b93d
00000070: 8787 9a3d 9d05 3dbb 07aa df3d 6172 823d
00000080: 7f1a 61ba c94c 4b3d 39e3 f2b8 1a88 b73c
00000090: db29 95bb 1616 703d 237a 753c 328d ceb8
000000a0: 811f 173c 9638 b93d 2d3f c23c 5cc7 de3d
000000b0: dd9f 183d 219f 053e d980 103d 6c2e f63c
000000c0: a783 203e a4fd b73c a978 87bd 2991 03b6
000000d0: 787d 113d 6f5e 963d 55b5 be3c 8ad5 9a3d
000000e0: 36e8 74a6 9166 47bc 898d 963d 9ed0 bd3d
000000f0: 7485 8e3d 5fdb 1e3d 14bb a03d 0408 a43d
00000100: 7274 143e 4e12 783d 5536 103d d69b 0e3e
00000110: c003 48b9 d4d8 5d3c cb11 6fbd f1fe 023e
00000120: af94 233d dbdb 763d 72b8 a13c ad63 8abc
00000130: b1e4 1f3d d6e1 1bbb ee09 183d d7f1 ac3c
00000140: 6bb7 6b3d e3b2 eb3d 924d a13d faa0 6e3d
00000150: 4746 39ac ee0a 093e 3336 a4bc 9f94 1ebd
00000160: 5eea 3da1 6356 b93b f4c0 a5bc db81 c43d
00000170: 423b d13d ce67 1d3e e82a 23b5 dae5 833c
00000180: 938c 29bc 93a0 c93d 964f 913d 47d9 373d
00000190: 0086 3d3d f4d1 d5bc 2746 16bd 6122 9f3c
000001a0: 6420 ca3c 8cce a33d 8f8d a29f 5095 38bd
000001b0: 0d2d 7f3d 330e bcbc 0c19 5fbc ffdf 483d
000001c0: c627 8a3d 76f9 933c fb20 60bd 5815 e9bd
000001d0: 66e4 c43d 6194 e03d 9ac4 b33c c4b5 c83d
000001e0: 3260 b79c ac55 8e3d 69b6 14bc 2875 5c9d
000001f0: 0d55 e0b1 c3d2 68bd 22e0 b884 6e8b 4abd
00000200: d5fa 45bc 2eaf cc3c 9f56 913d ad80 0c3e
00000210: 826e ef3d 2d6b c93c 5d39 063e 4923 433d
00000220: e90c b73d d7f0 6abc 5bf1 973d 2189 063d
00000230: 8b3e 2aad 61e6 283e b514 29bd d0ba 973d
00000240: 0826 c93c a211 ac3d 7084 9e3d 0e47 183e
00000250: fc90 8b3d eca2 2f3d 2307 f13d 4e8a 8bbd
00000260: 7a3e e1bb 4a8c aeb7 a61d 903d 6bac fbba
00000270: 9f16 7bbd ded0 8fbb 82aa c0aa 6991 a23a
00000280: cb67 f43d 268a de3d 3d15 683c 9013 0e08
00000290: f630 e13d 0b7e 693e 179a 6bbb 05c7 2f3d
000002a0: 8d85 043e f523 e23d 7a5d 663d baea 343e
000002b0: d0c4 5abd 5254 5b3d c1c5 64bd 3657 3b3c
000002c0: 9656 c6a3 a357 763d c2c5 f53d 0a50 a999
000002d0: 6c76 cbb9 c0d7 183e b099 2c3d 7a4c 223b
000002e0: ba09 54bb 7613 d43d 7f1b 783d 75f0 f43d
000002f0: b14d 183c f784 45a2 1ada 153d 000f ed3c
00000300: 9f40 c83c ab9c 543d 9082 db3c 1d73 30bc
00000310: 8177 853c abab c93d 0544 4e3c 33ee 438e
00000320: 6f51 be3d db56 97b7 bde4 54bb b9e8 9cb9
00000330: 280b 6fbd 924f fa3c 0b28 053d 1f6c be3c
00000340: dbfa cb3d 85c5 603d 0838 b23c 8ad2 66bb
00000350: 26be e1b9 4961 1e3d cac9 5ea9 911a 52bb
00000360: 99d2 f1bb 1747 213d 3fc5 d63d ddad 2f3d
00000370: 854f ff3d 8c4f 1f3e 43fb b83d 25f0 3b3d
00000380: 5b67 a93d d101 943c 6415 f89e 1525 93bc
00000390: faaa da3d 5e44 513d 3c59 a93d fcdd a63d
000003a0: 5578 95bb 901b 853c 1af5 613d 60e1 173d
000003b0: c3ce b8ba 0031 a43c a075 51b8 538d b699
000003c0: 6441 753d 894a 1abd b0be 943d d0d5 56bc
000003d0: 0941 91bd 87e0 d33d 29b0 95bc 7a3e bdae
000003e0: 4e97 423d 590e c1bc 2380 db3c 86d2 483d
000003f0: ec6e d092 3047 873d fd02 4b3c 5afe 7c3d

policy.weight f4 [127, 256]
-0.053623274 0.11083709 0.19146729 -0.068384536 -0.083843805 0.16414796 0.06254639 -0.5804753
0.17623988 -0.006216937 5.4609325e-07 -0.0056003104 0.37646267 -0.9225119 0.08772525 -0.6307193
0.08822708 -0.45222938 -0.17953125 0.16132696 -0.028197542 0.5423904 -0.8952067 -0.27204528
0.011484041 0.054963116 -0.041959584 0.08242171 0.15450951 0.046592977 -0.5196543 0.053365853
0.15109278 0.12537648 -0.0015236696 -0.029018782 -0.65647835 0.3017193 0.0674844 -0.035595097
0.08998499 -0.17572142 0.022429554 0.046777114 0.059690166 -0.1681211 0.16326325 0.15091282
0.0008504644 -0.14688395 -0.16328773 -0.00881198 0.11740397 0.13092604 0.1768022 0.0012902049
4.9142e-41 0.14191264 0.07976312 0.01849382 0.015990715 0.12048892 0.15503334 0.039297912
-0.26527163 0.06326462 0.3788967 0.0015420777 0.0025084794 -0.09517596 0.27029115 0.13382873
0.093115196 0.03265786 -0.015879858 -0.19267045 0.12209626 -0.09217224 -0.15687646 0.013412342
0.1723194 -0.0819392 -0.30854028 -0.16329196 1.4971982e-06 0.12005418 0.0036341334 -0.019404
-1.3632921e-06 0.03603716 0.04750045 -0.003394871 -0.062284417 -0.40709537 -0.015558641 -0.1401075
0.0057317 0.051407848 0.14614348 -0.25379312 0.049956884 0.19568168 -0.1649126 0.062303167
-0.08485625 -0.035831165 2.6207623e-15 -0.08668838 -0.047227953 -0.0025642945 0.07105422 -0.076952204
-0.31990987 0.03390217 -0.089135535 0.011112799 0.65557504 0.23301591 0.0124323685 0.13358642
1.4613349e-06 -0.07014029 -0.0009467755 -0.0019042608 -1.021521e-25 0.02356223 1.0185989e-12 0.014072081
-0.09024565 -0.1890048 0.049503144 0.021207811 -0.34214887 -0.06997865 -0.21382283 4.516731e-06
0.13732043 -0.1160091 0.06932823 -0.080016926 1.5260863e-18 -0.013829749 -0.019036535 -0.16187504
0.071676426 -0.0048640026 -0.12514997 0.16211273 0.35306597 0.2126075 -0.30314028 -0.22646306
-0.15389942 0.023347342 0.11655089 -0.028991427 0.10392095 0.114095636 0.0007431527 -0.075612545
-0.112058386 0.49606234 -0.4482443 -1.209197e-08 0.12871774 0.02993754 -0.041665792 -0.59815997
0.34454495 -0.09778366 0.064980455 -0.22244103 -0.06287233 0.164101 0.2743218 0.060918692
1.468525e-07 0.046198525 0.042434324 4.9254e-41 -0.20399629 -0.3341086 -0.63637954 -0.07389628
-0.005754181 -0.39391184 0.16236377 -0.09149222 -0.0735076 -5.0175e-41 0.0750361 0.02772101
-0.08584374 0.020830676 0.0071051414 0.12158658 0.04058558 0.3277091 0.060463075 -4.9906e-41
0.1264839 -0.0050982307 0.06376341 -0.016379617 0.083071925 -0.13567191 0.08175126 0.098466255
-0.11834208 0.11461367 0.05219162 -7.723622e-05 -0.0054787067 -0.24007203 2.25048e-09 0.13931936
-0.021685768 -0.08731427 0.15457946 0.07646078 0.1562637 0.84959066 0.12257911 0.0571271
0.025888188 -0.039669383 1.7818164e-07 0.21308376 -0.024899404 -0.16906568 0.21338525 0.23540221
-0.12649424 0.09833265 -0.1066763 -0.07035922 -0.031544678 0.0043118238 -0.00022680114 1.4933865e-38
-0.4054356 -0.0046994053 0.11732309 -0.17048013 -0.06877694 -0.12518959 0.10312469 -4.9111e-41
-0.19076073 0.0068834033 -0.104649946 -0.18401314 -0.00053482916 -0.13721323 -0.10625267 -0.21045074
00000000: 14a4 5bbd 8efe e23d 0010 443e 310d 8cbd
00000010: 4db6 abbd 6716 283e 5218 803d 079a 14bf
00000020: 3a78 343e 73b7 cbbb 3e97 1235 cf82 b7bb
00000030: b7bf c03e bd29 6cbf 4ca9 b33d d276 21bf
00000040: 66b0 b43d 9c8a e7be 0ad7 37be e532 253e
00000050: 88fe e6bc 19da 0a3f 442c 65bf 8549 8bbe
00000060: 8f27 3c3c 0121 613d d0dd 2bbd b7cc a83d
00000070: be37 1e3e 47d8 3e3d 1008 05bf 2796 5a3d
00000080: 11b8 1a3e b162 003e deb5 c7ba ccb8 edbc
00000090: f70e 28bf f47a 9a3e 4335 8a3d 2acc 11bd
000000a0: 0d4a b83d 51f0 33be 2fbe b73c 5c99 3f3d
000000b0: ad7d 743d f027 2cbe 7b2e 273e e488 1a3e
000000c0: b3f1 5e3a bf68 16be e634 27be 1f60 10bc
000000d0: 7e71 f03d 7a11 063e a30b 353e 181c a93a
000000e0: fd88 0000 8c51 113e d95a a33d 5a80 973c
000000f0: f6fe 823c e5c2 f63d 0fc1 1e3e d9f6 203d
00000100: afd1 87be e290 813d c0fe c13e 8b1f ca3a
00000110: 4d65 243b 9deb c2bd 9a63 8a3e 660a 093e
00000120: 2eb3 be3d 40c4 053d 7a16 82bc 674b 45be
00000130: 9b0d fa3d cdc4 bcbd 39a4 20be 71bf 5b3c
00000140: 7f74 303e bdcf a7bd fef8 9dbe 0236 27be
00000150: 57f3 c835 f7de f53d a42a 6e3b 23f5 9ebc
00000160: 5cfa b6b5 b39b 133d d58f 423d 7c7c 5ebb
00000170: f21d 7fbd ce6e d0be ace9 7ebc 5778 0fbe
00000180: fcd0 bb3b 0991 523d a3a6 153e 2cf1 81be
00000190: 979f 4c3d c760 483e d9de 28be 9b31 7f3d
000001a0: 1dc9 adbd b3c3 12bd 88d8 3c27 ad89 b1bd
000001b0: 1972 41bd b90d 28bb e084 913d 1e99 9dbd
000001c0: 3acb a3be 00dd 0a3d b18c b6bd 7512 363c
000001d0: c4d3 273f b99b 6e3e 22b1 4b3c e1ca 083e
000001e0: 1623 c435 b6a5 8fbd 0731 78ba 6498 f9ba
000001f0: 96ea fc95 9405 c13c e55a 8f2b 968e 663c
00000200: b6d2 b8bd 798a 41be cfc3 4a3d 01bc ad3c
00000210: 232e afbe f750 8fbd 5ff4 5abe 6d8e 9736
00000220: ba9d 0c3e 2e96 edbd f6fb 8d3d eadf a3bd
00000230: e935 e121 2c96 62bc 82f2 9bbc 92c2 25be
00000240: 17cb 923d 3662 9fbb 5027 00be e100 263e
00000250: 10c5 b43e c8b5 593e 3435 9bbe efe5 67be
00000260: cf97 1dbe ed42 bf3c 3cb2 ee3d 6e7f edbc
00000270: 82d4 d43d f9aa e93d 22d0 423a c0da 9abd
00000280: de7e e5bd e2fb fd3e 4780 e5be 0cbd 4fb2
00000290: 95ce 033e 923f f53c c0a9 2abd 0321 19bf
000002a0: 3268 b03e cd42 c8bd 7914 853d 95c7 63be
000002b0: 35c3 80bd 180a 283e e873 8c3e e185 793d
000002c0: 82ae 1d34 aa3a 3d3d 9dcf 2d3d 4d89 0000
000002d0: 67e4 50be 4810 abbe c5e9 22bf ef56 97bd
000002e0: 928d bcbb d0ae c9be b042 263e 4660 bbbd
000002f0: 278b 96bd de8b 0080 87ac 993d 2c17 e33c
00000300: d8ce afbd 18a5 aa3c 3fd2 e83b 6302 f93d
00000310: 113d 263d 7dc9 a73e 21a8 773d 1e8b 0080
00000320: ff84 013e 0f0f a7bb 6496 823d 8c2e 86bc
00000330: 9d21 aa3d 94ed 0abe 346d a73d ada8 c93d
00000340: 555d f2bd 92ba ea3d e1c6 553d e1f9 a1b8
00000350: b986 b3bb 71d5 75be dda6 1a31 bca9 0e3e
00000360: 5aa6 b1bc d3d1 b2bd 144a 1e3e 7897 9c3d
00000370: 9703 203e c67e 593f c20a fb3d 1bfe 693d
00000380: 7713 d43c 5d7c 22bd 3252 3f34 a132 5a3e
00000390: d6f9 cbbc 8e1f 2dbe aa81 5a3e 470d 713e
000003a0: b587 01be a162 c93d 1b79 dabd 7f18 90bd
000003b0: fe34 01bd 334a 8d3b 78d1 6db9 8a9d a200
000003c0: 4195 cfbe 78fd 99bb 1747 f03d 5892 2ebe
000003d0: edda 8cbd b331 00be 0a33 d33d e788 0080
000003e0: c856 43be 2c8e e13b b652 d6bd f16d 3cbe
000003f0: c733 0cba a081 0cbe 009b d9bd 6680 57be

policy.bias f4 [127]
0.109839745 0.013342816 -0.002627842 -0.07516836 0.105704665 -0.024606578 0.18152179 0.0013127186
0.17674069 -0.04995175 0.015093712 0.08120697 0.008524743 0.026747148 0.010064426 0.09138217
0.011667937 0.071511544 -0.047475938 0.013011747 0.015083178 -0.01658091 -0.10949344 -0.00030151455
-0.010199987 -0.028077187 -0.018785603 0.012630437 0.014115071 -0.08987944 0.036119066 0.029405536
0.016144548 0.065803334 -0.061566744 0.060616646 0.107739605 -0.028389875 0.059798058 -0.051166624
0.074037105 -0.00043125564 0.006158683 0.04376168 -0.014555183 0.042950284 -0.0226607 0.15683761
-0.004390191 0.063670136 0.009873846 0.07936368 0.1224034 -0.06470286 0.02496666 0.011551266
0.087306045 0.049185675 -0.068282135 -0.012462554 -0.012456581 -0.012434644 -0.0124462955 -0.012442204
-0.012436014 -0.012436663 -0.012447241 -0.012443481 -0.012440157 -0.0124371685 -0.012437167 -0.012436055
-0.01247124 -0.012453662 -0.012433742 -0.01244313 -0.012466469 -0.012438945 -0.0124417655 -0.01246758
-0.012452262 -0.012438358 -0.012460067 -0.012478691 -0.012432215 -0.012442263 -0.012436125 -0.012451053
-0.012459133 -0.012454158 -0.012437735 -0.012454058 -0.012436708 -0.012447676 -0.012477899 -0.012450472
-0.0124462545 -0.01243194 -0.012438375 -0.012442275 -0.012446751 -0.012497755 -0.012443673 -0.012476057
-0.012454492 -0.012443363 -0.01247894 -0.0124323405 -0.012437201 -0.012452942 -0.012453342 -0.012455875
-0.012447107 -0.012433398 -0.012451887 -0.012450144 -0.012455362 -0.012435295 -0.012469035 -0.012437515
-0.012430011 -0.012445619 -0.0124591915 -0.012432872 -0.012449686 -0.012449667 -0.012454673
00000000: a9f3 e03d d49b 5a3c df37 2cbb def1 99bd
00000010: b07b d83d bc93 c9bc d9e0 393e 870f ac3a
00000020: 83fb 343e 359a 4cbd 9e4b 773c d74f a63d
00000030: 5dab 0b3c d61c db3c 43e5 243c 9326 bb3d
00000040: e02a 3f3c a574 923d 2176 42bd 392f 553c
00000050: 6f1f 773c b0d4 87bc 193e e0bd 9914 9eb9
00000060: d91d 27bc 2102 e6bc 44e4 99bc e4ef 4e3c
00000070: e642 673c b612 b8bd 96f1 133d e1e3 f03c
00000080: 9241 843c e6c3 863d 692d 7cbd 2949 783d
00000090: 95a6 dc3d e291 e8bc cfee 743d 1894 51bd
000000a0: c4a0 973d 271a e2b9 c7ce c93b 733f 333d
000000b0: dd78 6ebc a3ec 2f3d efa2 b9bc 0a9a 203e
000000c0: 97db 8fbb 7d65 823d e9c5 213c 6d89 a23d
000000d0: a2ae fa3d ef82 84bd e286 cc3c 8541 3d3c
000000e0: 83cd b23d eb76 493d 81d7 8bbd bd2f 4cbc
000000f0: b016 4cbc adba 4bbc 8ceb 4bbc 63da 4bbc
00000100: 6cc0 4bbc 25c3 4bbc 83ef 4bbc bedf 4bbc
00000110: cdd1 4bbc 44c5 4bbc 42c5 4bbc 98c0 4bbc
00000120: 2c54 4cbc 720a 4cbc e5b6 4bbc 45de 4bbc
00000130: 2940 4cbc b7cc 4bbc 8cd8 4bbc d244 4cbc
00000140: 9304 4cbc 41ca 4bbc 4f25 4cbc 6c73 4cbc
00000150: 7db0 4bbc a2da 4bbc e4c0 4bbc 80ff 4bbc
00000160: 6421 4cbc 860c 4cbc a4c7 4bbc 1b0c 4cbc
00000170: 56c3 4bbc 56f1 4bbc 1a70 4cbc 11fd 4bbc
00000180: 60eb 4bbc 56af 4bbc 53ca 4bbc afda 4bbc
00000190: 75ed 4bbc 62c3 4cbc 8ce0 4bbc 6068 4cbc
000001a0: ed0d 4cbc 3fdf 4bbc 7874 4cbc 04b1 4bbc
000001b0: 67c5 4bbc 6d07 4cbc 1a09 4cbc ba13 4cbc
000001c0: f3ee 4bbc 73b5 4bbc 0003 4cbc b0fb 4bbc
000001d0: 9311 4cbc 68bd 4bbc ec4a 4cbc b8c6 4bbc
000001e0: 3fa7 4bbc b6e8 4bbc a321 4cbc 3fb3 4bbc
000001f0: c5f9 4bbc b0f9 4bbc af0e 4cbc

value.weight f4 [1, 256]
0.015619708 -0.005111439 0.021944838 0.010078095 -0.023811635 0.017896373 0.0031786817 0.04302686
0.010082962 -0.02288437 -0.0032983322 -0.011636497 0.0012416019 -0.09647995 0.022782354 -0.43784076
0.004296956 -0.02419144 -0.038679074 8.174146e-05 -0.028983617 0.012998693 0.020246152 -0.03258933
-0.014892618 -0.0070809103 0.0011850778 -0.0023936427 0.0069172266 0.0002147129 0.014186192 0.029229881
-0.058642287 0.013566468 0.0056330804 -0.009148849 -0.025828239 -0.003793358 -0.08697961 0.012260421
0.018595774 0.031786766 0.016194545 -0.07467124 0.038018215 0.049660567 -0.03833093 0.01906271
0.008949065 -0.009273838 -0.019717092 -0.030133314 0.015963284 0.023308363 0.022907648 -0.031083737
-3.0592823e-11 -0.04857373 0.019818023 0.020176463 0.014144539 0.00036933387 -0.004712891 0.008349743
-0.042506214 0.004753516 0.13572717 0.013886959 0.029374314 0.009035121 0.04352533 -0.023576414
-0.010562662 -0.0035003363 -0.08315247 0.013355209 0.014514984 0.04407132 -0.02365233 0.059100263
-0.007671144 -0.024338907 -0.019132111 -0.03739445 0.0007965287 -0.045049906 -0.029160695 0.0036465449
0.003975892 0.05881984 -0.046265855 0.0062674996 -0.008318304 -0.021573022 0.0056696534 0.034141
-0.013738996 0.003061981 -0.036290042 -0.018774655 0.022958508 0.016492058 -0.035246264 0.031205067
-0.045291092 0.0023728437 1.1651368e-05 0.014184553 -0.019541068 0.055269517 0.004317252 0.02050427
-0.0025320577 0.026886465 0.055536143 -0.0049227057 -0.019728687 -0.01999426 -0.021964839 0.03202561
-1.4025815e-05 -0.0014938135 -0.017089393 -0.0060443226 3.1600674e-08 0.030779587 0.008382564 0.027975658
-0.011810498 0.008290843 0.056707393 0.029876977 0.00012445924 -0.054074757 -0.0035878352 -0.01454475
0.0074010417 -0.0030567737 -0.09608254 0.011285049 0.000102494894 0.0020562792 -0.016907386 0.008542334
0.00029499063 -0.033794504 0.024081137 -0.0017537537 -0.011492735 -0.04423562 -0.0037490183 -0.0031619987
-0.13811836 0.0021545987 -0.023453267 0.017759956 0.065814994 0.010098877 0.019720342 -0.014261275
0.005624116 -0.0031303598 0.03828015 -0.0017547717 0.0068260115 0.03147064 0.022712983 0.03699102
-0.06614234 0.04251963 -0.007684102 -0.0034377694 0.026758457 0.014400281 0.013603049 0.0061317817
0.0075593987 0.005726077 -0.018209266 4.7430923e-16 0.0053444775 0.016739095 -0.011230714 0.007788237
-0.003910894 -0.014266312 -0.013979903 -0.015833644 0.0076952092 6.950392e-21 -0.019740455 0.008517252
0.026691621 0.00058967475 0.018624669 0.0038365915 -0.012639431 -0.046589848 0.023937104 3.151895e-13
-0.017769195 0.02757333 -0.046460673 -0.011751867 -0.030274995 0.08115866 0.003521631 0.020620499
0.044621017 -0.009484986 -0.0043841577 0.0024012504 0.010542458 -0.0807784 -0.021442384 0.02838988
0.015201287 0.017310085 0.012346798 -0.014745637 -0.023353722 -0.008390135 0.0054912083 -0.033978738
-0.020818256 -0.0036148895 -0.0010733316 0.06987302 -0.0051597375 -0.004541055 0.007430063 -0.020578243
-0.06736433 -0.14518124 -0.03040839 -0.015306637 0.006212809 0.010864801 -0.0033139528 -5.7808136e-10
0.03735377 -0.022499498 0.009021993 0.0006637039 -0.0005489897 -0.09435326 0.011966296 1.0357561e-08
0.11337203 0.03580248 -0.043343287 -0.02195795 -0.00057881436 -0.0075135706 -0.028557276 0.008394124
00000000: cee9 7f3c dc7d a7bb a9c5 b33c 981e 253c
00000010: 9e10 c3bc 6a9b 923c 6e51 503b ef3c 303d
00000020: 0233 253c 0178 bbbc d528 58bb 02a7 3ebc
00000030: 3fbd a23a 4897 c5bd 0fa2 ba3c aa2c e0be
00000040: 7bcd 8c3b 202d c6bc f36d 1ebd 9d6c ab38
00000050: 0d6f edbc 78f8 543c 42db a53c 647c 05bd
00000060: 2b00 74bc fb06 e8bb 9d54 9b3a a9de 1cbb
00000070: e7a9 e23b 8e24 6139 346d 683c 8173 ef3c
00000080: e532 70bd e445 5e3c b495 b83b 0ee5 15bc
00000090: be95 d3bc fd99 78bb 5e22 b2bd efdf 483c
000000a0: 2a56 983c d732 023d 6caa 843c 3ced 98bd
000000b0: fdb8 1b3d e168 4b3d e500 1dbd 6729 9c3c
000000c0: 199f 123c 4cf1 17bc bd85 a1bc 24da f6bc
000000d0: 6fc5 823c 2ef1 be3c d2a8 bb3c 52a3 febc
000000e0: 758c 06ae 3ff5 46bd 6859 a23c 1c49 a53c
000000f0: 7fbe 673c 27a3 c139 986e 9abb 5ccd 083c
00000100: ff1a 2ebd 62c3 9b3b 10fc 0a3e 2186 633c
00000110: 67a2 f03c 0b08 143c 9e47 323d 5323 c1bc
00000120: 040f 2dbc e665 65bb d84b aabd cecf 5a3c
00000130: 41d0 6d3c 2184 343d 88c2 c1bc 1e13 723d
00000140: 385e fbbb 6362 c7bc f2ba 9cbc ec2a 19bd
00000150: 23ce 503a 4086 38bd 69e2 eebc dffa 6e3b
00000160: 3348 823b 13ed 703d 4481 3dbd 995f cd3b
00000170: 7f49 08bc e8b9 b0bc 80c8 b93b 6fd7 0b3d
00000180: 8719 61bc 84ab 483b dea4 14bd 4ecd 99bc
00000190: 7b13 bc3c 5a1a 873c 635e 10bd c5a1 ff3c
000001a0: 2783 39bd b681 1b3b 3f7a 4337 5466 683c
000001b0: 9714 a0bc 4a62 623d bc77 8d3b 92f8 a73c
000001c0: e1f0 25bb 0141 dc3c de79 633d a64e a1bb
000001d0: 0e9e a1bc 01cb a3bc 9bef b3bc 492d 033d
000001e0: 6b50 6bb7 10cc c3ba 0eff 8bbc 740f c6bb
000001f0: 4fb9 0733 7925 fc3c 0657 093c 352d e53c
00000200: d280 41bc 51d6 073c 0346 683d 90c0 f43c
00000210: 4681 0239 7e7d 5dbd e321 6bbb 1a4d 6ebc
00000220: 7084 f23b 2754 48bb ecc6 c4bd ede4 383c
00000230: 87f2 d638 a4c2 063b 5c81 8abc 25f5 0b3c
00000240: f9a8 9a39 1b6c 0abd ce45 c53c 36de e5ba
00000250: 064c 3cbc 6930 35bd 17b2 75bb 8939 4fbb
00000260: e66e 0dbe 2b34 0d3b 1121 c0bc 547d 913c
00000270: 03ca 863d c375 253c 8e8c a13c 1fa8 69bc
00000280: 814a b83b b926 4dbb a6cb 1c3d 5e00 e6ba
00000290: bcac df3b 5ce7 003d 9410 ba3c e583 173d
000002a0: a375 87bd 1029 2e3d ebca fbbb 334c 61bb
000002b0: 8d34 db3c 28ef 6b3c 53df 5e3c 1ded c83b
000002c0: d5b4 f73b d1a1 bb3b 992b 95bc d8b5 0826
000002d0: ba20 af3b 6d20 893c 0701 38bc 7834 ff3b
000002e0: f526 80bb 40bd 69bc f70b 65bc 8fb5 81bc
000002f0: 1828 fc3b 094a 031e bcb6 a1bc f28b 0b3c
00000300: 63a8 da3c 6794 1a3a c392 983c 536f 7b3b
00000310: 9e15 4fbc ffd4 3ebd bf17 c43c 986f b12a
00000320: b490 91bc 77e1 e13c 8c4d 3ebd e78a 40bc
00000330: 4403 f8bc 8336 a63d 2acb 663b 52ec a83c
00000340: 87c4 363d ea66 1bbc fba8 8fbb 4c5e 1d3b
00000350: 46ba 2c3c 256f a5bd f0a7 afbc e591 e83c
00000360: d20e 793c e1cd 8d3c 394a 4a3c af97 71bc
00000370: 4e50 bfbc c776 09bc 98ef b33b 4a2d 0bbd
00000380: 0c8b aabc c8e7 6cbb 08af 8cba 9619 8f3d
00000390: 0413 a9bb 21cd 94bb e377 f33b b493 a8bc
000003a0: 4ff6 89bd 64aa 14be 041b f9bc b0c8 7abc
000003b0: d294 cb3b 4702 323c e72e 59bb dce6 1eb0
000003c0: 4400 193d de50 b8bc fbd0 133c 6afc 2d3a
000003d0: 13ea 0fba 483c c1bd 480e 443c 09f1 3132
000003e0: 982f e83d 9fa5 123d bb88 31bd 29e1 b3bc
000003f0: 93bb 17ba 6634 f6bb f3f0 e9bc 8287 093c
