model.onnx (onnx, 529886 bytes, 7 tensors)

fc1.weight f4 [256, 130]
0	0x3defa41f	0.117012255
1	0x3dfb59d0	0.1227299
2	0xbc8e7dd6	-0.017393988
3	0x3dbd85da	0.09254046
4	0xbc5173a4	-0.0127839185
5	0x3cdfb0b7	0.027305944
6	0xbd0407bb	-0.032233935
7	0x3dce5665	0.10075072
8	0x3e017abd	0.12644477
9	0xbd7a09c7	-0.06104448
10	0x3d5f22d6	0.05447658
11	0xbb805642	-0.0039165327
12	0x3da0ec0d	0.07857523
13	0x3d07378e	0.033011965
14	0x3d643cdb	0.0557221
15	0xbb92b233	-0.0044768094
16	0x3dd74be9	0.105125256
17	0x3d53a7a2	0.05167354
18	0xbd18711b	-0.03721724
19	0x3cb1c7c5	0.021701703
20	0xbd4ae09b	-0.049530607
21	0xbb54292d	-0.0032373175
22	0xbcbd8a43	-0.023137217
23	0x3d79480f	0.060859736
24	0xbccf4d19	-0.025305318
25	0x3b28a363	0.0025732152
26	0xbc974e7f	-0.018470047
27	0x3c9c8765	0.01910753
28	0x3da64e9e	0.08120464
29	0xbda311dc	-0.07962391
30	0x3e084fd1	0.13311698
31	0xbcadf967	-0.021237088
32	0x3df68b46	0.12038283
33	0x3d8a56af	0.06754815
34	0xbcc9f6ba	-0.024653781
35	0x3dbd36da	0.09238978
36	0x3d679699	0.056540105
37	0x3dd5d467	0.10440903
38	0x3d1483d6	0.03625854
39	0x3c477074	0.012172807
40	0x3d5f0f02	0.054457672
41	0xbc88ac8a	-0.016683836
42	0x3d332a67	0.04374161
43	0x3e0f06cc	0.13967437
44	0x3de5d60b	0.11222466
45	0xbcff9df9	-0.031203257
46	0x3de07f6d	0.109618045
47	0x3d8c7eaf	0.068601005
48	0x3d9181c9	0.07104833
49	0xbcd78399	-0.026307868
50	0xbd5456e8	-0.051840693
51	0x3b24ed94	0.0025166022
52	0xbd7011f5	-0.058610875
53	0x3d9d3195	0.07675473
54	0x3d062653	0.032751393
55	0x3d2c5e7f	0.042082306
56	0x3d146ceb	0.036236685
57	0x3bd7c416	0.0065846546
58	0x3d9380a5	0.07202271
59	0xbd712317	-0.058871355
60	0xb5bcb07a	-1.4058453e-06
61	0x38f81823	0.00011830057
62	0x3767bb4d	1.3812282e-05
63	0x36ed3aef	7.070011e-06
64	0x377019c9	1.4311118e-05
65	0xb600f8b9	-1.9218262e-06
66	0x3a15ef83	0.0005719589
67	0x3817b305	3.616793e-05
68	0x382e3d4c	4.154192e-05
69	0x382e7589	4.1594296e-05
70	0x3ac502d5	0.0015030751
71	0x352a50ef	6.344771e-07
72	0x3b3208ef	0.002716597
73	0xba0b1ea7	-0.0005306997
74	0xbb5fb603	-0.0034135587
75	0xb9410a93	-0.00018409854
76	0x38f9f925	0.00011919652
77	0xb796aec9	-1.7962784e-05
78	0xb7823efc	-1.5526537e-05
79	0x3a1a0f81	0.0005876944
80	0xb82592b4	-3.9475693e-05
81	0x38f8901b	0.00011852403
82	0x380c1f1c	3.3407574e-05
83	0x3799ca0c	1.8333107e-05
84	0xb86e5dcd	-5.683098e-05
85	0x373a8804	1.11181325e-05
86	0xb6f803c0	-7.3914125e-06
87	0xb91e3399	-0.00015087276
88	0xb82c48fd	-4.107597e-05
89	0x37758c9d	1.4635877e-05
90	0xb41677fb	-1.4013487e-07
91	0x36adb873	5.1772745e-06
92	0xb82c3b97	-4.1063493e-05
93	0xb8f96ac6	-0.00011893133
94	0x3883d8ee	6.286973e-05
95	0xb803897e	-3.1360883e-05
96	0x3ae98de4	0.0017818776
97	0x3617b970	2.2608692e-06
98	0x376322dc	1.3538371e-05
99	0xbb39e405	-0.002836467
100	0x3709ba65	8.209235e-06
101	0xb70460da	-7.890363e-06
102	0xb6b58e66	-5.4107977e-06
103	0x38802b0a	6.111532e-05
104	0xb4f208ea	-4.5082498e-07
105	0x38f7c188	0.00011813926
106	0xba4cda9b	-0.0007814557
107	0xb79243b4	-1.7436083e-05
108	0xba9446ad	-0.0011312567
109	0x38c8dba5	9.577655e-05
110	0x3b6c7b56	0.0036084256
111	0x370bc90a	8.331854e-06
112	0x3768a349	1.3866295e-05
113	0xbb09a6c4	-0.002100394
114	0x38edab10	0.000113329035
115	0xb572f0f4	-9.050266e-07
116	0xb6e09c5c	-6.693923e-06
117	0xba9d3359	-0.0011993452
118	0x35aa6312	1.269482e-06
119	0x383c1d8c	4.485021e-05
120	0xb424d154	-1.5349843e-07
121	0x37b22736	2.1237513e-05
122	0xb6321435	-2.653583e-06
123	0x38fa05d8	0.000119220174
124	0x38f51fa1	0.00011688402
125	0x37bfaeb9	2.2850336e-05
126	0x36bd4e40	5.6417484e-06
127	0xb971226e	-0.00022996377
128	0x3a2f2477	0.0006681154
129	0xbbbfd5a2	-0.0058543244
130	0x3dd91ea4	0.10601547
131	0x3d6ddfc1	0.058074716
132	0xbd647fc4	-0.05578591
133	0xbc3a19b4	-0.011358667
134	0xbdbc6361	-0.091986425
135	0xbdb4909b	-0.08816644
136	0xbe01fcbd	-0.12694068
137	0xbd6fd4ca	-0.05855254
138	0x3d5a5b6a	0.053309835
139	0xbad6702e	-0.0016360336
140	0xbd6b005a	-0.057373382
141	0xbe2d8174	-0.16943914
142	0x3cc02ee8	0.023459867
143	0xbdde268d	-0.10847197
144	0xbd644dd3	-0.05573828
145	0xbc9a5575	-0.018839577
146	0x3dbf76f3	0.0934886
147	0x3df6abdf	0.120445006
148	0x3dbe2666	0.09284668
149	0xbdf47fe6	-0.11938457
150	0x3b8bf4ce	0.0042711264
151	0xbd6b398d	-0.05742793
152	0xbcea098f	-0.028569011
153	0xbd39b774	-0.04534097
154	0x3dbf4ff4	0.09341422
155	0xbd69509a	-0.056961633
156	0x3d86cf8f	0.065825574
157	0x3e0030fc	0.12518686
158	0x3dfe4f88	0.12417513
159	0xbcdcd01b	-0.026954701
160	0x3e14395b	0.14475004
161	0x3da92727	0.08259421
162	0x3c91b457	0.017786188
163	0xbd8fbdd8	-0.07018632
164	0x3d64e841	0.055885557
165	0x3d46adca	0.048505582
166	0x3cd1b0fe	0.025597092
167	0x3de13ab7	0.10997527
168	0x3d55692d	0.052102257
169	0xbd608404	-0.0548134
170	0xbd6e74c6	-0.058216833
171	0x3d7c13aa	0.06154219
172	0x3deaa625	0.11457471
173	0x3bf5b74e	0.0074986583
174	0xbca3c1da	-0.019989897
175	0xbc277911	-0.010221736
176	0xbd06b1b6	-0.032884322
177	0x3d75bb80	0.059993267
178	0x3de6ea7e	0.112751946
179	0xbd193012	-0.03739936
180	0x3d930b2c	0.07179865
181	0x3dc6afdb	0.097015105
182	0x3cfcb440	0.030847669
183	0xbc8a30d2	-0.016868982
184	0x3d83d812	0.064376965
185	0x3d5c4ecf	0.053786095
186	0x3d410a10	0.047128737
187	0x3b4a346f	0.0030854007
188	0xbc7dcfad	-0.015491408
189	0x3c8efbf8	0.017454132
190	0xb6429646	-2.8995723e-06
191	0xb7800ebf	-1.5265656e-05
192	0xb8ce6cac	-9.843087e-05
193	0x3a7071fd	0.0009172259
194	0xb5fca0c5	-1.8822253e-06
195	0x370447b8	7.884511e-06
196	0xb502eb19	-4.8770886e-07
197	0x361235af	2.1786943e-06
198	0xb735fef3	-1.0847801e-05
199	0x3731c6e3	1.0596329e-05
200	0xbad87a73	-0.0016515985
201	0x37aa6d5e	2.0316507e-05
202	0x3a39d557	0.000708898
203	0xb7bccca8	-2.2506647e-05
204	0xb49588e4	-2.7853014e-07
205	0x3855fc21	5.101797e-05
206	0x3885ccd4	6.3800864e-05
207	0xbabd2a97	-0.0014432248
208	0xb6b697ed	-5.441709e-06
209	0xb6246d8e	-2.4501674e-06
210	0xb8cae0e5	-9.6740005e-05
211	0x37c4dc58	2.3467626e-05
212	0xbaa5085f	-0.0012590996
213	0x384c92e3	4.877419e-05
214	0x36e1c8ad	6.7288843e-06
215	0x3b3986d7	0.002830913
216	0xb5aa6adb	-1.2697086e-06
217	0x363645d1	2.7160752e-06
218	0xb7608de6	-1.3384479e-05
219	0x37bec267	2.274029e-05
220	0x38deb3a0	0.00010619243
221	0xb854a71b	-5.0700368e-05
222	0xb79810ac	-1.8127575e-05
223	0xb6d6b8c1	-6.399205e-06
224	0xbb648175	-0.0034867201
225	0xb8f8d55b	-0.00011865302
226	0x384fdb58	4.9556926e-05
227	0xb79bdd60	-1.8580526e-05
228	0x38e554b7	0.0001093535
229	0xbb57bdb1	-0.0032919461
230	0xb9d66598	-0.00040892954
231	0x3469d143	2.1775945e-07
232	0x38125ea1	3.4897243e-05
233	0x3a37fc72	0.0007018513
234	0x381a8936	3.684425e-05
235	0xb6d0ffa8	-6.2286454e-06
236	0xb459eafb	-2.0295185e-07
237	0xb883e7e5	-6.2897605e-05
238	0xba67b111	-0.00088383356
239	0xbb0d136a	-0.0021526464
240	0xb784e5e6	-1.5842681e-05
241	0xb8240fa8	-3.9115228e-05
242	0xb6ca91a1	-6.0370226e-06
243	0x3748e773	1.1974817e-05
244	0xb6cf7a78	-6.183338e-06
245	0x38d623da	0.00010210993
246	0x38e8f821	0.0001110884
247	0x35e20269	1.6839014e-06
248	0xb77fd660	-1.52490975e-05
249	0xb895fcee	-7.1519855e-05
250	0xb70e604e	-8.486282e-06
251	0x3828ddc9	4.0260875e-05
252	0xb638e251	-2.754987e-06
253	0xb81b0b61	-3.6965477e-05
254	0xb771e58d	-1.4418166e-05
255	0xbb236f9d	-0.0024938353

fc1.bias f4 [256]
0	0x3db78791	0.08961404
1	0xbd0010ca	-0.03126601
2	0xbc9e5030	-0.019325346
3	0x3dcdcb82	0.10048582
4	0x3c9796a0	0.01850444
5	0x3df2491d	0.118303515
6	0xbca4236c	-0.020036422
7	0x3c7cea4a	0.015436718
8	0x3cf002a8	0.029298142
9	0x3d0082fb	0.031374913
10	0xbd9ec783	-0.077528976
11	0x3c87b53c	0.016565911
12	0x3d5225a4	0.05130543
13	0xbd207126	-0.039170407
14	0x3d936a12	0.07197966
15	0x3dd302bb	0.10303255
16	0x3dc28a6b	0.094990574
17	0x3ded3bfa	0.11583705
18	0x3aaa99cf	0.0013015809
19	0xbccd9916	-0.025097411
20	0x3d6cd2cd	0.057818223
21	0x3db7c327	0.08972769
22	0xbbc8c2a1	-0.006126717
23	0x3d869f19	0.06573314
24	0xbc877ffe	-0.016540524
25	0xbc765538	-0.015034966
26	0x3da50fea	0.08059676
27	0x3debc11f	0.11511444
28	0xbd77e546	-0.060521387
29	0x3db47cf7	0.08812898
30	0x3da340bc	0.079713315
31	0x3d0f094c	0.034920976
32	0x3d458569	0.048222933
33	0x3d517a64	0.05114211
34	0xbb9bbe96	-0.004752944
35	0x3d9d5361	0.07681919
36	0xbd5a2c4a	-0.053264894
37	0xbb3e9f14	-0.0029086517
38	0xbc6244cf	-0.013810351
39	0x3d284284	0.04107906
40	0xbd47351f	-0.048634645
41	0x3d7d6243	0.061861288
42	0xbc48287f	-0.012216686
43	0x3d946714	0.07246223
44	0x3c2d1ce6	0.010565972
45	0x3caa1300	0.020761013
46	0x3cb55001	0.022132875
47	0x3d7ef8a2	0.062248833
48	0x3d4efd80	0.050534725
49	0x3d7a60e4	0.06112756
50	0xbc6f9ee8	-0.014625289
51	0xbca49875	-0.020092228
52	0x3d363a6f	0.04448932
53	0xbd41c69a	-0.04730854
54	0x3d29258c	0.041295573
55	0x3d9722dd	0.073796965
56	0x3dcb0b26	0.09914236
57	0x3d8fc92c	0.07020792
58	0x3b82668e	0.0039795106
59	0xbd45e342	-0.048312433
60	0x3c0c5055	0.0085640745
61	0xbd847db9	-0.06469292
62	0x3ba53db0	0.005042754
63	0x3da84f32	0.0821823
64	0x3d9642d6	0.07336967
65	0xbd95fad3	-0.073232315
66	0x3d568e8a	0.05238203
67	0xbd12c062	-0.035828
68	0xbd0b5c28	-0.034023434
69	0xbd32ef60	-0.043685317
70	0xbc4f8bbd	-0.012667594
71	0xbbe71c8b	-0.007052963
72	0xbce7e080	-0.028305292
73	0x3dbbf8d1	0.09178317
74	0x3c8048d0	0.01565972
75	0x3d450173	0.048097085
76	0xbcb15ae9	-0.021649795
77	0x3d9474a4	0.0724881
78	0xbd1a2562	-0.037633307
79	0x3b5e600d	0.0033931762
80	0xbd03a3cf	-0.032138642
81	0x3c374b73	0.011187422
82	0xbc198083	-0.0093690185
83	0xbd8bd64e	-0.06827985
84	0x3d045fce	0.03231793
85	0xbd89c016	-0.067260906
86	0x3ce81de9	0.028334575
87	0x3c922c8d	0.01784351
88	0x3d790312	0.060793944
89	0xbd8bb98e	-0.06822501
90	0x3cfe2b50	0.031026512
91	0xbc201b26	-0.009772098
92	0xbd95919c	-0.073031634
93	0x3db8a6b7	0.09016173
94	0x3db706a4	0.089368135
95	0x3d564cf2	0.052319475
96	0x3d97c16a	0.07409938
97	0x3d53431b	0.05157767
98	0x3d7ccf49	0.06172112
99	0xbcccc14d	-0.024994517
100	0x3d782df8	0.060590714
101	0x3d5cd29d	0.053911794
102	0xbd340851	-0.043953244
103	0xbb40bc19	-0.002940899
104	0xbcc32269	-0.023820119
105	0xbd769f40	-0.060210466
106	0x3db8da87	0.09026056
107	0xbb09da3a	-0.0021034614
108	0xbb5995d2	-0.0033200872
109	0xbd685686	-0.05672314
110	0x3df3a0ee	0.11895929
111	0xbbd1fac8	-0.0064080693
112	0x3db9e51a	0.09076901
113	0x3daae7be	0.083449826
114	0xbcacd215	-0.021096269
115	0x3c9bf654	0.019038357
116	0x382c4835	4.1075244e-05
117	0x3dd08748	0.10182053
118	0xbca1178a	-0.019664545
119	0xbb48adb3	-0.003062111
120	0x3df299bf	0.11845731
121	0x3dbdf4f4	0.09275237
122	0xbd0d1a0c	-0.03444867
123	0x3d04837d	0.03235196
124	0xbd2bf3f4	-0.0419807
125	0x3d4d9049	0.05018643
126	0x3d882816	0.06648271
127	0xbc9f821a	-0.019471217
128	0xbc158e84	-0.009128217
129	0x3d9af1e9	0.07565672
130	0x3c0221b4	0.007942606
131	0xbd60b31c	-0.054858312
132	0x3d3a1698	0.045431703
133	0x3d87cf52	0.0663134
134	0x3ccb6f6e	0.024833407
135	0x3de0e4f3	0.109811686
136	0xbd4ddcde	-0.050259463
137	0x3c71c448	0.01475627
138	0xbd2ce4b5	-0.0422103
139	0xbd863f3e	-0.06555031
140	0x3d8f8717	0.07008188
141	0x3da9707b	0.08273407
142	0xbcbc064f	-0.022952227
143	0xbd258c73	-0.040417146
144	0xbc9f8a4a	-0.019475121
145	0xbd6071b1	-0.054795925
146	0x3cb39a5a	0.021924186
147	0x3dda8875	0.10670558
148	0x3d365c1e	0.044521444
149	0x3c7cbb8a	0.015425572
150	0xbd18d777	-0.03731486
151	0x3c88b7f2	0.016689274
152	0x3cc44dbf	0.023962853
153	0xbd6f78f7	-0.05846497
154	0x3c777cda	0.0151054505
155	0x3d0dde33	0.034635734
156	0xbd28a35f	-0.041171428
157	0xbd1a4d56	-0.03767141
158	0x3da87a10	0.082264066
159	0xb7fc73c2	-3.0094645e-05
160	0xbaf25a35	-0.0018490019
161	0xbc48d67d	-0.012258169
162	0x3d807b7c	0.06273553
163	0x3c8deafa	0.01732396
164	0x3da02a59	0.07820577
165	0xbb1b43bb	-0.0023691494
166	0xbd2a71e1	-0.04161251
167	0x3d9517c8	0.072799265
168	0xbcaeb23c	-0.021325223
169	0x3db126d9	0.08649988
170	0x3c54091d	0.012941626
171	0x3d0fd08b	0.03511099
172	0xbd0ac589	-0.03387979
173	0xbd943c76	-0.072380945
174	0xbd14ad9b	-0.036298376
175	0x3d5fc4d8	0.054631084
176	0xbd5390ac	-0.05165164
177	0x3c43793a	0.011930758
178	0x3d1ae13f	0.037812468
179	0x3d1caadc	0.03824888
180	0xbdab1fd5	-0.08355681
181	0xbc3f409c	-0.011673119
182	0x3d010f0d	0.031508494
183	0x3585fab5	9.982238e-07
184	0xbc2274c9	-0.009915539
185	0x3e007ca8	0.12547553
186	0xbbf2e8f5	-0.0074130245
187	0x3ddd477a	0.10804649
188	0x3e1127fd	0.1417541
189	0x3cb77f37	0.022399528
190	0x3d8ff5e1	0.070293196
191	0x3dd4276f	0.10359084
192	0xbd83be12	-0.064327374
193	0xbd2ed430	-0.042682827
194	0x3d5d5f26	0.05404582
195	0xbc5e67b1	-0.013574527
196	0xbcf77d2f	-0.03021106
197	0xbd4e593b	-0.050378066
198	0x3d78fab1	0.060785953
199	0x3daf9d14	0.08574882
200	0xbaa4ce8c	-0.0012573763
201	0x3d8180b3	0.063233756
202	0x3d90a730	0.070631385
203	0x3d4bb442	0.049732454
204	0xbce78991	-0.028263839
205	0x3d872b3e	0.06600045
206	0x3d6f74f7	0.058461156
207	0xbc85a127	-0.016312195
208	0x3dab9ae3	0.08379152
209	0x3d93a1ee	0.0720862
210	0xbd3a5127	-0.04548755
211	0xbceb532a	-0.02872618
212	0x3d4cbbc3	0.04998375
213	0x3d7774c7	0.060414102
214	0xbc811fe3	-0.015762275
215	0x3db7acca	0.08968504
216	0x3c9c3151	0.019066485
217	0xbb90af6a	-0.0044154422
218	0x3d8b640a	0.0680619
219	0x3b0baf53	0.0021314218
220	0x3dca69ff	0.098834984
221	0x3d85e67e	0.065381035
222	0x3d913360	0.07089877
223	0x3d0351e2	0.03206051
224	0x3cd5a201	0.026078226
225	0x3d7c0d5d	0.06153618
226	0xbd2325af	-0.03983086
227	0xbc92c2bd	-0.017915124
228	0x3d111f82	0.03543044
229	0x38e1b32a	0.00010762208
230	0xbd2dc9e4	-0.042428866
231	0xbd3aa746	-0.04556968
232	0xba6003e9	-0.00085455045
233	0x3e234607	0.15944682
234	0xbca9a0a6	-0.020706486
235	0x3d1c336d	0.03813498
236	0x3dce0fb2	0.100615874
237	0x3dddbab4	0.108266264
238	0x3c6cb32a	0.014447013
239	0xbc8c9f72	-0.017165873
240	0x3dbc491b	0.09193631
241	0x3d6da066	0.058014296
242	0xbd5b7536	-0.053578578
243	0xbd233c27	-0.039852288
244	0xbbb0e1d8	-0.0053980164
245	0xbc3ad8f9	-0.011404269
246	0xbcb3ea87	-0.021962417
247	0x3d4a1efe	0.049345963
248	0x3dba95f6	0.09110634
249	0xbd1f4cdb	-0.038891654
250	0xbc49364d	-0.012281013
251	0x3d6c1bb3	0.057643604
252	0xbc50da71	-0.012747393
253	0x3d365b48	0.044520646
254	0x3d0a7a71	0.033808175
255	0xbd351c0d	-0.044216204

fc2.weight f4 [256, 256]
0	0x3ba5a5a4	0.0050551463
1	0x3d855607	0.06510549
2	0x3ce9a533	0.028521156
3	0x3c9ce5aa	0.019152481
4	0xbd67842b	-0.05652253
5	0x3c488026	0.012237584
6	0xbdaa4f92	-0.08315958
7	0x3a3fb38b	0.0007312826
8	0xbd1259a6	-0.035730027
9	0x3bd290e2	0.006425963
10	0x3d43602f	0.04769915
11	0xbbc61bc8	-0.0060457923
12	0x3d31dbcf	0.043422516
13	0x3d0ce774	0.03440042
14	0x3b8e3b70	0.0043405816
15	0xbd40def0	-0.04708761
16	0x3d704bc7	0.058666017
17	0x3d3caa2a	0.04606072
18	0xbd0b942b	-0.03407685
19	0x3d3a3ae3	0.045466315
20	0x3d439f10	0.047759116
21	0x3d11fd76	0.03564211
22	0x393b3b31	0.0001785576
23	0xbd2e20aa	-0.04251162
24	0xbad67706	-0.0016362376
25	0x3bd4d0a6	0.0064945994
26	0xbb8e6425	-0.0043454343
27	0xbca96389	-0.020677345
28	0x3d737b94	0.059444025
29	0x3d732ffb	0.05937193
30	0x3ce3dd03	0.027815348
31	0xbd40323c	-0.046922907
32	0x3cfe412e	0.03103694
33	0x3c7a7c99	0.015288495
34	0x3714a4c6	8.859852e-06
35	0x3c615f1d	0.013755587
36	0x3d840857	0.06446903
37	0x3cdd6bb0	0.027028888
38	0x3d919cbb	0.07109972
39	0x3c2ab6d3	0.010419565
40	0x3d030593	0.031987738
41	0xbb76e910	-0.0037675537
42	0x3ceb658b	0.028734943
43	0x3d16e4f8	0.036839455
44	0xbb9a2a23	-0.00470473
45	0x3d7ca945	0.061684866
46	0xbc54ce0c	-0.0129885785
47	0xbd5a4e23	-0.053297173
48	0xbcf7d69e	-0.030253705
49	0x3da1e231	0.07904471
50	0x3c6db1c0	0.014507711
51	0xbcebce40	-0.028784871
52	0xbd523a1d	-0.051324952
53	0xbd269bf3	-0.04067607
54	0xbd7bac32	-0.061443515
55	0x3db06f00	0.086149216
56	0x3d175803	0.03694917
57	0x3d1f04c8	0.03882292
58	0xbd7cfcf1	-0.06176466
59	0x3cb83860	0.02248782
60	0xbc5d65f3	-0.013513076
61	0xbc86b9fa	-0.016446102
62	0x3df7020f	0.120609395
63	0x3d058da7	0.032605793
64	0x3c20e519	0.009820246
65	0x3d630583	0.05542518
66	0xbd20d88a	-0.039269008
67	0xbd8e7087	-0.06955057
68	0x3d96f463	0.07370832
69	0x3d4037a4	0.046928063
70	0x3e0611e6	0.13092765
71	0xbc00e0eb	-0.007866125
72	0x3d4efe75	0.050535638
73	0xbb16edc2	-0.0023029898
74	0x3c36dc01	0.011160851
75	0xbc843313	-0.016137635
76	0x3d848244	0.06470159
77	0x3d2e6baf	0.042583164
78	0xbd852524	-0.06501225
79	0x3c5dcf4d	0.013538194
80	0xbdbcbb32	-0.09215392
81	0xbcc97522	-0.024591986
82	0xbcfa19aa	-0.030529816
83	0x3d6951e5	0.056962866
84	0xbbdfbfcc	-0.006828284
85	0x3ccdbeaa	0.02511533
86	0x3d14f479	0.03636596
87	0x3dba0ea2	0.09084822
88	0x3d8217a8	0.06352168
89	0x3d823763	0.063582204
90	0xb9e00572	-0.00042728666
91	0x3c2acefb	0.010425325
92	0x3c3b23a9	0.011422076
93	0x3cfdaf8c	0.030967496
94	0xbd093bde	-0.03350436
95	0xbd460f03	-0.04835416
96	0xbdde75d7	-0.1086232
97	0x3d98881e	0.07447837
98	0x3d4e2692	0.050329752
99	0x3d58dabf	0.052942988
100	0x3cb16a66	0.02165718
101	0x3ca7aed4	0.020469107
102	0xbc15c384	-0.009140853
103	0x3cdd886f	0.027042596
104	0x3d873546	0.06601958
105	0x3c75fa16	0.015013238
106	0xbdab6b04	-0.08370021
107	0x3d68e65d	0.056860317
108	0xbbcb67f3	-0.00620746
109	0xbcf806dd	-0.03027671
110	0x3d877949	0.0661493
111	0xbc8ea3a3	-0.017412012
112	0x3d79912f	0.060929473
113	0x3d490a5e	0.049082153
114	0xbc43894c	-0.01193459
115	0xbd215c4a	-0.039394654
116	0xb7073569	-8.059063e-06
117	0xbcd3325d	-0.025780851
118	0xbd985675	-0.07438365
119	0x3d995c56	0.07488315
120	0x3bb1d819	0.005427372
121	0xbd24cdf6	-0.040235482
122	0x3d21e46f	0.039524492
123	0xbc8d9be6	-0.017286252
124	0x3bc14603	0.0058982386
125	0xbda7fca7	-0.082024865
126	0xbb3e555c	-0.0029042577
127	0xbcce1c6b	-0.025160035
128	0x3d5788c9	0.052620683
129	0xbd7884d9	-0.06067357
130	0x3cb0115c	0.021492653
131	0xbd556ac3	-0.05210377
132	0x3d8294da	0.063760474
133	0x3d54f2c1	0.05198932
134	0x3bc6f281	0.006071389
135	0xb9af4f68	-0.00033437763
136	0x3d1c602c	0.038177654
137	0x3d9803f0	0.07422626
138	0xbd794da1	-0.06086505
139	0x3d0774f1	0.03307051
140	0x3bc5c144	0.006035002
141	0xbd7a8c64	-0.061169043
142	0x3b5b6bc7	0.0033480988
143	0x3cb61848	0.022228375
144	0x3baa4920	0.0051967055
145	0xba06531d	-0.0005124079
146	0x3d26050a	0.04053215
147	0xbd389701	-0.045065884
148	0xbd0a6869	-0.03379098
149	0xbd37ab81	-0.044841293
150	0x3ced07e1	0.028934421
151	0xbcc9644d	-0.02458396
152	0xbddc9354	-0.10770288
153	0x3d2b5592	0.041829653
154	0x3d5a858e	0.053350024
155	0x3c970e81	0.018439533
156	0xbc7770d9	-0.015102589
157	0xbdc21b01	-0.09477807
158	0x3cb7cad2	0.02243558
159	0x362414f8	2.445011e-06
160	0x3d3e5931	0.04647178
161	0x3caac97a	0.020848025
162	0xbc91d1cc	-0.017800234
163	0x3d9bfc94	0.07616535
164	0x3d4ebc27	0.050472405
165	0x39c665b5	0.0003784128
166	0xbb1adf3d	-0.0023631596
167	0xbc974d3a	-0.018469442
168	0x3da0bc00	0.07848358
169	0x3d16d6ee	0.036826067
170	0xbbd00d66	-0.0063492535
171	0x3d4c093b	0.04981349
172	0x3d4a0690	0.049322665
173	0x3d7aecef	0.061261114
174	0x3c8f78b6	0.017513614
175	0x3c89d689	0.016825931
176	0xbd6a1d4f	-0.057156857
177	0xbc892a62	-0.016743843
178	0x3d762321	0.060092095
179	0xbd543dba	-0.05181668
180	0x3cf902da	0.030396868
181	0xbd0572f0	-0.032580316
182	0x3d34555f	0.04402673
183	0xb8b7ec48	-8.770131e-05
184	0xbcdaa8f7	-0.026691897
185	0x3de1306b	0.10995563
186	0x3d3c7c5a	0.04601703
187	0x3aa29b07	0.0012405821
188	0x3d21005e	0.03930699
189	0xba63b5a7	-0.0008686431
190	0x3c6811b9	0.014164382
191	0x3cc392db	0.023873737
192	0x3d3adeb8	0.045622557
193	0x3d917ea1	0.07104231
194	0xbc921acf	-0.017835049
195	0x3bc17180	0.005903423
196	0xbcbcafc5	-0.023033032
197	0xbd4cc203	-0.04998971
198	0xbd894690	-0.06702912
199	0x3cb83cdc	0.022489958
200	0x3d847ea4	0.06469467
201	0x3c247daf	0.010039731
202	0x3d7abe79	0.061216805
203	0x3dc0d5ae	0.09415756
204	0xbd258b20	-0.040415883
205	0x3d43f97e	0.047845356
206	0x3d801f6d	0.06255994
207	0xbd8be1ec	-0.068302006
208	0xbd00dac0	-0.031458616
209	0x3ce1c447	0.027559413
210	0xbc507794	-0.012723822
211	0x3da673bb	0.081275426
212	0xbca45372	-0.020059321
213	0xbd3269de	-0.043557994
214	0xbd2487e9	-0.040168677
215	0xbc8bf9a1	-0.017086806
216	0x3c41b1ec	0.011822205
217	0x392cede2	0.00016491816
218	0x3c026def	0.0079607805
219	0x3cb04a5b	0.02151983
220	0xbd1b2b37	-0.03788301
221	0xbbbfbad0	-0.005851127
222	0xbce27278	-0.027642474
223	0xbd9ce775	-0.076613344
224	0xbd1683ed	-0.036746908
225	0x3d03400d	0.032043505
226	0x3dac0e09	0.084011145
227	0x3c95c351	0.01828161
228	0xbc85a9d1	-0.016316326
229	0x3d0b4c02	0.034008034
230	0xbbdec8b9	-0.0067988303
231	0x3c88840b	0.016664525
232	0xbd240fab	-0.040054005
233	0x3d10ccfc	0.03535174
234	0xbc57ca24	-0.013170753
235	0x3c569768	0.0130976215
236	0xbcb374d0	-0.021906286
237	0xbd38b468	-0.045093924
238	0xba0d3323	-0.0005386343
239	0xbc00cc2f	-0.007861181
240	0xbd257087	-0.040390518
241	0xbd8177db	-0.06321689
242	0x3d5b43ab	0.05353133
243	0xbddc382e	-0.10752903
244	0xbd92bd6a	-0.07165034
245	0x3d5dcce8	0.054150492
246	0x3d5db5f1	0.05412859
247	0x3dbfcc86	0.093651816
248	0xbc232052	-0.009956436
249	0xbc601b1e	-0.01367834
250	0xbe0f652d	-0.14003439
251	0x3dc28c84	0.094994575
252	0xba8739b5	-0.0010316881
253	0x3c2c4871	0.010515318
254	0xbc7c165d	-0.015386191
255	0xbcd7a71d	-0.026324803

fc2.bias f4 [256]
0	0xbc2fc7a6	-0.010728752
1	0x3d6cdb96	0.0578266
2	0xbd5a5fbc	-0.053313956
3	0x3c1d6a74	0.0096079
4	0x3d4239d3	0.047418427
5	0x3d55e306	0.05221846
6	0x3d4bc659	0.049749706
7	0x3d2a5e45	0.04159381
8	0xbd3f7c27	-0.04674926
9	0xbc1f0313	-0.009705323
10	0x3c2d1d11	0.010566012
11	0xbb68ebc6	-0.0035540923
12	0x3d301f13	0.042998385
13	0x3c2ca1a9	0.01053659
14	0x3d820e4f	0.063503854
15	0xbd101f50	-0.035186112
16	0xbaea64dc	-0.0017882842
17	0xbb53cee8	-0.003231937
18	0x3d2b4d7c	0.04182194
19	0xbd5794a6	-0.052631997
20	0x3bad4a07	0.0052883658
21	0x3d9501c2	0.07275726
22	0xbb07568a	-0.0020650947
23	0x3dbb5c90	0.09148514
24	0xbd55a009	-0.052154575
25	0x3d687683	0.056753647
26	0x3c6683cf	0.014069512
27	0x3d83b4e5	0.06430987
28	0xba0410e4	-0.0005037917
29	0x3cd8203b	0.026382556
30	0x3d8e0845	0.06935171
31	0x3d8066ae	0.062695846
32	0x3d1ee080	0.03878832
33	0x3d91f213	0.0712625
34	0xbbc323f9	-0.005955216
35	0xbb0cc415	-0.0021479179
36	0xbd159d16	-0.036526762
37	0x3c07853f	0.008271514
38	0x3ce52e94	0.027976312
39	0xbc22a40c	-0.009926807
40	0xbb8a8445	-0.0042271935
41	0x3c198235	0.009369423
42	0xbd246780	-0.040137768
43	0x3d1db7de	0.038505428
44	0x3d93ac5e	0.07210611
45	0x3d3df2bf	0.04637408
46	0x3c924bc7	0.0178584
47	0x3c143945	0.009046857
48	0x3d943fa2	0.072386995
49	0x3d9a94f2	0.0754794
50	0x3d3d8c28	0.04627624
51	0xbd39604a	-0.045257844
52	0xbbbb9a98	-0.005725216
53	0x3d350ef0	0.0442037
54	0xbb7ed54a	-0.0038884454
55	0x3d283fa7	0.04107633
56	0x3bcdb2c8	0.006277416
57	0xbd159e54	-0.036527947
58	0x3d076d71	0.033063356
59	0xbcf4d8b9	-0.029888498
60	0x3cad5b48	0.02116169
61	0xbd5e302c	-0.05424516
62	0x3d56f4b4	0.05247946
63	0x3d825fd5	0.06365935
64	0x3d5559a0	0.052087426
65	0x3d2005db	0.039068084
66	0x3d0872f4	0.033312753
67	0xbaebd072	-0.0017991199
68	0xbc0638b5	-0.008192231
69	0xbc9a38ab	-0.01882585
70	0x3ab9994f	0.0014160069
71	0x3d9a0363	0.07520177
72	0x3bd3b723	0.0064610406
73	0xbd0e60ed	-0.034760404
74	0x3d632126	0.055451535
75	0xbcdd0454	-0.026979603
76	0xbcf315bb	-0.029673448
77	0x3d7ccb1d	0.06171714
78	0x3cde8237	0.0271617
79	0x3caf674a	0.021411557
80	0x3c948376	0.018129092
81	0x3d0301ee	0.031984262
82	0x3d9096c2	0.07060005
83	0x3d4f376d	0.050589968
84	0x3cc4e8d2	0.024036799
85	0x3d7ca7e5	0.061683554
86	0xbc84aeee	-0.016196694
87	0xbd290642	-0.041265734
88	0xbba3f9f8	-0.005004164
89	0xbc14dc01	-0.009085656
90	0xbcb3ae9c	-0.021933846
91	0x3d63b569	0.055592928
92	0x3d3b443b	0.045719367
93	0x3c998cc4	0.01874388
94	0xbb427719	-0.0029673039
95	0x3bdfa035	0.006824518
96	0xbc968f8d	-0.018378997
97	0x3d34aa7c	0.0441079
98	0x3da078fb	0.07835575
99	0x3d154405	0.03644182
100	0xbc41bbdc	-0.011824574
101	0xbc43ffc6	-0.011962837
102	0xbcf45d75	-0.02982972
103	0x3d167c54	0.036739662
104	0xbcfdd169	-0.030983644
105	0x3d823a71	0.06358803
106	0x3c4e1425	0.012578045
107	0xbca4d6d7	-0.020121975
108	0x3d733b09	0.059382472
109	0x3c852071	0.01625082
110	0x3d4eb29c	0.050463304
111	0x3d9a1d4f	0.075251214
112	0x3cae2191	0.02125624
113	0x3cb1df9d	0.021713072
114	0xbd42205c	-0.04739414
115	0x3c4eb54f	0.0126164695
116	0x3d6037b3	0.05474062
117	0x3d560549	0.052251134
118	0x3c35398e	0.011061085
119	0x3d69f295	0.05711611
120	0x3d22372a	0.03960339
121	0x3da58d85	0.08083633
122	0xbc9201a0	-0.01782304
123	0xbc1a4681	-0.0094162235
124	0xbd0e90f7	-0.034806218
125	0x3c767cc7	0.015044398
126	0xbd0f452c	-0.034978077
127	0xbcc3095c	-0.023808174
128	0xbd0ffadb	-0.035151344
129	0x3c0d4167	0.00862155
130	0x3d933994	0.071887165
131	0x3d62a17a	0.055329777
132	0x3ddd0a43	0.10792973
133	0xbb957c86	-0.0045619635
134	0x3d7da192	0.061921664
135	0x3d424800	0.047431946
136	0x3b8fa660	0.004383847
137	0xbcc6a862	-0.024250213
138	0xbbaaef72	-0.0052165324
139	0x3cb20bd1	0.02173415
140	0xbc8d036c	-0.017213546
141	0x3d89e371	0.06732834
142	0xbd46bb77	-0.048518624
143	0x3cbc6e25	0.02300174
144	0xbcef899f	-0.029240428
145	0x3d969797	0.07353132
146	0x3ca5a3bc	0.020219676
147	0x3c9e5164	0.01932592
148	0x3d3c2acc	0.04593925
149	0x3c8a52fb	0.016885271
150	0x3d094079	0.03350875
151	0xbc54275f	-0.01294884
152	0x3d022c03	0.031780254
153	0x3d186182	0.037202366
154	0xbd24057e	-0.0400443
155	0x3c66e15a	0.014091814
156	0xbd13e623	-0.036108147
157	0x3ce7c1b0	0.0282906
158	0xbd51d2b4	-0.051226333
159	0xbd3edc55	-0.046596844
160	0x3d2eacf6	0.042645417
161	0x3cc811f6	0.024422627
162	0x3d12bf1f	0.0358268
163	0xbcfbf524	-0.03075654
164	0x3cc578ee	0.024105515
165	0x3d6e7cf1	0.058224622
166	0xbc407797	-0.011747262
167	0x3d6e298b	0.058145087
168	0xbca54ba0	-0.020177662
169	0xbbdf3382	-0.00681156
170	0x3b31bdfe	0.00271213
171	0x3d2269c1	0.039651636
172	0xbc53f678	-0.012937181
173	0x3d5f753a	0.054555155
174	0xbcfcbc18	-0.030851409
175	0xbd71e194	-0.05905302
176	0xbc051bc8	-0.008124299
177	0x3d869f7d	0.06573389
178	0x3d93dd72	0.07219972
179	0xbc4233b3	-0.011853146
180	0x3da536ce	0.08067094
181	0x3da6baf3	0.081411265
182	0x3d281582	0.041036136
183	0xbca94b22	-0.020665709
184	0xbd29263f	-0.04129624
185	0x3c844027	0.016143871
186	0x3ce50712	0.027957473
187	0x3d8f9a8f	0.070119016
188	0xbbd294b2	-0.0064264173
189	0xbd4d8f5d	-0.05018555
190	0xbcd5a83c	-0.026081197
191	0x3c5c1616	0.013433
192	0xbc8704b1	-0.01648173
193	0x3d9ba57c	0.07599923
194	0x3d04c2bf	0.032412287
195	0xbd2904e9	-0.04126445
196	0xbceb3c84	-0.02871538
197	0x3d8d2406	0.068916366
198	0x3d858264	0.06519011
199	0x3d2ac97b	0.041696053
200	0xbb8d04ed	-0.0043035657
201	0xbc55b4d8	-0.013043605
202	0xbd04dabe	-0.03243517
203	0xbd7052a0	-0.058672547
204	0xbd1d6bbd	-0.038432825
205	0xbce867b0	-0.028369755
206	0x3beabf0c	0.007163888
207	0xbc66a7bd	-0.014078078
208	0x3d48c388	0.049014598
209	0x3ca9ac07	0.020711912
210	0x3d4e718c	0.050401255
211	0x3cbe1d7d	0.02320742
212	0xbd60cd97	-0.054883566
213	0x3c7b2640	0.015328944
214	0xbcf203d2	-0.029542837
215	0xbc94ab9d	-0.018148238
216	0xbd27b5a9	-0.04094473
217	0x3c6d2d7a	0.0144761745
218	0x3cfe447f	0.03103852
219	0xbc4555bc	-0.012044366
220	0x3cccc547	0.024996413
221	0x3b94f26b	0.0045455
222	0xbb693939	-0.0035587086
223	0xba536649	-0.0008064253
224	0x3d67e826	0.05661788
225	0xb9895877	-0.00026196588
226	0xbc78dbea	-0.01518915
227	0xbcdb2893	-0.026752746
228	0x3c169572	0.009190904
229	0x3d52ac9c	0.051434144
230	0x3d71c6d4	0.059027508
231	0x3cd522cb	0.026017567
232	0xbc2dfb68	-0.010619022
233	0xbc561677	-0.0130668795
234	0xbc8f0700	-0.017459393
235	0x3d241375	0.04005762
236	0x3c56d178	0.013111465
237	0x39613c18	0.00021480059
238	0xbc494eb6	-0.012286833
239	0xbb1d1b58	-0.0023972597
240	0x3d9c1aa2	0.07622267
241	0xbbfab2e5	-0.0076507204
242	0x3d44c413	0.048038553
243	0x3d207d4e	0.039182
244	0xbc997bed	-0.01873585
245	0x3c1b29bd	0.0094704
246	0xbd5f2362	-0.054477103
247	0xbca75bc1	-0.020429494
248	0x3d114bfb	0.03547285
249	0x3d13e3f6	0.036106072
250	0xb906476b	-0.00012805841
251	0x3d27cc9c	0.040966615
252	0x3b91d4ac	0.0044504013
253	0x3c09d482	0.008412482
254	0x3d815340	0.06314707
255	0x3ca7016d	0.020386422

policy.weight f4 [127, 256]
0	0xbc3cf20b	-0.011532317
1	0x3dc63b00	0.09679222
2	0xbcccd1ed	-0.025002444
3	0xbd6568ac	-0.056008026
4	0x3ca8bd03	0.02059794
5	0x3d851899	0.06498832
6	0x3d2a88ff	0.041634556
7	0xbc076929	-0.008264818
8	0x3db902c0	0.09033728
9	0x3c9390db	0.018013408
10	0xbd012501	-0.03152943
11	0xb8271189	-3.9832234e-05
12	0x3d4617fe	0.048362724
13	0x3c8633c0	0.016382098
14	0x3d85513b	0.06509634
15	0x3c4d1362	0.012516828
16	0x3d50cf66	0.05097904
17	0xbbf15a63	-0.0073655113
18	0xbd44d1e8	-0.048051745
19	0x3d611ae2	0.054957278
20	0xbd33e42b	-0.04391877
21	0x3d9ec353	0.07752099
22	0xbdbb47b6	-0.09144537
23	0x3c96bfbb	0.018401971
24	0x374d9dbf	1.225568e-05
25	0x3cfcb869	0.030849652
26	0xbd5895be	-0.05287718
27	0x3cbbd6c3	0.022929555
28	0x3d4ebedd	0.05047499
29	0x3db0eebe	0.086392865
30	0xbddd0b99	-0.10793228
31	0xbcdd5ba0	-0.02702123
32	0x3ca866bc	0.0205568
33	0x3d19a056	0.037506424
34	0x37da90f7	2.605513e-05
35	0x3d7301e4	0.059327975
36	0xbe28c9dd	-0.16483255
37	0x3d7d98a2	0.06191314
38	0x3d806b69	0.06270487
39	0xbb6a7ad5	-0.003577878
40	0x3cf6b9af	0.030117838
41	0xbcbd752c	-0.023127161
42	0x3d48131b	0.048846345
43	0xbb313d8d	-0.0027044744
44	0x3a561a20	0.0008167345
45	0x3c7747c0	0.01509279
46	0xbcc2b2d7	-0.023766918
47	0x3db0c969	0.08632166
48	0xbda31ae0	-0.079641104
49	0xbcb371ca	-0.021904845
50	0x3d8d341e	0.06894706
51	0xb7e14fef	-2.6859312e-05
52	0x3d88193c	0.06645438
53	0x3c8b1b70	0.016980857
54	0x3de0e0ea	0.10980399
55	0xbd3ae7bc	-0.045631155
56	0x3a1ab357	0.00059013575
57	0x3db8364c	0.08994731
58	0x3dc82d10	0.0977422
59	0xbcf27d8f	-0.029600887
60	0x3c100c02	0.008791925
61	0x3cf14930	0.029453844
62	0x3db96ce0	0.090539694
63	0x3d0e00e3	0.034668814
64	0xbd922122	-0.07135226
65	0xbc442ac1	-0.011973084
66	0x3c86240a	0.016374607
67	0x3d341faf	0.04397553
68	0xbba85d59	-0.005138081
69	0xbd0939b1	-0.033502284
70	0xbd1d5b22	-0.03841699
71	0x3daefbae	0.08544098
72	0xbd4ba74b	-0.04972009
73	0xbb8dd8f1	-0.00432884
74	0x3c7e71f8	0.015530102
75	0xbcca482d	-0.02469262
76	0x3d967712	0.073469296
77	0x3c23e0e6	0.01000235
78	0xbd891aec	-0.06694588
79	0xbc37485e	-0.011186687
80	0x3db7111b	0.089388095
81	0xbcf446fe	-0.029819008
82	0xbc71a637	-0.014749101
83	0xbd2ea740	-0.04263997
84	0x3d784435	0.060611922
85	0x3d78f222	0.06077779
86	0x390ad950	0.00013241661
87	0x3c8d6d1e	0.017263945
88	0x3c63e553	0.013909656
89	0x3d48d3ba	0.049030043
90	0x3c08c43f	0.00834757
91	0x3d6e9915	0.05825146
92	0x3a94dbe9	0.0011357042
93	0x3da94abc	0.082662076
94	0x36b0e118	5.271413e-06
95	0x3c96622e	0.018357363
96	0x3bc3dc6b	0.0059772036
97	0xbd07666d	-0.033056665
98	0x3ceafbfe	0.028684612
99	0xbdb8d2de	-0.09024595
100	0xbc0f9c6a	-0.008765319
101	0x3d78c733	0.060736846
102	0xbdc66abc	-0.09688327
103	0xbc689700	-0.014196157
104	0xbd3f76a1	-0.046743993
105	0x3d2a3b18	0.041560262
106	0x3d18d682	0.037313946
107	0x3d09ad99	0.03361282
108	0xbc19719c	-0.0093654655
109	0xbd61c99c	-0.05512391
110	0x3c4d6691	0.012536661
111	0x3d3d9c61	0.046291713
112	0xbdaa27e6	-0.08308391
113	0x3db92ee5	0.090421475
114	0xbd1ace2d	-0.03779428
115	0xbcd9083e	-0.026493188
116	0x3e14842d	0.14503546
117	0xbdd3af0a	-0.103361204
118	0x3c439f6a	0.011939863
119	0x3dade072	0.08490075
120	0x3cccd208	0.025002494
121	0x3d143478	0.03618285
122	0xbcbdb8ad	-0.02315935
123	0xbb8b8722	-0.0042580524
124	0xbca00d4d	-0.019537592
125	0xbd1fd274	-0.039019063
126	0xbc0c3364	-0.008557174
127	0x3d77eea5	0.060530324
128	0xbcacef51	-0.021110209
129	0xbdc24955	-0.09486643
130	0x3d19bfcc	0.037536427
131	0x3d19ccbf	0.037548777
132	0xbdd161cf	-0.10223734
133	0xbd432ae6	-0.047648333
134	0x3ca3a93b	0.019978156
135	0xbc03fe9f	-0.008056312
136	0x3da7cfac	0.08193907
137	0x3cd1c789	0.025607841
138	0x3d23e514	0.040013388
139	0xbb1c58d4	-0.0023856657
140	0xbcef85e8	-0.029238656
141	0x3d957b3a	0.07298894
142	0x3ce9c73f	0.02853739
143	0xbd8e1687	-0.069378905
144	0x3d32841a	0.043583013
145	0x3ddc2238	0.10748714
146	0x3cb1aa62	0.02168769
147	0xbd1be52c	-0.038060352
148	0x3db7dc29	0.08977539
149	0x3d996890	0.07490647
150	0xbb875452	-0.004129925
151	0x3c704b64	0.014666412
152	0xbd3ae297	-0.04562625
153	0xbaeee786	-0.0018226958
154	0x3d5866e0	0.052832484
155	0xbd787148	-0.06065491
156	0xbd204fb2	-0.039138503
157	0x3d895839	0.0670628
158	0xbb608a41	-0.0034262093
159	0x3a6553ca	0.0008748142
160	0xbc9572f6	-0.018243294
161	0x3d9bc77c	0.07606408
162	0xbe1502d7	-0.14551865
163	0xb750a200	-1.2435485e-05
164	0x3d6ab2f7	0.05729958
165	0x3d776916	0.060402952
166	0x3c8cdf18	0.017196223
167	0xbdba62c4	-0.09100869
168	0x3cfac0dd	0.030609543
169	0x3b8d8f1c	0.0043200385
170	0x3d94a347	0.07257705
171	0xbc0200fb	-0.007934804
172	0xbcae34c9	-0.021265404
173	0x3ca1ef6b	0.019767484
174	0x3daeb2aa	0.08530171
175	0x3d838ee5	0.06423739
176	0x35a0a70b	1.1969545e-06
177	0xbca4b5c5	-0.020106206
178	0xbd4f444a	-0.050602235
179	0x3c4a1489	0.0123339975
180	0xbd325aaa	-0.043543495
181	0xbdc99b75	-0.09844104
182	0xbd10b6c5	-0.035330553
183	0xbd38d6d8	-0.045126766
184	0xbb3d3d05	-0.0028875482
185	0x3cbb83ea	0.02289005
186	0x3d6950af	0.05696171
187	0x3bada93b	0.005299715
188	0xbd64460e	-0.05573087
189	0xba8dc7f1	-0.0010817033
190	0x3cd9e4f9	0.02659844
191	0x3d583b7a	0.052791096
192	0x3cda2d09	0.026632803
193	0x3c9e6566	0.01933546
194	0x3d09530c	0.033526465
195	0x3dadd83b	0.08488508
196	0x3d9059a2	0.07048346
197	0x3d4ac0bb	0.04950021
198	0x3d30bca5	0.043148655
199	0xb9a8af2f	-0.0003217398
200	0x3dd0efa7	0.1020196
201	0xbc96fd81	-0.018431427
202	0x3d997621	0.074932344
203	0xbd0b28bf	-0.033974405
204	0x3cb09124	0.021553583
205	0xbd8eca20	-0.06972146
206	0x3d1ca13a	0.038239695
207	0x3cefbff8	0.029266343
208	0xbc9d118d	-0.019173408
209	0x3d45fe7d	0.048338402
210	0xbc808655	-0.015689055
211	0x38dfcc53	0.00010671527
212	0xb7a399f3	-1.9502802e-05
213	0xbde693c4	-0.11258653
214	0x3c5c43da	0.013443911
215	0x3cfa13dc	0.030527048
216	0xbd7963ed	-0.060886312
217	0xbce9e597	-0.02855186
218	0x3dae6ad5	0.0851647
219	0x3da45516	0.08024041
220	0x3dafb09b	0.08578607
221	0x3d95761b	0.072979175
222	0x3dbddb06	0.09270291
223	0x3da67533	0.08127823
224	0xbd419a9d	-0.04726659
225	0xbcaaf90a	-0.020870704
226	0x3c32f199	0.010921859
227	0x3d10b19b	0.035325628
228	0xbc7ec9e0	-0.01555106
229	0xbd67af30	-0.056563556
230	0x3da8634b	0.08222064
231	0x3dd4dae9	0.10393316
232	0x3d947413	0.07248702
233	0xbcd72e3a	-0.02626716
234	0xbdfa86f9	-0.12232775
235	0xbd04c971	-0.032418672
236	0xbcfc844f	-0.030824808
237	0x3b67a034	0.0035343291
238	0x38f2a62f	0.00011570413
239	0x3d901be6	0.07036571
240	0xbb67b32e	-0.0035354602
241	0x3cb92de4	0.02260489
242	0x3db22ffa	0.08700557
243	0xbc4676b6	-0.012113264
244	0xbc9e1175	-0.019295434
245	0xbccbe2c4	-0.024888404
246	0x3abf6fd9	0.0014605477
247	0xbd058a39	-0.032602523
248	0xbd485c14	-0.048915938
249	0xbc8c2a41	-0.017109992
250	0xbb98d81f	-0.0046644355
251	0xbc827cf5	-0.015928725
252	0x3a33f2b5	0.0006864474
253	0xbcb25e20	-0.021773398
254	0x3d8db785	0.06919769
255	0xbc01e6eb	-0.00792859

policy.bias f4 [127]
0	0x3b5758eb	0.0032859396
1	0xbd539223	-0.05165304
2	0xbccec671	-0.025241109
3	0xbcb9a0ae	-0.022659626
4	0xbcaf4730	-0.02139625
5	0x3d70a8f9	0.058754895
6	0xbd728107	-0.05920508
7	0x3d436b35	0.047709662
8	0xbd7f39eb	-0.062311094
9	0xbd833c9d	-0.064080454
10	0x3cbf4205	0.02334691
11	0x3c9ecb64	0.019384094
12	0x3d050d50	0.0324834
13	0x3cac6fa7	0.021049334
14	0x3c4f8406	0.012665754
15	0xbc9451e2	-0.018105451
16	0x3d5c184b	0.053734105
17	0xbd0ff651	-0.035147015
18	0x3cbc55a0	0.022990048
19	0x3d6d2850	0.057899773
20	0xbc79972b	-0.015233795
21	0x3d273ee4	0.04083146
22	0xbd8c1d85	-0.06841568
23	0xbd807d44	-0.062738925
24	0xbc88c232	-0.016694162
25	0xbd3e1232	-0.04640407
26	0xbd7a3535	-0.0610859
27	0xbd3e9722	-0.04653085
28	0xbd690570	-0.05688995
29	0xbd44fdc2	-0.048093565
30	0x3bb3d2bc	0.005487768
31	0xbd419138	-0.047257632
32	0x3d6f2196	0.05838164
33	0xbd6edb57	-0.058314648
34	0xbcb01392	-0.021493707
35	0x3c26b264	0.010174368
36	0x3d87a60b	0.06623467
37	0xbc421a54	-0.011847097
38	0x3c847789	0.01617028
39	0x3c711e17	0.014716647
40	0xbd63678d	-0.055518676
41	0x3c82b822	0.015956942
42	0x3c44adcb	0.012004326
43	0x3d85460f	0.06507503
44	0xbd6a3044	-0.057174936
45	0xbcb3718b	-0.021904727
46	0xbc9839ba	-0.018582214
47	0x3d889b30	0.06670225
48	0x3d537ca0	0.051632524
49	0xbb83cf03	-0.0040224805
50	0x3d92a402	0.07160188
51	0x3d6f376d	0.058402468
52	0x3da4b065	0.08041457
53	0xbd68530c	-0.056719825
54	0x3d4e115c	0.050309524
55	0x3cbcec2d	0.023061836
56	0x3d2dc926	0.04242816
57	0xbc208ae8	-0.009798743
58	0x3c829aeb	0.015943011
59	0xbd9ea4ac	-0.077462524
60	0x3cda37c9	0.026637929
61	0xbda255c4	-0.07926515
62	0xbcbc7833	-0.023006534
63	0xbcf73bdc	-0.03017991
64	0x3ca40728	0.020022944
65	0xbd698869	-0.057014856
66	0x3b4e402d	0.0031471357
67	0xbd8f9f34	-0.070127875
68	0x3ca58ef4	0.020209767
69	0x3b9f3e40	0.0048597157
70	0x3c1ebe77	0.009688965
71	0xbd9feec3	-0.07809212
72	0xbcec7308	-0.028863445
73	0x3bc6decb	0.0060690395
74	0xbd0df14d	-0.03465395
75	0xbd2053e2	-0.039142497
76	0xbc6013e4	-0.013676617
77	0x3cff05eb	0.031130752
78	0xbcd2dea5	-0.02574093
79	0x3cca8376	0.024720889
80	0xbd3ee13f	-0.04660153
81	0xbd2b88c4	-0.041878477
82	0xb9d836a8	-0.00041239453
83	0xbd8197c8	-0.06327778
84	0xbcad0787	-0.021121753
85	0xbd304492	-0.043034144
86	0x3c89f4a0	0.01684028
87	0xbd14cf68	-0.03633061
88	0x3c99773c	0.018733613
89	0x3b314dc4	0.0027054409
90	0x3c3b120d	0.011417878
91	0xbb82c2ff	-0.0039905305
92	0x3c591250	0.013248995
93	0xbd97589d	-0.073899485
94	0x3d04ccf2	0.032422014
95	0xbd38a4fe	-0.045079224
96	0x3b852a9e	0.0040639183
97	0x3cc429da	0.023945738
98	0xbca3ab53	-0.019979155
99	0xbc864316	-0.016389411
100	0xbcf0f808	-0.029415146
101	0xbc034a40	-0.008013308
102	0xbcdbef39	-0.026847469
103	0x3ceee06f	0.029159753
104	0x3d1cde86	0.038298152
105	0xbd284328	-0.04107967
106	0x3c1a897a	0.009432191
107	0xbc50d4a9	-0.012746015
108	0xbd80c053	-0.06286683
109	0x3c12e533	0.008965778
110	0xbc42613c	-0.011864003
111	0xbd644392	-0.055728503
112	0xba495e1f	-0.00076815666
113	0xbd81fd28	-0.06347114
114	0x3cf540e3	0.029938167
115	0xbd2d94a1	-0.04237807
116	0xbc905dd0	-0.017622858
117	0xbd8d1643	-0.06889012
118	0x3c1f3326	0.009716785
119	0x3c239131	0.009983347
120	0x3c80a6f8	0.015704617
121	0xbcea4a75	-0.028599957
122	0x3c49e5e7	0.012322879
123	0x3b8a9535	0.0042292126
124	0xbd4b4190	-0.049623072
125	0xbc3c9b10	-0.011511579
126	0x3ce770ea	0.028252084

value.weight f4 [1, 256]
0	0x3d70e08e	0.058807902
1	0x3d37baf7	0.044856038
2	0x3d15906d	0.03651469
3	0xbcdd1b1f	-0.026990471
4	0xbd2fb003	-0.042892467
5	0x3cc143b3	0.023591852
6	0xbc82ef0e	-0.01598313
7	0x3d299211	0.041399065
8	0x3a362ea3	0.00069496984
9	0xba9627bb	-0.0011455932
10	0xbd115935	-0.035485465
11	0xb8ae49ba	-8.310699e-05
12	0x3d34b1f1	0.04411501
13	0xbd25559a	-0.04036484
14	0x3ca39240	0.019967198
15	0xbd6697c3	-0.056297075
16	0x3d5161cc	0.051118657
17	0xbd33f7e1	-0.043937568
18	0x3cafa3b7	0.02144037
19	0xbd347690	-0.044058383
20	0xbcc42e78	-0.02394794
21	0xbd2dca09	-0.042429004
22	0xbc9ea47b	-0.01936554
23	0xbcc3a606	-0.023882877
24	0xbc9ae000	-0.01890564
25	0x3c4974ef	0.012295946
26	0xbd560bd3	-0.05225737
27	0xbce4addc	-0.027914934
28	0x3b328945	0.0027242464
29	0xbd669654	-0.056295708
30	0x3bb12cd9	0.0054069576
31	0x3d144455	0.03619798
32	0xbc684a91	-0.014177934
33	0x3d39d2a8	0.045366913
34	0xb7f4a079	-2.9161793e-05
35	0x3cc976e2	0.02459282
36	0xbd8ac0d8	-0.06775063
37	0xbbb51937	-0.0055266875
38	0xbd4ecfe8	-0.050491244
39	0x3bc6e4da	0.0060697617
40	0x3d886dde	0.066615805
41	0xbcd56ad6	-0.02605192
42	0x3c901c88	0.01759173
43	0xbd3321c6	-0.04373338
44	0x3d69b82f	0.057060417
45	0x3beccf98	0.0072268955
46	0xbd440bb6	-0.04786273
47	0xbd6d52a4	-0.05794014
48	0x3cd10268	0.025513843
49	0x3bd1eb0c	0.0064061936
50	0x3d0af8ce	0.033928685
51	0xbc3872ed	-0.011257869
52	0x3da662d9	0.081243224
53	0x3d781efd	0.060576428
54	0xbc31adc6	-0.0108446535
55	0xbd72d310	-0.059283316
56	0x3d35297b	0.044229012
57	0xbd387123	-0.04502977
58	0x3b250ecd	0.0025185824
59	0x3d1aa455	0.037754375
60	0xbc0da70c	-0.008645784
61	0x3d5dc6aa	0.05414454
62	0x3cf6bcc3	0.030119305
63	0xbc4f82ab	-0.012665431
64	0xbd1a6767	-0.03769627
65	0x3d3d4d19	0.046216104
66	0x3d781c5f	0.06057393
67	0x3c5cf106	0.013485199
68	0x3bfc81fb	0.0077059246
69	0xbcdabcf9	-0.026701437
70	0x3d3fa559	0.046788547
71	0xbb2adbfd	-0.0026071065
72	0xbd14c7f2	-0.036323495
73	0x3cac6b37	0.021047218
74	0xbd660790	-0.056159556
75	0x3b0b1058	0.0021219458
76	0x3bbfa83a	0.0058489116
77	0x3c5d0af7	0.013491384
78	0xbd5dde41	-0.054167036
79	0x3d673e7d	0.056456078
80	0xbd04981a	-0.032371618
81	0x3d04b622	0.032400258
82	0xbcabfd5e	-0.020994838
83	0xbbd0468a	-0.006356065
84	0x3cd41f7a	0.025893915
85	0xbcef2a68	-0.029195026
86	0x3b71ef4b	0.0036916311
87	0xbc7985e0	-0.015229672
88	0x3c292f43	0.0103262095
89	0x3d1c234d	0.038119603
90	0xbcdd7382	-0.027032617
91	0x3cc65753	0.024211561
92	0x3ac1ac61	0.0014776104
93	0xbbb65327	-0.0055641118
94	0x3881584c	6.167646e-05
95	0x3d2ec9b1	0.042672817
96	0xbd1375e8	-0.036001116
97	0x3cc88c29	0.024480896
98	0xbd1d18fb	-0.0383539
99	0xbd6cc62e	-0.057806186
100	0x3b86b935	0.004111434
101	0x3d707d02	0.058712967
102	0xbdafd76c	-0.0858601
103	0x3ce10933	0.027470207
104	0xbda1b1f0	-0.07895267
105	0x3c9bf3d6	0.019037168
106	0xbd433a19	-0.047662828
107	0x3d393ddc	0.04522501
108	0xbc8bbbf9	-0.017057406
109	0x3d396c9c	0.045269594
110	0x3af6f251	0.0018840526
111	0xbc956627	-0.018237187
112	0xbcbc730d	-0.02300408
113	0xbccb9643	-0.024851924
114	0x3d5eec60	0.054424644
115	0xbc695c38	-0.014243178
116	0xbd4bc936	-0.049752437
117	0xbd5642e5	-0.05230989
118	0xbcf33131	-0.029686542
119	0xbc10e41b	-0.008843447
120	0x3d4ae6c9	0.0495365
121	0xbc8b8459	-0.017030882
122	0xbce81075	-0.02832816
123	0x3c18cb7e	0.00932586
124	0x3d3f3e76	0.046690427
125	0x3cc00bc3	0.023443108
126	0xbb92385c	-0.004462285
127	0x3cf12531	0.02943668
128	0xbca354db	-0.019937923
129	0x3c36db6d	0.011160714
130	0x3d5e29b5	0.054238994
131	0x3c7c70a5	0.015407716
132	0x3bd5765e	0.0065143546
133	0xbcbaeb87	-0.022817386
134	0xbb78bcfa	-0.0037954436
135	0xbd2dd682	-0.0424409
136	0xbb814278	-0.0039446913
137	0xbd3630d5	-0.044480164
138	0xbd2072ca	-0.03917197
139	0x3be7efa2	0.007078127
140	0x3cef87df	0.029239593
141	0x3c87af8d	0.016563201
142	0xbd7b638d	-0.061374236
143	0x3c6514ed	0.01398204
144	0x3cb5104b	0.022102496
145	0xbd555d3c	-0.05209087
146	0x3d7ad324	0.061236516
147	0x3c323401	0.0108766565
148	0x3bc59900	0.006030202
149	0x3ce402de	0.027833398
150	0x3c08aed8	0.008342467
151	0xbd666c95	-0.056255896
152	0xbca76a43	-0.020436412
153	0x3c96d272	0.018410895
154	0xbc714a33	-0.014727163
155	0xbb1391cf	-0.0022517329
156	0x3d6f2365	0.058383364
157	0x3be276a4	0.0069111157
158	0x3b5bce93	0.0033539876
159	0xbd875d4b	-0.06609591
160	0x3b99d8a9	0.0046950174
161	0x3c1c9e4f	0.009559228
162	0x3d18848e	0.03723579
163	0x3a8173d3	0.0009876437
164	0x3caee909	0.021351354
165	0xbd481632	-0.048849292
166	0x3a85eea9	0.0010218221
167	0x3d723bd0	0.059139073
168	0x3d10f35c	0.035388336
169	0x3c84af9e	0.016197022
170	0x3bf754fe	0.0075479737
171	0x3c541b0d	0.0129459025
172	0x3d224607	0.039617565
173	0x3d1ff242	0.039049394
174	0x3cd00686	0.025393736
175	0xbd7a6807	-0.061134364
176	0x3af022b4	0.0018320889
177	0x3ce6d115	0.02817587
178	0x3c91eaa9	0.01781209
179	0xbd3901c7	-0.04516771
180	0xbd7052f9	-0.05867288
181	0xbb993170	-0.004675083
182	0xbbf614b7	-0.0075097936
183	0x3c6f9319	0.014622473
184	0x3cd1124e	0.025521424
185	0xbae4114c	-0.0017400174
186	0x3c0783fb	0.008271213
187	0x3b95635c	0.0045589637
188	0x3cd5d491	0.026102336
189	0x3d27b5e3	0.040944945
190	0xbb91082a	-0.004426022
191	0xbc273ca5	-0.01020733
192	0x3d1b785c	0.03795658
193	0x3b22b9a9	0.00248299
194	0xbc8bc17b	-0.017060032
195	0xbca036be	-0.019557353
196	0xbc3213da	-0.010868991
197	0x3cdafb39	0.02673112
198	0xbb696742	-0.0035614525
199	0x3ce11e7a	0.027480353
200	0xbd5f0f21	-0.054457787
201	0x3cdc3679	0.026881443
202	0xbdab7509	-0.08371932
203	0x3bd1802a	0.006393452
204	0xbd248920	-0.040169835
205	0x3d50d2b1	0.05098218
206	0xbc73d79f	-0.014882951
207	0x3d30c538	0.043156832
208	0x3cafb926	0.02145059
209	0xbd7c8e38	-0.061659068
210	0xbc5dca81	-0.01353705
211	0x3c8f94c2	0.017526988
212	0xbca003cd	-0.019533062
213	0xbd4f21ce	-0.050569348
214	0x3ca7c5ed	0.02048012
215	0x3d0a1865	0.03371467
216	0xbc62ebd4	-0.013850171
217	0x3d30c497	0.043156233
218	0x3c653dff	0.013991832
219	0xbd1f0edd	-0.038832534
220	0xbb989328	-0.0046562143
221	0x3d1d273d	0.0383675
222	0x3d46c6aa	0.048529305
223	0xbd705076	-0.058670484
224	0xbcfa9559	-0.030588793
225	0xbbb6b64c	-0.0055759307
226	0x3ba7c5c0	0.005120009
227	0x3d8be99d	0.068316676
228	0xbba07843	-0.004897149
229	0xbd6432b8	-0.05571243
230	0x3d286cf4	0.04111953
231	0xbd20874b	-0.039191525
232	0xbd93f1cc	-0.072238535
233	0xbda96729	-0.08271629
234	0x3c04d7c9	0.008108088
235	0x3cda340f	0.026636152
236	0xbd3bb6c5	-0.0458286
237	0x3d2e9741	0.042624716
238	0xba1b2bd9	-0.00059193146
239	0x3c89df65	0.016830156
240	0x3d2a6c47	0.041607168
241	0x3ae830a5	0.0017714693
242	0xbcae23f4	-0.021257378
243	0x3d9ce912	0.07661642
244	0xbcee79bf	-0.029110787
245	0xbd524024	-0.0513307
246	0x3d343047	0.043991353
247	0xbaf07b25	-0.0018347247
248	0x3d5409f5	0.05176731
249	0x3d07642b	0.033054512
250	0xbd3efb7d	-0.046626557
251	0xbc172514	-0.009225149
252	0x3b8d28ba	0.0043078335
253	0x3c5fc2ea	0.013657311
254	0xbd39b03d	-0.04533409
255	0x3b875391	0.004129835
