model.onnx (onnx, 529886 bytes, 7 tensors)

fc1.weight f4 [256, 130]
0	0x3e7577e4	0.23971516
1	0x3e7aeb18	0.24503744
2	0x3cfef9d4	0.031124987
3	0x3e3c50a1	0.18390132
4	0xbcdd2529	-0.026995258
5	0xbd2963fd	-0.041355122
6	0xbdbe02b4	-0.09277859
7	0x3e04da18	0.12973821
8	0x3e1d4a64	0.15360409
9	0xbd2ad1ed	-0.041704107
10	0x3ddbbd4f	0.10729467
11	0x3d4581a2	0.04821933
12	0x3d8499d3	0.06474652
13	0x3e144dc8	0.14482796
14	0x3bffa79c	0.007801963
15	0xbe11d54c	-0.14241523
16	0x3de79669	0.11307985
17	0x3dae7290	0.08517945
18	0x3d8e997a	0.06962867
19	0x3d8ecc54	0.06972566
20	0xbc6484b6	-0.013947656
21	0xbda0da08	-0.07854086
22	0xbe72b7a7	-0.2370287
23	0x3daf8d1a	0.08571835
24	0xbdce1cb6	-0.1006407
25	0xbda0ae03	-0.0784569
26	0x3be0868b	0.0068519763
27	0x3d15d1c7	0.036577012
28	0x3dae998d	0.08525381
29	0xbd112d7f	-0.03544378
30	0x3db83512	0.08994497
31	0xbdb05f9e	-0.086119875
32	0x3e02ced8	0.12774217
33	0x3da22cd3	0.07918706
34	0x3ccd7341	0.025079371
35	0x3df6a95c	0.120440215
36	0x3d6a4659	0.057195995
37	0x3dc9e208	0.09857565
38	0x3ca4dfcf	0.020126252
39	0x3d2b1ff5	0.041778523
40	0x3da055d4	0.078288704
41	0xbd6a7b56	-0.05724653
42	0x3bfa769b	0.0076435334
43	0x3e1c85fd	0.15285487
44	0x3df2ae32	0.11849631
45	0x3ca22e22	0.019797388
46	0x3e176c42	0.14787391
47	0x3d8cc67d	0.06873796
48	0x3cc24638	0.023715124
49	0xbd8fbb34	-0.07018128
50	0xbd6bdd5f	-0.057584163
51	0xbb8900ad	-0.0041809888
52	0xbda1cdf9	-0.07900614
53	0x3d5bd94b	0.053674024
54	0x3d92e965	0.07173423
55	0x3d9e14cf	0.07718813
56	0x3c64b79d	0.013959792
57	0xbd0b7319	-0.034045313
58	0xbc006c88	-0.007838376
59	0xbde46998	-0.11152953
60	0x1228c0af	5.3248954e-28
61	0x1512a10d	2.9611512e-26
62	0x93943ac9	-3.741842e-27
63	0x93b6f9ba	-4.618951e-27
64	0x937ef3da	-3.2179535e-27
65	0x922dad45	-5.4802746e-28
66	0x95e1dfb7	-9.1229736e-26
67	0x93b4a1c4	-4.55979e-27
68	0x13e55698	5.7893115e-27
69	0x13e9374a	5.887199e-27
70	0x96a2f233	-2.632536e-25
71	0x926abfd6	-7.4073837e-28
72	0x9742bb6f	-6.2921355e-25
73	0x15615770	4.5507364e-26
74	0x9775b065	-7.938641e-25
75	0x15b29ee8	7.214434e-26
76	0x9334706e	-2.2774626e-27
77	0x93726c44	-3.0598073e-27
78	0x1320fa0c	2.0318122e-27
79	0x9601ca3e	-1.0484353e-25
80	0x94051107	-6.718142e-27
81	0x150cab58	2.840794e-26
82	0x93ddeae4	-5.6019863e-27
83	0x12ffc459	1.6141166e-27
84	0x9491eaab	-1.4733819e-26
85	0x9223deaa	-5.1708186e-28
86	0x9453c80e	-1.06922315e-26
87	0x159cb1b7	6.328828e-26
88	0x143a8121	9.4160664e-27
89	0x9299d3e1	-9.70789e-28
90	0x129b1193	9.786208e-28
91	0x936a7ae0	-2.9595534e-27
92	0x93c19f37	-4.8877047e-27
93	0x94eff000	-2.4227496e-26
94	0x1529781b	3.4224025e-26
95	0x145319c6	1.06578606e-26
96	0x15f1a5cd	9.760071e-26
97	0x13a99e87	4.2817918e-27
98	0x1396840c	3.799553e-27
99	0x17421948	6.271669e-25
100	0x143db656	9.578021e-27
101	0x9366951b	-2.9103596e-27
102	0x126468ab	7.207313e-28
103	0x15361ced	3.6777426e-26
104	0x113dcfa3	1.4973454e-28
105	0x151571e7	3.0180163e-26
106	0x1527052b	3.3729458e-26
107	0x9475583e	-1.2386742e-26
108	0x960901b0	-1.1067304e-25
109	0x149110f5	1.4647947e-26
110	0x17a73251	1.0804824e-24
111	0x13109879	1.825053e-27
112	0x9397a3c0	-3.827923e-27
113	0x96f5fa32	-3.973978e-25
114	0x949ea042	-1.6017134e-26
115	0x100ab138	2.7352226e-29
116	0x92e871e2	-1.4669333e-27
117	0x94ca4487	-2.0423817e-26
118	0x14040a84	6.666371e-27
119	0x14629905	1.1440262e-26
120	0x1038f034	3.6472647e-29
121	0x13987e72	3.849488e-27
122	0x1225015a	5.2066486e-28
123	0x14ac5575	1.7401269e-26
124	0x15131eef	2.9710816e-26
125	0x948d84e2	-1.4289775e-26
126	0x9363baf6	-2.8743607e-27
127	0x154c097d	4.1204957e-26
128	0x961e9161	-1.2809012e-25
129	0x3bb34ddd	0.0054719285
130	0x3e18e8c4	0.14932543
131	0x3dd3db61	0.103445776
132	0xbd41ee72	-0.04734654
133	0xbdd901b7	-0.1059603
134	0xbdf16bdc	-0.11788151
135	0xbe14c037	-0.14526449
136	0xbe39bf2a	-0.1813933
137	0xbddc54c4	-0.10758355
138	0xb8ed1e4c	-0.00011306684
139	0x3c9fbaa6	0.01949818
140	0xbe1f56e5	-0.15560491
141	0xbe766cd2	-0.24064949
142	0xbd8564be	-0.06513356
143	0xbe142d57	-0.14470421
144	0xbdee420b	-0.116336904
145	0xbde1a13c	-0.11017081
146	0x3e21890d	0.15774937
147	0x3e464eec	0.19366044
148	0x3e221264	0.15827328
149	0xbe297334	-0.16547853
150	0xbcd257b0	-0.025676578
151	0xbdc2c767	-0.09510689
152	0xbdcc57a5	-0.09977654
153	0x3b3ce271	0.0028821493
154	0x3d3e757a	0.046498753
155	0xbdb48c8f	-0.08815872
156	0x3dd4f8fe	0.10399054
157	0x3e2e79b5	0.17038615
158	0x3e214a18	0.15750921
159	0x3d0f38bd	0.03496622
160	0x3e54f1cc	0.20795363
161	0x3ddb94d8	0.10721749
162	0xbd122514	-0.03567989
163	0xbdf7c700	-0.12098503
164	0x3c7df330	0.015499875
165	0x3c7614cf	0.01501961
166	0x3cdb4e87	0.026770843
167	0x3dc09207	0.094028525
168	0x3da5b526	0.08091192
169	0xbe1d9208	-0.15387738
170	0xbe223493	-0.15840368
171	0x3da41ff7	0.08013909
172	0x3e09f9c5	0.13474186
173	0xbc07ff68	-0.00830064
174	0xbd1fb570	-0.03899139
175	0x3cec9b03	0.02888251
176	0xbd915468	-0.07096177
177	0x3c3ffacd	0.01171751
178	0x3e026dd6	0.12737212
179	0xbcc8282e	-0.024433222
180	0x3d9ae687	0.07563501
181	0x3dce1b7d	0.10063837
182	0x3cdecd90	0.02719763
183	0xbc8cbc52	-0.017179642
184	0x3dd27bed	0.10277543
185	0x3dbd6c56	0.09249179
186	0x3d087ece	0.033324055
187	0xbcbc5200	-0.02298832
188	0xbd74d448	-0.05977276
189	0xbc57208c	-0.013130318
190	0x92905b34	-9.110161e-28
191	0x91fec2d5	-4.0194208e-28
192	0x94c56790	-1.9932765e-26
193	0x162822f3	1.358196e-25
194	0x926e73ef	-7.5242457e-28
195	0x12492fa1	6.3483124e-28
196	0x0fb87cdd	1.8191896e-29
197	0x922bcc3f	-5.420984e-28
198	0x93514fc6	-2.641884e-27
199	0x92fee771	-1.6086708e-27
200	0x161bc230	1.2582075e-25
201	0x13c23892	4.9028268e-27
202	0x96066d34	-1.0858892e-25
203	0x93d3e1ac	-5.3486418e-27
204	0x1130b14e	1.3938588e-28
205	0x14aa1103	1.7172323e-26
206	0x136b293e	2.9681504e-27
207	0x16a1b325	2.612401e-25
208	0x92ad9cb9	-1.095647e-27
209	0x93a2fc75	-4.114349e-27
210	0x94a69652	-1.6821007e-26
211	0x13a9e007	4.2882506e-27
212	0x15ac11d7	6.949839e-26
213	0x149e6735	1.5994631e-26
214	0x929d4106	-9.9241225e-28
215	0x97432b10	-6.306225e-25
216	0x120a4e79	4.3641847e-28
217	0x13540c86	2.6764336e-27
218	0x101e57b9	3.1227585e-29
219	0x93b0d5e1	-4.4639547e-27
220	0x149e9214	1.601154e-26
221	0x955f09b4	-4.5042146e-26
222	0x140e6e1b	7.190882e-27
223	0x117cb8fa	1.9936295e-28
224	0x9792683a	-9.461339e-25
225	0x14956265	1.5083965e-26
226	0x15871888	5.456477e-26
227	0x1319eb11	1.9427212e-27
228	0x943b9bfc	-9.47185e-27
229	0x970e0d0a	-4.589913e-25
230	0x95d7a3b0	-8.709606e-26
231	0x14d2e71b	2.1295736e-26
232	0x94207459	-8.100881e-27
233	0x960c5138	-1.1334738e-25
234	0x14246628	8.300031e-27
235	0x13095616	1.7334275e-27
236	0x903cdd32	-3.7246865e-29
237	0x956154dd	-4.5505333e-26
238	0x95f81b2e	-1.00209284e-25
239	0x96e0a56a	-3.6293543e-25
240	0x93ed434c	-5.989357e-27
241	0x943098fe	-8.915902e-27
242	0x92c3c721	-1.2355319e-27
243	0x137591bb	3.0995198e-27
244	0x931134d6	-1.8327623e-27
245	0x9525a82a	-3.3454143e-26
246	0x93b34480	-4.52535e-27
247	0x131bf3b8	1.9683913e-27
248	0x12a5535a	1.0433512e-27
249	0x1480cedb	1.3006287e-26
250	0x139867b8	3.847247e-27
251	0x1550cb05	4.216542e-26
252	0x92c6b4a8	-1.2540092e-27
253	0x1296307e	9.478285e-28
254	0x13524358	2.653893e-27
255	0x16b3b620	2.9033947e-25

fc1.bias f4 [256]
0	0x3dceb365	0.100928105
1	0xbb249b9f	-0.0025117171
2	0x3b2c60d2	0.0026302827
3	0x3de48288	0.11157709
4	0x3c3f9040	0.011692107
5	0x3e0741e4	0.13208729
6	0xbbf73fd2	-0.00754545
7	0xbbf08706	-0.007340315
8	0x3d1c65a9	0.03818289
9	0x3d1e1079	0.03858993
10	0xbd672e95	-0.05644091
11	0x3d5fd97c	0.05465077
12	0x3d66e873	0.056374025
13	0xbce97bb7	-0.028501375
14	0x3db5359b	0.08848115
15	0x3de712bd	0.11282871
16	0x3db9ecb4	0.09078351
17	0x3deaf515	0.11472527
18	0x3817e89f	3.621785e-05
19	0xbc4d181c	-0.012517955
20	0x3d64de61	0.05587614
21	0x3d7ee2d3	0.062228035
22	0xba812473	-0.0009852782
23	0x3d840f19	0.06448192
24	0xbba54187	-0.005043212
25	0xbc409ae5	-0.01175568
26	0x3d9c6656	0.076367065
27	0x3e0ba81e	0.1363835
28	0xbd51152b	-0.051045578
29	0x3dc49d5a	0.09600325
30	0x3d989b0d	0.074514486
31	0x3d455921	0.048180703
32	0x3d59b3c0	0.05314994
33	0x3d6f6ed3	0.0584553
34	0xbbeaa37f	-0.0071606035
35	0x3daeeed6	0.08541648
36	0xbd8f334e	-0.069922075
37	0x3c83ef4a	0.016105313
38	0xbc9c47c0	-0.019077182
39	0x3cfbe78e	0.030750062
40	0xbd056afb	-0.032572728
41	0x3da79e6a	0.08184512
42	0xbc413e93	-0.011794704
43	0x3d96e604	0.07368091
44	0x3c642608	0.013925083
45	0x3c841d3f	0.016127227
46	0x3d5716fd	0.052512158
47	0x3da17f94	0.07885662
48	0x3d998ed6	0.07497947
49	0x3d6a618a	0.057221927
50	0x3c519478	0.012791745
51	0x3bfc093a	0.0076915296
52	0x3d39d766	0.045371436
53	0xbd47a807	-0.048744228
54	0x3d77218b	0.060334723
55	0x3d8ad775	0.067793764
56	0x3dd5ae2b	0.104336105
57	0x3d9d783a	0.07688947
58	0x3d8d0470	0.06885612
59	0xbc8e3d47	-0.017363204
60	0x3c08a084	0.008339051
61	0xbd68aa1a	-0.056802846
62	0x3cb7370b	0.022365114
63	0x3db3c759	0.08778257
64	0x3dab1603	0.08353808
65	0xbd4af505	-0.049550075
66	0x3d4cdc09	0.05001453
67	0xbc83bc0b	-0.016080877
68	0xbd4bc409	-0.0497475
69	0xbd45ddb4	-0.048307136
70	0xbb2cfb59	-0.0026394932
71	0xac459e6d	-2.8083328e-12
72	0x3b962856	0.004582445
73	0x3da4ca94	0.08046451
74	0x3c252164	0.010078762
75	0x3d5756e1	0.05257309
76	0xbcaa3193	-0.020775592
77	0x3df549ce	0.11976968
78	0xbd09285a	-0.033485748
79	0xba80efe8	-0.0009837123
80	0xbbbceb0d	-0.005765325
81	0x3d030704	0.031989112
82	0xbcaa1b27	-0.0207649
83	0xbd8b865d	-0.06812737
84	0x3d3dbb76	0.046321355
85	0xbd05d968	-0.032678038
86	0x3c8c162f	0.017100422
87	0x3ccafd76	0.024779063
88	0x3d5d250d	0.053990413
89	0xbd70e9bd	-0.05881666
90	0x3d610369	0.054934893
91	0x3bdc503b	0.0067234314
92	0xbd9a05a5	-0.07520608
93	0x3d990732	0.074720755
94	0x3de1ce27	0.110256486
95	0x3d250ace	0.040293507
96	0x3dbac64c	0.091198534
97	0x3d8eeb9d	0.069785334
98	0x3d3063a3	0.04306377
99	0xbd07fc3a	-0.033199526
100	0x3d8ef725	0.06980733
101	0x3d1a56a0	0.03768027
102	0xbb791a64	-0.0038010115
103	0x3c190e77	0.009341828
104	0xbcbf8e2e	-0.023383226
105	0xbd72b21c	-0.05925189
106	0x3dab4b46	0.08363967
107	0xbc099851	-0.0083981315
108	0xbab6d4d8	-0.001394893
109	0xbd224346	-0.03961494
110	0x3e178598	0.14797056
111	0x3ad5be1c	0.0016307267
112	0x3dcb8b16	0.09938638
113	0x3dd1ee85	0.10250572
114	0xbd119464	-0.035541907
115	0x392a33f4	0.00016231817
116	0xac76c966	-3.5070501e-12
117	0x3df6f5a1	0.12058569
118	0x3c87f1d2	0.016594801
119	0x3c319cb8	0.010840587
120	0x3e15b0fd	0.14618297
121	0x3dd9e9b4	0.106402785
122	0xbd8121eb	-0.063052975
123	0x3d61a684	0.055090442
124	0xbd316ab2	-0.043314643
125	0x3d552007	0.052032497
126	0x3d8d2120	0.06891084
127	0xbcbae365	-0.022813508
128	0x3c8e758d	0.017390037
129	0x3d9b4e63	0.075833105
130	0x3be904a9	0.0071111512
131	0xbd617b81	-0.055049423
132	0x3d28e0a4	0.04122986
133	0x3da31ca5	0.07964448
134	0x3cc0b010	0.023521453
135	0x3e04e4ac	0.12977856
136	0xbd3a1995	-0.045434553
137	0x3d252ad9	0.040324066
138	0xbcff08c3	-0.031132108
139	0xbda00d47	-0.078150325
140	0x3d915fee	0.07098375
141	0x3da6f3cf	0.081519715
142	0xbc82bb52	-0.015958462
143	0xbcbc4a76	-0.022984724
144	0x3c0930a6	0.008373415
145	0xbcfb3d89	-0.03066899
146	0x3ca93f6a	0.020660121
147	0x3e015042	0.12628272
148	0x3d26aa80	0.040689945
149	0x3b948e5d	0.0045335726
150	0xbcf19d81	-0.029494049
151	0x3c58f501	0.013242007
152	0x3ce8e369	0.02842875
153	0xbd1e85d7	-0.03870186
154	0x3c14f8f7	0.009092561
155	0x3d886d60	0.066614866
156	0xbd475779	-0.048667405
157	0xbce0f002	-0.027458195
158	0x3d938880	0.0720377
159	0xbb5325e0	-0.003221862
160	0x3bb90449	0.005646263
161	0xbd3d6405	-0.046237964
162	0x3d11e230	0.0356161
163	0x3c94a5c4	0.01814545
164	0x3da345b5	0.0797228
165	0x3c295bab	0.010336797
166	0xbcd0744c	-0.02544608
167	0x3d89fd82	0.06737806
168	0xbc8b3ce5	-0.01699681
169	0x3dc2ba12	0.09508146
170	0x3d271dd8	0.040799946
171	0x3cfcb306	0.030847084
172	0xbc866616	-0.0164061
173	0xbd4d9833	-0.050193977
174	0xbcd617aa	-0.02613433
175	0x3d98e6e9	0.074659176
176	0xbd2cc995	-0.04218443
177	0x3b2fb693	0.0026811704
178	0x3d35d5b4	0.044393256
179	0x3d263e42	0.040586717
180	0xbdaa665c	-0.08320305
181	0xbbcd5ff5	-0.0062675425
182	0x3d0a079c	0.033698663
183	0xbc863be4	-0.01638598
184	0x3c4d86ac	0.012544315
185	0x3e07d58a	0.13265052
186	0xbcc0e0ad	-0.023544634
187	0x3df4d7b5	0.11955205
188	0x3e0c33a9	0.13691582
189	0xbb38e94a	-0.0028215223
190	0x3d90373d	0.07041786
191	0x3debaff8	0.11508173
192	0xbd335bb4	-0.043788627
193	0xbd1553ec	-0.036456987
194	0x3d87ca13	0.066303395
195	0x3c3e5775	0.011617531
196	0x3a233226	0.0006225429
197	0xbcdae1fd	-0.026719088
198	0x3d92c5d2	0.071666375
199	0x3dd18a10	0.102314115
200	0x3cc23902	0.023708824
201	0x3db31f4e	0.08746205
202	0x3d9f9d58	0.07793683
203	0x3d6c67cc	0.057716176
204	0xbc7f80ed	-0.015594703
205	0x3d509a16	0.050928198
206	0x3d662ec3	0.05619694
207	0xbc805481	-0.015665295
208	0x3e145b08	0.1448785
209	0x3d9ca598	0.07648772
210	0xbd0d226a	-0.034456648
211	0xbd03fb29	-0.032221947
212	0x3d9d4c55	0.07680575
213	0x3d92a2bc	0.07159945
214	0x3a79373a	0.00095068256
215	0x3dbb23f2	0.091377154
216	0x3d751e33	0.059843253
217	0xb5824eaf	-9.708655e-07
218	0x3d9f4701	0.07777215
219	0xbd07872e	-0.0330879
220	0x3dfcaa46	0.123371646
221	0x3dd118fe	0.10209845
222	0x3d9cfe88	0.076657355
223	0x3c49b662	0.01231155
224	0x3d548162	0.0518812
225	0x3d8a2e90	0.06747162
226	0xbd4bcfe4	-0.049758807
227	0xbc98fa2f	-0.018673984
228	0x3d49ed9b	0.049298864
229	0x3d0f2e23	0.03495611
230	0xbc8a9cb2	-0.016920421
231	0xbd260117	-0.040528383
232	0x3c298bef	0.010348304
233	0x3e1e6112	0.15466717
234	0xbc8b6d24	-0.017019816
235	0x3d4de1d4	0.050264195
236	0x3df58016	0.11987321
237	0x3deaac72	0.114586726
238	0x3ccc1126	0.02491052
239	0x3c973609	0.018458383
240	0x3dd52183	0.104067825
241	0x3d8a4ca7	0.067529015
242	0xbd3d8231	-0.04626674
243	0xbd1617de	-0.036643855
244	0x3cf16b59	0.029470133
245	0x3c4338f0	0.01191543
246	0xbcb23128	-0.021751955
247	0x3da1d0cc	0.07901153
248	0x3dd3a057	0.10333317
249	0xbd211ced	-0.039334226
250	0x3d113032	0.035446353
251	0x3d25f271	0.040514413
252	0xbc81002e	-0.015747156
253	0x3d024ecf	0.03181344
254	0x3d33f1c0	0.043931723
255	0xbd725825	-0.059166092

fc2.weight f4 [256, 256]
0	0x3b533ce1	0.0032232332
1	0x3d8db8d1	0.069200166
2	0x3cff18ea	0.03113981
3	0xbbd1c5c5	-0.00640175
4	0xbd92e038	-0.071716726
5	0x3caeb67d	0.021327252
6	0xbdd2ae32	-0.10287131
7	0x3b9bf8c9	0.004759882
8	0xbcbb467c	-0.022860758
9	0x3b2c4fa3	0.0026292584
10	0x3e93268d	0.2874035
11	0xbccd2857	-0.02504365
12	0x3cf9583c	0.030437581
13	0x3d6dc4be	0.058048956
14	0x3c82336c	0.01589366
15	0xbd2089a6	-0.03919377
16	0x3d7327d8	0.05936417
17	0x3cfdce42	0.03098214
18	0xbd38679a	-0.045020677
19	0x3d7ddc07	0.061977413
20	0x3c96a9e9	0.018391566
21	0x3d275c7e	0.04085969
22	0xbc465e7d	-0.012107489
23	0xbcd939bc	-0.026516788
24	0xbc7c0e28	-0.0153842345
25	0x3c1ec780	0.009691119
26	0xbc136861	-0.008997054
27	0xbd965b1a	-0.07341595
28	0x3d3d3544	0.046193376
29	0x3d65ea9a	0.056131937
30	0x3d2e12b7	0.042498317
31	0xbd60efb9	-0.054916117
32	0x3d2ee8c3	0.042702448
33	0x3c83b7c4	0.016078837
34	0xba047ee2	-0.00050543074
35	0x3c85e6ff	0.0163455
36	0x3d774d41	0.06037641
37	0x3d1288c1	0.03577495
38	0x3da93c15	0.08263413
39	0x3c80ccfc	0.015722744
40	0x3cc11d27	0.023573471
41	0xbd0f8378	-0.035037488
42	0x3d191af0	0.037379205
43	0x3d35ce92	0.044386454
44	0xbc43e175	-0.011955609
45	0x3d746bab	0.059672993
46	0x3dc924d8	0.098214805
47	0xbd96a541	-0.073557384
48	0xbc65e299	-0.014031076
49	0x3dabf4c1	0.083962925
50	0x3d615769	0.055015
51	0xbcf813a6	-0.030282807
52	0xbd54e854	-0.051979378
53	0xbd912fb9	-0.070891805
54	0xbe21ef98	-0.15814054
55	0x3ddd6066	0.10809402
56	0x3c4295ad	0.011876506
57	0x3d196dce	0.037458234
58	0xbe474f84	-0.19463927
59	0x3cd7f46b	0.026361665
60	0xbd301db9	-0.042997096
61	0xbc5f155c	-0.013615932
62	0x3dfb37e1	0.122665174
63	0x3d009fbd	0.03140234
64	0x3b8290b5	0.0039845356
65	0x3d773850	0.06035644
66	0xbd2dc15d	-0.042420734
67	0xbdd159ab	-0.10222181
68	0x3d8aed48	0.06783539
69	0x3d4aca51	0.04950935
70	0x3e6862b7	0.22693907
71	0xa2cd0018	-5.556546e-18
72	0x3d42200b	0.04739384
73	0xbcf08de1	-0.029364528
74	0x3c20430f	0.009781613
75	0xbc624834	-0.01381116
76	0x3dec7fb8	0.11547798
77	0x3d81df3e	0.06341408
78	0xbda89de2	-0.08233239
79	0x3c5b91aa	0.013401428
80	0xbe00570b	-0.12533204
81	0xbbdb90be	-0.006700604
82	0xbcdf8260	-0.027283847
83	0x3d8a767c	0.0676088
84	0xbbcd54ef	-0.0062662284
85	0x3ce24fe9	0.027625995
86	0x3d025c62	0.031826384
87	0x3da63314	0.08115211
88	0x3d95f395	0.0732185
89	0x3d6b22b6	0.05740615
90	0x393e6db9	0.00018160687
91	0x3bc5a80b	0.006031995
92	0xbb918234	-0.0044405703
93	0x3c53a562	0.012917848
94	0xbc333233	-0.010937261
95	0xbd51d125	-0.051224846
96	0xbd60d5e5	-0.054891486
97	0x3d9ee49d	0.07758448
98	0x3d211357	0.039325085
99	0x3d383d2e	0.04498022
100	0x3ca3bc02	0.01998711
101	0x3c984035	0.018585304
102	0xbcaa1380	-0.020761251
103	0x3c227cd8	0.00991746
104	0x3d7b3d1f	0.061337586
105	0x3cb90278	0.022584185
106	0xbde0df4f	-0.10980093
107	0x3d507f40	0.050902605
108	0xbce718c4	-0.028210051
109	0xbb62cb6f	-0.003460612
110	0x3d6a9f0b	0.05728058
111	0xbbb8e450	-0.0056424513
112	0x3d58d7df	0.052940246
113	0x3ce90dd6	0.02844898
114	0xbc3c86ca	-0.011506746
115	0xbd088090	-0.03332573
116	0x9a28a024	-3.4870946e-23
117	0xbd174512	-0.036931105
118	0xbe9617ee	-0.29315132
119	0x3d78b768	0.060721785
120	0xbc86c000	-0.016448975
121	0xbd0bf076	-0.03416487
122	0x3cf8c6cc	0.030368231
123	0xbcfb6ee6	-0.030692529
124	0x3caead8b	0.021322986
125	0xbdca5705	-0.09879879
126	0xbd18e037	-0.037323203
127	0xbc92bc40	-0.01791203
128	0x3d787def	0.060666975
129	0xbd6ea6e0	-0.058264613
130	0x3cc1eb10	0.023671657
131	0xbd897ba9	-0.067130394
132	0x3d85a80d	0.06526194
133	0x3d491f58	0.049102157
134	0x3c12cd05	0.008960013
135	0xbc22b4ba	-0.009930784
136	0x3cdbfab8	0.02685295
137	0x3da421ea	0.08014281
138	0xbd7893fc	-0.060688004
139	0x3d0041de	0.031312816
140	0xbbbc9955	-0.0057555833
141	0xbd7b7ba8	-0.061397225
142	0xba0fb9e5	-0.00054827175
143	0x3ccc4ac9	0.024938004
144	0x3d8ab29b	0.067723475
145	0xbcab803a	-0.020935167
146	0x3d2d4bbc	0.042308554
147	0xbd336fe2	-0.04380787
148	0xbd0af51f	-0.033925172
149	0xbd87ddab	-0.06634077
150	0x3b94e856	0.004544298
151	0xbd076f22	-0.03306497
152	0xbe1db83e	-0.15402314
153	0x3d422e84	0.047407642
154	0x3d7b1e95	0.061308462
155	0x3c38c5d1	0.011277632
156	0xbce1b9bf	-0.027554391
157	0xbe026805	-0.12734993
158	0x3d1066bc	0.035254225
159	0x36b56c96	5.4068614e-06
160	0x3d25277e	0.040320866
161	0x3c490d63	0.012271258
162	0xbcd05851	-0.025432738
163	0x3da11f19	0.078672595
164	0x3d83ebf8	0.06441492
165	0x3c2c10ff	0.010502099
166	0xbc5d03b0	-0.013489649
167	0xbcfafa08	-0.030636802
168	0x3db56258	0.08856648
169	0x3cf2b13b	0.029625526
170	0xbcbcaaa5	-0.023030588
171	0x3d2a3881	0.041557793
172	0x3d81c8f2	0.063371554
173	0x3da8df13	0.08245673
174	0x3c979acc	0.01850643
175	0xbc058f1b	-0.008151795
176	0xbd8e95b7	-0.069621496
177	0xbb1692d1	-0.0022975693
178	0x3d8e6720	0.06953263
179	0xbd8a6295	-0.06757084
180	0x3ce4356a	0.027857501
181	0xbcf6ea64	-0.030141063
182	0x3d83d557	0.06437176
183	0xb9d61f56	-0.00040840608
184	0xbd0a9b0c	-0.03383927
185	0x3e0d4f97	0.13799892
186	0x3d0f61cb	0.035005372
187	0xbb8bdccd	-0.004268265
188	0x3d840210	0.06445706
189	0xbb9b1403	-0.00473261
190	0x3c59d4e8	0.01329539
191	0x3d03cd9f	0.032178517
192	0x3cc18ea9	0.023627596
193	0x3d956077	0.0729379
194	0x3b167691	0.0022958855
195	0xbba4b3ea	-0.0050263302
196	0xbcc719a6	-0.024304222
197	0xbde53ce3	-0.11193254
198	0xbdc43750	-0.095808625
199	0x3c1eaf39	0.009685331
200	0x3d9e501f	0.07730126
201	0x3bc267dc	0.005932791
202	0x3dacf2da	0.08444758
203	0x3e06ecf7	0.13176332
204	0xbd64393b	-0.05571864
205	0x3d5009b1	0.050790492
206	0x3d8cccc5	0.06874994
207	0xbdb4e330	-0.08832395
208	0xbc70bb3e	-0.0146930795
209	0x3d013bd6	0.031551205
210	0xbc3ec255	-0.011643012
211	0x3dc4ad11	0.09603322
212	0xbca24b2a	-0.019811232
213	0xbcb349ca	-0.021885771
214	0xbd0f9f86	-0.035064243
215	0xbc78a967	-0.015177107
216	0x3cada7be	0.02119815
217	0x14c55b18	1.9927847e-26
218	0xbc97ff53	-0.018554365
219	0x3ca0c443	0.019624835
220	0xbdd733ae	-0.10507904
221	0x3d34b235	0.044115264
222	0xbce39ea8	-0.027785614
223	0xbdd80527	-0.10547858
224	0xbcfd005b	-0.030883959
225	0x3c06fc61	0.008238883
226	0x3dab2dbc	0.083583325
227	0x3d47b713	0.048758578
228	0xbcc3ecc1	-0.023916604
229	0x3d22c6cc	0.03974037
230	0xbda53626	-0.080669686
231	0x3ca929a9	0.020649748
232	0xbd2a43e5	-0.041568656
233	0x3cb2bf7c	0.021819822
234	0xbccf46f7	-0.025302393
235	0x3c0d30f3	0.008617627
236	0xbc068f06	-0.00821281
237	0xbc8b2482	-0.016985182
238	0x3cbb14b7	0.022837026
239	0x3c4daa13	0.012552756
240	0xbd4dd32b	-0.050250214
241	0xbd251694	-0.040304735
242	0x3d692f92	0.056930132
243	0xbe1ed234	-0.15509874
244	0xbe14fd83	-0.14549832
245	0x3d4ea3ba	0.05044911
246	0x3d6dcffe	0.058059685
247	0x3dc27fc1	0.094970234
248	0xbc75d36a	-0.015004018
249	0xbc99df07	-0.018783106
250	0xbe926220	-0.28590488
251	0x3def582a	0.11686738
252	0xb9ff59df	-0.0004870435
253	0x3ca9753a	0.02068578
254	0xbda37d21	-0.07982851
255	0xbced0ee6	-0.028937768

fc2.bias f4 [256]
0	0xbc4a0de4	-0.012332413
1	0x3d3f9b33	0.04677887
2	0xbd5f7788	-0.054557353
3	0x3cc867b3	0.02446351
4	0x3d305a9f	0.043055173
5	0x3d56b254	0.05241616
6	0x3d20e4bf	0.03928065
7	0x3d24bca3	0.04021896
8	0xbd63062b	-0.055425804
9	0xbac381e2	-0.0014916027
10	0x3bff2c91	0.007787295
11	0xbb859954	-0.004077116
12	0x3d273dfe	0.040830605
13	0x3c54cea1	0.012988717
14	0x3d8546c4	0.06507638
15	0xbce393c2	-0.027780417
16	0x3affc31e	0.0019513106
17	0xbc94fefe	-0.018187996
18	0x3d34c6d1	0.04413492
19	0xbd35e435	-0.04440709
20	0xbbc13dd1	-0.0058972617
21	0x3da974f3	0.082742594
22	0xbd05c8e8	-0.032662302
23	0x3dd9f351	0.10642112
24	0xbc4fda7e	-0.01268637
25	0x3d8d77c1	0.06907607
26	0x3ccf609f	0.025314627
27	0x3d9f40ea	0.07776053
28	0x3d00c568	0.03143826
29	0x3ce09a82	0.027417425
30	0x3d5655b9	0.052327845
31	0x3d7fa5a7	0.062413838
32	0x3cb3c78d	0.02194574
33	0x3d78ea81	0.060770515
34	0xb14d1463	-2.9843015e-09
35	0xbc935eb2	-0.01798949
36	0xbcd016f2	-0.025401566
37	0xbb174a0a	-0.0023084902
38	0x3d0a4efe	0.03376674
39	0xba15203b	-0.00056887016
40	0xbbabb67f	-0.005240261
41	0x3cc8110b	0.02442219
42	0xbd249e1c	-0.040189847
43	0x3d1a4cf8	0.03767106
44	0x3d7ee909	0.06223396
45	0x3d974749	0.073866434
46	0x3d018d24	0.031628743
47	0x3c81ce89	0.015845554
48	0x3d63c807	0.055610683
49	0x3daa5cd3	0.08318486
50	0x3d789152	0.060685463
51	0xbbe5591b	-0.0069991476
52	0x37424c11	1.1581012e-05
53	0x3d3edf95	0.046599943
54	0xbb8777d0	-0.004134156
55	0x3d53c540	0.051701784
56	0x3b9bdf82	0.004756869
57	0xbd010528	-0.031499058
58	0x3d18716b	0.03721754
59	0xbcd7cd6f	-0.026343076
60	0x3d1edf49	0.03878716
61	0xbd413d37	-0.04717752
62	0x3d414eb5	0.0471942
63	0x3da97d1a	0.08275814
64	0x3d795b4f	0.060878094
65	0x3d1a5ea3	0.03768791
66	0x3d06073d	0.032721747
67	0x3d38071c	0.044928655
68	0xac0092f7	-1.8271476e-12
69	0xbc0286e9	-0.007966735
70	0xbb9216d8	-0.0044582896
71	0x3da0679a	0.078322604
72	0x3aa53be9	0.0012606356
73	0xbd2d871b	-0.042365175
74	0x3d7480fe	0.05969333
75	0xbd0b81c3	-0.034059297
76	0xbc964569	-0.018343644
77	0x3d7cb312	0.061694212
78	0x3c522a65	0.01282749
79	0x3ce783f0	0.028261155
80	0x3cd60506	0.026125442
81	0x3d2ce222	0.042207845
82	0x3da04d08	0.078271925
83	0x3d58dc0d	0.05294423
84	0x3c9b6a53	0.018971598
85	0x3d72b570	0.059255064
86	0xb223339c	-9.499583e-09
87	0xbcb6bdea	-0.022307355
88	0xb813c3ff	-3.5230067e-05
89	0xbaf0996c	-0.001835627
90	0xbcda5e8b	-0.02665641
91	0x3d573961	0.052544955
92	0x3d617b82	0.055049427
93	0x3d6e19aa	0.058129944
94	0xbbc26960	-0.005932972
95	0x3c0686f1	0.0082108835
96	0xbc4d6e60	-0.0125385225
97	0x3d3935d3	0.045217346
98	0x3d9d4dc4	0.07680848
99	0x3d0aa39f	0.033847447
100	0xb915b826	-0.00014278348
101	0xbc82916e	-0.015938487
102	0xbcbb3c85	-0.022856006
103	0x3ccd40ff	0.025055407
104	0xbcb24263	-0.021760171
105	0x3d6f953d	0.058491934
106	0x3c129c54	0.008948404
107	0xbccd20fb	-0.02504014
108	0x3d816a83	0.063191436
109	0x3c886568	0.016649917
110	0x3cc45558	0.023966476
111	0x3dca1faa	0.09869321
112	0x3d400ee8	0.046889216
113	0x3d0279e0	0.03185451
114	0xbd34c1d3	-0.044130158
115	0x3b1f0457	0.0024264061
116	0x3d868588	0.06568438
117	0x3d89688f	0.06709396
118	0x3c59dad0	0.013296798
119	0x3db8e4bf	0.09028005
120	0x3cd43e74	0.025908686
121	0x3da62165	0.08111838
122	0xbc3d34ea	-0.01154826
123	0xb1a1c89b	-4.708523e-09
124	0xbcfa9c66	-0.030592155
125	0x3b3a644d	0.0028441132
126	0xbb8ca0d3	-0.0042916327
127	0xbcd856f2	-0.026408646
128	0xbcea0f6a	-0.028571803
129	0x3b8e6291	0.004345246
130	0x3d8e2f04	0.06942561
131	0x3d29b819	0.041435335
132	0x3dcb72b2	0.09933986
133	0xbbdc2b00	-0.006718993
134	0x3d86cf0a	0.06582458
135	0x3d363561	0.0444845
136	0x3cd63822	0.026149813
137	0xbc9586d1	-0.018252762
138	0xbbde6c6c	-0.0067878272
139	0x3d2ea1ba	0.042634703
140	0xbc65c265	-0.014023398
141	0x3d9c8953	0.0764338
142	0xbd131001	-0.035903934
143	0x3cd18596	0.025576394
144	0xbc9f5e16	-0.019454043
145	0x3da540a6	0.08068971
146	0x3d04e500	0.032444954
147	0x3d0596f0	0.03261465
148	0x3d2205d9	0.039556358
149	0x3c728a72	0.014803516
150	0x3d315809	0.043296847
151	0xbc56170d	-0.013067019
152	0x3cd8eddb	0.026480606
153	0x3bd6322a	0.0065367417
154	0xbcc6395a	-0.02419727
155	0x3bf7f7ac	0.0075673666
156	0xbd172094	-0.036896303
157	0x3ce93139	0.028465854
158	0xba8c0834	-0.0010683597
159	0xbd4e8284	-0.05041744
160	0x3d814c58	0.063133895
161	0x3d88206b	0.06646808
162	0x3d4f59d1	0.050622765
163	0xb542b102	-7.252821e-07
164	0x3d4f4223	0.050600182
165	0x3d71372e	0.058890514
166	0xba981456	-0.001160274
167	0x3d569cf9	0.052395795
168	0xbbbbce0d	-0.0057313503
169	0x3c9e99ec	0.019360505
170	0x3bb11bc6	0.005404922
171	0x3d483d39	0.04888651
172	0xbcc0fbec	-0.023557626
173	0x3d54c571	0.051946107
174	0xbd20b241	-0.039232496
175	0xbd50556f	-0.050862726
176	0xb7a43590	-1.9575265e-05
177	0x3d4f6521	0.050633553
178	0x3d9b3279	0.07577986
179	0xbc052427	-0.008126295
180	0x3d9c4cc8	0.07631832
181	0x3dc5ad85	0.09652237
182	0x3d698b6a	0.05701772
183	0xbd02a11d	-0.03189193
184	0xbc9e6655	-0.019335905
185	0x3d92da3d	0.07170532
186	0x3d2e9bcd	0.042629052
187	0x3dc8fa64	0.09813383
188	0xbc8a2b44	-0.016866334
189	0xbd1b64fa	-0.037938096
190	0xbc81ccf6	-0.015844803
191	0xbb5d887f	-0.0033803282
192	0xbcbe2db6	-0.023215156
193	0x3db81a4d	0.089893915
194	0x3c8740a3	0.016510313
195	0xbd0dfde2	-0.03466595
196	0xbd0104ca	-0.031498708
197	0x3d8f1f88	0.06988436
198	0x3d6e28ef	0.058144506
199	0x3cb683eb	0.0222797
200	0x3b366879	0.0027833267
201	0xbb522963	-0.0032068125
202	0xbcb0aa52	-0.02156559
203	0xbc87727e	-0.016534086
204	0xbd298d62	-0.0413946
205	0xbd16fc8d	-0.036861945
206	0x3c0a66ad	0.008447331
207	0xbc5ae806	-0.013360983
208	0x3d1058c7	0.035240915
209	0x3ced493c	0.028965585
210	0x3d41c67f	0.04730844
211	0xbcea4593	-0.028597629
212	0xbc9b5350	-0.018960625
213	0x3c7c63b3	0.0154046295
214	0xbc872eeb	-0.016501864
215	0x3bdb746d	0.0066972286
216	0xbd15429a	-0.03644047
217	0x3bdd7373	0.0067581474
218	0x3d1042f6	0.03522011
219	0xbb5ad9a3	-0.0033393882
220	0x3d5c7cda	0.053830005
221	0x3ccba3dd	0.02485841
222	0xbc040a5b	-0.00805911
223	0x3bd6a5e2	0.0065505365
224	0x3d8d3f6a	0.06896861
225	0x3b32ab71	0.0027262832
226	0xbc2a31f2	-0.010387884
227	0xbd0d23b7	-0.03445789
228	0x3c84f46e	0.016229834
229	0x3d297de5	0.041379828
230	0x3d76038e	0.060061984
231	0x3d3998a8	0.0453116
232	0xb6e4e38a	-6.8214185e-06
233	0xbb37132b	-0.002793501
234	0x3c65d030	0.014026687
235	0x3d12ce6c	0.03584139
236	0x3b10e217	0.0022107416
237	0x3989d1cc	0.00026286987
238	0xb84264ac	-4.6346962e-05
239	0xbad92438	-0.001656658
240	0x3d8dd015	0.06924454
241	0xba70aa5d	-0.00091806595
242	0x3d74471e	0.059638135
243	0x3d07fda4	0.033200875
244	0xbcaa3c3b	-0.020780673
245	0x3c6b39fc	0.014357086
246	0xbd849dee	-0.06475435
247	0xbc8e62ec	-0.017381154
248	0x3ce4c11a	0.02792411
249	0x3c955335	0.018228153
250	0x3ca16153	0.019699728
251	0x3d85c239	0.06531186
252	0x3af21286	0.0018468655
253	0x3b91c6ed	0.0044487626
254	0x3d80cc49	0.06288964
255	0x3cbe6748	0.023242608

policy.weight f4 [127, 256]
0	0x3c9a81df	0.018860755
1	0x3e12a179	0.1431941
2	0xbca2c8ec	-0.019871198
3	0xbd8831a0	-0.0665009
4	0x3c516591	0.012780563
5	0x3da129bd	0.07869289
6	0x3d3151ff	0.04329109
7	0xbcb5427e	-0.022126433
8	0x3e04f2f6	0.12983307
9	0x3c798707	0.015229947
10	0xbc3a4436	-0.011368802
11	0x3c08cd42	0.0083497185
12	0x3dbfe6fd	0.093702294
13	0xbcefb5a0	-0.02926141
14	0x3d828836	0.063736364
15	0xbb772ad3	-0.0037714734
16	0x3da6de32	0.08147849
17	0xbdbf070b	-0.09327515
18	0xbd8feca2	-0.07027556
19	0x3d99435b	0.0748355
20	0xbd9e0683	-0.07716086
21	0x3dff7c51	0.12474883
22	0xbe6520d5	-0.22375806
23	0xbd928c2d	-0.07155643
24	0xb928e8ae	-0.00016108408
25	0x3d424822	0.047432072
26	0xbddf4b27	-0.10903006
27	0x3d1c86de	0.038214557
28	0x3dcb0815	0.09913651
29	0x3dcf0297	0.10107916
30	0xbe9a261b	-0.30107197
31	0xbbec584b	-0.007212674
32	0x3cd37310	0.025811702
33	0x3d4daf32	0.050215907
34	0x140da790	7.151727e-27
35	0x3db402a0	0.08789563
36	0xbf143fe3	-0.57909983
37	0x3dbf4d51	0.09340919
38	0x3d8cf383	0.06882384
39	0xbb68df2e	-0.0035533416
40	0x3d7f3f64	0.062316313
41	0xbe07c8b1	-0.13260151
42	0x3da5b374	0.080908686
43	0x3d3ed499	0.046589468
44	0x3b96e685	0.004605117
45	0x3c09a2a7	0.008400596
46	0xbc0e10a9	-0.008670964
47	0x3dad0eb0	0.08450067
48	0xbe0c5b1d	-0.13706632
49	0xbe309e63	-0.1724792
50	0xbe27147c	-0.16316408
51	0x12cd08ea	1.2939516e-27
52	0x3dcf843b	0.10132643
53	0x3d54d203	0.051958095
54	0x3e202c8c	0.15641993
55	0xbdb9c9d9	-0.090717025
56	0x951225f1	-2.9514396e-26
57	0x3dfb1959	0.12260694
58	0x3dffb913	0.12486472
59	0xbd4f915e	-0.050675742
60	0x3d010deb	0.031507414
61	0x3de74142	0.11291744
62	0x3ddc2101	0.107484825
63	0x3de52e98	0.11190528
64	0xbe3dc92f	-0.18533777
65	0xbc123b32	-0.008925246
66	0x3cd0313c	0.025414102
67	0x3d8c4449	0.06848962
68	0x9d0268ad	-1.7259473e-21
69	0xbd5a684f	-0.053322133
70	0xbc48c1a6	-0.012253201
71	0x3de55460	0.11197734
72	0xbdaabc14	-0.08336654
73	0x3c6ace28	0.014331378
74	0x3cd640de	0.026153978
75	0xbd968d8b	-0.07351216
76	0x3e0f5fe8	0.14001429
77	0xbc580907	-0.013185746
78	0xbe507f6a	-0.20361105
79	0xbc364b13	-0.0111262975
80	0x3de17a2f	0.11009633
81	0x3d54bb28	0.0519363
82	0xbe0a9bf1	-0.1353605
83	0xbd99677b	-0.074904405
84	0x3c69142d	0.014226002
85	0x3dc5d225	0.096592225
86	0x949d3092	-1.5872106e-26
87	0x2ae83b2d	4.125254e-13
88	0x398c2d3c	0.00026736583
89	0x3d6a6b7f	0.057231423
90	0x3c7d90ca	0.015476415
91	0x3dfb9a56	0.122852966
92	0xbcca1618	-0.024668738
93	0x3d7bf55d	0.061513294
94	0xbc1d9bc8	-0.009619661
95	0x3d767634	0.06017132
96	0x3ca54c49	0.020177977
97	0xbcc98784	-0.024600752
98	0x3d25e0e9	0.040497694
99	0xbe39150b	-0.18074434
100	0x3cf9eb14	0.030507602
101	0x3dd47158	0.10373181
102	0xbe8a8cdc	-0.27060592
103	0x3c02f431	0.00799279
104	0xbe1d87b3	-0.15383796
105	0x3d29ed5d	0.041486133
106	0x3747fa3f	1.1919589e-05
107	0x3c9a2989	0.018818634
108	0xbd4cd355	-0.05000623
109	0xbdd059dd	-0.1017339
110	0xbce982a0	-0.02850467
111	0x3d9779f6	0.07396309
112	0xbe42dd48	-0.19029725
113	0x3d9b1905	0.075731315
114	0xbd94a84a	-0.07258661
115	0xbd8fb6cd	-0.07017288
116	0x3e5a95b0	0.21346164
117	0xbdd420fc	-0.10357854
118	0xbc0c918b	-0.008579622
119	0x3e1e4486	0.15455827
120	0x2f9a3b8f	2.8054756e-10
121	0xbcfab0f2	-0.030601952
122	0x3bc32c9c	0.0059562456
123	0x1783bb31	8.51293e-25
124	0xbc579b6f	-0.013159617
125	0xbdac2b36	-0.08406679
126	0xbbbc8f9f	-0.0057544257
127	0x3db8e6ef	0.09028422
128	0xbda444bc	-0.080209225
129	0xbe25b56e	-0.16182491
130	0x3dcaba6b	0.09898838
131	0x3d54fa5f	0.051996585
132	0xbe652537	-0.22377478
133	0xbdcb64c5	-0.0993133
134	0xbcfdd90b	-0.030987283
135	0xbbfc489f	-0.007699087
136	0x3dd820a2	0.10553099
137	0x3ca3a022	0.019973818
138	0x3d638245	0.055544157
139	0xbcb564eb	-0.022142848
140	0xbc02f24c	-0.007992338
141	0x3dc54014	0.096313626
142	0x3c67ddb8	0.014151983
143	0xbda60dcc	-0.081081
144	0x3d8bb447	0.068214945
145	0x3df0541a	0.11734791
146	0x3d1086ad	0.035284687
147	0xbd3596ab	-0.04433314
148	0x3e65ea0b	0.22452562
149	0x3e036061	0.12829734
150	0xbcc513a5	-0.024057219
151	0xbbf28f27	-0.007402319
152	0xbdc666e3	-0.09687593
153	0x3416f91c	1.4060464e-07
154	0x3e089627	0.13338529
155	0xbe0f4a43	-0.13993172
156	0xbd8f5250	-0.06998122
157	0x3d9c55cf	0.07633554
158	0x96dbf5a0	-3.553637e-25
159	0xbd06ad7a	-0.032880284
160	0xbd865b23	-0.06560352
161	0x3e6d279f	0.23159645
162	0xbe8e39b0	-0.27778387
163	0x93bd4ac3	-4.778403e-27
164	0x3e4af5d0	0.19820333
165	0x3d812310	0.06305516
166	0x3c6149e8	0.013750531
167	0xbe5457fe	-0.20736691
168	0x3d757509	0.059926067
169	0x3bfa427c	0.00763732
170	0x3db4f8b3	0.08836498
171	0xbcab8731	-0.020938488
172	0xbd6d183f	-0.05788445
173	0x3d0b1998	0.033959955
174	0x3e003251	0.12519194
175	0x3dae3dbf	0.08507871
176	0x3a842d2a	0.0010084261
177	0x3b087cfe	0.0020826454
178	0xbdd28231	-0.10278738
179	0x3acc9d26	0.0015610799
180	0xbe28a81d	-0.1647038
181	0xbe93e251	-0.28883603
182	0xbe247c30	-0.16062999
183	0xbdb435c4	-0.087993175
184	0x3c22bfc1	0.009933413
185	0x3d8642c3	0.065557025
186	0x3da40572	0.08008851
187	0xbd89ed6a	-0.06734736
188	0xbe155fa6	-0.14587268
189	0xaa3f01d3	-1.6964841e-13
190	0x3d669708	0.05629638
191	0x3d8dbca2	0.069207445
192	0x3d2906b2	0.04126615
193	0xbc9f12c2	-0.019418124
194	0x3d81f35c	0.06345245
195	0x3dddf540	0.10837793
196	0x3da520b8	0.08062881
197	0x3e2bd58d	0.16780682
198	0x3d421c45	0.04739024
199	0xba310657	-0.0006752959
200	0x3db61edb	0.08892604
201	0xb7a98ed4	-2.021288e-05
202	0x3e16d584	0.14729887
203	0xbaebb52b	-0.0017983069
204	0x3ca9d004	0.020729072
205	0xbe23774b	-0.15963475
206	0x3dc48c94	0.09597126
207	0x3d2fd095	0.04292353
208	0xbb601205	-0.0034190428
209	0x3c592b10	0.013254896
210	0xbc069e21	-0.008216412
211	0xb83d6b86	-4.516125e-05
212	0xbc401f20	-0.011726171
213	0xbdeb5d98	-0.11492461
214	0xb301ab7f	-3.0191128e-08
215	0x3db4dd3c	0.088312596
216	0xbe0cddb9	-0.13756455
217	0xbc8719f1	-0.016491862
218	0x3e0df5fd	0.13863368
219	0x3dcc5a60	0.09978175
220	0x3df22e1c	0.11825201
221	0x3e63e78e	0.222563
222	0x3e0e8024	0.1391607
223	0x3e011bc0	0.12608242
224	0xbd3acb14	-0.045603827
225	0xbd4554aa	-0.048176445
226	0x9f0245af	-2.7586212e-20
227	0x3b942694	0.0045212004
228	0x3c17622d	0.0092397155
229	0xbdac3345	-0.084082164
230	0x3dd5c53e	0.104380116
231	0x3e4fb179	0.20282544
232	0x3db93d5f	0.09044909
233	0x3d6d1d6e	0.057889394
234	0xbe89e8df	-0.2693548
235	0xbe1e687e	-0.15469548
236	0xbd5e4b6e	-0.054271154
237	0x3c46b1db	0.012127365
238	0x3ba4cbc9	0.005029176
239	0x3cfe4453	0.031038439
240	0xbcedc592	-0.029024873
241	0x3c8f7417	0.01751141
242	0x3e08d7d7	0.13363586
243	0xbcd10035	-0.025512794
244	0xbd17ffa5	-0.037109036
245	0xbd3307a7	-0.04370847
246	0x3ba2791a	0.004958284
247	0xbc076dd9	-0.008265936
248	0xbd834b39	-0.06410832
249	0xb2aa9a38	-1.9860735e-08
250	0x3b769282	0.0037623947
251	0xbd96cbb5	-0.07363073
252	0xafd8b9bf	-3.9422152e-10
253	0xbdd618a4	-0.104539186
254	0x3d97b359	0.07407255
255	0x3a7d7d47	0.0009669852

policy.bias f4 [127]
0	0x3c3ec120	0.011642724
1	0xbd3eefd4	-0.046615437
2	0xbc42c423	-0.011887583
3	0xbc50efd7	-0.012752495
4	0xbca51ece	-0.02015629
5	0x3d84fb85	0.06493286
6	0xbd58e6c3	-0.052954447
7	0x3d47db4a	0.048793115
8	0xbd63ff5a	-0.055663444
9	0xbd43d373	-0.047809076
10	0x3cf73131	0.030174823
11	0x3cdd0bbe	0.026983138
12	0x3cf214ab	0.02955087
13	0x3cd283ed	0.025697673
14	0x3c9fa998	0.019490048
15	0xbbec980f	-0.0072202752
16	0x3d66b5aa	0.056325592
17	0xbd06743e	-0.0328257
18	0x3b699d92	0.0035646898
19	0x3d4c6171	0.049897615
20	0x3a7c2568	0.0009618611
21	0x3d042a64	0.03226699
22	0xbd94f1a9	-0.072726555
23	0xbd4f0da6	-0.050550126
24	0xbcba14dc	-0.022715025
25	0xbcb04cf8	-0.021521077
26	0x3c5b5e7e	0.013389228
27	0xbd365d4b	-0.044522565
28	0xbc81dc4c	-0.015852116
29	0xbd935e5e	-0.071957335
30	0xbc1f35b7	-0.009717396
31	0xbd2bcf84	-0.04194595
32	0x3d5d745f	0.05406606
33	0xbd5205dc	-0.05127512
34	0xbd1262f2	-0.035738893
35	0x3aad3370	0.0013214182
36	0x3dd14504	0.10218242
37	0xbc838dd1	-0.016058834
38	0x3c3ce001	0.011528016
39	0x3c822776	0.015887957
40	0xbd4c2df6	-0.04984852
41	0x3d0a08aa	0.03369967
42	0x3c6f9942	0.014623942
43	0x3d6175d5	0.055044014
44	0xbd303ac6	-0.0430248
45	0x3c62ca07	0.013842112
46	0xbc2967b9	-0.010339671
47	0x3d93c296	0.07214849
48	0x3d1bc7da	0.03803239
49	0xbc820d21	-0.015875401
50	0x3daaf2c6	0.083470866
51	0x3d2680b5	0.04065009
52	0x3dbca3fa	0.092109635
53	0xbd64cdcd	-0.05586033
54	0x3b59ff5f	0.0033263785
55	0x3c86e0ba	0.01646458
56	0x3da3c0c2	0.0799575
57	0xbb808790	-0.0039224103
58	0xbc9ae630	-0.01890859
59	0xbd8f05e9	-0.06983549
60	0x3cbd23fa	0.023088444
61	0xbd8e6697	-0.06953161
62	0xbcab2947	-0.020893706
63	0xbcdee896	-0.027210515
64	0x3c880266	0.016602706
65	0xbd4e5f2a	-0.050383724
66	0x3b0749a6	0.0020643263
67	0xbd7ed45e	-0.062214248
68	0x3c8ae0f5	0.016952971
69	0x3b680844	0.0035405317
70	0x3bfc5c91	0.0077014645
71	0xbd8c8176	-0.0686063
72	0xbcd9b743	-0.026576644
73	0x3b9e816d	0.004837206
74	0xbcfbc40a	-0.030733127
75	0xbd0fa759	-0.035071705
76	0xbc529260	-0.012852281
77	0x3cd8a20d	0.02644446
78	0xbcbe6d88	-0.023245588
79	0x3cb054ad	0.021524752
80	0xbd2bdacf	-0.04195672
81	0xbd185d37	-0.03719827
82	0xba6c74fb	-0.0009020117
83	0xbd6c5b5f	-0.057704326
84	0xbc9c319d	-0.019066626
85	0xbd1cf5c4	-0.038320318
86	0x3c62ea83	0.013849857
87	0xbd06f18a	-0.032945193
88	0x3c83d3e6	0.016092252
89	0x3ad936e6	0.0016572147
90	0x3c179b68	0.00925336
91	0xbb8dfbf0	-0.004333012
92	0x3c3144ef	0.010819658
93	0xbd871469	-0.0659569
94	0x3ceaeeb7	0.028678281
95	0xbd25d9f8	-0.040491074
96	0x3b3afec1	0.0028533193
97	0x3ca2f91d	0.019894177
98	0xbc93fb89	-0.018064277
99	0xbc76d69a	-0.015065813
100	0xbcd9b565	-0.026575753
101	0xbc02d781	-0.00798595
102	0xbcc66a2a	-0.024220545
103	0x3cd27a30	0.02569303
104	0x3d08dc52	0.03341324
105	0xbd169ab4	-0.03676863
106	0x3c016f81	0.00790012
107	0xbc4256b7	-0.011861495
108	0xbd633a61	-0.055475596
109	0x3bef779c	0.0073079597
110	0xbc3724cc	-0.011178207
111	0xbd4d64ac	-0.050144836
112	0xbaab6078	-0.0013075015
113	0xbd640db3	-0.055677127
114	0x3cd3f5fa	0.025874127
115	0xbd1c628b	-0.038179915
116	0xbc86abe1	-0.01643938
117	0xbd77e7a3	-0.06052364
118	0x3c050a11	0.008120076
119	0x3c020633	0.007936048
120	0x3c4dd08e	0.01256193
121	0xbcd430be	-0.025902148
122	0x3c294952	0.010332422
123	0x3b3a3de8	0.0028418247
124	0xbd368794	-0.04456289
125	0xbc30c118	-0.010788225
126	0x3cc887b8	0.024478778

value.weight f4 [1, 256]
0	0x3d87105c	0.06594917
1	0x3d56c5b6	0.052434646
2	0x3d3194a7	0.043354657
3	0xbd09f672	-0.033682294
4	0xbd369cc3	-0.044583093
5	0x3ce08151	0.027405413
6	0xbc926a3d	-0.017872924
7	0x3d4c1fa5	0.049834866
8	0x3b69105e	0.0035562734
9	0xba91e958	-0.0011132164
10	0xbcf48148	-0.029846802
11	0x3c160d6d	0.009158474
12	0x3d613d5f	0.05499017
13	0xbd7e754e	-0.06212359
14	0x3cc18e34	0.023627378
15	0xbd93c7e7	-0.07215863
16	0x3d800d55	0.06252543
17	0xbd63a2b9	-0.055575106
18	0x3cab625f	0.02092093
19	0xbd3f6998	-0.04673156
20	0xbd250c5d	-0.040294994
21	0xbd5b29d5	-0.05350669
22	0xbcf88460	-0.030336559
23	0xbd039584	-0.03212501
24	0x3c93f85a	0.01806276
25	0x3c96b4be	0.018396731
26	0xbcd651b1	-0.026162
27	0xbcf1c689	-0.029513614
28	0x3bc47464	0.00599532
29	0xbd7dfb87	-0.062007453
30	0x3b3c02e3	0.0028688244
31	0x3d21dca4	0.03951706
32	0xbc1ed643	-0.009694639
33	0x3d45c02b	0.04827897
34	0x13f2878f	6.122306e-27
35	0x3cde36da	0.027125765
36	0xbdcd1bf6	-0.10015099
37	0xbab4773f	-0.0013768448
38	0xbd86327e	-0.06552599
39	0x3c085900	0.0083220005
40	0x3d869fd4	0.065734535
41	0xbd2c9e50	-0.042143166
42	0x3cc38a7b	0.023869744
43	0xbd4326fc	-0.0476446
44	0x3d79d82d	0.060997177
45	0x3e3d4642	0.18483832
46	0xbd827d50	-0.06371558
47	0xbd8faa29	-0.07014877
48	0x3cce630a	0.02519371
49	0x3a99c373	0.0011731222
50	0xbd0a068d	-0.033697654
51	0xbb86aa8d	-0.0041096867
52	0x3db78b20	0.08962083
53	0x3db45e20	0.088070154
54	0xbc3cb172	-0.011516916
55	0xbd9b3525	-0.07578496
56	0x3d0ac82f	0.033882316
57	0xbd5ab119	-0.05339155
58	0x3b9821a5	0.0046426826
59	0x3d30a8ff	0.043129917
60	0xbc1205a3	-0.008912477
61	0x3da9e827	0.08296233
62	0x3d3a5106	0.045487426
63	0xbc07fcf0	-0.008300051
64	0xbd52a1cb	-0.05142383
65	0x3d73a20d	0.059480716
66	0x3db9244f	0.090401284
67	0x3bf89c60	0.0075870007
68	0x3bbb4b4b	0.0057157627
69	0xbd16054c	-0.036626145
70	0x3d619016	0.05506905
71	0xbb3f8dea	-0.0029228874
72	0xbd24915a	-0.04017768
73	0x3cd6e4a8	0.026232079
74	0xbd73b77b	-0.059501152
75	0x3a564218	0.0008173301
76	0x3c4797a7	0.012182153
77	0x3c3d3baa	0.01154987
78	0xbd88c538	-0.066782415
79	0x3d86bca9	0.06578953
80	0xbd0ca4b7	-0.03433677
81	0x3d53d056	0.051712357
82	0xbce7f744	-0.028316148
83	0xbc313fe4	-0.010818455
84	0x3cc2b14e	0.023766186
85	0xbd092666	-0.033483885
86	0xa127b311	-5.6818793e-19
87	0xbbecb6a8	-0.0072239228
88	0x3c121dad	0.008918208
89	0x3d3d8ae3	0.04627503
90	0xbd0396cb	-0.03212623
91	0x3d080e08	0.033216506
92	0xbac2a3ac	-0.0014849803
93	0xbcad1a23	-0.021130627
94	0xbc79ffee	-0.015258772
95	0x3d811ea0	0.063046694
96	0xbd350798	-0.044196695
97	0x3ce2e9dc	0.027699403
98	0xbd376aaa	-0.044779457
99	0xbd8d238b	-0.06891545
100	0x3b8bb63f	0.004263669
101	0x3d880a4d	0.0664259
102	0xbdc19acf	-0.094533555
103	0x3cf50780	0.029910803
104	0xbde538a4	-0.11192444
105	0x3cdfe3e6	0.02733035
106	0xbd0b5933	-0.034020614
107	0x3d4eb58e	0.050466113
108	0xbccabac2	-0.024747256
109	0x3d51bafc	0.051203713
110	0x3b59ae32	0.00332154
111	0xbcbfd497	-0.0234168
112	0xbd2384e8	-0.03992167
113	0xbcf6b3f5	-0.030115107
114	0x3d83b0c5	0.064302005
115	0xbca2deae	-0.019881573
116	0xbd804891	-0.06263841
117	0xbd61d1fd	-0.0551319
118	0xbd048f26	-0.03236308
119	0xbc22f1f8	-0.009945385
120	0x3cda9030	0.026680082
121	0xbcac7024	-0.021049567
122	0x3bd9fdb6	0.006652559
123	0x3b5c50c7	0.0033617483
124	0x3d29e227	0.04147544
125	0x3cec159e	0.028818902
126	0xbba56621	-0.005047575
127	0x3d124f57	0.035720196
128	0xbcf151f0	-0.029458016
129	0x3c321cb6	0.010871103
130	0x3d95cc21	0.07314325
131	0x3c86e4c9	0.016466515
132	0xb92dfc7b	-0.00016592622
133	0xbd14c6c0	-0.036322355
134	0xbbdedcb9	-0.0068012145
135	0xbd587fa1	-0.05285609
136	0xbb72b415	-0.0037033607
137	0xbd86d432	-0.06583442
138	0xbd3df4c3	-0.046376
139	0x3c31cbe3	0.010851833
140	0x3cc3c02c	0.023895346
141	0x3c9d3112	0.019188438
142	0xbda40f56	-0.080107376
143	0x3c2da77a	0.010599012
144	0x3cd16718	0.025561854
145	0xbd8e64a6	-0.06952791
146	0x3ddaef0e	0.10690127
147	0x3c4ad2c7	0.012379355
148	0x3c8379ca	0.016049284
149	0x3d120fe5	0.03565969
150	0x3b90abdb	0.004415018
151	0xbd8004f9	-0.062509485
152	0xbcbc5431	-0.022989364
153	0x3c140f54	0.009036858
154	0xbcb4d398	-0.022073552
155	0xbb9c680e	-0.0047731465
156	0x3d920e5c	0.07131645
157	0x3c4474aa	0.0119907055
158	0x39542189	0.00020230388
159	0xbd9f65b0	-0.07783067
160	0xba8715b1	-0.0010306147
161	0x3c45cbb4	0.012072492
162	0x3d3d41a4	0.046205178
163	0x978d2d24	-9.123307e-25
164	0x3d01e910	0.031716406
165	0xbd6103c9	-0.05493525
166	0x3a84673d	0.0010101568
167	0x3da654de	0.08121656
168	0x3d4f36c2	0.05058933
169	0x3c7c3a32	0.015394734
170	0x3c3894f0	0.011265978
171	0x3c9152f5	0.017739752
172	0x3d3f403e	0.046692125
173	0x3d30c179	0.04315326
174	0x3cfc4a68	0.030797198
175	0xbd7f74c0	-0.0623672
176	0xbc507f14	-0.01272561
177	0x3cfba96f	0.03072044
178	0x3cad126c	0.021126948
179	0xbd1083c3	-0.035281908
180	0xbda6a298	-0.08136481
181	0xbc318bbd	-0.010836539
182	0xbc959df4	-0.018263794
183	0x3c62b8e3	0.013838026
184	0xbc820aa4	-0.015874214
185	0x3b85491e	0.004067554
186	0x3c996184	0.018723257
187	0xbb806044	-0.0039177258
188	0x3d132285	0.035921592
189	0x3cf0659a	0.029345322
190	0xbb960f22	-0.0045794407
191	0xbc57209b	-0.013130332
192	0x3d30fc10	0.043209136
193	0x3bf37955	0.0074302354
194	0xbcc48793	-0.023990428
195	0xbcb302b3	-0.021851873
196	0xbc59b4f8	-0.013287775
197	0x3d10b6be	0.035330527
198	0xbb90e157	-0.004421394
199	0x3c1780ec	0.009247046
200	0xbd85b2c6	-0.06528239
201	0x3b248f88	0.0025109965
202	0xbdbe8a52	-0.09303726
203	0x389baeb7	7.423519e-05
204	0xbd3da929	-0.0463039
205	0x3d86e41e	0.06586479
206	0xbcd57bc3	-0.02605999
207	0x3d412780	0.04715681
208	0x3cf58145	0.029968867
209	0xbdaa09fd	-0.08302686
210	0xbc9498b6	-0.018139224
211	0xbad34e5c	-0.0016121375
212	0x3b7e8682	0.0038837497
213	0xbd73699c	-0.05942689
214	0x3c0a8869	0.008455374
215	0x3d66ea42	0.05637575
216	0xbcb7cd59	-0.022436785
217	0x3d48fba3	0.049068104
218	0x3c73c897	0.014879367
219	0xbd294385	-0.041324157
220	0x3b363f5f	0.0027808768
221	0x3d84c1e4	0.06482294
222	0x3d79cacb	0.060984414
223	0xbd9c4af4	-0.07631484
224	0xbd251d09	-0.040310893
225	0xbb7d6d62	-0.0038669934
226	0x3b88a8e2	0.004170523
227	0x3d8dcfda	0.0692441
228	0xbade161d	-0.0016943846
229	0xbd739d78	-0.059476346
230	0x3d46f28b	0.04857115
231	0xbd045dff	-0.032316204
232	0xbda67d8c	-0.08129415
233	0xbdb5722f	-0.088596694
234	0xba26fae4	-0.0006369783
235	0x3d02e812	0.0319596
236	0xbd4ee616	-0.050512396
237	0x3d3c7c69	0.046017084
238	0xbc160290	-0.009155884
239	0x3c4d9816	0.012548467
240	0x3d473ea1	0.048643712
241	0x3ae4eec6	0.001746618
242	0xbcb3fa41	-0.021969916
243	0x3db13d2e	0.08654247
244	0xbd0eb899	-0.034844015
245	0xbd631a4a	-0.055444993
246	0x3d63b189	0.055589233
247	0xbad3eb79	-0.0016168199
248	0x3d783c29	0.06060425
249	0x3ca7a729	0.02046545
250	0xbdd6a8e9	-0.10481436
251	0xbc9e69f9	-0.019337641
252	0x3b47738e	0.0030433866
253	0x3c6f909c	0.01462188
254	0xbd783ff7	-0.060607877
255	0x3be47973	0.0069724857
