model.onnx (onnx, 529886 bytes, 7 tensors)

fc1.weight f4 [256, 130]
0.25024256 0.26655027 0.029954247 0.24562763 -0.02416567 -0.03951318 -0.09463681 0.102921784
0.18742135 -0.025617354 0.059320748 -0.055184137 0.08546766 0.23995571 0.03206301 -0.17873992
0.05650641 0.036980312 0.08083238 0.061807916 -0.07138612 -0.067101195 -0.24492511 0.13891226
-0.099581614 -0.19372958 -0.023753593 -0.01231217 0.12886187 0.004667573 0.056917828 -0.10969073
0.10136716 0.06982283 0.029630216 0.09939808 0.02083189 0.060201522 0.0005944676 0.040885128
0.06470473 -0.07899348 -0.016253378 0.15306774 0.12775724 0.0014341228 0.14496623 0.054197907
-0.0348039 -0.11009169 -0.07580081 -0.02117163 -0.090001754 0.04511051 0.071397476 0.08018859
0.037021883 -0.029083066 0.008437814 -0.036186345 6.105e-41 -5.0825e-41 5.4246e-41 4.9711e-41
-5.8203e-41 -5.4411e-41 -5.0388e-41 -4.9672e-41 4.919e-41 5.0964e-41 4.9378e-41 -4.9099e-41
-4.9673e-41 -5.1275e-41 -4.9345e-41 -5.1557e-41 4.9551e-41 -5.1311e-41 5.2491e-41 -5.0524e-41
-4.9062e-41 -6.2701e-41 5.0385e-41 5.0548e-41 6.1172e-41 -6.0556e-41 5.1376e-41 -5.1255e-41
4.999e-41 -5.6793e-41 -6.1598e-41 -6.06e-41 -4.9684e-41 5.3524e-41 5.4887e-41 -5.2404e-41
-5.052e-41 -5.5561e-41 -5.0087e-41 4.9292e-41 5.713e-41 5.0265e-41 -5.351e-41 5.0954e-41
-2.1656e-41 -5.5441e-41 -4.9798e-41 -4.9806e-41 5.1139e-41 -5.1059e-41 5.0982e-41 -6.1087e-41
-5.1359e-41 -4.9584e-41 -5.0891e-41 4.978e-41 -5.1442e-41 4.9851e-41 -6.301e-41 5.2001e-41
8.2143e-41 5.191e-41 -6.3042e-41 4.9477e-41 -5.023e-41 4.9142e-41 -6.284e-41 6.0282e-41
-4.9809e-41 0.0061150277 0.1424225 0.10306812 -0.07872593 -0.1583441 -0.11028741 -0.16765498
-0.18442346 -0.1214815 0.0021537466 0.0044340105 -0.16762069 -0.19553465 -0.041005954 -0.15820342
-0.16356336 -0.12823583 0.15907803 0.21956363 0.14421313 -0.19561402 -0.040988147 -0.10619622
-0.13418715 0.024104452 0.039804146 -0.09116033 0.1385801 0.16070703 0.16007951 0.04300147
0.17455284 0.06848135 -0.05568673 -0.13468651 0.03182138 0.03330518 0.022007655 0.0982713
0.056723174 -0.1636318 -0.17892876 0.0580508 0.121334895 -0.0038757606 -0.03712929 0.008109962
-0.077593446 -0.006430915 0.10985891 -0.039428912 0.07714822 0.10494499 0.03387631 -0.0020834748
0.11771882 0.110857286 0.05303272 -0.002101454 -0.033318937 0.030098807 -5.2409e-41 5.6146e-41
5.1304e-41 5.0932e-41 4.9104e-41 5.8422e-41 8.4431e-41 -9.8607e-41 -5.1488e-41 -6.0315e-41
5.0521e-41 5.1345e-41 -5.1198e-41 5.3398e-41 1.65533e-40 5.0328e-41 -5.0248e-41 -5.0294e-41
5.3779e-41 5.6456e-41 4.9061e-41 5.969e-41 5.0096e-41 5.0458e-41 -6.2477e-41 -4.9396e-41
5.9262e-41 -5.3423e-41 -5.5405e-41 5.2655e-41 5.0246e-41 -4.9366e-41 6.1943e-41 5.7079e-41
-5.0808e-41 -6.1523e-41 -5.0405e-41 5.4408e-41 5.0922e-41 -5.0528e-41 -4.9506e-41 5.0035e-41
5.2162e-41 -5.0874e-41 -5.1265e-41 6.1738e-41 5.1649e-41 5.0566e-41 -5.046e-41 -4.953e-41
5.155e-41 -5.8162e-41 5.3639e-41 5.3074e-41 -5.5884e-41 4.9804e-41 5.2013e-41 -4.9644e-41
6.0437e-41 5.2411e-41 -5.7732e-41 4.9183e-41 5.4607e-41 5.0703e-41 5.5871e-41 6.2319e-41
00000000: cb1f 803e 4779 883e 9c62 f53c cf85 7b3e
00000010: 15f7 c5bc 92d8 21bd f2d0 c1bd a8c8 d23d
00000020: 62eb 3f3e 7cdb d1bc 50fa 723d c308 62bd
00000030: ab09 af3d f3b6 753e 8154 033d 9907 37be
00000040: 4473 673d ab78 173d 728b a53d 4c2a 7d3d
00000050: e332 92bd 5a6c 89bd a6cd 7abe 043f 0e3e
00000060: 72f1 cbbd 0c61 46be e596 c2bc fcb8 49bc
00000070: 5ef4 033e 71f2 983b ab22 693d 89a5 e0bd
00000080: 9699 cf3d 46ff 8e3d 11bb f23c 3891 cb3d
00000090: a4a7 aa3c df95 763d 0cd6 1b3a 2a77 273d
000000a0: ea83 843d 55c7 a1bd ce25 85bc cabd 1c3e
000000b0: cbd2 023e 2df9 bb3a 0772 143e a0fe 5d3d
000000c0: 898e 0ebd c177 e1bd 743d 9bbd 2070 adbc
000000d0: d752 b8bd ccc5 383d d738 923d ea39 a43d
000000e0: 42a4 173d 9c3f eebc c23e 0a3c 2238 14bd
000000f0: 2faa 0000 ae8d 0080 3797 0000 938a 0000
00000100: 3fa2 0080 ad97 0080 768c 0080 778a 0080
00000110: 1f89 0000 118e 0000 a589 0000 de88 0080
00000120: 788a 0080 ef8e 0080 8e89 0080 b88f 0080
00000130: 218a 0000 098f 0080 5392 0000 d78c 0080
00000140: c488 0080 c9ae 0080 748c 0000 e88c 0000
00000150: 86aa 0000 cea8 0080 378f 0000 e18e 0080
00000160: 5a8b 0000 519e 0080 b6ab 0080 eea8 0080
00000170: 808a 0080 3495 0000 0199 0000 1592 0080
00000180: d48c 0080 e29a 0080 9f8b 0080 6889 0000
00000190: 419f 0000 1e8c 0000 2a95 0080 0a8e 0000
000001a0: 5e3c 0080 8c9a 0080 d18a 0080 d78a 0080
000001b0: 8e8e 0000 558e 0080 1e8e 0000 49aa 0080
000001c0: 2b8f 0080 388a 0080 dd8d 0080 c48a 0000
000001d0: 668f 0080 f78a 0000 a5af 0080 f590 0000
000001e0: fbe4 0000 b490 0000 bcaf 0080 ec89 0000
000001f0: 058c 0080 fd88 0000 2caf 0080 0ba8 0000
00000200: d98a 0080 9260 c83b 34d7 113e 6115 d33d
00000210: 0f3b a1bd f524 22be 5ede e1bd bfad 2bbe
00000220: 81d9 3cbe 4bcb f8bd df25 0d3b 2d4b 913b
00000230: c2a4 2bbe 3c3a 48be dcf5 27bd 1400 22be
00000240: 277d 27be 4150 03be 5ae5 223e 4ad5 603e
00000250: 9bac 133e 0b4f 48be 30e3 27bd 677d d9bd
00000260: 5b68 09be b376 c53c ac09 233d 44b2 babd
00000270: f1e7 0d3e 6290 243e e2eb 233e 4f22 303d
00000280: fbbd 323e f33f 8c3d c517 64bd 43eb 09be
00000290: 2357 023d 036b 083d 6649 b43c 7742 c93d
000002a0: 8f56 683d 188f 27be 1a39 37be adc6 6d3d
000002b0: 6e7e f83d 7900 7ebb e214 18bd a5df 043c
000002c0: 50e9 9ebd 6dba d2bb b5fd e03d 3680 21bd
000002d0: e3ff 9d3d 66ed d63d e3c1 0a3d e88a 08bb
000002e0: 9116 f13d 2509 e33d d638 593d 8cb8 09bb
000002f0: 7079 08bd c691 f63c 1892 0080 839c 0000
00000300: 048f 0000 fa8d 0000 e288 0000 dba2 0000
00000310: 5ceb 0000 e012 0180 878f 0080 22a8 0080
00000320: d58c 0000 218f 0000 b88e 0080 da94 0000
00000330: 70cd 0100 4b8c 0000 128c 0080 338c 0080
00000340: ea95 0000 609d 0000 c388 0000 64a6 0000
00000350: a68b 0000 a88c 0000 29ae 0080 b289 0080
00000360: 33a5 0000 ec94 0080 729a 0080 c892 0000
00000370: 118c 0000 9d89 0080 acac 0000 1d9f 0000
00000380: a28d 0080 80ab 0080 828c 0080 ab97 0000
00000390: f38d 0000 da8c 0080 018a 0080 7a8b 0000
000003a0: 6891 0000 d18d 0080 e88e 0080 1aac 0000
000003b0: fa8f 0000 f58c 0000 a98c 0080 128a 0080
000003c0: b38f 0000 22a2 0080 8695 0000 f393 0000
000003d0: c89b 0080 d58a 0000 fe90 0000 638a 0080
000003e0: 79a8 0000 1a92 0000 efa0 0080 1a89 0000
000003f0: 3998 0000 578d 0000 bf9b 0000 b8ad 0000

fc1.bias f4 [256]
0.07026547 -0.023633342 -0.0048979917 0.16042517 -0.042412177 0.15695287 -0.01474952 -0.0025652475
0.037160337 0.045568943 -0.033247486 0.06065555 0.083502986 -0.046897203 0.13574643 0.11681472
0.075240865 0.14254905 -0.0044117146 0.0005556519 0.0363659 0.015705362 -0.0038771145 0.040822085
0.029544866 0.034397405 0.08591595 0.16279864 -0.04219731 0.1173755 0.052418765 0.061166234
0.061399374 0.08605787 -0.0011925943 0.082283586 -0.1005322 0.04516959 -0.056421366 0.02289969
-0.06369431 0.10194171 0.023134144 0.05730024 0.02044388 0.0046268143 0.0600559 0.065499164
0.0882657 0.034146577 -0.028454008 0.034058556 0.02668851 -0.0318056 0.11082999 0.099931106
0.113804415 0.085048266 0.0928512 -0.00828675 0.026405208 -0.026685355 0.063875854 0.085164085
0.1314897 -0.056422193 0.052453443 0.0035425676 -0.059603874 -0.039418112 0.036255203 0.23547798
0.0037523576 0.09911408 -0.006281796 0.035973463 -0.036795095 0.18150857 -0.04173098 -0.0074456045
0.011388865 0.042611007 -0.034606937 -0.045495603 0.08551006 -0.042891897 0.028883511 0.029737102
0.12682433 -0.07788002 0.08076337 -0.005911253 -0.0931627 0.040288508 0.13243449 0.006272678
0.08800214 0.07861727 0.022459917 -0.045790963 0.08378732 0.019310221 0.00014490586 0.008564284
-0.02555291 -0.045126017 0.08080197 -0.042336263 0.029717708 -0.032077823 0.19881275 0.010393462
0.095134154 0.12181498 -0.038788334 0.03647327 -5.7700818e-06 0.14232244 0.04158492 0.030473435
0.16490626 0.121414065 -0.07171834 0.06806419 -0.075407535 0.02760112 0.056337565 -0.033881813
0.053378116 0.078666195 0.027352067 -0.0666317 0.06996712 0.11042067 0.034765635 0.16895124
-0.027112741 0.04556615 -0.032711547 -0.10997867 0.08000323 0.091238216 0.14317875 -0.018047167
0.006505139 -0.004589776 -0.03369255 0.16298504 0.02698195 -0.0113597065 0.08615385 -0.013915944
0.022144878 -0.02702915 0.054056153 0.08663197 -0.070100315 -0.04038517 0.06530279 -0.00015023153
-0.005516586 -0.05756298 0.014260235 0.033312872 0.04621553 0.009488228 -0.013299863 0.028003883
-0.017240502 0.1014583 0.053032815 -0.006473354 -0.01732094 -0.0076540485 -0.025121626 0.10199944
-0.060762096 -0.048213314 0.06880805 0.042272326 -0.10008258 -0.02167506 -0.011322997 -0.00561981
0.0030959484 0.15004332 -0.04420673 0.14345683 0.13019614 -0.0005882391 0.093409106 0.13627474
-0.043674413 -0.032439325 0.111118436 -0.004891167 0.020851586 0.03007322 0.08541113 0.13583764
0.049255498 0.092179574 0.11572001 0.07134029 -0.019396927 0.05856685 0.07892733 -0.032004457
0.15439329 0.074993685 -0.07719894 -0.026145922 0.09430286 0.09071109 0.04999124 0.07163917
0.12156387 -0.038705967 0.07351487 -0.08422799 0.14580119 0.16544318 0.08556458 0.017688513
0.07795736 0.06608732 -0.050253917 -0.018495789 0.030448113 0.08957239 -0.048614703 -0.065008566
0.020014025 0.19435048 -0.02751224 0.06554749 0.13883778 0.13055043 0.034111995 0.07651674
0.1289724 0.08748089 -0.04936093 -0.0028741253 0.06611551 0.011535085 0.0059308535 0.129828
0.16668832 -0.04259298 0.059536565 0.017361345 -0.0013571316 0.009533606 0.06409787 -0.07180889
00000000: 58e7 8f3d b69a c1bc 557f a0bb 7f46 243e
00000010: 64b8 2dbd 41b8 203e f9a7 71bc b61d 28bb
00000020: 7035 183d 80a6 3a3d 842e 08bd f471 783d
00000030: 9d03 ab3d 4817 40bd 1d01 0b3e 8e3c ef3d
00000040: e217 9a3d 61f8 113e 2590 90bb 2ba9 113a
00000050: 69f4 143d 88a8 803c 3017 7ebb 0f35 273d
00000060: 1308 f23c 4be4 0c3d b4f4 af3d b0b4 263e
00000070: 16d7 2cbd 9162 f03d 0fb5 563d 7289 7a3d
00000080: e97d 7b3d 1c3f b03d d350 9cba 4c84 a83d
00000090: d3e3 cdbd bf03 393d 171a 67bd 2198 bb3c
000000a0: 2a72 82bd d1c6 d03d d183 bd3c a8b3 6a3d
000000b0: ed79 a73c 889c 973b 2dfd 753d 6d24 863d
000000c0: a6c4 b43d 48dd 0b3d 6118 e9bc fc80 0b3d
000000d0: dda1 da3c 9746 02bd d5fa e23d aea8 cc3d
000000e0: 4a12 e93d c92d ae3d c528 be3d 26c5 07bc
000000f0: bc4f d83c 3f9b dabc 58d1 823d 826a ae3d
00000100: 3ca5 063e f51a 67bd 6cd9 563d 6c2a 683b
00000110: 3123 74bd e374 21bd 5680 143d 2421 713e
00000120: 1dea 753b 53fc ca3d 86d7 cdbb e958 133d
00000130: 74b6 16bd 62dd 393e 1bee 2abd 42fa f3bb
00000140: 5d98 3a3c e188 2e3d 01c0 0dbd 9959 3abd
00000150: e61f af3d 6aaf 2fbd 1d9d ec3c 399b f33c
00000160: 3dde 013e 8f7f 9fbd 4467 a53d 2fb3 c1bb
00000170: 16cc bebd 9005 253d e89c 073e 098b cd3b
00000180: 773a b43d 1702 a13d dcfd b73c 4e8f 3bbd
00000190: b098 ab3d 7830 9e3c dff1 1739 3651 0c3c
000001a0: 5654 d1bc 0fd6 38bd 817b a53d ca68 2dbd
000001b0: 8d72 f33c 0964 03bd 9295 4b3e 5749 2a3c
000001c0: b2d5 c23d 227a f93d 84e0 1ebd ff64 153d
000001d0: a09c c1b6 f9bc 113e f354 2a3d 6da3 f93c
000001e0: 30dd 283e f0a7 f83d 11e1 92bd 3d65 8b3d
000001f0: 446f 9abd be1b e23c 38c2 663d a8c7 0abd
00000200: 03a3 5a3d be1b a13d 7111 e03c 3376 88bd
00000210: ec4a 8f3d 3b24 e23d 6966 0e3d 8e01 2d3e
00000220: 8a1b debc 92a3 3a3d 8bfc 05bd 7f3c e1bd
00000230: bcd8 a33d 1adb ba3d 739d 123e a7d7 93bc
00000240: 1029 d53b d565 96bb 3301 0abd 8de5 263e
00000250: 4009 dd3c 101e 3abc 6e71 b03d b3ff 63bc
00000260: 2d69 b53c 3c6c ddbc fc69 5d3d 1a6c b13d
00000270: c190 8fbd ec6a 25bd 78bd 853d 7887 1db9
00000280: 7ac4 b4bb 29c7 6bbd c3a3 693c 1473 083d
00000290: 7f4c 3d3d 8374 1b3c abe7 59bc 6668 e53c
000002a0: f43b 8dbc 5fc9 cf3d f038 593d 6e1e d4bb
000002b0: a5e4 8dbc d0ce fabb decb cdbc 15e5 d03d
000002c0: ade1 78bd 537b 45bd 3ceb 8c3d bf25 2d3d
000002d0: 18f8 ccbd e58f b1bc 1784 39bc 6226 b8bb
000002e0: 65e5 4a3b f5a4 193e 1e12 35bd 59e6 123e
000002f0: 2352 053e 0f34 1aba 464d bf3d 9b8b 0b3e
00000300: f1e3 32bd 19df 04bd 1092 e33d 1546 a0bb
00000310: f2d0 aa3c 1d5c f63c 08ec ae3d 0619 0b3e
00000320: 22c0 493d a5c8 bc3d 9dfe ec3d dc1a 923d
00000330: 4ee6 9ebc cbe3 6f3d a7a4 a13d 1b17 03bd
00000340: 4619 1e3e 4a96 993d 7a1a 9ebd f92f d6bc
00000350: dc21 c13d bcc6 b93d 9dc3 4c3d 8fb7 923d
00000360: 7af6 f83d 268a 1ebd f78e 963d b97f acbd
00000370: e84c 153e f069 293e 7c3c af3d 80e7 903c
00000380: 1ca8 9f3d ca58 873d 0dd7 4dbd 7b84 97bc
00000390: 526e f93c bb71 b73d 3620 47bd 3623 85bd
000003a0: 74f4 a33c d003 473e 5961 e1bc c33d 863d
000003b0: 7e2b 0e3e 03af 053e 05b9 0b3d cfb4 9c3d
000003c0: 5711 043e 2e29 b33d b02e 4abd d25b 3cbb
000003d0: 9267 873d a7fd 3c3c 9b57 c23b a2f1 043e
000003e0: 58b0 2a3e fa75 2ebd 9ddc 733d 6139 8e3c
000003f0: c8e1 b1ba d732 1c3c be45 833d 8a10 93bd

fc2.weight f4 [256, 256]
-0.0036523403 0.07303206 0.032662563 0.0014024423 -0.08318853 0.022518693 -0.11640128 0.00036145622
-0.02883845 -0.005767865 0.17109196 -0.020677423 0.028745841 0.060699515 0.016411368 -0.054483093
0.06551464 0.044843134 -0.054177947 0.07200865 0.026347576 0.029145736 -0.008878043 -0.019443117
-0.01635022 -0.049773417 0.0022653714 -0.07839506 0.021769766 0.057820715 0.04078888 -0.07475566
0.027221443 0.014021163 -2.6225104e-07 0.0074783503 0.06135298 0.049608037 0.07675157 0.006426769
0.024890319 -0.025983123 0.03641503 0.03638621 -0.023911104 0.054470968 0.12832554 -0.070873454
-0.022250386 0.06814571 0.047794193 -0.030848306 -0.045011263 -0.07858802 -0.13259839 0.0918562
0.011289876 0.025520718 -0.24755402 0.017856605 -0.05549144 0.058411628 0.064913794 0.03950289
0.005847435 0.07256219 -0.03698336 -0.102712356 0.05458733 0.035634734 0.15632735 -0.030647399
0.041500505 -0.038685173 -0.003954522 -0.020607913 0.113171354 0.07490365 -0.10445933 0.0062656146
-0.10526674 -0.017759014 -0.033222694 0.046943787 0.011206447 0.018921888 0.032997284 0.02799291
0.082598664 0.037664764 0.0016095288 -0.00198031 -0.01894265 0.009532954 -0.00362829 -0.05910102
-0.06774693 0.092422985 0.03333828 0.05201157 0.019884184 0.014309424 -0.0049798926 0.0033872304
0.057747956 0.018968841 -0.10724477 0.042852722 -0.03413561 0.0042959894 0.07612692 -0.0059574987
0.056940213 0.017145982 -0.007677029 -0.03568833 -1.0923372e-13 -0.020073872 -0.23971073 0.053522784
-0.003172619 -0.010346989 0.034112696 -0.047668733 0.022686198 -0.08672123 -0.047408022 0.0013068208
0.05853121 -0.06492701 0.021532191 -0.067801744 0.067652866 0.05649364 0.01259685 -0.004132797
-0.007959949 0.07885615 -0.06965569 0.0114890635 -0.007587827 -0.064871594 0.2058453 0.015172648
0.06352297 -0.026010549 0.028722377 -0.049341306 -0.0424747 -0.05753591 -0.013321737 -0.035225846
-0.18015514 0.05066694 0.06417757 0.02559137 -0.042565793 -0.108549505 0.033481695 3.3404223e-13
0.041832346 0.008276611 -0.027867237 0.047544412 0.06018305 0.014366782 -0.007927282 -0.03483698
0.09655692 0.03170381 -0.034212403 0.026582502 0.06012275 0.07856732 0.018516803 0.0018215689
-0.089001335 -0.0074104234 0.068990804 -0.056519255 0.01820698 -0.040676545 0.05027129 -2.153717e-06
-0.029961001 0.14064896 0.029401693 0.0031051768 0.041597974 -0.00022115349 0.013711174 0.033229668
0.01691427 0.07944535 0.00536996 -0.0116724055 -0.01938611 -0.10702508 -0.10635645 0.0057122083
0.07091427 -0.0048619076 0.12184613 0.13377772 -0.06300438 0.05923404 0.08377566 -0.107464485
-0.03248519 0.021359337 -0.020650852 0.080096394 -0.013955353 0.021674763 -0.024698365 -0.020102
0.026942018 -0.031262413 -0.034951378 0.011055887 -0.09298104 0.010711443 -0.026814537 -0.103070594
-0.031508297 0.0126941055 0.09283284 0.0563718 -0.029381983 0.059547115 -0.10792761 0.021639228
-0.040521424 0.040839445 -0.03627227 0.01806711 0.010255883 0.022593692 0.018378176 0.017787986
-0.052150033 -0.046514798 0.05519839 -0.12918314 -0.07938168 0.040356394 0.059624698 0.10373329
0.04169472 -0.0019274707 -0.20138516 0.09609992 -9.665246e-07 0.016883332 -0.06861764 -0.011797382
00000000: 1a5c 6fbb d591 953d 2ec9 053d 28d2 b73a
00000010: bf5e aabd 1f79 b83c cb63 eebd d581 bd39
00000020: 9d3e ecbc 5c00 bdbb bb32 2f3e b363 a9bc
00000030: 667c eb3c 0ea0 783d 2271 863c aa29 5fbd
00000040: 8a2c 863d 6fad 373d b2e9 5dbd 4579 933d
00000050: dfd6 d73c 0ac3 ee3c 3675 11bc 2c47 9fbc
00000060: e6f0 85bc 36df 4bbd a076 143b 978d a0bd
00000070: 8256 b23c 6ad5 6c3d 3e12 273d 7f19 99bd
00000080: 81ff de3c 05b9 653c 82cb 8cb4 f30c f53b
00000090: 434d 7b3d cc31 4b3d ed2f 9d3d a597 d23b
000000a0: c8e6 cb3c 8fda d4bc ed27 153d b509 153d
000000b0: 38e1 c3bc f31c 5f3d c567 033e 1a26 91bd
000000c0: 7146 b6bc fa8f 8b3d d8c3 433d 96b5 fcbc
000000d0: bb5d 38bd c1f2 a0bd dfc7 07be 1a1f bc3d
000000e0: 2cf9 383c d310 d13c cd7e 7dbe 0448 923c
000000f0: fe4a 63bd 0841 6f3d 86f1 843d c8cd 213d
00000100: d79b bf3b 7c9b 943d dd7b 17bd db5a d2bd
00000110: f796 5f3d baf5 113d 4714 203e 4110 fbbc
00000120: 6ffc 293d 5874 1ebd ef94 81bb edd1 a8bc
00000130: 62c6 e73d 1667 993d c6ee d5bd c94f cd3b
00000140: 1796 d7bd 5a7b 91bc 8514 08bd 2148 403d
00000150: 3f9b 373c 1302 9b3c 2928 073d 6351 e53c
00000160: 7d29 a93d 5e46 1a3d d3f6 d23a 17c8 01bb
00000170: 9e2d 9bbc 1b30 1c3c 9bc8 6dbb e913 72bd
00000180: e7be 8abd 4348 bd3d b88d 083d 160a 553d
00000190: 28e4 a23c 1372 6a3c 5e2e a3bb 4cfc 5d3b
000001a0: 1f89 6c3d 8b64 9b3c 25a3 dbbd 5686 2f3d
000001b0: c8d1 0bbd 5fc5 8c3b 6ee8 9b3d 1f37 c3bb
000001c0: 243a 693d bb75 8c3c 968f fbbb ed2d 12bd
000001d0: f4f8 f5a9 f671 a4bc bb76 75be b53a 5b3d
000001e0: b7eb 4fbb 6b86 29bc c1b9 0b3d 4a40 43bd
000001f0: 68d8 b93c e69a b1bd ea2e 42bd a149 ab3a
00000200: 6cbe 6f3d 74f8 84bd 4764 b03c a4db 8abd
00000210: 968d 8a3d e065 673d 0563 4e3c 6a6c 87bb
00000220: 726a 02bc 557f a13d a4a7 8ebd a03c 3c3c
00000230: 4ea3 f8bb 66db 84bd 1cc9 523e b396 783c
00000240: 5518 823d 1314 d5bc 314b eb3c 1c1a 4abd
00000250: f3f9 2dbd c6aa 6bbd 6a43 5abc fa48 10bd
00000260: 977a 38be 2388 4f3d 886f 833d fea4 d13c
00000270: 7859 2ebd 344f debd 1a24 093d 8f0c bc2a
00000280: 6558 2b3d 9f9a 073c d549 e4bc eebd 423d
00000290: 8082 763d a762 6b3c 6ee1 01bc 39b1 0ebd
000002a0: a2bf c53d dbdb 013d 4e22 0cbd 8cc3 d93c
000002b0: 4643 763d e7e7 a03d 8db0 973c b6c1 ee3a
000002c0: 5546 b6bd 23d3 f2bb 0d4b 8d3d bc80 67bd
000002d0: ce26 953c 739c 26bd 45e9 4d3d 9488 10b6
000002e0: c670 f5bc 4806 103e d2db f03c 3980 4b3b
000002f0: a362 2a3d 70e5 67b9 d5a4 603c d51b 083d
00000300: cc8f 8a3c 3eb4 a23d 7df6 af3b 9e3d 3fbc
00000310: 9fcf 9ebc f72f dbbd 69d1 d9bd 7a2d bb3b
00000320: 803b 913d a350 9fbb 778a f93d 07fd 083e
00000330: 7108 81bd 659f 723d 9392 ab3d 5716 dcbd
00000340: 310f 05bd c7f9 ae3c fa2b a9bc 9409 a43d
00000350: fea4 64bc 468f b13c 3a54 cabc f3ac a4bc
00000360: 82b5 dc3c 040d 00bd 2d29 0fbd c023 353c
00000370: d86c bebd 0c7f 2f3c 29aa dbbc ad16 d3bd
00000380: d80e 01bd f0fa 4f3c 251f be3d 1ee6 663d
00000390: 7cb2 f0bc ade7 733d 2709 ddbd c044 b13c
000003a0: cbf9 25bd 4347 273d 3b92 14bd 7a01 943c
000003b0: 4b08 283c 6816 b93c d48d 963c 1cb8 913c
000003c0: 469b 55bd 4d86 3ebd b517 623d 9648 04be
000003d0: dd92 a2bd bf4c 253d 0739 743d 1f72 d43d
000003e0: 15c8 2a3d 2fa3 fcba e937 4ebe 09d0 c43d
000003f0: 88b9 81b5 ea4e 8a3c 6887 8cbd ce49 41bc

fc2.bias f4 [256]
-0.008397 0.04239821 -0.054356556 0.029345019 0.025408972 0.0600505 0.031731516 0.037504558
-0.045489144 -4.83167e-05 0.005358164 -0.0001122267 0.045221217 0.025241952 0.05455079 0.06942908
0.015620441 -0.03108058 0.0647053 -0.043737605 -0.011604234 0.08207651 -0.034607787 0.10203184
-0.00043790997 0.07017439 0.020162506 0.09026938 0.055888757 0.020128958 0.058549725 0.06392158
0.013473157 0.05961097 -0.014911482 0.008533473 -0.027418315 0.02114183 0.01482804 -1.2491414e-06
-0.0011821535 0.052584395 -0.033409946 0.050244067 0.048451725 0.1579717 0.018131757 0.012625414
0.054959957 0.071876034 0.05239654 -0.00023707807 -0.001117035 0.044447202 0.004430531 0.055433802
0.0019397673 -0.016920391 0.046684057 -0.027994012 0.032136418 -0.04912614 0.05134432 0.09199267
0.079144426 0.047945246 0.03554315 0.09336958 -1.0794506e-11 -0.0021367508 -0.015059742 0.08177361
-0.018378193 -0.04548856 0.052270815 -0.033933215 -0.014911042 0.05105782 0.021584157 0.035096344
0.038749464 0.036830436 0.06475372 0.06455631 0.012814711 0.07713354 -0.040884938 -0.007440602
-2.9327447e-09 0.003322571 -0.039007656 0.06245414 0.06593686 0.11970019 -2.0774662e-05 0.006751435
-0.001932522 0.049261715 0.06716589 0.04260786 0.004471589 -0.01988321 -0.03099484 0.010315185
-0.025573265 0.080380306 -0.0059873583 -0.014343029 0.051351134 0.014749207 0.028851189 0.10107091
0.04856929 0.030222865 -0.06707961 -0.02755439 0.0828335 0.064150386 0.02260125 0.120074265
0.012186978 0.10092735 -0.0024719508 -0.046746936 -0.024453042 0.00480246 -8.9071116e-05 -0.034215193
-0.029120333 0.022838145 0.057930358 0.04642371 0.14247014 -0.0029688515 0.10439939 0.04417675
0.056150798 -0.0049214717 -0.0064983703 0.0581995 -0.025073307 0.105770774 -0.03505196 0.06368322
-0.038789228 0.061472483 0.04735421 0.08735878 0.028956648 0.009104134 0.12002501 -0.010090693
0.010705421 0.00015766836 -0.009250898 -0.008583954 -0.033901032 0.01073187 -5.9044073e-06 -0.06722801
0.101296864 0.08606315 0.027941372 -6.5899805e-17 0.05263513 0.05228833 -1.6946804e-05 0.037443653
-0.021612365 0.039518993 0.008006364 0.06933522 -0.038026296 0.057481628 -0.03556206 -0.048671007
-1.0772281e-11 0.0416142 0.09148148 -0.0048757265 0.06277923 0.10269898 0.03453493 -0.03704524
-0.0028169828 0.07035449 0.035778377 0.14733225 -0.031522702 -0.022518253 0.005562956 -0.0038169841
-0.021917867 0.10689207 0.03708928 -0.034709316 -0.029697558 0.075763926 0.04242426 0.010246622
-3.684645e-05 -0.00025478625 -0.027532078 -0.0016896554 -0.040525593 -0.053858794 0.017659416 -0.010875808
0.030374672 0.02888401 0.0754219 -0.0036130445 -0.0026047186 0.0014695035 -0.0069570416 -0.0036389644
-0.04410109 0.011414007 0.06435344 -0.0022217 0.08709478 0.035499446 -0.011293666 0.0067591113
0.07132823 0.0050478885 -0.005468675 -0.037720338 0.027513113 0.03672725 0.06438374 0.031213205
-0.011644872 0.004140285 0.04729513 0.039119683 -0.0051000216 0.0077867564 -2.588475e-10 -0.00565958
0.051537324 -1.9271609e-05 0.06295407 0.0298935 -0.028095648 0.019334836 -0.06092288 -0.014107094
0.02109958 0.003677259 0.047665644 0.0819861 0.00022132657 0.041990858 0.06426932 0.019321924
00000000: 9293 09bc bfa9 2d3d fba4 5ebd f764 f03c
00000010: 7a26 d03c 83f7 753d e8f8 013d 619e 193d
00000020: d352 3abd a9a7 4ab8 8a93 af3b 405b ebb8
00000030: e239 393d 36c8 ce3c a670 5f3d d530 8e3d
00000040: e1ec 7f3c b39c febc 3684 843d 3426 33bd
00000050: af1f 3ebc bb17 a83d e5c0 0dbd 12f6 d03d
00000060: 4897 e5b9 97b7 8f3d d72b a53c 27df b83d
00000070: 9ceb 643d 7ce5 a43c d6d1 6f3d 51e9 823d
00000080: 84be 5c3c a22a 743d 4a4f 74bc fbcf 0b3c
00000090: 609c e0bc a231 ad3c 4ff1 723c 2ca8 a7b5
000000a0: 7df2 9aba bc62 573d ded8 08bd b9cc 4d3d
000000b0: 5175 463d 55c3 213e 0d89 943c d3da 4e3c
000000c0: b11d 613d be33 933d c19d 563d 2998 78b9
000000d0: 7a69 92ba 450e 363d fd2d 913b 8e0e 633d
000000e0: ca3f fe3a a29c 8abc c837 3f3d b353 e5bc
000000f0: 7aa1 033d 7e38 49bd 6c4e 523d a766 bc3d
00000100: 7916 a23d 3c62 443d b295 113d 8d38 bf3d
00000110: 22e6 3dad bb08 0cbb 23bd 76bc ec78 a73d
00000120: dd8d 96bc 3652 3abd ec19 563d 8efd 0abd
00000130: 714d 74bc 0122 513d 42d1 b03c 2fc1 0f3d
00000140: c2b7 1e3d 83db 163d 999d 843d 1936 843d
00000150: cbf4 513c 30f8 9d3d f776 27bd 4bd0 f3bb
00000160: 6489 49b1 7ebf 593b 7ec6 1fbd eacf 7f3d
00000170: e809 873d 6025 f53d 3f45 aeb7 243b dd3b
00000180: ae4c fdba a7c6 493d 458e 893d 9485 2e3d
00000190: 6886 923b 1de2 a2bc e4e8 fdbc 0601 293c
000001a0: 067f d1bc 6e9e a43d 9a31 c4bb 06ff 6abc
000001b0: 9155 523d a8a6 713c 5459 ec3c 44fe ce3d
000001c0: 98f0 463d f195 f73c 0961 89bd beb9 e1bc
000001d0: 9ca4 a93d 4761 833d 4226 b93c 7fe9 f53d
000001e0: e4ab 473c 00b3 ce3d 7400 22bb b779 3fbd
000001f0: bf51 c8bc f45d 9d3b b1cb bab8 3b25 0cbd
00000200: c48d eebc 1017 bb3c 6248 6d3d ca26 3e3d
00000210: b1e3 113e 1091 42bb 59cf d53d aef2 343d
00000220: 61fe 653d 4c44 a1bb 48f0 d4bb 9962 6e3d
00000230: 8966 cdbc 599e d83d a592 0fbd 596c 823d
00000240: 74e1 1ebd 92ca 7b3d 7df6 413d 29e9 b23d
00000250: 7e36 ed3c 8129 153c accf f53d 6f53 25bc
00000260: ca65 2f3c c753 2539 1491 17bc b6a3 0cbc
00000270: cfdb 0abd bad4 2f3c 791e c6b6 d7ae 89bd
00000280: bb74 cf3d e041 b03d 4ee5 e43c 61f4 97a4
00000290: ef97 573d 4a2c 563d fc28 8eb7 845e 193d
000002a0: 6a0c b1bc abde 213d 202d 033c a0ff 8d3d
000002b0: 76c1 1bbd db71 6b3d 86a9 11bd 405b 47bd
000002c0: 0a82 3dad a773 2a3d a45a bb3d 8fc4 9fbb
000002d0: 6692 803d d853 d23d 8074 0d3d c0bc 17bd
000002e0: 219d 38bb 0416 903d 598c 123d 44de 163e
000002f0: f31d 01bd 3378 b8bc 7549 b63b 5e26 7abb
00000300: 198d b3bc 3bea da3d eeea 173d 5b2b 0ebd
00000310: 4b48 f3bc 1e2a 9b3d 10c5 2d3d 73e1 273c
00000320: 938b 1ab8 d594 85b9 f48a e1bc 6d77 ddba
00000330: 2afe 25bd 0a9b 5cbd 7baa 903c 7230 32bc
00000340: 4ed4 f83c 299e ec3c cc76 9a3d d4c8 6cbb
00000350: edb3 2abb 5b9c c03a e5f7 e3bb b17b 6ebb
00000360: 58a3 34bd d101 3b3c bdcb 833d f199 11bb
00000370: bf5e b23d de67 113d 1209 39bc 897b dd3b
00000380: 8914 923d c268 a53b 9232 b3bb a480 1abd
00000390: 2e63 e13c 506f 163d 9fdb 833d d6b2 ff3c
000003a0: 22ca 3ebc 3aab 873b 8ab8 413d f63b 203d
000003b0: 151e a7bb 0c28 ff3b 8c4d 8eaf 0074 b9bb
000003c0: cd18 533d 77a9 a1b7 10ee 803d 37e3 f43c
000003d0: d828 e6bc 1764 9e3c 458a 79bd 7121 67bc
000003e0: 07d9 ac3c 2bfe 703b 0d3d 433d 54e8 a73d
000003f0: e613 6839 9bfe 2b3d a29f 833d 0349 9e3c

policy.weight f4 [127, 256]
-0.008088773 0.13689485 -0.006126086 -0.081798024 0.022399493 0.08552522 0.07383832 -0.033704784
0.13107786 0.011193676 -0.0018164194 0.0036170608 0.10923797 -0.048985984 0.065271385 -0.044426307
0.0884237 -0.06935065 -0.081301905 0.07635406 -0.08599311 0.13175093 -0.21494749 -0.057431784
-2.713199e-09 0.048446465 -0.0997526 0.044060178 0.11967201 0.10998744 -0.37307248 -0.009567648
0.026076462 0.05321474 -0.029354153 0.10731117 -0.6643657 0.10706897 0.076750256 -0.0011918322
0.07480415 -0.12688175 0.072465226 0.051155835 -0.0027888387 0.05374337 0.10728476 0.0904981
-0.09793131 -0.1708267 -0.1816018 5.0494e-41 0.12724185 0.054515954 0.16824275 -0.07569389
-3.62454e-05 0.1325655 0.1283103 -0.049064323 0.0328571 0.10005368 0.108151436 0.10124246
-0.21436295 -0.0063155456 0.045707542 0.09529434 -3.7697543e-09 -0.031564064 -0.0038666257 0.122007474
-0.08677698 0.00081197784 0.019341096 -0.05029545 0.1326044 0.031023555 -0.18125762 -0.015335942
0.11351417 0.007628349 -0.17953266 -0.042089473 0.018301306 0.10891647 -0.023502665 2.2966491e-08
1.674356e-07 0.050440364 0.008636454 0.106742874 -0.0065855025 -0.07237863 -0.0037925837 0.050696775
0.03211399 -0.020650739 0.05583051 -0.19548064 0.027802164 0.10903262 -0.27523875 0.0074561657
-0.16782348 0.043673392 0.010151152 0.041920833 -0.02389396 -0.1132139 -0.027189612 0.084838234
-0.16596946 0.091121145 -0.082202666 -0.060715377 0.22716536 -0.1013308 0.0080782585 0.15948954
0.002953796 -0.013996561 0.00039392768 -0.012447814 -0.0064973533 -0.08220157 -0.0024787998 0.09910346
-0.06600999 -0.12788792 0.09844276 0.050890293 -0.20194186 -0.08524967 -0.01029883 0.01307139
0.1072008 0.0066628377 0.069915086 -0.022964684 0.0109641515 0.094244145 0.044497147 -0.067026764
0.06648571 0.13433638 -0.0019933276 -0.06547858 0.24127837 0.1512879 -0.011770527 -0.004446924
-0.074467346 1.4368939e-09 0.1435858 -0.14126994 -0.066201456 0.07395804 2.7034822e-08 -0.022618916
0.0061429623 0.24914871 -0.26678053 -5.2898e-41 0.18576694 0.06764687 0.0092060855 -0.17027909
0.06759216 0.008684787 0.09236823 -0.048464194 -0.06028701 0.04567203 0.13427794 0.08905874
3.4809111e-06 0.010640855 -0.063671455 3.6369016e-05 -0.14256008 -0.3744782 -0.19455509 -0.07386498
0.0046840985 0.045836996 0.08998986 -0.087251075 -0.14950949 2.0176707e-32 0.061413523 0.06848539
0.049278885 -0.0126129165 0.069833115 0.11901409 0.08789287 0.17998207 0.0586622 -9.004759e-12
0.096315585 -3.3925866e-11 0.12951046 -8.123855e-06 0.023065854 -0.17350085 0.114300326 0.040039174
0.007735883 0.041105226 0.017199565 -3.9106402e-05 -0.007340808 -0.10072555 -0.00071168575 0.08323459
-0.122906335 -0.020513188 0.14261523 0.10783361 0.1298813 0.23862122 0.13304791 0.14049152
-0.02584476 -0.056099046 1.37382e-11 -0.0006073242 0.006976723 -0.07119448 0.11560522 0.21360755
0.087571576 0.037907075 -0.26224783 -0.15201695 -0.040891897 0.0077851545 0.0003462848 0.005942532
0.004502052 0.011082164 0.13748427 -0.010497156 -0.027038239 -0.043659627 -0.0022121253 -0.004583495
-0.059270095 -0.011283606 -0.034443848 -0.10465944 1.4938829e-08 -0.09988968 0.0710066 -0.010325603
00000000: c686 04bc 2a2e 0c3e 56bd c8bb b985 a7bd
00000010: 247f b73c d927 af3d 8c38 973d 070e 0abd
00000020: 4639 063e ae65 373c ec14 eeba 360c 6d3b
00000030: 28b8 df3d 87a5 48bd 01ad 853d 5cf8 35bd
00000040: 7c17 b53d b707 8ebd 9d81 a6bd 845f 9c3d
00000050: 281d b0bd b7e9 063e 321b 5cbe 973d 6bbd
00000060: 1a73 3ab1 cd6f 463d 174b ccbd 7278 343d
00000070: 9916 f53d 1841 e13d 5b03 bfbe a0c1 1cbc
00000080: 4e9e d53c b3f7 593d 1f78 f0bc f5c5 db3d
00000090: df13 2abf fa46 db3d 3d2f 9d3d 4137 9cba
000000a0: eb32 993d 4aed 01be a668 943d c888 513d
000000b0: f3c4 36bb 0222 5c3d 1db8 db3d 1157 b93d
000000c0: 3690 c8bd 32ed 2ebe d2f5 39be c28c 0000
000000d0: b04b 023e 1f4c 5f3d d447 2c3e 6605 9bbd
000000e0: 3406 18b8 40bf 073e c663 033e acf7 48bd
000000f0: 2b95 063d f2e8 cc3d 807e dd3d 3558 cf3d
00000100: f681 5bbe a3f2 cebb d537 3b3d ae29 c33d
00000110: 1c87 81b1 5249 01bd 3767 7dbb 0edf f93d
00000120: 21b8 b1bd e9da 543a 3871 9e3c 9a02 4ebd
00000130: 73c9 073e 1c25 fe3c 999b 39be 9a43 7bbc
00000140: 1e7a e83d 3bf7 f93b 69d7 37be 0366 2cbd
00000150: 9fec 953c 990f df3d a988 c0bc d947 c532
00000160: 59c8 3334 8e9a 4e3d ea7f 0d3c 029c da3d
00000170: 33cb d7bb 3f3b 94bd ff8c 78bb 6ca7 4f3d
00000180: f689 033d bd2b a9bc 88ae 643d 142c 48be
00000190: 5dc1 e33c 7f4c df3d 18ec 8cbe da52 f43b
000001a0: ebd9 2bbe dfe2 323d 0451 263c 2eb5 2b3d
000001b0: 44bd c3bc b0dc e7bd c0bc debc abbf ad3d
000001c0: e6f3 29be b99d ba3d df59 a8bd b0b0 78bd
000001d0: 099e 683e 8686 cfbd ac5a 043c 3a51 233e
000001e0: 7994 413b d551 65bc 1488 ce39 ebf1 4bbc
000001f0: c0e7 d4bb 4c59 a8bd 5c73 22bb c1f6 ca3d
00000200: 3f30 87bd 0df5 02be 5c9c c93d 5772 503d
00000210: d9c9 4ebe 6197 aebd 6dbc 28bc 6229 563c
00000220: 188c db3d ef53 da3b a42f 8f3d 6f20 bcbc
00000230: fca2 333c 1303 c13d a442 363d 5445 89bd
00000240: a929 883d 7a8f 093e 7da2 02bb a219 86bd
00000250: ad11 773e 37eb 1a3e 2bd9 40bc 81b7 91bb
00000260: 5682 98bd 367c c530 2808 133e 11a9 10be
00000270: a194 87bd 5077 973d 343a e832 4e4b b9bc
00000280: e74a c93b d720 7f3e 7597 88be 7593 0080
00000290: b039 3e3e 718a 8a3d 1fd5 163c a45d 2ebe
000002a0: c26d 8a3d a34a 0e3c 8e2b bd3d 6482 46bd
000002b0: 83ef 76bd 9812 3b3d 2880 093e 6e64 b63d
000002c0: 9999 6936 fb56 2e3c 2e66 82bd ef8a 1838
000002d0: 45fb 11be 9bbb bfbe 7339 47be 8646 97bd
000002e0: 117d 993b 93bf 3b3d 9b4c b83d b1b0 b2bd
000002f0: 0419 19be e386 d10a bf8c 7b3d 1142 8c3d
00000300: a8d8 493d 68a6 4ebc aa04 8f3d a9bd f33d
00000310: 2d01 b43d 384d 383e c647 703d d469 1ead
00000320: 1b41 c53d 2135 15ae 649e 043e b14b 08b7
00000330: 9af4 bc3c 35aa 31be 4a16 ea3d 1e00 243d
00000340: 4a7d fd3b f45d 283d 1ae6 8c3c 2e06 24b8
00000350: 298b f0bb 3249 cebd 6c90 3aba e676 aa3d
00000360: 51b6 fbbd 460b a8bc ba09 123e ded7 dc3d
00000370: 9aff 043e 1f59 743e b63d 083e 02dd 0f3e
00000380: 64b8 d3bc 1dc8 65bd 5aaf 712d d634 1fba
00000390: ff9c e43b 69ce 91bd 6ec2 ec3d f0bb 5a3e
000003a0: ba58 b33d 7344 1b3d 5945 86be 55aa 1bbe
000003b0: 437e 27bd 9c1a ff3b 8f8d b539 92b9 c23b
000003c0: f385 933b f791 353c adc8 0c3e 43fc 2bbc
000003d0: 4c7f ddbc 70d4 32bd 4ef9 10bb 2531 96bb
000003e0: 33c5 72bd e0de 38bc fe14 0dbd b057 d6bd
000003f0: d552 8032 f692 ccbd e96b 913d b82c 29bc

policy.bias f4 [127]
0.02262135 -0.017533137 -0.01600769 -0.023169558 0.019483406 0.049270447 -0.02785787 0.055539798
0.014969141 -0.06793563 0.028908812 0.02936901 0.019009132 0.014664604 0.034929052 -0.014859661
0.037278358 -0.03790798 -0.004469999 0.046036936 -0.012455048 0.026776083 -0.09227639 -0.04478311
-0.03838411 -0.0015881358 0.055071034 -0.05360205 0.0016658742 -0.10270762 0.04072739 0.0265159
0.07107833 -0.023655022 -0.050854966 0.0058155507 0.12765054 -0.010125599 0.017671641 0.00022039188
0.008821104 0.033199538 0.008658907 0.07150837 -0.03222546 0.045627702 -0.024239317 0.10835444
0.02540451 0.026378619 0.0684583 0.027982464 0.104376346 -0.042234752 -0.0055708378 0.056027457
0.08774462 0.011059681 -0.050226267 -0.06236957 0.01341085 -0.06007141 -0.022322113 -0.027382188
0.0067656795 -0.045278363 -0.004021547 -0.05511256 0.007355248 -0.0032322207 8.6545544e-05 -0.05945155
-0.027177013 -0.001623943 -0.029870307 -0.033622365 -0.015685393 0.014809995 -0.024097098 0.012519527
-0.03930249 -0.035066675 -0.006075847 -0.05322509 -0.020866036 -0.03615061 0.0045894566 -0.032226227
0.0078061824 -0.004122864 0.001230577 -0.009005518 0.0024392444 -0.05846958 0.01890955 -0.038065303
-0.003315302 0.009039664 -0.020056186 -0.01770323 -0.02693023 -0.011752886 -0.024905337 0.016358595
0.021592328 -0.03507124 0.0014192287 -0.015405026 -0.04935335 0.00045412313 -0.014578758 -0.04604933
-0.006695696 -0.049230818 0.015259443 -0.036238488 -0.018714974 -0.053089406 0.0015536501 0.0002761391
0.0030801788 -0.026403904 0.0031055533 -0.0041026426 -0.04137666 -0.01421848 0.014303867
00000000: 6950 b93c a7a1 8fbc 8f22 83bc 16ce bdbc
00000010: aa9b 9f3c cfcf 493d 3036 e4bc b37d 633d
00000020: 2141 753c d621 8bbd 2cd2 ec3c 4797 f03c
00000030: 0ab9 9b3c cf43 703c c411 0f3d f075 73bc
00000040: 31b1 183d 6645 1bbd 1279 92bb 3a91 3c3d
00000050: 4210 4cbc 8459 db3c 67fb bcbd 7f6e 37bd
00000060: a838 1dbd ff28 d0ba 2a92 613d d38d 5bbd
00000070: 7659 da3a 5f58 d2bd c4d1 263d df37 d93c
00000080: 8491 913d 2dc8 c1bc 4c4d 50bd 6090 be3b
00000090: d3b6 023e d7e5 25bc 1ec4 903c ff18 6739
000000a0: 6486 103c 3dfc 073d 17de 0d3c fb72 923d
000000b0: d8fe 03bd 1de4 3a3d 8891 c6bc efe8 dd3d
000000c0: 1e1d d03c f917 d83c dd33 8c3d 7b3b e53c
000000d0: 44c3 d53d 59fe 2cbd 938b b6bb 0c7d 653d
000000e0: 74b3 b33d aa33 353c 0fba 4dbd 3c77 7fbd
000000f0: 2fb9 5b3c 700d 76bd dddc b6bc 9c50 e0bc
00000100: a2b2 dd3b ce75 39bd 2ec7 83bb b5bd 61bd
00000110: 4b04 f13b aad3 53bb c97f b538 7883 73bd
00000120: 54a2 debc 7cda d4ba 93b2 f4bc 9bb7 09bd
00000130: a77e 80bc 9fa5 723c 4767 c5bc b41e 4d3c
00000140: a6fb 20bd 13a2 0fbd e617 c7bb 8d02 5abd
00000150: 40ef aabc a912 14bd 2763 963b a6ff 03bd
00000160: 01cb ff3b 1719 87bb 504b a13a e18b 13bc
00000170: bbdb 1f3b cc7d 6fbd 33e8 9a3c 5dea 1bbd
00000180: 8a45 59bb 191b 143c df4c a4bc 5d06 91bc
00000190: c99c dcbc 2d8f 40bc 4706 ccbc 7602 863c
000001a0: 65e2 b03c dca6 0fbd 6a05 ba3a 5d65 7cbc
000001b0: bd26 4abd 6017 ee39 bedb 6ebc 399e 3cbd
000001c0: 9267 dbbb 41a6 49bd be02 7a3c cf6e 14bd
000001d0: 2550 99bc 4774 59bd d9a3 cb3a c3c6 9039
000001e0: d3dc 493b 004d d8bc 8a86 4b3b 766f 86bb
000001f0: 937a 29bd a1f4 68bc c45a 6a3c

value.weight f4 [1, 256]
0.05608876 0.044654433 0.030151254 -0.027199158 -0.03884972 0.023667775 -0.0124903 0.045641877
0.0014095581 -0.0010685613 -0.02175397 0.008692317 0.039021146 -0.049366985 0.023558695 -0.30939084
0.04964731 -0.046320293 0.030246397 -0.03808316 -0.032956235 -0.04930024 -0.027401716 -0.024902048
0.016027143 0.012755747 -0.0124396235 -0.025275161 0.009925035 -0.05359573 0.006645289 0.03441794
-0.01319228 0.04459891 0.011296917 0.019690251 -0.093266256 -0.007842138 -0.0589591 0.008001054
0.05869366 -0.033244237 0.015402402 -0.04633843 0.058309004 0.1605285 -0.049087632 -0.054916166
0.023187846 0.0065487674 -0.03217777 -0.000671694 0.078788795 0.061091084 -0.010142268 -0.0542321
0.022585148 -0.04424401 0.0068153194 0.035746086 -0.002047983 0.066201255 0.033102456 -0.0055557885
-0.037168276 0.04793397 0.07798436 0.007308617 0.0014320714 -0.026427947 0.05204653 -0.00046738438
-0.03178728 0.021016328 -0.052602462 0.0024748256 0.011617922 0.016489258 -0.05772752 0.05889569
-0.028986834 0.047691856 -0.010358735 -0.0014285389 0.023114186 -0.029003248 -0.012286454 -0.0018808931
0.0067539634 0.042408675 -0.034226917 0.027335199 0.005391264 -0.03391082 -0.01321692 0.057905357
-0.035813034 0.027025864 -0.03721836 -0.055662785 0.0040252157 0.05707605 -0.079333656 0.026254702
-0.10459496 0.026739312 0.0023044252 0.04129684 -0.02380783 0.045449045 0.010288395 -0.021702383
-0.026697034 -0.019469693 0.053546306 -0.0050555835 -0.053675644 -0.051999364 -0.027382595 -0.003606361
0.0066360575 -0.012236793 0.0063278265 -0.026798144 0.033572342 0.026640402 -0.0045518233 0.029893233
-0.017887464 0.00048842386 0.065620184 0.015197714 0.0017913722 -0.035318177 -0.014722472 -0.040648356
-0.0067539015 -0.04910177 -0.049494334 0.009853357 0.020232754 0.015120796 -0.064259864 0.010660227
0.026369182 -0.056417976 0.09745372 0.014681455 0.017756134 0.031425484 0.010915097 -0.05010079
-0.021556083 0.0036048233 -0.027865553 0.0034017074 0.061698448 0.013389977 -5.5716146e-06 -0.064539544
-0.0009153727 0.005210984 0.05099968 4.9718e-41 0.025364121 -0.045459274 0.0009820315 0.07193634
0.046271972 0.021175662 0.005978049 0.016748175 0.043476257 0.030370172 0.028254986 -0.05819959
-0.010365554 0.025815982 0.014503712 -0.02265037 -0.061123967 -0.007298885 -0.016473396 0.011861043
-0.0049746223 -0.0004441406 0.012120642 -0.009839075 0.0312179 0.016259529 0.0049676006 -0.009636806
0.037504513 0.010980112 -0.021816105 -0.018685099 -0.013492898 0.026596935 -0.0030257741 0.0065094433
-0.0464635 3.317946e-05 -0.10285093 1.738482e-08 -0.038342442 0.050097477 -0.012595321 0.042383634
0.031509653 -0.062393714 -0.0064479895 -0.0015732624 0.0037734117 -0.05251096 -0.01764965 0.046656452
-0.01913719 0.04164732 0.011595802 -0.039263774 -0.0088277785 0.050107487 0.053217098 -0.06533309
-0.02974849 -0.0012082097 0.002530943 0.06470654 0.0053939256 -0.052150697 0.040922478 -0.035758957
-0.07494735 -0.0779895 -0.00036457845 0.026986824 -0.046961423 0.037779484 -0.0074996725 -0.015888445
0.03775757 0.0016928111 -0.016424926 0.063671224 -0.02665866 -0.051587667 0.043056335 0.013078911
0.057646815 -1.9836305e-05 -0.078074925 -0.01915782 0.00073490915 0.004799786 -0.046731316 0.007784709
00000000: 54bd 653d 91e7 363d c3ff f63c c5d0 debc
00000010: e220 1fbd ece2 c13c 1ea4 4cbc faf2 3a3d
00000020: ecc0 b83a f80e 8cba 6235 b2bc 386a 0e3c
00000030: a3d4 1f3d 0935 4abd 2afe c03c 7a68 9ebe
00000040: fa5a 4b3d 59ba 3dbd 4bc7 f73c 16fd 1bbd
00000050: 1efd 06bd 0cef 49bd 9079 e0bc 61ff cbbc
00000060: 5b4b 833c 7bfd 503c 90cf 4bbc db0d cfbc
00000070: 9d9c 223c 3287 5bbd b9c0 d93b d3f9 0c3d
00000080: 6f24 58bc 59ad 363d b416 393c 734d a13c
00000090: 6102 bfbd 507c 00bc 197f 71bd da16 033c
000000a0: c368 703d 1c2b 08bd 5b5a 7c3c 5ecd 3dbd
000000b0: 6cd5 6e3d 9561 243e 1d10 49bd c6ef 60bd
000000c0: 70f4 bd3c 0b97 d63b d6cc 03bd 9f14 30ba
000000d0: 055c a13d a53a 7a3d c12b 26bc 7a22 5ebd
000000e0: 7d04 b93c 3539 35bd 0b53 df3b 7d6a 123d
000000f0: 7437 06bb 8694 873d 7196 073d 550d b6bb
00000100: c33d 18bd 6956 443d 44b6 9f3d 1f7d ef3b
00000110: 58b4 bb3a 6c7f d8bc be2e 553d 450b f5b9
00000120: 6133 02bd 6f2a ac3c ae75 57bd af30 223b
00000130: 1959 3e3c 7b14 873c b173 6cbd 9b3c 713d
00000140: cc75 edbc 8958 433d afb7 29bc d03d bbba
00000150: f659 bd3c 3898 edbc 204d 49bc 4d88 f6ba
00000160: 5a50 dd3b b8b4 2d3d 8631 0cbd 11ee df3c
00000170: 33a9 b03b 12e6 0abd c88b 58bc 2b2e 6d3d
00000180: b0b0 12bd 5865 dd3c 4772 18bd a9fe 63bd
00000190: f5e5 833b 94c8 693d af79 a2bd 1a14 d73c
000001a0: e235 d6bd 670c db3c d705 173b e026 293d
000001b0: a308 c3bc c728 3a3d a890 283c 32c9 b1bc
000001c0: bdb3 dabc e87e 9fbc 5f53 5b3d 4fa9 a5bb
000001d0: feda 5bbd 49fd 54bd 7751 e0bc b358 6cbb
000001e0: 4973 d93b d47c 48bc a859 cf3b c887 dbbc
000001f0: 2783 093d f93c da3c 7627 95bb a7e2 f43c
00000200: bb88 92bc 9209 003a e063 863d d5ff 783c
00000210: 7acc ea3a cba9 10bd 8636 71bc e47e 26bd
00000220: d54f ddbb f01e 49bd 92ba 4abd fa6f 213c
00000230: 29bf a53c 37bd 773c ad9a 83bd 3ca8 2e3c
00000240: 2f04 d83c 8916 67bd d195 c73d 7c8a 703c
00000250: 5075 913c 02b8 003d 3cd5 323c 7c36 4dbd
00000260: 6296 b0bc e63e 6c3b 4d46 e4bc 2eef 5e3b
00000270: 83b7 7c3d a261 5b3c cef3 bab6 4f2d 84bd
00000280: 9ff5 6fba e7c0 aa3b 0ae5 503d 988a 0000
00000290: 6bc8 cf3c 8133 3abd 82b7 803a 5c53 933d
000002a0: ae87 3d3d 9578 ad3c 82e3 c33b 7833 893c
000002b0: 2914 323d deca f83c 0077 e73c b162 6ebd
000002c0: 49d4 29bc 0a7c d33c faa0 6d3c 458d b9bc
000002d0: 205d 7abd 7c2b efbb 37f3 86bc d254 423c
000002e0: 2802 a3bb 8bdb e8b9 a895 463c 1234 21bc
000002f0: aebc ff3c b432 853c 41c7 a23b b2e3 1dbc
00000300: 559e 193d ede5 333c b0b7 b2bc 7e11 99bc
00000310: 5111 5dbc d1e1 d93c 114c 46bb 2b4d d53b
00000320: 8350 3ebd 2d2a 0b38 82a3 d2bd a055 9532
00000330: f70c 1dbd 0333 4d3d 9b5c 4ebc 769a 2d3d
00000340: 4410 013d 8d90 7fbd a849 d3bb ed35 ceba
00000350: 584b 773b bb15 57bd 0096 90bc d61a 3f3d
00000360: 99c5 9cbc 6196 2a3d 52fc 3d3c 0dd3 20bd
00000370: 63a2 10bc 823d 4d3d 2cfa 593d 5bcd 85bd
00000380: 1bb3 f3bc ca5c 9eba 2dde 253b dd84 843d
00000390: 87bf b03b f89b 55bd 549e 273d fc77 12bd
000003a0: ff7d 99bd f5b8 9fbd e424 bfb9 7913 dd3c
000003b0: 9f5a 40bd a9be 1a3d d0bf f5bb 7c28 82bc
000003c0: afa7 1a3d 51e1 dd3a 918d 86bc 0f66 823d
000003d0: 4363 dabc 974d 53bd d75b 303d ee48 563c
000003e0: 111f 6c3d 2466 a6b7 bfe5 9fbd dcf0 9cbc
000003f0: eba6 403a 8647 9d3b 5669 3fbd df16 ff3b
