model.onnx (onnx, 529886 bytes, 7 tensors)

fc1.weight f4 [256, 130]
00000000: 9ddb 793e 0196 973e 1052 993c 858b 193c
00000010: 89e6 47be 3e45 67be 68ea a3be f9d0 1fbc
00000020: 4dd0 813e faef d83d 2f57 d1bd 1cd0 a0be
00000030: f7ec 313d d3b4 0e3e d505 b5bd ca82 9dbe
00000040: 2fa0 113d 8a38 963d 3e49 5fbc 5b2d 243d
00000050: 2f4e 4f3b 02e1 40be 0f8e 50be 2a23 6c3d
00000060: d2b4 aabd 7307 35be 0edf 27be 0bc7 4cbd
00000070: 8d59 533e fb22 a03d 1c51 833d b700 0e3d
00000080: 0cee 89bc d840 c2bc 6b92 283e 18e8 fb3d
00000090: 0c76 383d f704 983d be39 0dbd c19b 8e3d
000000a0: 6d99 b33d 11b8 97bd efe9 673d 8299 8e3e
000000b0: 4dbe 793e 6e45 113e 460c 153e fc75 e93d
000000c0: 293b 0abc 6390 423d 6ed5 95bd 21d3 68be
000000d0: ac1c 993c 8191 a93d 8332 9ebd c50b b9bd
000000e0: c827 cfbd 227a 23be fed8 0fbe da52 dd3c
000000f0: 2faa 0000 ae8d 0080 3797 0000 938a 0000
00000100: 3fa2 0080 ad97 0080 768c 0080 778a 0080
00000110: 1f89 0000 118e 0000 a589 0000 de88 0080
00000120: 788a 0080 ef8e 0080 8e89 0080 b88f 0080
00000130: 218a 0000 098f 0080 5392 0000 d78c 0080
00000140: c488 0080 c9ae 0080 748c 0000 e88c 0000
00000150: 86aa 0000 cea8 0080 378f 0000 e18e 0080
00000160: 5a8b 0000 519e 0080 b6ab 0080 eea8 0080
00000170: 808a 0080 3495 0000 0199 0000 1592 0080
00000180: d48c 0080 e29a 0080 9f8b 0080 6889 0000
00000190: 419f 0000 1e8c 0000 2a95 0080 0a8e 0000
000001a0: 5c49 0100 8c9a 0080 d18a 0080 d78a 0080
000001b0: 8e8e 0000 558e 0080 1e8e 0000 49aa 0080
000001c0: 2b8f 0080 388a 0080 dd8d 0080 c48a 0000
000001d0: 668f 0080 f78a 0000 a5af 0080 f590 0000
000001e0: 0c78 0080 b490 0000 bcaf 0080 ec89 0000
000001f0: 058c 0080 fd88 0000 2caf 0080 0ba8 0000
00000200: d98a 0080 d860 0bbe ae57 2d3e 7ac2 823e
00000210: 6f5d 8b3d acc3 95be d1a8 07bd 8580 073d
00000220: 5540 52be 3f96 33be 6939 8d3e 2d0f 223e
00000230: c6bb 36be 86aa 04be 53ee 2dbd c223 79be
00000240: 0604 ddbe c33b 39be 7370 ed3e b7e1 fc3e
00000250: 3e07 463e d49a 1bbd 3c81 a23d b47f 32be
00000260: 1e14 0fbe 2874 35bd b3a8 a7bc add2 c4bd
00000270: 08d5 d3bd 1b80 673e be27 253e 57d7 873c
00000280: ba5a ce3d e4c6 a93c 05b8 17bd 7815 94be
00000290: 1188 8cbd 99bb 87bc 5c80 62bd 23fe 52bd
000002a0: 0025 f43d a02c 15be 2dd7 9cbe c14f 0a3d
000002b0: 0b59 d43d 64e5 f53d 062c 4f3d 533f 8c3d
000002c0: d8e4 67bd be16 13be 5055 17bd 5ecc 1abc
000002d0: e31d c337 5ab0 b6bc 66e4 b1bb 2c42 4e3c
000002e0: 7886 e73d 986e b33d 88f4 9a3d 76d3 cabc
000002f0: 8e82 86be d41e 17bc 1892 0080 839c 0000
00000300: 048f 0000 fa8d 0000 e288 0000 dba2 0000
00000310: cc49 0380 db88 0080 878f 0080 22a8 0080
00000320: d58c 0000 218f 0000 b88e 0080 da94 0000
00000330: ca88 0080 4b8c 0000 128c 0080 338c 0080
00000340: ea95 0000 609d 0000 c388 0000 64a6 0000
00000350: a68b 0000 a88c 0000 29ae 0080 b289 0080
00000360: 33a5 0000 ec94 0080 729a 0080 c892 0000
00000370: 118c 0000 9d89 0080 acac 0000 1d9f 0000
00000380: a28d 0080 80ab 0080 828c 0080 ab97 0000
00000390: f38d 0000 da8c 0080 018a 0080 7a8b 0000
000003a0: 6891 0000 d18d 0080 e88e 0080 1aac 0000
000003b0: fa8f 0000 f58c 0000 a98c 0080 128a 0080
000003c0: b38f 0000 22a2 0080 8695 0000 f393 0000
000003d0: c89b 0080 d58a 0000 fe90 0000 638a 0080
000003e0: 79a8 0000 1a92 0000 efa0 0080 1a89 0000
000003f0: 3998 0000 578d 0000 bf9b 0000 b8ad 0000
0.24400182 0.2960663 0.018715888 0.009371643 -0.19521536 -0.22585008 -0.32014775 -0.009754413
0.25354233 0.10592647 -0.10221707 -0.31408775 0.043438878 0.13936166 -0.08839003 -0.30763847
0.035553154 0.07335003 -0.013628302 0.040082317 0.0031632294 -0.18835834 -0.20366691 0.057650723
-0.0833527 -0.17678623 -0.16393682 -0.04999451 0.2063963 0.07819172 0.06411955 0.03466865
-0.016837142 -0.02371256 0.16462104 0.12300128 0.045034453 0.07422822 -0.034478895 0.069633015
0.08769498 -0.07408155 0.05661958 0.27851492 0.24389 0.14186642 0.14555463 0.11399457
-0.008436956 0.04750098 -0.07316099 -0.2273679 0.01869043 0.08279706 -0.07724478 -0.09035448
-0.101150095 -0.15964559 -0.1404762 0.027017046 6.105e-41 -5.0825e-41 5.4246e-41 4.9711e-41
-5.8203e-41 -5.4411e-41 -5.0388e-41 -4.9672e-41 4.919e-41 5.0964e-41 4.9378e-41 -4.9099e-41
-4.9673e-41 -5.1275e-41 -4.9345e-41 -5.1557e-41 4.9551e-41 -5.1311e-41 5.2491e-41 -5.0524e-41
-4.9062e-41 -6.2701e-41 5.0385e-41 5.0548e-41 6.1172e-41 -6.0556e-41 5.1376e-41 -5.1255e-41
4.999e-41 -5.6793e-41 -6.1598e-41 -6.06e-41 -4.9684e-41 5.3524e-41 5.4887e-41 -5.2404e-41
-5.052e-41 -5.5561e-41 -5.0087e-41 4.9292e-41 5.713e-41 5.0265e-41 -5.351e-41 5.0954e-41
1.18152e-40 -5.5441e-41 -4.9798e-41 -4.9806e-41 5.1139e-41 -5.1059e-41 5.0982e-41 -6.1087e-41
-5.1359e-41 -4.9584e-41 -5.0891e-41 4.978e-41 -5.1442e-41 4.9851e-41 -6.301e-41 5.2001e-41
-4.3065e-41 5.191e-41 -6.3042e-41 4.9477e-41 -5.023e-41 4.9142e-41 -6.284e-41 6.0282e-41
-4.9809e-41 -0.13611162 0.16927978 0.25539 0.068049304 -0.29250848 -0.03311998 0.03308155
-0.20532353 -0.17537783 0.27582863 0.15826102 -0.17845067 -0.12955675 -0.04246361 -0.24330047
-0.43167132 -0.18089204 0.46374854 0.49390957 0.193387 -0.037989452 0.07934806 -0.17431527
-0.13972518 -0.04430023 -0.020466184 -0.09610496 -0.10343367 0.22607462 0.16128442 0.016582174
0.100758985 0.020724721 -0.03704073 -0.2892263 -0.0686189 -0.016568946 -0.055298194 -0.051511895
0.1192112 -0.14567804 -0.30632916 0.033767466 0.10368546 0.120066434 0.050579093 0.06848016
-0.056614727 -0.14364144 -0.036946595 -0.009448139 2.3259729e-05 -0.022300888 -0.0054288385 0.012589019
0.11304945 0.087613285 0.07566172 -0.024759036 -0.2627148 -0.009223659 -5.2409e-41 5.6146e-41
5.1304e-41 5.0932e-41 4.9104e-41 5.8422e-41 -3.0198e-40 -4.9094e-41 -5.1488e-41 -6.0315e-41
5.0521e-41 5.1345e-41 -5.1198e-41 5.3398e-41 -4.907e-41 5.0328e-41 -5.0248e-41 -5.0294e-41
5.3779e-41 5.6456e-41 4.9061e-41 5.969e-41 5.0096e-41 5.0458e-41 -6.2477e-41 -4.9396e-41
5.9262e-41 -5.3423e-41 -5.5405e-41 5.2655e-41 5.0246e-41 -4.9366e-41 6.1943e-41 5.7079e-41
-5.0808e-41 -6.1523e-41 -5.0405e-41 5.4408e-41 5.0922e-41 -5.0528e-41 -4.9506e-41 5.0035e-41
5.2162e-41 -5.0874e-41 -5.1265e-41 6.1738e-41 5.1649e-41 5.0566e-41 -5.046e-41 -4.953e-41
5.155e-41 -5.8162e-41 5.3639e-41 5.3074e-41 -5.5884e-41 4.9804e-41 5.2013e-41 -4.9644e-41
6.0437e-41 5.2411e-41 -5.7732e-41 4.9183e-41 5.4607e-41 5.0703e-41 5.5871e-41 6.2319e-41

fc1.bias f4 [256]
00000000: 49b0 1dbd 2c9a 0b3e 6771 873e 6c2f d93e
00000010: 8b5d 65be 6d17 c23e fa81 f03d ff38 8db9
00000020: 1ac9 893e 13db da3d fe74 b63d aae8 a23e
00000030: 7b77 793e 1ec8 fcbd a720 5e3e cc6d 1f3e
00000040: 32c2 5c3e 200a 813e d594 debe 6010 133e
00000050: 8a6d 1dbe 1aa6 3dbe ccb3 453d 9e84 86bd
00000060: 626c d93d b94c 083e 4785 313e edd3 d03e
00000070: 25fe c8bd 182d 523e d3ca 9c3d ba8c 58bc
00000080: 3897 0f3e f3b8 8a3e 0ef7 8fab efca 933d
00000090: 8384 95bd b487 093e 795d 62be e77c 493d
000000a0: 2c72 cebd b1a3 4c3e 3572 923d 3d8c b93d
000000b0: ade5 183e 560f 133e b4c2 123e 072a b43e
000000c0: 5514 683e 8e78 863e f589 4fbd c114 1d3e
000000d0: 753d 2a3e 111b b9bd 6c7f e63d 660b ce3d
000000e0: 1824 ef3e e800 593e 973f 323f 7b9c 4c3d
000000f0: 2c0d 463e eb04 cfbd dee9 803d 6ec0 733e
00000100: f40f 833e 4397 b8bc 2489 483d 14d7 ff3d
00000110: a2b9 65be 9b03 1fbd bb6a f33d d03c f63e
00000120: 8fae 093d 874a c63e 0a42 553c 56a5 053e
00000130: addb c5bd 8ee4 9e3e b056 ddbd 1a03 c33c
00000140: 35c0 643e 8be9 263e e9dd 9bbd 75f6 0e3e
00000150: 409a 4e3e 1ced dcbd 8823 cfbd c9ef e83b
00000160: 5ad7 9c3e 0d7e 12be 99e2 833e a744 eebd
00000170: 1b52 b8be 0431 84bc 0705 843e 9983 26be
00000180: bcb9 b93e 40be 593e 0811 273d 17a3 f23c
00000190: 76d2 7f3e cab2 8a3d f5dc 953c 002e 173e
000001a0: 593b 26ba 30b5 85bc fc28 6f3e 97b4 5ebe
000001b0: cf90 0f3e 95c0 fabc cd8d 823e c0e7 023e
000001c0: 698b 243e 3d06 863e de79 9abd 75c5 a23d
000001d0: 5649 e1bc 91b3 9c3e f0e6 2d3e 6fd8 6e3e
000001e0: c366 853e 07f8 7d3e 5145 ca3c 7cf9 f03c
000001f0: 8531 8bbe 08ba fe3d e6dd 963d 2969 dcbb
00000200: 2347 903e 8b43 a43d ce10 1a3e bb25 813d
00000210: 45f1 603e b9f0 023e 03b1 2b3e 2c1c db3e
00000220: c6a3 093c 65aa a23e da4c 44be 9021 7ebe
00000230: 5128 653e de0b 45be 3c55 c33e 34c0 a9bc
00000240: 4da2 adbd b610 923d d0f9 0dbf 0742 d53e
00000250: 2cdb 813e 63b5 aa3e 8143 2e3e 9a62 99be
00000260: 289b 553b 8367 493d edd3 b73d fdd9 ce3d
00000270: 64e3 e8be 7972 0c3e a1de c33d 0b49 fead
00000280: 689e 9a3d fe7d 793e e7ea f4bd 7385 253e
00000290: b230 90be a9aa 413e 483c 863e ba66 723d
000002a0: f902 603d 49e4 3b3e ebe3 6b3e c2b4 22be
000002b0: 3ee0 573e 441b 3d3d 0535 f23d dd19 9fbd
000002c0: 34c2 b4be 4fdb b6be 02b3 393e 9b09 dcbd
000002d0: 7780 b7bc e430 97be fca4 54be 8ee3 2aba
000002e0: 9320 e03d 4b94 243e caac e8bd c1eb 8f3e
000002f0: c862 b83e 7860 28b2 a0ab 853e be14 973e
00000300: 0c9f 00bd 686d d23d c389 4c3e dfa5 c7bc
00000310: c815 f43d 1bc3 97bd 0128 ac3e c5f1 943e
00000320: 9046 943e 25df 703e 7d3f 233e c4f7 503e
00000330: 3161 45bd 227b 963e f72f 983e d138 05bf
00000340: 8f34 9b3e 7423 823e 2b2c 1abe 6ba8 4fbd
00000350: 881e 7e3e 04f6 e03d b29a 073e 4c22 53bd
00000360: 4b03 5f3e 15d4 87bc bb0b 513e cd0a 97be
00000370: 57c9 a23e 554d f23e 7b5c 0c3e 0020 183e
00000380: c60f 403e 1988 06bd 9ee3 993d ea11 a43c
00000390: 9780 5cbe 1a67 883e 8729 fdbe e373 0b3d
000003a0: 57c0 203d ca39 be3e 02a3 c1be 7f5b 803e
000003b0: 3be2 3d3e da0b a83d 4205 8c3e 5962 bc3d
000003c0: 0ab1 9e3e b3b9 293e 61e4 ddbd 5159 d13d
000003d0: 17d0 d73d 294e 4fbd 28c1 353e 9a33 b53e
000003e0: 3337 0d3f b1e5 f7bd 01ad 123e b1b4 353e
000003f0: fa2d 1dad 74f4 e4bd 276e de3e 5679 45be
-0.038498197 0.1363303 0.26453707 0.42418993 -0.22398965 0.37908497 0.11743541 -0.0002693608
0.2691124 0.10686316 0.08909033 0.31818134 0.24361984 -0.12342857 0.21692143 0.15569228
0.21558455 0.25203037 -0.43472925 0.14361715 -0.15373817 -0.18520394 0.04826717 -0.065682635
0.106163755 0.13310517 0.17335998 0.40786687 -0.09814099 0.20525014 0.07655873 -0.013217146
0.14022529 0.2709423 -1.0229333e-12 0.07216441 -0.07300665 0.13430673 -0.2210597 0.04919138
-0.1008037 0.19984318 0.071506895 0.090599515 0.14931364 0.14361319 0.14332086 0.35188314
0.22664006 0.2626385 -0.050668675 0.15339948 0.16625006 -0.09038366 0.112547725 0.10060768
0.46707225 0.21191752 0.6962828 0.04995392 0.19340962 -0.1010836 0.062946066 0.23803875
0.2559811 -0.022533065 0.048958912 0.12492195 -0.22434095 -0.038821798 0.118855916 0.4809327
0.033613738 0.38728735 0.013016233 0.13051352 -0.096610405 0.31033748 -0.1080755 0.02380519
0.22338946 0.16300027 -0.076106854 0.13961203 0.20176029 -0.107874125 -0.10114199 0.0071086627
0.3063305 -0.14305897 0.25758818 -0.11634188 -0.36000142 -0.016136654 0.25785086 -0.16261138
0.36274517 0.21263981 0.040787727 0.029618783 0.24982628 0.067723826 0.018293837 0.14763641
-0.0006341241 -0.016321748 0.23355478 -0.21748577 0.14020084 -0.030609408 0.2549881 0.12783718
0.16068806 0.26176634 -0.075427756 0.07947818 -0.02750079 0.30605748 0.16982627 0.2332475
0.26054963 0.24801646 0.024691256 0.029415838 -0.27186218 0.124378264 0.073665425 -0.0067264033
0.28179273 0.08020695 0.15045473 0.06306025 0.21967037 0.12787141 0.16766743 0.4279493
0.008400863 0.31770626 -0.19169942 -0.2481749 0.2237866 -0.19242808 0.38150966 -0.020721532
-0.08478222 0.071320936 -0.5545931 0.41651937 0.25362527 0.33341512 0.17017938 -0.2995804
0.00325937 0.049170982 0.089759685 0.10100172 -0.45485985 0.13715543 0.095639475 -2.8908894e-11
0.07549745 0.24364468 -0.119588666 0.16164188 -0.28162152 0.18912758 0.26217866 0.05918
0.054690335 0.18348803 0.23036163 -0.15889266 0.21081635 0.04616858 0.11826519 -0.07768605
-0.35304415 -0.35714194 0.18134692 -0.107440196 -0.022400124 -0.29529488 -0.20766062 -0.00065188936
0.10943713 0.16072194 -0.11361082 0.28109553 0.36012864 -9.8008215e-09 0.26107502 0.29508013
-0.03140168 0.10274774 0.19974427 -0.024371086 0.11918217 -0.0741026 0.3362427 0.29090706
0.28960085 0.23522623 0.15942188 0.20407015 -0.048188392 0.29390818 0.29724094 -0.5203982
0.30313537 0.25417674 -0.15055911 -0.050697725 0.24816334 0.10984424 0.13242605 -0.05154638
0.217786 -0.01658062 0.20414631 -0.29500428 0.31794235 0.47324625 0.13707153 0.14855957
0.18756017 -0.032844637 0.07514118 0.020028073 -0.21533428 0.2664116 -0.49445745 0.034046065
0.03924593 0.37153465 -0.37819678 0.25069806 0.18543331 0.082053855 0.2734776 0.09198446
0.30994445 0.16574745 -0.108345754 0.10222114 0.10537737 -0.05061165 0.17749465 0.3539093
0.5516235 -0.12104357 0.14323808 0.1774471 -8.934626e-12 -0.11179438 0.43443415 -0.19284567

fc2.weight f4 [256, 256]
00000000: ef87 16be 06ed 5d3d e307 3d3e 99f9 3dbd
00000010: 57f2 65bd 2b94 b7bd 6bf0 4abe e4da 061c
00000020: 607d 0a3e 15f4 e63c 2e11 183e ca20 a03c
00000030: 1be9 363e d657 0e3b 1927 a5bc 77df 2fbc
00000040: 4761 5f3e 98a5 1b3e f43b 4abb 6a4e 913d
00000050: 5ea6 953d afc1 813d e75d 633d 1bc8 d0bc
00000060: ae13 e4bd ea2b b73d 5026 32be e6ca d93d
00000070: 4cbc aa3b 0a99 e23c eb14 f43d fe9f 49be
00000080: 24d2 44bd 80bd aa3d 97ef f401 42a4 d1bd
00000090: b836 01be 8837 9dbd aa38 31bc 95b3 443c
000000a0: 81d8 923b 44e2 c7bc b8c6 3c3e 8615 433e
000000b0: ae8e 88bc 4f95 afbd d924 6a3e 33b9 1dba
000000c0: 4045 923d 52ca 35be 3720 49bd bd33 0dbd
000000d0: ed28 f73a 6555 3abe e482 063d 9bb6 ea3d
000000e0: d68d 01be c144 af3d 4fc7 9d3e 7bb6 323d
000000f0: 5548 863c 4733 833e b8ae 883c f13e e23d
00000100: ec81 d6bd 32f7 713e 7fa7 84bd 738a 5cbd
00000110: 65ec 20bb 45e4 6abb fc58 7d3e 9806 51bc
00000120: a175 9e3d ef5e 49be ab7a acbb ff67 483d
00000130: 4879 aa3d 9f87 9d3d d8f4 813c 58c3 0bbe
00000140: 2a36 45be 7387 043d 3c2b 08be db20 033e
00000150: c50c 853d 8902 29be d48d 6ebc d53b 29bd
00000160: 17d5 0e3e 3a81 a93d 884d 5dbd e75a 1fbe
00000170: c106 b3bd e941 59bc fe43 08be 95b5 8bbe
00000180: 9981 633d 279e 373e 6066 003e 0d83 cabd
00000190: d075 9fbd 4296 193e 3e8c c6bd 908e c1bc
000001a0: 45c0 e83d 72aa 0b3d b4e7 273d 4ea0 a8bd
000001b0: e342 25be 1dc5 aa3d c0d4 8c3d 997f 583d
000001c0: 61fc f33c 0306 f5bd b655 0fbc 1770 86bc
000001d0: 4f04 063d b84b cf38 0b09 9e3d 7ee9 60be
000001e0: 19ff f8bd adbc 2ebc a0d3 6cbd 7d53 a1bd
000001f0: 6545 1dbd 4d1e 543d 1bfb 1cbe 8d96 16be
00000200: 8db7 9cbd 1146 13be 8fbf b23d b55b dabc
00000210: 6814 613e 788a 943d e78f 063e 80e5 a7bd
00000220: c320 953c 9d4a 5bbc 1c37 603d 8d96 cdbd
00000230: 8c89 1c3d 95cd e63c 8d8d 7b3e 9c27 e1bd
00000240: 408f 753d 89d2 61bd 4cc4 473d 3a98 9c3d
00000250: 8364 30bd a482 a7bc 0098 0bbe 5619 203e
00000260: 0246 0bbe fffe cf3d dd42 b23d 6c01 a53d
00000270: dc40 0fbd b169 af3d 8208 e83c 9c4c 3707
00000280: d3a1 7a3d ea57 87bc bb8d 643d a16b ef3d
00000290: a158 83bd 9173 b23d 020b 923d 6902 84bd
000002a0: 3211 2b3e 7816 8cbd 8cf6 29bd 70af a3bd
000002b0: 4231 493e 9b17 133d 1ecd e33c ae89 263d
000002c0: 92e7 1cbe 49a3 9dbd ffed fb3d e8ce 553d
000002d0: 7abd cc3c 58f3 2dbe 706f 8a3c 4538 f2b4
000002e0: 88c7 dfbd a2a9 1e3e 415b 013d 21f1 823d
000002f0: 0ab5 0a3c ac67 7e8d 9927 7fbd aaba dfbd
00000300: c347 023d f0fd a03d 6557 073d b640 17bd
00000310: 52a3 46be 9076 e13d 93f4 bdbd ea8b 82be
00000320: 4f40 4abd 9742 e63d b261 b2bc 5990 e93d
00000330: 7141 89bd 14e5 183e f8f6 a23d c521 90bd
00000340: 42ef bebc 21b1 943c c13d 03bd 9dcd aa3b
00000350: 48eb 3ebd 6441 353e db3b d7bd 3b1d 43be
00000360: 868e 593e 4e17 9e38 1758 2a3d 8677 e93d
00000370: 5d4d fabd 0fee 2a3e 60a7 55bc 1b75 d8bd
00000380: 1c81 c83d 7d57 293d 167f e33d c6f1 e63d
00000390: b9e3 24bd e384 c13c e931 14bd 07eb c33d
000003a0: aef4 95bd f6db 41bd 4624 eabd 3b78 763d
000003b0: f540 ccb8 3ea7 a8ba 90f1 833d aa38 a53c
000003c0: 20a7 b43c c44f 69bd cb76 1e3c 8d63 0b3d
000003d0: 6cc6 0e3e 3786 3fbe 312e 083e 5bb6 803e
000003e0: 0bb0 0d3e 3794 08be cb71 26be 6a3c 303d
000003f0: 7789 0080 c16d 24be 54c5 d63c c2b5 2b3e
-0.14700292 0.05418112 0.1846004 -0.046380613 -0.056139316 -0.08963808 -0.19818275 4.461979e-22
0.1352439 0.02819256 0.14850304 0.019546885 0.1786236 0.0021719835 -0.020160245 -0.0107344305
0.21814452 0.15199888 -0.0030858489 0.070950344 0.07307123 0.0633577 0.055509474 -0.025486043
-0.11136566 0.08943923 -0.17397428 0.10634403 0.005210435 0.027660865 0.11918052 -0.19689938
-0.04805197 0.083369255 8.997524e-38 -0.10236408 -0.1261853 -0.07676607 -0.010816732 0.012005706
0.0044813757 -0.024399884 0.1843518 0.1905118 -0.016669597 -0.085734 0.22865619 -0.00060166715
0.07142115 -0.1775296 -0.049102988 -0.03447317 0.0018856801 -0.18196638 0.03283967 0.114606105
-0.12651762 0.08558036 0.30816123 0.04363106 0.016391912 0.2562506 0.016684875 0.11047161
-0.104739994 0.23629454 -0.0647726 -0.053842973 -0.0024554965 -0.0035841626 0.24740976 -0.01275792
0.0773728 -0.1966512 -0.0052636466 0.048927303 0.08323914 0.07691883 0.01586382 -0.13648736
-0.19258943 0.032355737 -0.13297743 0.12805502 0.06496576 -0.16504873 -0.014560182 -0.041316826
0.13948475 0.08276601 -0.054029018 -0.1556202 -0.087415226 -0.013260343 -0.13307187 -0.27286974
0.055543516 0.17931424 0.12539053 -0.09888277 -0.07786143 0.14998725 -0.09694718 -0.02362755
0.113647975 0.034098096 0.040992454 -0.08233701 -0.16138797 0.083383776 0.06876516 0.05285606
0.02978343 -0.11964037 -0.008748462 -0.01641087 0.032718953 9.884633e-05 0.077165686 -0.2196407
-0.12158031 -0.010665101 -0.05781901 -0.07877252 -0.038396258 0.05178671 -0.15330164 -0.14705868
-0.07652197 -0.14382197 0.08727943 -0.026655057 0.2198044 0.07252973 0.13140832 -0.081980705
0.018204099 -0.013384488 0.054740056 -0.10038481 0.038217112 0.028174201 0.24565716 -0.10993883
0.059951067 -0.055132423 0.048771188 0.076462224 -0.043064605 -0.020448036 -0.13632202 0.15634665
-0.13600925 0.101560585 0.087041594 0.08056912 -0.034973964 0.08565081 0.02832437 1.3789903e-34
0.061189484 -0.016521413 0.055799227 0.116904505 -0.06413389 0.08713449 0.07131006 -0.06445772
0.16705778 -0.06840223 -0.04149489 -0.079924464 0.19647697 0.035911184 0.027807768 0.040658645
-0.15322712 -0.0769716 0.123012535 0.052199274 0.024992693 -0.1698736 0.01689884 -4.5116954e-07
-0.109267294 0.15494397 0.031581167 0.06393648 0.008466015 -7.8394583e-31 -0.062293623 -0.10924275
0.03180672 0.07860935 0.03304233 -0.036926948 -0.1939824 0.11008942 -0.092751645 -0.2549737
-0.049377736 0.1124317 -0.0217751 0.11404485 -0.06701935 0.14931136 0.07957262 -0.07037691
-0.023307446 0.018150868 -0.032041315 0.0052124993 -0.0466111 0.17700726 -0.105094634 -0.1905412
0.21245775 7.538368e-05 0.041587915 0.113997504 -0.12221787 0.16692375 -0.013040394 -0.10569211
0.09790251 0.0413432 0.11108224 0.112765834 -0.040256236 0.023622936 -0.03618041 0.09566312
-0.073220596 -0.04732891 -0.114327 0.060173254 -9.739577e-05 -0.0012867225 0.06442559 0.020168621
0.022052348 -0.056960836 0.009671877 0.034030486 0.1394288 -0.18703543 0.1329887 0.25139126
0.13836686 -0.1333779 -0.16254346 0.043026365 -4.9313e-41 -0.16057493 0.02621714 0.16768554

fc2.bias f4 [256]
00000000: 5a3e 153d 9945 b33d df3b cbbb 46f0 c93c
00000010: ee86 073e 0dd8 593e c292 80ba 06ec c23d
00000020: 8c74 493c f968 1abc 0e35 cfb9 4c15 8b9c
00000030: a6f6 e43d a1c2 f63d 6d61 453d 05b1 9e3c
00000040: 9c07 f23c 8612 d4bd ca0d 3d3d d702 053d
00000050: 06fc 83bb e778 233e eed9 8bbd f20f 283e
00000060: f27f 9fba a246 ca3d e3dc 663c d3f3 a63d
00000070: a534 9c3d 8e39 6cbc 4482 c13d 707f 933c
00000080: 5f1a 0d3c 2523 493d edeb e3bb 10c8 6c3c
00000090: a0f8 34bc 1ce6 533d d4bb ba3c beaa aabc
000000a0: 90cb e53c bca1 8c3d 31c1 023d 41ff c13d
000000b0: e02f 2e3d 3ddc e93d ae79 7e3d 27a7 6c3d
000000c0: f8c9 0b3e 36e7 ea3c d116 86bd 65db bb0d
000000d0: c3f7 643d 93b5 9b3d 7044 1b3d b460 8b3d
000000e0: 45d5 9cb6 a7a9 a63b 3dd4 a03d 1cc3 9e3d
000000f0: 48b4 733d 5397 2e3d 1412 983d 3f90 a53d
00000100: 6c70 1a3e 83d0 0e3d 9d06 0d3d 7b56 243e
00000110: 0d10 4cb7 aa33 533d 6023 93bd bb89 043e
00000120: ea64 a83d d2f5 443d 37cc df3c 8f32 19bc
00000130: c9b9 883c 089f 15bd 784c 463d d2c9 603c
00000140: 7bb0 173d 5fd1 ed3d fdec a03d e861 9c3d
00000150: 3121 a8b7 7bbf e93d f164 37a6 53bd 63ae
00000160: c8d0 2cb8 789a e63b 68dc cd3a d578 d63d
00000170: d3cf cb3d 36d6 203e 34e8 08bc 4251 d83b
00000180: 6a09 f53b be8f de3d ceea 543d 915b 583d
00000190: dc58 493d df19 acbc e37b 4abc 35de 7e3b
000001a0: fcf2 883d 2466 933d 34e0 15b5 e352 1cbd
000001b0: f554 5a3d 7916 1ebd c7eb 6ebb 8d93 783d
000001c0: 3cf6 aa3d 7d04 c33c 4dc5 7fbd 14dd f8bd
000001d0: 2024 bd3d 0530 003e e186 e43c 5809 c83d
000001e0: 28ad 00aa 5fc7 923d cab0 dca0 4b25 e3b4
000001f0: 1441 85ba 1b61 48bd a6d9 a9b2 e742 97bd
00000200: 531b e6bb 56b3 123d e0ee a13d cca2 f33d
00000210: b45a cb3d 8446 093d e088 153e 4b94 2e3d
00000220: 8bb7 9a3d 9b4c cf3c 6620 f73d b0ff 143d
00000230: 8336 b7ba 3d2a 1d3e 2407 a7bb c065 b63d
00000240: 33a2 573d 383b ce3d af5c 943d b17b 223e
00000250: a3c0 5c3d d9aa 6e3d d693 b73d 68f1 8ebd
00000260: 1d07 73bc 0faf e2bc 194b 703d 87eb 4dbb
00000270: aaa0 9cbd 5722 45bb d42c 82ba 8ed9 463c
00000280: fe75 dd3d 6cf5 b93d 13fc bb3c 3249 edad
00000290: 6f92 c23d e930 623e 7454 6f92 bd24 003d
000002a0: 13fc 003e 85b0 f43d 0e15 283d 374d 223e
000002b0: b7a7 3fbd 1d91 8a3d f667 65bd 4f9a ba3c
000002c0: fbd4 03b7 434a 493d 962e bb3d b602 66b7
000002d0: 249e b9ba 4085 f93d 6c5b 853c 473d 2dbc
000002e0: 4e81 079b 2e89 ff3d 8727 713d f4a3 e03d
000002f0: d44e ad3c 9e9a ceb2 8da2 273d 4723 a838
00000300: 483e 333d 26ec 7a3d deab 4b3c f969 dabc
00000310: 60a8 083d a716 ba3d 9895 8d3b 23a6 b9a9
00000320: c4ee cc3d 666f 31bc 1cf5 f1bb 0ec2 87bb
00000330: 952b afbd eea9 dc3c c01e 453d d82e 7d3c
00000340: 65b4 703d 59c8 463d e10e 363c f208 8491
00000350: c388 0080 45ec ce3c 6f91 58b5 f411 423c
00000360: fef1 fabb 9e1d 1c3d 6d47 da3d 4f99 383d
00000370: f29f ef3d fe7e 1f3e c414 c43d 6666 593d
00000380: 8240 bd3d f530 893c 68e2 97ad 8bc5 2cbc
00000390: 510c b73d 18a6 193d 4c1a af3d 97d5 c33d
000003a0: 4686 22bc da64 ca3b fc9f 3e3d e36f 083d
000003b0: 71f2 57bb b728 5a3c fdd9 cbbc aaf4 7fb3
000003c0: 62b5 973d 50a8 cfb2 64ab 833d 8c97 cebc
000003d0: 551f 50bd ed88 e63d 3164 b2bb aa39 c5b9
000003e0: 4d53 473d 0512 c3a6 89b6 153d 2210 533d
000003f0: 429e c0b5 93c9 623d 9f4c 083d f147 873d
0.036436416 0.08753509 -0.0062022055 0.024650704 0.13235065 0.21273823 -0.0009809362 0.09517674
0.012295853 -0.0094244415 -0.00039521646 -9.203754e-22 0.11179857 0.12048841 0.048188616 0.019371519
0.029544644 -0.103550956 0.04615573 0.03247341 -0.0040278463 0.1596409 -0.06828676 0.16412333
-0.0012168868 0.098767534 0.014090749 0.081519745 0.07627229 -0.014418019 0.09448674 0.018005103
0.008612244 0.049105782 -0.006955615 0.0144519955 -0.011045605 0.05173312 0.022794642 -0.02083337
0.028051168 0.06866786 0.031922523 0.09472514 0.042526126 0.1141896 0.06212776 0.057776596
0.13651264 0.028674703 -0.06547321 1.1577582e-30 0.055900346 0.07602992 0.037907064 0.06805554
-4.67399e-06 0.005086142 0.07852981 0.07752058 0.0594981 0.042624783 0.07425323 0.080841534
0.15081948 0.03486682 0.034430135 0.16048615 -1.2163085e-05 0.051562943 -0.071844816 0.12943165
0.08222373 0.048085995 0.027319057 -0.009350433 0.016690152 -0.036528617 0.04841277 0.013719993
0.03703354 0.116122 0.07857702 0.07635862 -2.0042617e-05 0.11413475 -6.362768e-16 -5.1781978e-11
-4.120244e-05 0.007037457 0.0015705945 0.10472266 0.09951749 0.15706715 -0.008356143 0.0066014836
0.007477929 0.108672604 0.05198174 0.0528217 0.04915701 -0.02100843 -0.012358638 0.003888977
0.066869706 0.07197216 -5.5833084e-07 -0.038164984 0.053303678 -0.03859565 -0.0036456452 0.06068759
0.08347747 0.023805851 -0.06244402 -0.12151542 0.09235406 0.12518318 0.027896347 0.09767407
-1.142876e-13 0.07166933 -3.738644e-19 -4.230918e-07 -0.001016649 -0.048920732 -1.9773164e-08 -0.073858075
-0.0070223003 0.03581556 0.0790689 0.118962854 0.099294096 0.033514515 0.14602995 0.042621892
0.07554539 0.025305083 0.120667264 0.036376655 -0.0013978038 0.15348144 -0.005097287 0.08906126
0.05264492 0.10069889 0.072442405 0.15867497 0.05389465 0.0582684 0.08963744 -0.06979638
-0.014833239 -0.027671365 0.05866537 -0.0031420903 -0.07647832 -0.0030080283 -0.0009931573 0.01213683
0.10813521 0.09080014 0.022947347 -2.6976286e-11 0.09500586 0.2208897 -7.55192e-28 0.031285036
0.12596159 0.11947731 0.041035704 0.15849768 -0.046790805 0.067659594 -0.056007348 0.022778658
-7.857797e-06 0.049143087 0.09139745 -1.37096995e-05 -0.001416151 0.121836185 0.016278945 -0.010573692
-1.1208719e-22 0.12477337 0.058875587 0.109687716 0.021155752 -2.4051868e-08 0.040926505 8.017435e-05
0.043760568 0.061260365 0.012431113 -0.02666186 0.0333637 0.09086352 0.0043208115 -8.2444705e-14
0.100064784 -0.010829782 -0.0073839556 -0.004143006 -0.085532345 0.026936498 0.04812503 0.015453063
0.058765788 0.04853091 0.011111946 -2.083144e-28 -4.9061e-41 0.025259146 -8.0677904e-07 0.011845101
-0.0076582422 0.038114183 0.10658155 0.04506808 0.11700429 0.15575787 0.09574273 0.05307617
0.092408195 0.016746977 -1.7267257e-11 -0.010545145 0.08937896 0.037511915 0.085499376 0.095622234
-0.009919709 0.006176573 0.04653929 0.03330983 -0.0032950903 0.013315371 -0.024884218 -5.9594335e-08
0.07407643 -2.4174511e-08 0.064291745 -0.025218748 -0.05081113 0.11256585 -0.0054440727 -0.0003761773
0.048663426 -1.3535727e-15 0.036551032 0.051529057 -1.4351174e-06 0.055368017 0.033276197 0.066055186

policy.weight f4 [127, 256]
00000000: f879 e3bd 62d1 9a3d e1ba c93e fd22 3fbe
00000010: 4c1d 1bbc c721 b63c e094 8d3c 7352 31bf
00000020: bc1d 513e f2ad 3ebc c687 2b3c 0f39 7ab4
00000030: f460 f13e e7f0 c2bf efe2 683d 6a23 2fbf
00000040: 9344 153e 3916 29bf 57d8 45be 33ac 2b3e
00000050: 2559 1dbe 4213 503f 72d2 72bf 38a9 2abd
00000060: 78b1 9c3c c692 da3d f521 8e3a 487f cc3d
00000070: 5749 4b3e d272 053c 8bbd 25be 49b3 bf3d
00000080: 84c7 423e 449e 2b3e 5ab3 a6b8 6e94 b53d
00000090: dea7 16bf 3d58 a13e 7d61 ce3d 53c9 b93c
000000a0: f6a9 293e 47eb 09bd 45bd 443d 031e 82bd
000000b0: 840c e83d ac64 58be ea4e 493c 4dec d43e
000000c0: fd20 623c 81ba 4abe 8246 30be 2530 bfb2
000000d0: 50e2 043e 9db0 b43d 5137 3a3e 435c 57bd
000000e0: a675 cfba 578b dd3d 89bc 7b3d 8403 7ebd
000000f0: b304 f33b 84a3 133e dea1 293e 5c53 2a3d
00000100: a497 64bd 993c b73d 7e57 443f 4e45 26bd
00000110: e500 363a d0b2 c3be c0b5 a13e acd6 483e
00000120: 1a89 e13d 3a0e 8e3d 6aad 5ebc c5c0 a4be
00000130: a86d dd3d e4cd 8cbe b0d8 aabd 9419 9abc
00000140: f8a5 2e3e 0853 84be 2802 93be b60c 23bb
00000150: c55e f33b 408e 3b3e c853 2c37 a21e 9eba
00000160: c00e 593b 18d7 a43d 789f 623d 52a0 c93d
00000170: d719 ecbb 9e94 f1be 748b 4abc 8e8c 9fbe
00000180: d980 753d 685a 633d 638b 203e 566a c1be
00000190: 419e 9f3d 6f2a 5c3e e2c9 82be e181 b03d
000001a0: c497 a13d e49b 8cbd b7f9 3ebc ae31 1bbd
000001b0: a08a 9b3b 739c f93c d852 2b3d 0ce7 bdbd
000001c0: e390 83be 906f bebd 6137 d6bd 4be6 023c
000001d0: fd7b a93e d46a 273f a60d 56bb f6bf 413e
000001e0: 8373 06bb 016a f1bd 416d 55b8 681e 143c
000001f0: 9330 003d 84d5 853c 9bd8 0f3a abe9 f2bd
00000200: 9d5d 6dbe 6458 9cbc f766 1a3e 19f0 b53d
00000210: 3bb2 debd a23e 50be 8ad1 97bd 2cdd 683c
00000220: da81 0a3e 8afc 24be 44e0 803d 8bcf c1bd
00000230: 1665 d53a 45fd 2e3d f9fc 59bc 05a0 bfbd
00000240: ee24 a33d 10ae e4bd 293e 38be 216f c13d
00000250: 59e0 163e 41ea 833e 79f6 ebbe 5adb c5bd
00000260: 9bf0 88be 00b2 0a3d 45a3 093e 4a18 3dbd
00000270: 0574 dc3d 5e10 133e 38bf 983c 1996 bfbd
00000280: 2a19 bcbd c8b8 a73e b15b 0cbe b1c0 15b8
00000290: 1657 1e3e 4e07 183e 084f 20b8 1e5f 91be
000002a0: 5617 df3e 6efb a5be ec03 8e3d 7641 e2be
000002b0: eec2 56bd d88f 8a3e c289 b53e 9da9 0a3d
000002c0: 3c8f 05bc 4895 b63d 41a8 d3bd d6c4 92ba
000002d0: aa64 6dbe 42c7 d5be 72d0 e6be e7b8 1dbd
000002e0: dd65 8e9f 3b6d 8cbe 23a2 493e 877f d8bd
000002f0: 9875 61bd 2594 31bb eb7c 9f3d 175d 033d
00000300: 00a6 77be bfae 8a3c 37bd 7f3c d4f5 fb3d
00000310: 98b8 3ebd ae73 9c3e 2711 c03d 76b0 7d37
00000320: 46c8 813d 46bc 2b3d 6453 ec3d c187 193c
00000330: f930 2d3d cc70 b0bd 1def d13d 5928 ab3d
00000340: f501 52be 1202 243e ee98 b13d 9c82 4bb2
00000350: 1681 07ac 1215 97be 0401 deba 25fd e63d
00000360: 218c dbbd 314b 22bc 10a3 363e ecb6 c03d
00000370: 3714 2a3e f88b 353f 0803 3f3e f618 313d
00000380: 8142 603c 88ad 52bd 84d7 b93a 3e09 083e
00000390: 942b a0bd 6517 b8be 32ac 863e ccfd 8f3e
000003a0: 3c29 2dbd 9925 393e 8cfb 82be 7eb7 86bd
000003b0: 161d 54bd 28e9 c7bc fa92 c93c 287f 1cbc
000003c0: 011c 8ebe 67cd a2ba 35b6 213e 8495 74be
000003d0: aa67 dbbd c675 13be 033e e93d 8704 243c
000003e0: fae6 c1be c83a a737 7837 6f3e 45a8 87bd
000003f0: 6efc c0bb 6a96 91bd 0ca7 0fbe aa9c a6be
-0.11107248 0.07559468 0.3940039 -0.1866569 -0.009467434 0.022232903 0.017282903 -0.6926643
0.20421499 -0.0116381515 0.010469383 -2.3303822e-07 0.47144282 -1.5229768 0.056857046 -0.6841341
0.1457694 -0.66049534 -0.19320808 0.16764908 -0.15366037 0.81279385 -0.94852364 -0.041665286
0.019127592 0.10672526 0.001084386 0.099852145 0.19852196 0.008145051 -0.16185586 0.09360368
0.19021422 0.16759592 -7.948904e-05 0.08866201 -0.58849895 0.31512633 0.10077188 0.022679007
0.16568741 -0.033671644 0.048032064 -0.063533805 0.11330512 -0.21132153 0.012286881 0.41586533
0.01380181 -0.19797708 -0.17214397 -2.225722e-08 0.12976956 0.08822749 0.18185164 -0.052578222
-0.0015827909 0.108175926 0.061459098 -0.06201507 0.0074163317 0.14417845 0.16565654 0.041583404
-0.05580868 0.08947105 0.76696 -0.040593438 0.00069428823 -0.3822236 0.31583977 0.19613141
0.11012478 0.06936307 -0.01359115 -0.3217832 0.10811931 -0.27500832 -0.08342111 -0.018811025
0.170555 -0.25844598 -0.28712583 -0.0024879402 0.007427069 0.18315983 1.0271506e-05 -0.0012063573
0.0033120364 0.080488384 0.055327863 0.09845032 -0.007205229 -0.47183698 -0.01236235 -0.31161922
0.05993733 0.05550614 0.15678172 -0.3777644 0.077938564 0.21500562 -0.2554465 0.086185224
0.07890275 -0.06865671 -0.011656216 -0.037889175 0.00474675 0.030470109 0.041827053 -0.09272584
-0.25696477 -0.092986226 -0.104597814 0.007989476 0.33102408 0.6539738 -0.0032661944 0.18920884
-0.0020515628 -0.11787797 -5.0884908e-05 0.009040453 0.031296324 0.016337164 0.0005487294 -0.11860975
-0.23180242 -0.019085117 0.1507834 0.088836856 -0.108738385 -0.20336393 -0.07413013 0.014212888
0.13526097 -0.16111961 0.06292775 -0.09463414 0.0016280736 0.042722005 -0.013304942 -0.09356693
0.07966028 -0.11166012 -0.17992462 0.09445024 0.1473402 0.2576466 -0.4608648 -0.096609786
-0.26746067 0.03386116 0.13441189 -0.046165742 0.107643165 0.14361712 0.018645868 -0.09354801
-0.09184487 0.32758164 -0.13706852 -3.5703826e-05 0.15462908 0.14846537 -3.8220576e-05 -0.2839288
0.4357249 -0.32418388 0.06934342 -0.44190568 -0.052431993 0.2706287 0.35456663 0.033853162
-0.0081518255 0.08915192 -0.10334826 -0.0011197578 -0.23182932 -0.41753584 -0.45080906 -0.038506415
-6.030786e-20 -0.27427086 0.19690756 -0.10571199 -0.055043787 -0.0027096358 0.07787498 0.0320712
-0.24184418 0.016929029 0.015609077 0.12302747 -0.04656276 0.30557007 0.093782715 1.5121061e-05
0.06337027 0.0419276 0.11539343 0.009370745 0.042283032 -0.08615264 0.10250685 0.08357305
-0.20508559 0.16016415 0.08671747 -1.1845852e-08 -1.925631e-12 -0.29508263 -0.0016937559 0.11278752
-0.10720087 -0.009905622 0.17835641 0.094098896 0.16609274 0.709167 0.186535 0.043236695
0.013687731 -0.051435024 0.0014178609 0.13284776 -0.07820812 -0.3595535 0.2630325 0.2812332
-0.042275652 0.18080749 -0.2558254 -0.06577967 -0.05178555 -0.02440317 0.024606217 -0.009551801
-0.2775574 -0.0012420834 0.15792163 -0.2388516 -0.10713132 -0.14400396 0.11388781 0.010010845
-0.37871534 1.9935324e-05 0.23361003 -0.06623892 -0.005889467 -0.07108767 -0.14028567 -0.325414

policy.bias f4 [127]
00000000: d488 f63d 75ed c63c 6d77 9abc e533 90bd
00000010: be2e cc3d c19b 90bc b597 1d3e bd62 bdbb
00000020: 1701 233e 4152 68bd b5de c63c 91d4 863d
00000030: 4557 d9b9 d6a7 2b3d b80e 52b9 0ef3 a63d
00000040: 5f6a 16b7 31f8 373d e769 1abd 3692 1abb
00000050: 0317 bd3c 0ca4 a2bc 440f 60bd 5695 273c
00000060: aaae 46bc 2ea9 bbbc 2fb2 5cbc 8247 8a3b
00000070: a653 9d3c cc19 c5bd e447 a43c 0f2f 4e3d
00000080: 69c0 8f3b 5048 833d 505a 0fbd 233b 5c3d
00000090: 7f0d d73d 873c eeba 1ee3 c23d 0864 86bd
000000a0: 66c5 8d3d 779f 75bc 3c16 aa3c 5212 0b3d
000000b0: 1b22 babc a997 583d f8f9 34bd 87d0 203e
000000c0: 808f 2bbd b85f 943d d7cf e7bb 8058 b73d
000000d0: 7270 c63d 3d91 dbbc 6464 6e3c fb17 aa3b
000000e0: 5a66 5f3d aeaf 8b3d 15b4 b8bc e8b5 3ebc
000000f0: ed02 3fbc 503e 40bc 328c 3fbc c6c2 3fbc
00000100: 583b 40bc 2612 40bc 9272 3fbc 51a5 3fbc
00000110: 93e8 3fbc 9d21 40bc db17 40bc a921 40bc
00000120: 6961 3ebc 1623 3fbc 2663 40bc f1a6 3fbc
00000130: e194 3ebc 980b 40bc ecc2 3fbc 658e 3ebc
00000140: d32a 3fbc c007 40bc 9ed2 3ebc 4725 3ebc
00000150: 0780 40bc ccb9 3fbc b639 40bc 6c33 3fbc
00000160: 9ddf 3ebc be1a 3fbc a00e 40bc 7a1d 3fbc
00000170: 7c15 40bc 4a66 3fbc 3b2c 3ebc d049 3fbc
00000180: 7d7a 3fbc 6d9b 40bc 1211 40bc b6b0 3fbc
00000190: 037b 3fbc 5197 3dbc 32a8 3fbc f837 3ebc
000001a0: cb16 3fbc 0ba1 3fbc 801c 3ebc 139e 40bc
000001b0: e705 40bc 2624 3fbc 781f 3fbc 6b05 3fbc
000001c0: b078 3fbc 1759 40bc d43b 3fbc 4d48 3fbc
000001d0: a0ff 3ebc 9031 40bc d577 3ebc dc26 40bc
000001e0: a2df 40bc fa8a 3fbc f3e2 3ebc 537f 40bc
000001f0: 3548 3fbc 8145 3fbc b813 3fbc
0.12037817 0.02428315 -0.018855775 -0.07041148 0.09969853 -0.017652394 0.15389903 -0.005779593
0.15918384 -0.05671907 0.024276117 0.065835126 -0.00041454486 0.041908108 -0.00020032644 0.08151828
-8.965463e-06 0.04491443 -0.037698653 -0.0023585684 0.023082262 -0.019853614 -0.05470206 0.010228476
-0.012126604 -0.02290782 -0.013470217 0.00421995 0.019204926 -0.09624061 0.020053811 0.050337847
0.0043869507 0.06410277 -0.034998238 0.053767335 0.10500621 -0.0018175998 0.095159754 -0.06562048
0.069224164 -0.014991633 0.020762555 0.03395302 -0.02272134 0.05287901 -0.0441837 0.15704547
-0.0418849 0.072448194 -0.007074337 0.08952427 0.09689416 -0.026802653 0.014550302 0.005190847
0.05454097 0.068206176 -0.022546807 -0.0116400495 -0.011658412 -0.011733606 -0.01169114 -0.011704152
-0.011732899 -0.011723077 -0.011685031 -0.011697129 -0.011713165 -0.011726764 -0.011724438 -0.011726775
-0.011619904 -0.01166608 -0.011742389 -0.011697517 -0.011632175 -0.011721514 -0.011704188 -0.011630629
-0.011667925 -0.011720598 -0.011646895 -0.011605567 -0.011749274 -0.011702012 -0.011732509 -0.011669975
-0.011649993 -0.011664091 -0.011722237 -0.011664743 -0.011723872 -0.011682102 -0.011607225 -0.011675313
-0.011686918 -0.011755806 -0.01172282 -0.011699846 -0.011687043 -0.011571721 -0.011697816 -0.011610024
-0.011663149 -0.0116961105 -0.011603475 -0.011756438 -0.011720157 -0.011666333 -0.011665218 -0.011659007
-0.011686489 -0.011739991 -0.011671979 -0.011674953 -0.011657625 -0.011730567 -0.01162525 -0.011728015
-0.011772068 -0.011690849 -0.011650789 -0.011749106 -0.01167493 -0.011674286 -0.011662416

value.weight f4 [1, 256]
00000000: 67f0 793c f1fb 4cbd 3936 533c b219 583c
00000010: 5763 15bd c4ce 9dbb 7795 a8bc 023c 8abb
00000020: c3b5 983c 5137 2d3b 310f c43c cf3c 91bb
00000030: 0d9c 1d3c a9d1 53bd 59f5 9bba fed0 90be
00000040: d68a 96bc e35d 7fbc e29a 64bb 63ce 013c
00000050: 788e bebc a623 be3b 228b 1d3b bf1d 0d3c
00000060: 2eba aabc 5873 12bc 8b6c 93bc d04f e1bb
00000070: 2a92 48bb adcf bfbc e681 92bb 66de ee3c
00000080: a537 17bc 954e a13c 7746 d63c e239 b13b
00000090: 2188 20bc 59ba 943c bbde a3bd fc14 92bc
000000a0: 1b61 2dbc 3f2f 8e3c 44d1 a83c 20f5 cebc
000000b0: 26f8 9f3c ccab b83c d321 b33c 4455 d1bc
000000c0: 23b9 7a3c 8a40 78bc cf46 adbc f4b3 62b8
000000d0: 22e1 31bb 4e35 c23c 790b ac3c 0b39 89bc
000000e0: 26d8 d63b dfbb b5bc 0ffa 92bb 133f 2d3c
000000f0: e6d0 2bba df48 77bb 05f0 1dbc 9e06 713c
00000100: cc87 5ebd 11f9 cabb 0e9e ac3c 6b2e dcbc
00000110: 58ce 9abc 6cb4 2abc b7a2 5e3c 611c 87bc
00000120: 3e6a 19bc 15a7 28bc 47fb 1fbc 36df d23c
00000130: 7403 e13b 7f66 923c 37bf 0bbc 5ba7 353d
00000140: 7e94 403d 3d6f a4bb a914 8abc fd88 33bc
00000150: 14c0 08bd e1e1 0fbb 18a1 9ebc f8ec d73a
00000160: 3668 93bc db95 ff3c c6a0 ecbc 52fc 343c
00000170: c448 34bc a009 c13b a9a8 ccbc a14b b63c
00000180: f519 82bb 6536 5bbb 1848 83bb 61e2 ef3b
00000190: 8207 143b 0b22 0f3c 85b8 8d3b ce82 973c
000001a0: ba52 28bd 74a5 043a 7a3a 143c 5848 173d
000001b0: 977c f3bc 1e7d 003d 97c3 283b 20e1 e33c
000001c0: 4090 55bc 2b2d 4a3b 1cd0 4a3d 7f1e 22bc
000001d0: a792 82bc 4737 f1bc a09b 9aba 5220 3a3d
000001e0: e53b 3b3a 476d 41bc e1d1 cfbb cea4 4cbc
000001f0: dd3b ecbc cb66 c03c cb07 c93c 4eef bd3b
00000200: 9c65 63ba ccba a3bc c50a 0b3d ad2c ce3c
00000210: 8078 e3bb d021 45bb 5a23 37bc f688 b7ba
00000220: a024 973b 4a59 0dba 106d 80be 8ba4 ad38
00000230: 639b 27bb 3bb8 c23b 044f 16bd 9ce5 543c
00000240: 0ea7 d53b e763 983b 86fb 1c3c 30ec 573c
00000250: afad 0b3c c71e 0cbc f711 b6bc 23f3 aa3b
00000260: b68a 97bd 1093 c2bc 1e33 23bc bd79 af3c
00000270: 2a32 3a3d 7bd8 c43c 5fd8 95bb 3e34 41bc
00000280: 5b48 793c dd64 83bc 4fc0 453d 882a b9bb
00000290: d402 4f3c d104 783c a6eb d83b 2edb fd3c
000002a0: a215 0abd 0180 8c3c cf1d 1cbb 291a c8ba
000002b0: 529d 0c3c 5815 a8bc efe8 263b 1536 da3c
000002c0: 4844 03bc 9bc9 8fbb 3fdb 1abc 009c bfbb
000002d0: 34ee 2bbb 2d12 883b 2981 bebc f3f2 3fbb
000002e0: d8d6 39ba c107 99bc 109f 8abc 0975 75bc
000002f0: cb05 8c3c ffe0 ae3b 97be 23bc 219b 223c
00000300: a627 7d3c 6bb4 f8bb 254a b03b ae3b 923b
00000310: 339b 5bbc ac54 35bc b2ce 843c 5f4c febb
00000320: 5351 6bbb 201f 9a3c 2d6f 03bd aee5 093d
00000330: 1b9b f7bc c627 213d 6982 b2bc e80e 013c
00000340: fd6b 0d3d 173a 62bc 2409 1ebc 6495 7d3a
00000350: d9bd 113b 10e3 46bd 6dd2 20bb 360a 7a3c
00000360: 7057 923c d8ca c03b f09e 74ba 96f9 eeb8
00000370: da63 143b fa15 1d3c ce02 e4bb 117f 01bc
00000380: 3e7d 3abc b836 7b3b 0ddd 84bc 1be8 503d
00000390: 6aef 083c 0445 ce3c cb73 7b3c f1f1 15bc
000003a0: 1b27 51bc 3720 d3bd 0759 16bc 008d f6bb
000003b0: b48f 33bc bf42 133c 7bf8 753c 233e 2f3c
000003c0: 7d96 343c 3b6e 42bc e739 d73c 2d43 5fbb
000003d0: b646 9f3c b235 26bd a2de 12bc 8597 373c
000003e0: 637a b93d 6eb7 5e3c 2bbb 2fbc 7c58 28bc
000003f0: e806 a03b b710 b13c c731 b4bb 1294 9cbc
0.01525507 -0.050044958 0.012891346 0.01318972 -0.03647169 -0.004815908 -0.020579083 -0.0042185793
0.018641358 0.0026430676 0.023933025 -0.004432298 0.009619725 -0.05171362 -0.0011898681 -0.28284448
-0.018376749 -0.015586349 -0.0034882356 0.007922742 -0.023261294 0.0058025895 0.0024039228 0.008613049
-0.02084073 -0.008938633 -0.017996093 -0.0068759695 -0.0030604699 -0.023414457 -0.0044710515 0.029158782
-0.009229575 0.019690791 0.026156647 0.0054085115 -0.009798081 0.018155264 -0.08001467 -0.017832272
-0.010582234 0.017356513 0.020607598 -0.02526337 0.019527506 0.022542857 0.021866715 -0.025553353
0.015302929 -0.015152106 -0.021151928 -5.4050193e-05 -0.0027142246 0.023707058 0.021001564 -0.016750833
0.0065565286 -0.02218431 -0.0044853757 0.01057412 -0.00065542606 -0.0037732644 -0.009639745 0.01471105
-0.054328725 -0.006194242 0.02107146 -0.026877603 -0.01889722 -0.0104189925 0.013588599 -0.016493024
-0.009363709 -0.010293742 -0.009764499 0.0257412 0.0068668667 0.01787114 -0.008529476 0.044349056
0.047016613 -0.0050181434 -0.016855555 -0.0109579535 -0.033386305 -0.0021954703 -0.019363925 0.001647382
-0.017994028 0.031199386 -0.028885256 0.011046486 -0.011003677 0.00589104 -0.024982767 0.02225286
-0.0039703795 -0.003344917 -0.004006397 0.0073206876 0.0022587483 0.008736144 0.004324975 0.01849499
-0.04109452 0.0005060055 0.009047145 0.036934227 -0.029722495 0.03136932 0.0025751346 0.027817309
-0.01303488 0.0030849676 0.049514875 -0.009894966 -0.01593907 -0.029445304 -0.0011795647 0.04544098
0.0007142409 -0.011805839 -0.006342158 -0.012490464 -0.028837139 0.023486516 0.024539849 0.0057963496
-0.0008674504 -0.019986533 0.033945818 0.025167787 -0.006941855 -0.0030079968 -0.011177862 -0.001400261
0.0046125203 -0.0005392028 -0.25083208 8.279931e-05 -0.0025574795 0.005942372 -0.03669645 0.012994196
0.0065201586 0.004650581 0.009581452 0.01317887 0.008525296 -0.00855226 -0.022225363 0.0052169724
-0.07399504 -0.023751765 -0.009960918 0.021420354 0.045457996 0.024029007 -0.0045729126 -0.011792241
0.015215005 -0.016039306 0.048279103 -0.005650822 0.012634952 0.015137867 0.0066198884 0.030988302
-0.033712037 0.01715088 -0.0023821478 -0.0015266585 0.00858243 -0.02051799 0.002546843 0.026637116
-0.008011885 -0.004388047 -0.009451686 -0.005847454 -0.002623451 0.0041525573 -0.023254948 -0.0029289096
-0.0007089204 -0.018680455 -0.01692155 -0.014981517 0.017092606 0.00533688 -0.009994171 0.009924681
0.015451347 -0.007589867 0.0053799325 0.004462681 -0.013403702 -0.011067551 0.016211841 -0.007760569
-0.0035906627 0.01881367 -0.032088447 0.033666305 -0.030225327 0.03934457 -0.0217907 0.007877089
0.034526814 -0.013807795 -0.009645734 0.0009673445 0.0022238402 -0.048556387 -0.0024539486 0.015261224
0.01786396 0.005883556 -0.0009331545 -0.000113952134 0.0022642524 0.009587759 -0.006958342 -0.00790383
-0.011382399 0.0038332175 -0.016218686 0.051002603 0.008357862 0.025179394 0.015347431 -0.009151922
-0.012765671 -0.10308879 -0.009176499 -0.0075241327 -0.010959554 0.0089880815 0.015012856 0.010695967
0.011022207 -0.011867101 0.026272727 -0.003406714 0.019442897 -0.04057855 -0.008964213 0.011205559
0.090565465 0.013593538 -0.010725777 -0.010275003 0.004883636 0.021614416 -0.005499098 -0.019113574
