model.onnx (onnx, 529963 bytes, 7 tensors)

fc1.weight f4 [256, 130]
0	0x3cd73cc0	0.026274085
1	0x3d9ac1b1	0.07556475
2	0xbdcaa367	-0.09894448
3	0x3cc98679	0.024600254
4	0x3daa5550	0.08317053
5	0x3eb1e967	0.34748384
6	0x3dadc10c	0.084840864
7	0x3eb06e43	0.34459123
8	0xbdfa8cc2	-0.12233879
9	0xbd05e485	-0.032688636
10	0x3ceb0fbe	0.02869403
11	0xbe18e113	-0.14929609
12	0xbe181c8e	-0.14854643
13	0x3d10f624	0.035390988
14	0x3e82e917	0.25568458
15	0x3e5b2f8e	0.2140486
16	0xbc3178ce	-0.010832025
17	0xbcfb8b8c	-0.03070619
18	0x3d2559d1	0.04036886
19	0xbdbec46a	-0.09314807
20	0x3c93bab1	0.018033357
21	0xbe81892b	-0.25299963
22	0xbe90a87c	-0.28253543
23	0x3de87e72	0.113522425
24	0xbcb3472a	-0.02188452
25	0x3cab50d1	0.02091256
26	0xbd3a6cf6	-0.04551407
27	0xbc899cf3	-0.016798472
28	0x3e05cf59	0.13067378
29	0xbd520c31	-0.051281158
30	0x3e1c5e40	0.15270329
31	0x3d5729a7	0.052529957
32	0x3d8d6c05	0.06905369
33	0x3d7a6c12	0.06113822
34	0x3d98f8b9	0.07469315
35	0x3de48b4b	0.111593805
36	0x3cbd9072	0.023140166
37	0xbcd457e8	-0.025920823
38	0x3d179544	0.037007585
39	0x3dec1c7c	0.115288705
40	0x3da8eaaa	0.082478836
41	0x3c1b6ad8	0.009485923
42	0x3b216b9e	0.0024630795
43	0xbb485758	-0.003056964
44	0x39f286eb	0.0004625836
45	0x3d41590b	0.04720406
46	0x3d40b416	0.047046743
47	0x3dc59fa4	0.0964959
48	0x3db709aa	0.0893739
49	0xbcbd98e3	-0.023144191
50	0xbe118aae	-0.14213058
51	0xbbe70789	-0.007050459
52	0xbc983b1f	-0.018582879
53	0xbdb1e866	-0.086869046
54	0xbd8da1d1	-0.0691563
55	0xbd6eba79	-0.058283303
56	0xbb10d8b7	-0.0022101828
57	0x3bcd0280	0.0062564015
58	0xbd7bfd46	-0.061520837
59	0xbd4d8c71	-0.050182763
60	0x0000a3e0	5.8787e-41
61	0x8000891e	-4.9188e-41
62	0x00008e6c	5.1091e-41
63	0x000089c7	4.9425e-41
64	0x8000922d	-5.2438e-41
65	0x00008b9d	5.0084e-41
66	0x8000892c	-4.9208e-41
67	0x00008ba5	5.0095e-41
68	0x00008cc0	5.0492e-41
69	0x00008b37	4.9941e-41
70	0x800089bc	-4.941e-41
71	0x0000a8f5	6.061e-41
72	0x0000892b	4.9207e-41
73	0x00008ae6	4.9827e-41
74	0x00008a1f	4.9549e-41
75	0x00008a15	4.9534e-41
76	0x00008b91	5.0067e-41
77	0x80008f6e	-5.1453e-41
78	0x80008df9	-5.093e-41
79	0x80008966	-4.9289e-41
80	0x80008b1b	-4.9902e-41
81	0x000089f4	4.9488e-41
82	0x80008d0e	-5.0601e-41
83	0x00009b34	5.5676e-41
84	0x00008a81	4.9686e-41
85	0x8000ae8c	-6.2616e-41
86	0x00008bb5	5.0117e-41
87	0x00008af5	4.9848e-41
88	0x00008bcb	5.0148e-41
89	0x800090ca	-5.194e-41
90	0x80008d03	-5.0585e-41
91	0x000089a2	4.9373e-41
92	0x80008c1a	-5.0259e-41
93	0x80008b2e	-4.9928e-41
94	0x000088ed	4.912e-41
95	0x00008a51	4.9619e-41
96	0x800088dc	-4.9096e-41
97	0x8000913e	-5.2103e-41
98	0x0000a1aa	5.7994e-41
99	0x80008b53	-4.998e-41
100	0x80008b8b	-5.0059e-41
101	0x00009112	5.2041e-41
102	0x8000a9c0	-6.0895e-41
103	0x00008963	4.9285e-41
104	0x800088cb	-4.9072e-41
105	0x80008bd7	-5.0165e-41
106	0x00008a7e	4.9682e-41
107	0x00008cee	5.0556e-41
108	0x80008ad3	-4.9801e-41
109	0x00008b6c	5.0015e-41
110	0x80008a7d	-4.968e-41
111	0x80009b10	-5.5626e-41
112	0x000088ea	4.9116e-41
113	0x80008940	-4.9236e-41
114	0x800088fb	-4.914e-41
115	0x80008a90	-4.9707e-41
116	0x0000a2ee	5.8448e-41
117	0x80008958	-4.927e-41
118	0x00008c57	5.0344e-41
119	0x00008c08	5.0234e-41
120	0x0002379c	2.0362e-40
121	0x000088f8	4.9135e-41
122	0x8000a429	-5.889e-41
123	0x00008b27	4.9918e-41
124	0x80008aee	-4.9839e-41
125	0x00008982	4.9329e-41
126	0x00008c1a	5.0259e-41
127	0x800089f0	-4.9483e-41
128	0x80008a51	-4.9619e-41
129	0xbdd2be8e	-0.10290252
130	0x3e4a5da8	0.1976229
131	0x3e9127b0	0.28350592
132	0xbe856304	-0.26052105
133	0x3eb83110	0.35974932
134	0xbe57f68d	-0.21090145
135	0x3d7ad327	0.061236527
136	0xbcc8ff81	-0.024535896
137	0xbd84be00	-0.06481552
138	0x3e2e0b6e	0.16996548
139	0x3d569982	0.05239249
140	0xbd0de51f	-0.034642335
141	0x3ca9a2df	0.020707546
142	0x3cc22c7f	0.023702858
143	0xbd516290	-0.051119387
144	0xbd36b38e	-0.04460483
145	0xbd71d505	-0.059041042
146	0x3c8604a3	0.016359633
147	0xbe0dfa01	-0.138649
148	0xbe87c666	-0.26518553
149	0xbd3e7e78	-0.04650733
150	0xbcc3a9ff	-0.023884771
151	0xbc869a62	-0.016431037
152	0x3da94f5e	0.08267091
153	0xbe33d1bd	-0.17560478
154	0x3dd7f47b	0.10544678
155	0x3d7d4dad	0.061841656
156	0x3c770081	0.015075804
157	0xbc961f74	-0.018325545
158	0xbe2110b1	-0.15729024
159	0x3d4030b8	0.04692146
160	0xbc2ac776	-0.010423532
161	0xbd804c0b	-0.06264504
162	0x3da9da73	0.08293619
163	0x3c4616dc	0.012090411
164	0x3b476748	0.003042655
165	0xbd33fb0e	-0.043940596
166	0x3d14abbc	0.03629659
167	0xbd5a33f8	-0.053272218
168	0xbd71ee92	-0.05906541
169	0xbcd23403	-0.025659567
170	0xbcaa5800	-0.020793915
171	0xbccb781c	-0.024837546
172	0xbc868604	-0.016421326
173	0xbcd9e21f	-0.02659708
174	0xbc3ab9ec	-0.011396866
175	0xbbc3a208	-0.0059702434
176	0xbae89e32	-0.0017747341
177	0xb9ab89d9	-0.00032718366
178	0x3bc81b18	0.0061067455
179	0x3c1298e1	0.008947582
180	0xbc69b4fb	-0.0142643405
181	0xbbfdccd8	-0.0077453665
182	0x3a29e828	0.00064814324
183	0xbbd58cd8	-0.006517034
184	0xbb7770e4	-0.0037756497
185	0xbbc03076	-0.005865152
186	0xbc519634	-0.012792159
187	0xbc523f85	-0.012832527
188	0xbc523f83	-0.012832525
189	0xbbcc9128	-0.00624289
190	0x80009953	-5.5002e-41
191	0x80008aab	-4.9745e-41
192	0x00008ab0	4.9752e-41
193	0x000088cb	4.9072e-41
194	0x8000aa37	-6.1062e-41
195	0x8000a600	-5.955e-41
196	0x0000ae69	6.2567e-41
197	0x8000a91e	-6.0668e-41
198	0x0000970c	5.4185e-41
199	0x80008f8b	-5.1494e-41
200	0x00008b4a	4.9968e-41
201	0x80008c6c	-5.0374e-41
202	0x800088c2	-4.906e-41
203	0x80008926	-4.92e-41
204	0x0000ad1f	6.2104e-41
205	0x80008adb	-4.9812e-41
206	0x80008ab4	-4.9757e-41
207	0x000089a1	4.9372e-41
208	0x0000a978	6.0794e-41
209	0x00008f5c	5.1428e-41
210	0x80008b3e	-4.995e-41
211	0x00008912	4.9172e-41
212	0x80008a70	-4.9662e-41
213	0x80008a6d	-4.9658e-41
214	0x800092a8	-5.261e-41
215	0x00008ab9	4.9764e-41
216	0x80009e6e	-5.6834e-41
217	0x8000906d	-5.181e-41
218	0x000090b8	5.1915e-41
219	0x80008d2c	-5.0643e-41
220	0x80008a19	-4.954e-41
221	0x80008a8e	-4.9704e-41
222	0x000089b3	4.9397e-41
223	0x000095ee	5.3785e-41
224	0x00008b16	4.9895e-41
225	0x80008ae8	-4.983e-41
226	0x8000ab82	-6.1525e-41
227	0x00008a35	4.958e-41
228	0x80008999	-4.9361e-41
229	0x00008943	4.924e-41
230	0x80008a31	-4.9574e-41
231	0x00008967	4.929e-41
232	0x0000aa71	6.1143e-41
233	0x80008ae4	-4.9825e-41
234	0x80008a40	-4.9595e-41
235	0x8000942f	-5.3158e-41
236	0x0001a7e8	1.52069e-40
237	0x0000895e	4.9278e-41
238	0x80008acd	-4.9792e-41
239	0x80008a9f	-4.9728e-41
240	0x80008d5c	-5.071e-41
241	0x80008bc0	-5.0133e-41
242	0x00009069	5.1805e-41
243	0x80008944	-4.9242e-41
244	0x0000a755	6.0027e-41
245	0x800088f0	-4.9124e-41
246	0x800089ed	-4.9478e-41
247	0x0000adc5	6.2337e-41
248	0x800092e8	-5.27e-41
249	0x00008acd	4.9792e-41
250	0x80008e45	-5.1037e-41
251	0x80008bba	-5.0124e-41
252	0x8000908d	-5.1855e-41
253	0x80008ae7	-4.9829e-41
254	0x00009176	5.2182e-41
255	0x800089d4	-4.9443e-41

fc1.bias f4 [256]
0	0x3dd1f3c6	0.10251574
1	0xbe43ba41	-0.19114019
2	0xbe3234e6	-0.17402992
3	0x3eb0a516	0.3450095
4	0x3ddaee4a	0.10689981
5	0x3e088aa4	0.13334137
6	0x3d20b8b9	0.039238665
7	0x3e75fd35	0.24022372
8	0x3e44fc25	0.1923681
9	0x3e899ef6	0.2687909
10	0xbcc85509	-0.02445461
11	0xbdf31fea	-0.118713215
12	0xbde1afb5	-0.110198416
13	0x3e15ff0b	0.14648072
14	0x3e8fb324	0.2806636
15	0x3ea8b117	0.3294761
16	0x3eab456f	0.3345141
17	0x3e4ea4e0	0.20180082
18	0xbd844a27	-0.06459456
19	0x3e51db2e	0.20493767
20	0x3e633e8d	0.2219183
21	0x3e1a49fe	0.15067288
22	0xbd043031	-0.03227252
23	0x3eb8f61d	0.3612527
24	0xbc185826	-0.00929836
25	0xbe03961d	-0.12850232
26	0x3e7543a3	0.23951583
27	0x3ebb1f4b	0.36547312
28	0xbdabf001	-0.083953865
29	0x3e8ca79e	0.27471632
30	0x3e87c055	0.26513925
31	0x3e890bcf	0.26766822
32	0xbd26e6e3	-0.040747534
33	0x3e8f7af5	0.28023496
34	0x3e45fa76	0.19333825
35	0x3e3976ca	0.1811172
36	0x3dda64f7	0.10663789
37	0x3e1ab300	0.15107346
38	0x3dc41ca5	0.09575776
39	0x3def0e19	0.11672611
40	0x3b319794	0.0027098404
41	0x3e28149d	0.16414113
42	0x3e11ab11	0.14225413
43	0x3dcb60ff	0.0993061
44	0xbd93de9b	-0.07220193
45	0xbd7a7d43	-0.061154615
46	0x3c42c6b7	0.011888198
47	0x3d17220a	0.036897697
48	0x3e9c992b	0.30585608
49	0x3e75fe61	0.24022819
50	0x3e3e2269	0.18567814
51	0x3cc0dafd	0.023541922
52	0x3e4ac88c	0.19803065
53	0xbd161d13	-0.03664882
54	0xbc809e87	-0.015700592
55	0x3e920a74	0.285236
56	0xbd86080e	-0.06544505
57	0x3e8f3edf	0.27977654
58	0xbe1e164e	-0.15438196
59	0xbe2a663c	-0.16640562
60	0x3e80e30d	0.25173226
61	0x3c189f9d	0.0093153985
62	0xbcfd9048	-0.030952588
63	0x3e6d2319	0.2315792
64	0x3de81717	0.11332529
65	0xbebd0884	-0.3692056
66	0x3e611cc2	0.21983626
67	0xbe491ebc	-0.1964063
68	0x3d2301d8	0.03979668
69	0x3d68c25e	0.056825988
70	0xbdd3d1da	-0.103427604
71	0x3e6b04a8	0.22950995
72	0x3d9c5fdd	0.07635472
73	0x3ddf0f85	0.10891632
74	0x3e493b74	0.19651586
75	0x3db48f9b	0.08816453
76	0x3e5651b4	0.20929605
77	0x3dbcff5b	0.09228393
78	0x3dfcf788	0.123519
79	0xbc3a7e9e	-0.011382727
80	0xbe9949a9	-0.2993901
81	0xbc373fe6	-0.011184668
82	0x3e39fc66	0.18162689
83	0xbc80561a	-0.015666056
84	0xbda8b0b9	-0.08236832
85	0xbe763491	-0.2404349
86	0xbd895847	-0.06706291
87	0x3e1886cf	0.14895175
88	0xbd89af0b	-0.0672284
89	0xbe31facb	-0.17380826
90	0x3e1f0d14	0.15532333
91	0x3ddb0cc6	0.10695796
92	0xbd0a5adc	-0.033778057
93	0x3e573310	0.21015573
94	0xbe34e6a9	-0.17666115
95	0xbcb660e5	-0.022263
96	0x3e858251	0.26075986
97	0x3e84548d	0.25845757
98	0x3a95ffa2	0.0011443982
99	0xbd80c0a4	-0.06286743
100	0x3e15899d	0.14603277
101	0x3e3642d3	0.17798929
102	0x3d6df514	0.058095053
103	0xbd999d00	-0.075006485
104	0xbe02f27e	-0.12787816
105	0xbe338d1b	-0.17534296
106	0xbd856f47	-0.06515365
107	0x3e006ddd	0.1254191
108	0xbce3cdfe	-0.027808186
109	0xbe8315eb	-0.2560266
110	0x3e8c4955	0.27399698
111	0x3db9a892	0.09065355
112	0x3e9405ae	0.28910583
113	0x3e0a8731	0.13528134
114	0x3da7ac1e	0.081871256
115	0x3e2c0ba7	0.1680132
116	0x3e83cf08	0.2574389
117	0x3e608493	0.21925573
118	0x3e2090bc	0.15680212
119	0x3e4209c4	0.18949038
120	0x3e1a0279	0.15040006
121	0x3ea44a2e	0.32087845
122	0x3c336754	0.010949928
123	0x3d6bbf43	0.05755545
124	0xbe4428d3	-0.19156198
125	0x3eb2c319	0.34914473
126	0x3e47df4e	0.19518778
127	0x3e93b75e	0.28850836
128	0x3e585755	0.21127065
129	0x3e0d2875	0.13784964
130	0x3e33dc61	0.17564537
131	0xbd9eb21d	-0.07748816
132	0x3e4d4f04	0.20049673
133	0xbd92809c	-0.071534365
134	0x3e86dc7f	0.263401
135	0x3e6d5048	0.23175156
136	0xbe3183d0	-0.17335439
137	0x3df00a1c	0.11720678
138	0xbe1cd782	-0.15316585
139	0x3e72104e	0.23639032
140	0x3e0e77f8	0.13912952
141	0x3e431cd8	0.19053972
142	0xbe169daa	-0.14708582
143	0xbe44cfc9	-0.19219889
144	0x3d47580a	0.048667945
145	0xbe691660	-0.22762442
146	0x3e1fb610	0.15596795
147	0x3e04f07a	0.1298236
148	0x3e27bc31	0.16380383
149	0x3e4d4ebd	0.20049568
150	0x3ce238c7	0.027614964
151	0x3e2bff28	0.16796553
152	0x3e34789c	0.17624134
153	0xbe98deae	-0.2985739
154	0xbce42c40	-0.027853131
155	0x3e42fb0f	0.19041084
156	0x3dbf8051	0.09350646
157	0x3cd5ae51	0.026084097
158	0x3e9e6d71	0.30942872
159	0x3e1cd2f0	0.15314841
160	0xbde81824	-0.113327295
161	0x3dca313a	0.098726705
162	0x3d985753	0.07438531
163	0x3e275df5	0.16344436
164	0x3e8489b2	0.25886303
165	0x3e51e789	0.2049848
166	0x3cc48b1f	0.02399212
167	0x3e54c63d	0.20778747
168	0x3ceed8fb	0.029156199
169	0x3e3f52d4	0.1868394
170	0xbd821604	-0.063518554
171	0x3d48b098	0.048996538
172	0x3e003891	0.12521578
173	0xbe8a1598	-0.269696
174	0xbe298243	-0.16553597
175	0x3e5b4697	0.21413647
176	0xbe8138c7	-0.2523863
177	0x3e02af33	0.12762146
178	0x3cf0f83a	0.029415239
179	0x3dc60e9d	0.09670756
180	0xbea06868	-0.31329656
181	0x3df0eed1	0.117643006
182	0x3e9a0b54	0.30086768
183	0x3dc4481d	0.09584067
184	0xbd70e2b5	-0.058809955
185	0x3e68e258	0.22742593
186	0xbe285a33	-0.16440658
187	0x3ecddd5f	0.40207955
188	0x3e790e5a	0.24321881
189	0xbe2c16aa	-0.1680552
190	0x3d06d391	0.03291661
191	0x3d7449bb	0.059640627
192	0x3dcb73bb	0.09934183
193	0xbe750e6b	-0.23931281
194	0x3e0ec54d	0.13942452
195	0xbdcddfbb	-0.10052439
196	0xbca8e0dc	-0.020615034
197	0x3d77f230	0.060533702
198	0x3d338e03	0.043836605
199	0x3e524920	0.20535707
200	0x3d2cabe4	0.042156115
201	0xbd2cfe39	-0.042234633
202	0x3e8cdd09	0.27512386
203	0x3e788690	0.24270082
204	0x3e35d9fb	0.17758934
205	0xbdb5ed98	-0.08883208
206	0x3ebbc22f	0.36671588
207	0x3d993dd6	0.074824974
208	0x3e827918	0.25483012
209	0x3e31f0b6	0.1737698
210	0x3d627a28	0.05529228
211	0xbd45dce6	-0.04830637
212	0x3d2ca379	0.042148087
213	0x3e36e45f	0.17860554
214	0x3dfe9400	0.124305725
215	0x3dc40e96	0.095730945
216	0x3d10a4b2	0.035313316
217	0xbe15edd4	-0.14641505
218	0x3e80e8cb	0.25177607
219	0xbdd0c35a	-0.1019351
220	0xbcce8dd1	-0.025214108
221	0x3e34d0cf	0.17657779
222	0xbe2e6ff2	-0.17034891
223	0x3e1f68c6	0.15567312
224	0xbd7653d4	-0.06013854
225	0x3df8efae	0.1215509
226	0x3b86ebe0	0.004117474
227	0xbe0823d4	-0.13294917
228	0xbd464360	-0.048404098
229	0xbe56663d	-0.20937438
230	0x3e083cff	0.13304518
231	0x3d099a74	0.033594564
232	0x3e17119c	0.14752811
233	0x3da633e7	0.08115368
234	0x3d3243c4	0.043521658
235	0x3e058f74	0.13043004
236	0x3e23fb84	0.16013914
237	0x3e50d2c0	0.20392895
238	0x3e3f4dc7	0.18682013
239	0xbe2a9243	-0.16657357
240	0x3e882885	0.26593414
241	0x3e870c83	0.26376733
242	0x3db788fb	0.08961674
243	0xbdeeef32	-0.11666717
244	0xbdcf0fb9	-0.10110421
245	0x3e28c79e	0.16482398
246	0xbdfb9bc3	-0.122855686
247	0x3e928b17	0.28621742
248	0x3e4891f4	0.19586927
249	0x3e10fe70	0.1415956
250	0xbe6bc867	-0.23025666
251	0x3e99acaf	0.3001456
252	0xbe30be35	-0.17260058
253	0x3e1de05c	0.15417618
254	0x3e72c9f2	0.23709849
255	0x3e771e71	0.24132706

fc2.weight f4 [256, 256]
0	0x3cc95bdb	0.024579933
1	0x3cbd4c94	0.023107804
2	0x3d36c7f8	0.0446243
3	0x3e8a582d	0.27020398
4	0xbd1bff60	-0.03808534
5	0xbc69d564	-0.014272068
6	0xbc8d3cbb	-0.017240873
7	0x3d744107	0.059632327
8	0xbde97539	-0.113993116
9	0x3cf04083	0.029327637
10	0xbdc24dcb	-0.09487494
11	0xbc310ea4	-0.010806713
12	0x3c9a3c2c	0.01882752
13	0x3d2176d9	0.039419983
14	0xbd23c669	-0.03998414
15	0xbd304202	-0.0430317
16	0x3c7d2640	0.015451014
17	0x3d6982a1	0.057009343
18	0xbc1946fd	-0.009355304
19	0x3dc372be	0.0954337
20	0xbcfc02f3	-0.030763125
21	0x3c87fbdd	0.01659959
22	0x3bbea765	0.005818295
23	0x3d84ba1d	0.06480811
24	0x3d899617	0.067180805
25	0xbe15238d	-0.14564343
26	0xbd855a54	-0.06511369
27	0xbe09b5ad	-0.1344821
28	0x3d07a1cf	0.033113297
29	0xbd901f80	-0.07037258
30	0x3cb21397	0.021737857
31	0xbcd5657a	-0.026049364
32	0xbb16c4e7	-0.0023005547
33	0x3cbfad25	0.023397991
34	0x3d78b295	0.060717184
35	0x3cd9dc2a	0.02659424
36	0x3e0b5b4e	0.13609049
37	0x3c4b7dec	0.012420159
38	0x3dbd91f1	0.09256352
39	0x3d889bed	0.066703655
40	0x3d5d4781	0.05402327
41	0x3df2f305	0.118627585
42	0xbc853651	-0.016261252
43	0xbcbeb958	-0.023281738
44	0x3c371ddb	0.011176552
45	0x3d8f48ee	0.06996332
46	0x3d42d812	0.047569342
47	0xbc15dc12	-0.009146707
48	0xbd0a70cf	-0.03379899
49	0x3baea385	0.0053295516
50	0x3d5e4fa4	0.05427517
51	0x3de90c1a	0.11379261
52	0xbd975fdf	-0.07391333
53	0xbd9cbacf	-0.076528184
54	0x3ba2679d	0.0049561993
55	0xbe330e26	-0.17485866
56	0x3bcaee32	0.006192946
57	0x3c96a5f6	0.018389683
58	0x3d4eb99d	0.050469983
59	0x3df31ef7	0.118711405
60	0x3ccd374c	0.025050782
61	0x3e468c60	0.19389486
62	0x3da294eb	0.0793856
63	0xbd3b446f	-0.04571956
64	0xbc22f72a	-0.009946624
65	0x3ccd574a	0.025066037
66	0xbd3e7c37	-0.04650518
67	0xbd91af1d	-0.07113478
68	0xbc37f3d4	-0.011227567
69	0xbd0ca501	-0.034337047
70	0xbd382511	-0.044957224
71	0x3d4b9e31	0.04971141
72	0x3bbd7936	0.0057822717
73	0xbbda8092	-0.006668159
74	0x3d8e6dd2	0.0695454
75	0xbdc57e3e	-0.096432194
76	0x3c9935e3	0.018702453
77	0x3c4a7290	0.012356415
78	0xbe03215e	-0.12805697
79	0x3d65ab7e	0.05607175
80	0xbcea8f1a	-0.02863269
81	0xbe6f8120	-0.23389101
82	0x3e338aa6	0.17533359
83	0x3dd349ea	0.10316832
84	0x3d9c0ba3	0.07619407
85	0x3db8104c	0.089874834
86	0x3d3ae318	0.04562673
87	0x3e152776	0.14565834
88	0x3d3d6759	0.046241138
89	0x3da23d15	0.07921807
90	0xbdd773f0	-0.1052016
91	0xbd1a591b	-0.037682634
92	0x3cfdbad4	0.030972876
93	0x3d381688	0.044943362
94	0xbc23bf12	-0.009994285
95	0x3d5c5b20	0.05379784
96	0xbe8be57d	-0.27323523
97	0x3d56e483	0.05246402
98	0x3cef4ab7	0.029210432
99	0x3dee12b6	0.116246626
100	0xbdb12500	-0.08649635
101	0xbd4e0918	-0.05030164
102	0x3e80f77b	0.25188813
103	0x3c830b01	0.015996458
104	0x3d4720ee	0.04861539
105	0x3d91a727	0.0711196
106	0xbd88cfdc	-0.06680271
107	0x3d9b58f6	0.07585327
108	0x3d1bac61	0.03800619
109	0x3c7ad9ed	0.015310747
110	0xbb07086e	-0.002060439
111	0x3ddb009c	0.106934756
112	0x3d820faa	0.06350644
113	0x3dab91bb	0.08377405
114	0xbd6c1d70	-0.05764526
115	0xbde43780	-0.11143398
116	0xbd5b3547	-0.053517606
117	0xbd5267e5	-0.051368613
118	0xbca28489	-0.019838588
119	0x3c08c42d	0.008347553
120	0xbc869f0e	-0.016433265
121	0xbd69de83	-0.05709697
122	0x3dadc8a8	0.08485538
123	0x3c2a8c47	0.010409421
124	0x3d3df0d1	0.04637224
125	0xbe0a6593	-0.1351531
126	0x3e11098a	0.14163795
127	0xbddc5571	-0.10758484
128	0x3e8465e2	0.2585898
129	0xbcd77566	-0.026301097
130	0x3db3e5e7	0.08784085
131	0x3caf241d	0.021379525
132	0xbb1e0afa	-0.002411543
133	0x3d3b692f	0.045754608
134	0xbc97a281	-0.018510105
135	0x3c6f526a	0.014607051
136	0x3d81b32d	0.06333003
137	0x3e06840b	0.13136308
138	0xbc848971	-0.016178818
139	0x3b829c9c	0.0039859544
140	0xbd249bd1	-0.04018766
141	0xbe1fc82f	-0.15603708
142	0x3da0c1a7	0.07849436
143	0x3d3dede2	0.04636944
144	0xbd8e5d29	-0.06951363
145	0xbd8046f3	-0.062635325
146	0xbd8f12bc	-0.06985995
147	0xbd5cf124	-0.053940907
148	0x3d7592e1	0.059954528
149	0xbc463b7a	-0.012099141
150	0xbd4d02b1	-0.050051395
151	0xbd6ccb73	-0.05781121
152	0xbd99d729	-0.07511742
153	0x3d3d537d	0.0462222
154	0x3cd6e5e7	0.026232673
155	0xbc6c760f	-0.014432444
156	0x3dce893d	0.1008477
157	0x3d9cc2f2	0.0765437
158	0xbbcd0016	-0.0062561138
159	0xbc82cee3	-0.015967792
160	0x3d71f027	0.059066918
161	0xbd10b0b2	-0.03532476
162	0x3cfa3deb	0.030547103
163	0xbc405c31	-0.01174073
164	0x3d21a068	0.039459616
165	0xbd0f3e0b	-0.03497128
166	0x3d2ee7bb	0.042701464
167	0xbc9d4423	-0.01919753
168	0x3e226f29	0.15862717
169	0x3d23f3cc	0.040027425
170	0xbb63e6f5	-0.0034775112
171	0xbc11bd41	-0.008895219
172	0xbc25d564	-0.010121677
173	0x3dace832	0.08442725
174	0xbd8fc123	-0.0701926
175	0xbcf73fe2	-0.030181829
176	0x3bff72c2	0.0077956626
177	0x3db6eb4c	0.08931598
178	0xbba7f169	-0.005125214
179	0x3e1074cb	0.14107053
180	0x3d5d6cf0	0.05405897
181	0xbd919f49	-0.07110459
182	0x3dd1dc16	0.10247056
183	0x3d46cf70	0.04853767
184	0xbb8997c3	-0.0041989996
185	0x3cfc0b63	0.030767148
186	0x3cf89eba	0.030349124
187	0xbcd8be39	-0.026457893
188	0x3e612344	0.21986109
189	0xbd18a7a6	-0.037269257
190	0x3ceefac8	0.029172316
191	0x3d079db5	0.033109386
192	0xbe1194d2	-0.14216927
193	0x3d5e42b1	0.05426282
194	0xbdc14d7c	-0.09438607
195	0xbce28064	-0.027649112
196	0x3d4e7698	0.05040607
197	0x3e2e4b13	0.17020826
198	0xbdab51c6	-0.083652064
199	0xbbaa6be1	-0.0052008484
200	0x3d85655b	0.06513473
201	0x3d8e4702	0.069471374
202	0xbc7493e7	-0.014927841
203	0xbcbee157	-0.02330081
204	0x3dc5d2ea	0.09659369
205	0x3d8d3f6c	0.068968624
206	0xbd4bc648	-0.049749643
207	0x3d69cac0	0.057078123
208	0xbe216d31	-0.1576431
209	0x3d916930	0.07100141
210	0xbe53861c	-0.20656627
211	0xbd226dd8	-0.039655536
212	0x3c8f3bb8	0.01748453
213	0x3c8dc12b	0.017304024
214	0xbe6814a5	-0.22664125
215	0x3c29c43d	0.010361728
216	0x3dd9ff96	0.10644452
217	0x3d220a63	0.039560687
218	0xbe119f3d	-0.14220901
219	0x3b381816	0.0028090528
220	0xbdb133d8	-0.086524665
221	0xbdb73026	-0.089447305
222	0xbc6088d2	-0.0137044955
223	0x3d37edbd	0.04490446
224	0xbc5dce0f	-0.013537898
225	0xbcfa7055	-0.030571142
226	0x3e882c0f	0.26596114
227	0x3cab958e	0.020945337
228	0x3d848f90	0.06472695
229	0x3db5f7ae	0.08885132
230	0xbcfff57f	-0.031244991
231	0x3d1803c5	0.03711297
232	0xbe17e261	-0.1483245
233	0x3d02e22d	0.03195398
234	0x3de75b14	0.11296669
235	0x3dd58049	0.10424859
236	0xbdacfb8b	-0.084464155
237	0x3cb16abb	0.021657338
238	0xbc8f2f3b	-0.017478576
239	0xbb404569	-0.0029338247
240	0x3ce83dcf	0.028349785
241	0xbdc8e81f	-0.098098986
242	0x3e28f567	0.16499864
243	0xbd57d385	-0.052691955
244	0x3da95ac9	0.08269269
245	0xbbc0691b	-0.0058719045
246	0x3d9799d6	0.07402389
247	0x3d56cd20	0.052441716
248	0x3dc2e13c	0.09515616
249	0x3cbb8b38	0.022893533
250	0x3d3de8d6	0.046364628
251	0x3dd9d67d	0.106366135
252	0x3d9d2c05	0.07674412
253	0x3ce198ba	0.027538646
254	0xbd91f9f2	-0.071277514
255	0x3d96dde7	0.07366543

fc2.bias f4 [256]
0	0xbd6b6396	-0.05746802
1	0x3d28c469	0.041202936
2	0xb863a1ee	-5.4271826e-05
3	0x3d00412c	0.031312153
4	0xbb97f18e	-0.00463695
5	0x3cdaea9c	0.026723199
6	0x3d6eca9f	0.058298703
7	0xbe1e1f12	-0.1544154
8	0xb9020174	-0.00012398307
9	0xbd4a2a80	-0.049356937
10	0x3cbb01d9	0.02282803
11	0x3d09658a	0.0335441
12	0x3dac4143	0.08410885
13	0xbd65602e	-0.055999927
14	0x3c995bc8	0.018720523
15	0xbca3c0b0	-0.019989341
16	0x3e4dda4d	0.20102806
17	0xbd31e46d	-0.043430734
18	0x3d9a2910	0.07527363
19	0xbd15891f	-0.036507722
20	0xbc8486a5	-0.016177485
21	0x3ced0199	0.028931426
22	0x3d7d3cef	0.06182569
23	0x3d6587b6	0.056037627
24	0xbdf91808	-0.12162787
25	0x3dbb88d6	0.09156959
26	0x3e1fc0f4	0.1560095
27	0x3d8cc90e	0.06874286
28	0xbca42b38	-0.02004014
29	0x3d78e6b1	0.06076688
30	0xbd12f3f5	-0.035877187
31	0x3dd91e86	0.10601525
32	0x3dc23ca6	0.09484224
33	0x3ce2cbb2	0.02768502
34	0xbad4e4c0	-0.0016242489
35	0xbcd5884f	-0.026065974
36	0xbc5d553e	-0.013509093
37	0x3d1b464f	0.03790885
38	0x3cf0b2b5	0.02938209
39	0xb7d10c18	-2.4920373e-05
40	0x3dc11f18	0.09429759
41	0x3cffa600	0.031207085
42	0xb6606fa5	-3.3443587e-06
43	0x3d90d50c	0.070718855
44	0x3d3d02b4	0.046145156
45	0x3e17e855	0.14834721
46	0xbd46b804	-0.048515335
47	0xbd370844	-0.044685617
48	0x3e85f8c1	0.26166347
49	0x3b9e6ff9	0.0048351255
50	0x3daa0ab8	0.08302826
51	0xbaab3773	-0.001306279
52	0x3cc247f0	0.023715943
53	0x3dd62db0	0.10457933
54	0x3bb2b70e	0.0054539507
55	0x3e18e1a1	0.1492982
56	0x3c38f096	0.011287829
57	0xbd74fbce	-0.059810452
58	0x3df38ae0	0.11891723
59	0xbc99d57e	-0.018778559
60	0x3d8766bb	0.06611391
61	0xbd50dbd1	-0.050990883
62	0x3dfbbe3f	0.12292146
63	0x3db31bcd	0.08745537
64	0xbd6a2f89	-0.05717424
65	0x3d919ed4	0.07110372
66	0x3ce0f45d	0.027460271
67	0x3d52c758	0.05145964
68	0x3d6c6587	0.05771401
69	0xbd537291	-0.05162293
70	0x3d53eb0a	0.051737823
71	0xbbe4b569	-0.0069796336
72	0x3e85236e	0.26003593
73	0x3cc08526	0.02350099
74	0x3de7b782	0.11314298
75	0xbdba8d42	-0.09108974
76	0x3de757ce	0.11296044
77	0x3dbda43d	0.092598416
78	0x3cbc1071	0.022957059
79	0x3ca2ef05	0.019889364
80	0xbcf2ebf1	-0.029653521
81	0x3e1ba913	0.15201215
82	0x3dd7e8ef	0.105424754
83	0x3c6c06da	0.01440593
84	0x3c2d377c	0.010572311
85	0x3cf604ee	0.030031648
86	0xbe14eb1d	-0.14542814
87	0xbdee8eb4	-0.11648312
88	0xbc910f66	-0.017707538
89	0xbc88e0f2	-0.016708825
90	0x3e51a39c	0.20472568
91	0xbd0df2fa	-0.03465555
92	0x3d7893c7	0.060687806
93	0xb209bc31	-8.017239e-09
94	0x3d31f33b	0.043444853
95	0xab802db0	-9.107628e-13
96	0xbd432d64	-0.04765071
97	0xbd53ab0a	-0.051676787
98	0x3cc33e0c	0.023833297
99	0x3d759969	0.059960756
100	0xbd165a12	-0.03670699
101	0xbd9b5ef1	-0.07586468
102	0xbcde01cf	-0.027100472
103	0x3e4bb32d	0.19892569
104	0x3d9c0cde	0.07619642
105	0x3dde2e0b	0.10848626
106	0x3c6b3c32	0.014357613
107	0x3b5f270b	0.003405037
108	0x3d5182fb	0.051150303
109	0x3dd00284	0.1015673
110	0x3e3f4dab	0.18681972
111	0x3d4b28a6	0.049599312
112	0x3e09ce5c	0.13457626
113	0xbbdea6eb	-0.0067948005
114	0x3d1805e2	0.037114985
115	0xbd19fe3d	-0.037595976
116	0x3dd6f9da	0.10496874
117	0x3d06efdc	0.03294359
118	0x3b53912b	0.0032282572
119	0x3dd7dd65	0.105402745
120	0x3e8b9610	0.27262926
121	0x3d223c5f	0.039608356
122	0x3d977083	0.07394507
123	0x3cce0408	0.025148407
124	0xbd00abc1	-0.031413797
125	0x3d85f4f1	0.065408595
126	0x3dbc579c	0.09196398
127	0x3ca80386	0.020509493
128	0x3c2dfb3d	0.010618982
129	0x3e04015f	0.12891148
130	0x3dc3fe9b	0.095700465
131	0x3ce98298	0.028504655
132	0x3e8b4121	0.27198127
133	0x3d5bf595	0.053701002
134	0xbc85b86e	-0.016323294
135	0x3e07320c	0.13202685
136	0xbd0621dd	-0.03274714
137	0xbd2e4777	-0.042548623
138	0xbd3aa2f5	-0.045565564
139	0x3d463d7c	0.04839848
140	0xbd9c11df	-0.07620596
141	0x3db1cc4c	0.08681545
142	0x3cd04772	0.025424693
143	0x3e2df575	0.16988166
144	0x3d0db1dc	0.034593448
145	0x3d2f6998	0.04282531
146	0x3da8f667	0.082501225
147	0xbda353a6	-0.07974939
148	0x3dc43b45	0.09581617
149	0xbd321b9c	-0.04348336
150	0x3d5b9e0b	0.05361752
151	0xbd159794	-0.03652151
152	0x3cdd8fc6	0.027046096
153	0x3e1e7fc4	0.15478426
154	0xb743f7c0	-1.16805895e-05
155	0x3d940ada	0.07228632
156	0x3d55d2a5	0.05220284
157	0x3d08447c	0.033268437
158	0xbb5e42db	-0.003391436
159	0x3dac1d03	0.08403971
160	0xbd8103e4	-0.0629957
161	0xbe0ef6b2	-0.13961294
162	0x3e03654f	0.12831615
163	0xa3ca9e6d	-2.196798e-17
164	0x3cc7ed2a	0.02440508
165	0x3cf166c7	0.029467953
166	0xbcd335e7	-0.025782539
167	0x3dfd66a7	0.12373095
168	0x3c73374d	0.014844728
169	0x3e090463	0.1338058
170	0xbd1608b6	-0.0366294
171	0xbdb9ae3d	-0.090664364
172	0x3de61f22	0.11236407
173	0x3c17a7a6	0.009256279
174	0xbd7fd958	-0.062463135
175	0xbda34ad2	-0.07973255
176	0xbd5d3f03	-0.05401517
177	0x3d7a7471	0.061146203
178	0xbc2bb13c	-0.010479268
179	0xa5bce537	-3.2768123e-16
180	0x3e8a447a	0.27005368
181	0x3be38f9d	0.0069446103
182	0x3c8cb650	0.017176777
183	0x3c766075	0.015037646
184	0xbd89163a	-0.066936925
185	0x3dfcaafd	0.12337301
186	0xbdbc64c7	-0.09198909
187	0x3e146e64	0.14495236
188	0xadb67667	-2.0743586e-11
189	0x3dae3a90	0.08507264
190	0xbd2d3c4c	-0.04229383
191	0x3ca4ba40	0.020108342
192	0xbdbb8a10	-0.09157193
193	0x3c25d03b	0.010120447
194	0x3d14a812	0.036293097
195	0xbd73f51f	-0.059559938
196	0xbca9b43f	-0.02071583
197	0x3cc2a0c9	0.023758309
198	0x3b890dfb	0.004182575
199	0x3e1fbfc9	0.15600504
200	0xbc8f1990	-0.017468244
201	0xbd811018	-0.06301898
202	0xa392db2a	-1.5922171e-17
203	0xbdffe15d	-0.124941565
204	0xbd969ef9	-0.073545404
205	0xb368aff5	-5.417674e-08
206	0x3dc0f653	0.094219826
207	0x3c9d9bc7	0.01923932
208	0x3daad0b0	0.08340585
209	0x3c94ff5a	0.018188167
210	0x3e0401e6	0.12891349
211	0xa77c9fa4	-3.5058567e-15
212	0xbc6201c1	-0.0137943635
213	0xbd468a37	-0.048471656
214	0xbc29ca6c	-0.010363203
215	0xbc453f49	-0.012039014
216	0x3d83c996	0.06434934
217	0x3d9be53d	0.07612083
218	0x3c8184d2	0.015810404
219	0x3d108815	0.035286028
220	0x3d0dabe8	0.03458777
221	0xbcbbe4c5	-0.022936234
222	0x3dd912bf	0.10599279
223	0xbd5bd851	-0.053673092
224	0x3db53779	0.08848471
225	0xbc8f26ac	-0.017474495
226	0xbd91ae77	-0.07113355
227	0xbd7bc131	-0.06146354
228	0xbd04d6ee	-0.032431535
229	0x3c11e150	0.008903816
230	0x3e0b392e	0.13596031
231	0x3e83e003	0.25756845
232	0xbbf4d600	-0.0074718
233	0x3d45e7a5	0.048316617
234	0xbcc3b11c	-0.023888163
235	0xbd991614	-0.07474914
236	0x3deb3eca	0.114865854
237	0xbd6c3641	-0.057668928
238	0x3becff5f	0.007232591
239	0xbce75d0e	-0.028242614
240	0x3e36fcd1	0.1786988
241	0xbc2a7959	-0.010404908
242	0x3e639774	0.22225744
243	0x3e2eaee6	0.17058906
244	0x3df0d335	0.117590345
245	0x3d34caea	0.044138826
246	0xb748f817	-1.1978692e-05
247	0x3c0819a3	0.0083068935
248	0x3e552ef6	0.20818695
249	0x3d8983e0	0.06714606
250	0xbdc348c6	-0.09535365
251	0xb963bb99	-0.00021718293
252	0x3e2c96b2	0.1685436
253	0xbd80a00e	-0.06280528
254	0x3e3e8aeb	0.1860768
255	0x3e068438	0.13136375

policy.weight f4 [127, 256]
0	0xbc6bf852	-0.014402466
1	0x3db414cb	0.087930284
2	0x3c2d59cd	0.010580492
3	0xbe2020fd	-0.15637584
4	0x3c326917	0.010889313
5	0x3d7a014d	0.061036397
6	0x3e35fc28	0.17771971
7	0xbb80904d	-0.003923452
8	0xbcb31a51	-0.021863135
9	0x3e067a26	0.13132533
10	0x3c5cf66e	0.013486488
11	0xbc9d8e2f	-0.019232837
12	0x3cd93504	0.026514538
13	0x3cb19a6f	0.021680085
14	0x3dc95a04	0.09831622
15	0x3d2c5b5d	0.04207932
16	0x3b933c36	0.0044932617
17	0xbc22e0d8	-0.009941302
18	0x3c00420d	0.007828248
19	0x3dbe784c	0.093002886
20	0x3b68f66a	0.0035547265
21	0x3d5a5817	0.053306665
22	0xbd0cc8db	-0.03437124
23	0x3d45f3bb	0.048328143
24	0x3d91cfa4	0.071196824
25	0x3d965199	0.07339782
26	0xbe2f5093	-0.1712058
27	0xbc9f0c04	-0.01941491
28	0x3e03d0c5	0.12872608
29	0x3db8f06c	0.09030232
30	0xbd359698	-0.04433307
31	0xbdbbb409	-0.09165198
32	0x3cc79916	0.02436499
33	0x3d45f678	0.048330754
34	0x3c3b9f57	0.011451564
35	0x3d510a08	0.051034957
36	0xbe8a6fc9	-0.2703841
37	0x3d7c8e18	0.06165895
38	0xbadf45b0	-0.0017034318
39	0xbb3323ab	-0.0027334492
40	0x3cbc35bd	0.022974843
41	0xbd8ac5e2	-0.067760244
42	0xbb95a0f1	-0.004566305
43	0x3d8b5a6a	0.068043545
44	0xbd1aafc6	-0.037765287
45	0x3e34ea4e	0.17667505
46	0xbbad48ee	-0.005288235
47	0x3dc372d5	0.09543387
48	0x3db4c900	0.088274
49	0xbd5814fe	-0.052754395
50	0x3d62f3f0	0.05540842
51	0x3a1feea2	0.0006100928
52	0x3d8746a3	0.0660527
53	0xbc8c6d25	-0.017141888
54	0x3dec6801	0.11543275
55	0x3d5381d5	0.05163749
56	0x3d17b580	0.037038326
57	0x3d8335d8	0.06406754
58	0x3e0052fc	0.12531656
59	0x3d34b50e	0.04411798
60	0x3dd0e279	0.10199446
61	0x3e0a465b	0.13503401
62	0x3e05716b	0.13031547
63	0xbbe25f53	-0.006908336
64	0xbd9b20cc	-0.07574615
65	0x3d138cc6	0.036022924
66	0x3d27bb43	0.04095007
67	0x3d9c8e60	0.076443434
68	0xbd321d4a	-0.043484963
69	0xbda26d8d	-0.079310514
70	0xbd4f9b55	-0.050685246
71	0x3ddb66c9	0.10712964
72	0x3d5f4133	0.05450554
73	0x3de19967	0.11015587
74	0xbd9f8eae	-0.07790886
75	0xbd35ad38	-0.044354647
76	0x3d8ed373	0.069739245
77	0x3be8e004	0.007106783
78	0x3affb598	0.0019509075
79	0xbdaee16d	-0.0853909
80	0x3da4cec2	0.080472484
81	0x3d485479	0.048908684
82	0x3d378fb8	0.044814795
83	0xbda9b22f	-0.08285939
84	0x3e55cc8b	0.20878808
85	0xbc10e55e	-0.008843748
86	0x3e415d66	0.18883285
87	0x3cba219f	0.02272111
88	0x3de0dd22	0.10979678
89	0xbcab6a18	-0.020924613
90	0x3d8a9878	0.06767362
91	0xbd102acc	-0.035197064
92	0xbda09fbe	-0.078429684
93	0x800088e5	-4.9109e-41
94	0x3e1dcebd	0.15410896
95	0xb686a08a	-4.0122004e-06
96	0xbde8d097	-0.1136791
97	0xbda2d2a6	-0.07950334
98	0x3d33020e	0.04370313
99	0xbebd6053	-0.36987552
100	0x3cd564c7	0.026049031
101	0x3c655159	0.013996446
102	0x3d9b028e	0.07568847
103	0xbdd69588	-0.104777396
104	0xbd87706b	-0.06613239
105	0x3e044d95	0.1292022
106	0x3d5c5aa2	0.05379737
107	0x3d856761	0.065138586
108	0x3cb7f73b	0.022456756
109	0xbd1c27f9	-0.03812406
110	0x3d2cac27	0.042156365
111	0x3cbcf029	0.023063736
112	0xbe4d4381	-0.20045282
113	0x3e3a840a	0.18214431
114	0x3d8239a3	0.063586496
115	0xbcf84fd4	-0.030311503
116	0x3d93072a	0.07179101
117	0xbe1c7421	-0.15278675
118	0xba1186cf	-0.0005551399
119	0x3e0f76fb	0.14010231
120	0x3deab504	0.11460307
121	0x3ce00264	0.02734489
122	0xbc14f15c	-0.009090748
123	0x3c7127f5	0.014718999
124	0xbdcc2d00	-0.099695206
125	0x3d8ebfbb	0.069701634
126	0x3e3be991	0.18350817
127	0xbd3aa9a3	-0.045571934
128	0xbd7e6326	-0.062106274
129	0xbefc60dd	-0.4929265
130	0x3df4a7d2	0.11946072
131	0x3cff21a6	0.031143975
132	0xbe5ee99f	-0.21768807
133	0xbd42c333	-0.047549438
134	0x3d83ad91	0.064295895
135	0x3e0e8f82	0.13921931
136	0x3de05f76	0.10955708
137	0x3d40f6e2	0.047110446
138	0x39259d40	0.00015794206
139	0xbcf498fb	-0.029858103
140	0xbe6ea836	-0.23306355
141	0x3e091f69	0.13390888
142	0x3d5ba88b	0.053627532
143	0xbdc901e5	-0.098148145
144	0x3ccb66fc	0.02482938
145	0x3ce0ae9f	0.027427016
146	0xbe947584	-0.28995907
147	0xbd58ce2f	-0.052931007
148	0x3d8ebec2	0.06969978
149	0x3db07ad2	0.08617176
150	0x3d9a419d	0.07532046
151	0x3da104cf	0.07862245
152	0x3caf9d18	0.021437213
153	0xbf3a906b	-0.72876614
154	0xbb9e65e2	-0.0048339227
155	0x3d9a9736	0.075483724
156	0xbdb6bf8a	-0.08923252
157	0xbb13bfe4	-0.0022544796
158	0x3be13376	0.0068725897
159	0xbf546779	-0.82970387
160	0xbcc12bb3	-0.023580408
161	0x3e575930	0.21030116
162	0x3a9e32f5	0.001206963
163	0x800088c9	-4.9069e-41
164	0x3d70080e	0.05860143
165	0x3da056c7	0.078290515
166	0x3d49cff7	0.049270596
167	0x3d8131c9	0.06308324
168	0x3d34e7a1	0.04416621
169	0x3c82d46a	0.015970428
170	0x3d5a11e6	0.053239726
171	0xbd00ec2d	-0.031475235
172	0x3d4483eb	0.04797737
173	0xbbcd290e	-0.0062609976
174	0x3ceb6e6a	0.028739173
175	0x3d14d7af	0.036338504
176	0xbdaf3368	-0.08554727
177	0xbd4c0b5a	-0.049815513
178	0xbdad65ce	-0.08466683
179	0x3139a94f	2.7017284e-09
180	0x3cf68914	0.03009466
181	0xbe1fe0a2	-0.15613034
182	0x3d225462	0.039631255
183	0xbdb8b43f	-0.09018754
184	0xbcac59a0	-0.02103883
185	0x3e0a7592	0.13521412
186	0x3e30f170	0.17279601
187	0x3da067bb	0.07832285
188	0x800089fc	-4.95e-41
189	0x3db47d51	0.08812965
190	0x3d90893c	0.070574254
191	0x3c3b2b7b	0.011423941
192	0xbc4f4c81	-0.012652517
193	0x3ce5b48a	0.02804019
194	0x3db7c53f	0.089731686
195	0x3db5b749	0.088728495
196	0x3d2352a6	0.03987374
197	0x3cf50a42	0.029912118
198	0xbb04bc2f	-0.0020253768
199	0x3cd5834e	0.026063588
200	0x3de1ad2e	0.110193595
201	0xbd322f2d	-0.04350202
202	0x26783a44	8.612125e-16
203	0xbda2bca8	-0.079461396
204	0xbb0530f4	-0.0020323368
205	0x800089e5	-4.9467e-41
206	0x3dc9347d	0.098244645
207	0x3da78cbf	0.08181142
208	0xbd2941fc	-0.041322693
209	0x3e21c863	0.15799098
210	0x3c28d70c	0.010305177
211	0xb941a37b	-0.00018466816
212	0x3c4eb078	0.012615316
213	0xbcb6a1e7	-0.022293998
214	0xbdab7516	-0.08371942
215	0x3cf5f168	0.030022338
216	0xbe47f2bf	-0.19526194
217	0xbc05ab9c	-0.008158591
218	0x3dee81f1	0.11645878
219	0x3ddc9dbd	0.10772274
220	0x3df4850d	0.1193944
221	0x3d9cf338	0.07663578
222	0x3dd1397e	0.10216044
223	0x3d3a6287	0.04550412
224	0xbee71562	-0.451335
225	0xbd3d1f5e	-0.046172492
226	0x3cd0ac18	0.025472686
227	0x3c390eda	0.011295045
228	0x3b309317	0.002694314
229	0xbdbf3e92	-0.09338106
230	0x3d603b5c	0.05474411
231	0x3e890ca0	0.26767445
232	0xbc54c68a	-0.0129867885
233	0x3e22fc84	0.1591664
234	0x3c8a2b16	0.016866248
235	0xbcb8195d	-0.022473032
236	0xbd122d6f	-0.03568786
237	0x3c432729	0.011911192
238	0xbe93fc0c	-0.28903234
239	0x3dfddbe5	0.12395457
240	0x3d78eab6	0.060770713
241	0x3c9e6555	0.019335428
242	0x3dadf831	0.084946044
243	0xbd8a7279	-0.06760115
244	0x3c510d1a	0.012759471
245	0xbebe35d1	-0.37150434
246	0xbb02b496	-0.0019944063
247	0x3db362ec	0.08759102
248	0xbd6442a3	-0.055727612
249	0xbec19690	-0.37810183
250	0x3d88d154	0.06680551
251	0xbb682cd2	-0.0035427106
252	0x3e21e61c	0.15810436
253	0x3d19f8a2	0.03759063
254	0x3e07dc25	0.13267572
255	0xbd2c56f0	-0.042075098

policy.bias f4 [127]
0	0x3c3fb4bf	0.011700808
1	0xbdb0da7f	-0.08635425
2	0x3cd840b8	0.026398048
3	0xbc818e71	-0.015814992
4	0xbd5ac7e5	-0.05341329
5	0x3d8103c0	0.062995434
6	0xbc5ae650	-0.013360575
7	0x3da6a717	0.081373386
8	0xbd66c743	-0.056342375
9	0xbbee535f	-0.007273122
10	0x3d9889bf	0.07448148
11	0xbda0c522	-0.078501
12	0x3d3117d6	0.043235622
13	0xbb0981ed	-0.0020981983
14	0x3c7fb204	0.015606407
15	0xbd1da20d	-0.03848462
16	0x3d3af507	0.045643833
17	0x3d7ffb6b	0.06249563
18	0x3d322126	0.043488644
19	0x3d480e12	0.048841543
20	0xbd737530	-0.05943793
21	0x3c90e4b3	0.017687177
22	0xbd804073	-0.06262293
23	0xbc2d6b2f	-0.010584637
24	0xbc433407	-0.01191426
25	0x3cac7098	0.021049783
26	0x3d407b8a	0.046992816
27	0xbd833dab	-0.064082466
28	0xbd1ecdf3	-0.038770627
29	0xbd8907ac	-0.066909164
30	0x3bb95af3	0.005656594
31	0xbda4d763	-0.08048894
32	0x3d89ee1b	0.06734868
33	0xbc9b0e3e	-0.01892769
34	0xbd80fcbd	-0.06298206
35	0x3e2397be	0.15975854
36	0x3da4b837	0.08042949
37	0x3dad952b	0.08475717
38	0x3e52d8e0	0.20590544
39	0x3d40700e	0.046981864
40	0x3cf504ca	0.02990951
41	0xbd810794	-0.063002735
42	0xbcdbc896	-0.026829045
43	0xbcf693a1	-0.030099692
44	0xbd15924f	-0.036516484
45	0x3dc467f0	0.09590137
46	0xbc9e86a5	-0.019351313
47	0x3e318866	0.17337188
48	0x3e1d7a4c	0.15378684
49	0xbda36f60	-0.079802275
50	0x3dd1eb58	0.102499664
51	0xbd6cb4a5	-0.057789464
52	0x3dc60a84	0.096699744
53	0xbe1d8502	-0.1538277
54	0x3e364ee6	0.17803535
55	0xbde03721	-0.10948015
56	0x3e207a45	0.15671642
57	0xbd89fffa	-0.06738277
58	0x3db78fb3	0.08962955
59	0xbc8dda96	-0.017316144
60	0xbc376ad4	-0.011194903
61	0xbc665a47	-0.01405961
62	0xbc580850	-0.013185576
63	0xbc50e626	-0.012750184
64	0xbc39edc3	-0.011348191
65	0xbc655cf6	-0.013999214
66	0xbc467658	-0.012113176
67	0xbc69e72c	-0.014276307
68	0xbc39de5b	-0.011344518
69	0xbc3c2cce	-0.011485292
70	0xbc3dd730	-0.011586949
71	0xbc5d43fc	-0.013504978
72	0xbc61b858	-0.013776861
73	0xbc4156e2	-0.0118005
74	0xbc51b2de	-0.012798993
75	0xbc5b066c	-0.01336823
76	0xbc5ebee4	-0.013595317
77	0xbc32f91a	-0.010923648
78	0xbc4e5c5b	-0.012595261
79	0xbc39004b	-0.011291574
80	0xbc608ff0	-0.013706192
81	0xbc5713b0	-0.013127252
82	0xbc4ec8cf	-0.012621119
83	0xbc785b7c	-0.01515853
84	0xbc58f9bb	-0.013243134
85	0xbc564e31	-0.013080166
86	0xbc3ad322	-0.011402877
87	0xbc5caa27	-0.013468302
88	0xbc3c4c0f	-0.011492743
89	0xbc4a86ca	-0.012361238
90	0xbc3e713c	-0.011623677
91	0xbc511d35	-0.012763311
92	0xbc40a5dd	-0.011758295
93	0xbc6ec007	-0.01457215
94	0xbc2d4a99	-0.0105768675
95	0xbc5675da	-0.013089621
96	0xbc477e7b	-0.012176151
97	0xbc3606c1	-0.011110009
98	0xbc558b93	-0.013033765
99	0xbc4b92f6	-0.012425175
100	0xbc5e4930	-0.013567254
101	0xbc5b7ba3	-0.0133961765
102	0xbc5a84b5	-0.013337304
103	0xbc340684	-0.010987882
104	0xbc2e138f	-0.01062478
105	0xbc5c3782	-0.0134409685
106	0xbc461691	-0.012090341
107	0xbc472204	-0.012154106
108	0xbc5547fa	-0.013017649
109	0xbc4581de	-0.0120548885
110	0xbc53fd35	-0.012938787
111	0xbc79000e	-0.015197767
112	0xbc4b7d66	-0.012420034
113	0xbc69bbbd	-0.014265952
114	0xbc34c57b	-0.011033411
115	0xbc60867b	-0.013703938
116	0xbc602a80	-0.013682008
117	0xbc548ecc	-0.012973499
118	0xbc483fef	-0.012222274
119	0xbc4049e2	-0.011736365
120	0xbc3794e0	-0.011204928
121	0xbc639f84	-0.013893012
122	0xbc45629b	-0.012047435
123	0xbc3e591b	-0.011617924
124	0xbc6610a3	-0.014042052
125	0xbc5603b1	-0.013062404
126	0xbc358f3d	-0.011081514

value.weight f4 [1, 256]
0	0x3e1e4496	0.15455851
1	0x3e11bf5d	0.14233156
2	0x3b920496	0.004456113
3	0xbd89bb6c	-0.06725201
4	0xbe185161	-0.14874794
5	0x3da71b01	0.081594475
6	0xbd34d56d	-0.04414885
7	0x3d8a8a34	0.067646414
8	0xbbeadf66	-0.0071677445
9	0xbd82ca3e	-0.06386231
10	0xbd8d1fbc	-0.068908185
11	0xbd352769	-0.044227038
12	0x3df0df47	0.11761337
13	0xbdf15dda	-0.11785479
14	0x3db0aa3f	0.08626222
15	0xbe04d2be	-0.12971017
16	0x3dcafd0f	0.09911548
17	0xbe4e1fd4	-0.20129329
18	0x3dadf0be	0.084931836
19	0xbde48817	-0.111587696
20	0xbe233191	-0.15936877
21	0xbe66d341	-0.22541524
22	0xbd303132	-0.043015666
23	0xbdef7faa	-0.11694272
24	0x3d11a64e	0.03555899
25	0x3dc6d695	0.09708897
26	0xbe5dbad8	-0.21653306
27	0xbdb95bd7	-0.0905072
28	0x3d5451cf	0.05183583
29	0xbe30ed17	-0.17277943
30	0xbbbc9520	-0.005755082
31	0x3e369d91	0.17833544
32	0x3c11d4b7	0.008900813
33	0x3e07e3ec	0.13270539
34	0xba9336b4	-0.0011231513
35	0x3d3e0c1d	0.04639827
36	0xbdba0f06	-0.09084897
37	0x3d5f1121	0.054459695
38	0xbe13673c	-0.1439485
39	0xbb193a32	-0.0023380634
40	0x3dcd2412	0.100166455
41	0xbe24a1cf	-0.1607735
42	0x3a9570a1	0.0011401364
43	0xbdbf42c1	-0.09338904
44	0x3e49e162	0.19714883
45	0x3e05e7a3	0.13076644
46	0xbe0a4817	-0.13504063
47	0xbe087da0	-0.13329172
48	0x3c8f7c59	0.017515348
49	0x3dbeed48	0.093226016
50	0x3e044a22	0.12918904
51	0xbc8792ba	-0.016549457
52	0x3e5a211d	0.21301694
53	0x3e583444	0.21113688
54	0xbda20421	-0.07910944
55	0xbe709dbd	-0.23497672
56	0x3e5308af	0.20608781
57	0xbe459305	-0.19294365
58	0xbb7368a4	-0.0037141228
59	0x3dc5e49b	0.09662744
60	0x3a858e5f	0.0010189525
61	0x3dd740df	0.1051042
62	0x3db4c18e	0.0882598
63	0xbcf75a39	-0.030194389
64	0xbdbe3f21	-0.09289385
65	0x3e3c8bb3	0.18412666
66	0x3e08e55d	0.13368745
67	0xbcd45ee1	-0.025924148
68	0x3d2002de	0.039065234
69	0xbd703f71	-0.058654252
70	0x3e288239	0.16455926
71	0x3cb60276	0.02221797
72	0xbcfa6413	-0.030565297
73	0x3d988b81	0.07448483
74	0xbe245acd	-0.16050263
75	0x3d37de0c	0.044889495
76	0xbcb6a344	-0.022294648
77	0x3d6e93ff	0.05824661
78	0xbe0f6d1e	-0.14006469
79	0x3e12a486	0.14320573
80	0xbdd7c47f	-0.105355255
81	0x3e2ccce4	0.16875035
82	0xbe990f49	-0.29894474
83	0xbc8ffcd8	-0.01757662
84	0x3df9aeb8	0.12191528
85	0xbe0c66f3	-0.13711147
86	0x3e2068e0	0.15665007
87	0xbd45ca36	-0.048288547
88	0xbe4e86d9	-0.20168628
89	0x3ddf4a74	0.10902873
90	0xbdb3e0ae	-0.087830886
91	0x3d1a3da7	0.037656453
92	0x3d3458df	0.044030067
93	0x800089d1	-4.9439e-41
94	0xbdb3dde7	-0.08782559
95	0x3ab15b33	0.0013531208
96	0xbdd3916b	-0.10330471
97	0x3ddb2ba3	0.107016824
98	0xbdd6e320	-0.104925394
99	0xbdd7f62b	-0.10545
100	0xbc3ab284	-0.0113951005
101	0x3e221bf3	0.15830974
102	0xbe48166d	-0.19539805
103	0x3dc6218c	0.09674367
104	0xbdf03769	-0.11729319
105	0x3d966169	0.07342798
106	0xbe4d2a09	-0.20035566
107	0x3e03728b	0.12836663
108	0xbdda73d8	-0.10666627
109	0x3d2096ac	0.039206192
110	0x3cb7894f	0.022404341
111	0xbd7962c2	-0.0608852
112	0xbe2b856e	-0.16750118
113	0xbda5f03b	-0.08102461
114	0x3e10f1fa	0.14154807
115	0xbd92edc8	-0.071742594
116	0xbe09af98	-0.1344589
117	0xbd8f76eb	-0.07005104
118	0xbdbea013	-0.093078755
119	0xbd861408	-0.065467894
120	0x3e3393ca	0.17536846
121	0xbd084d72	-0.033276983
122	0xbd852975	-0.06502048
123	0xbc7649a2	-0.015032204
124	0x3ddef564	0.10886648
125	0x3e215db1	0.15758397
126	0xbb942831	-0.0045213928
127	0x3e5134a1	0.20430233
128	0xbd909066	-0.07058792
129	0x3d10e229	0.035371933
130	0x3e6247a0	0.22097635
131	0x3d68903b	0.056778174
132	0x3aeb7d91	0.0017966499
133	0xbe0c5089	-0.13702597
134	0x3c40083c	0.011720713
135	0xbe046ccc	-0.12932128
136	0xbe087ec1	-0.13329603
137	0xbe004272	-0.12525347
138	0xbdb90563	-0.090342306
139	0x3c45a601	0.012063504
140	0x3dd8a999	0.10579223
141	0x3dc19a10	0.09453213
142	0xbdf9f7e9	-0.12205488
143	0xb9346c17	-0.00017206404
144	0x3dd30123	0.10302951
145	0xbda8675b	-0.082228385
146	0x3f48b243	0.78397006
147	0xbdeef387	-0.11667543
148	0x3c14c59f	0.00908032
149	0x3dbea23b	0.09308287
150	0x3deef000	0.1166687
151	0xbe1240ca	-0.14282528
152	0xbdb92982	-0.0904112
153	0xbead27e2	-0.3381949
154	0xbbd452c4	-0.006479593
155	0xbe17ed6f	-0.14836667
156	0x3e55f9ed	0.2089612
157	0x3ce72657	0.028216524
158	0x3bade810	0.005307205
159	0xbda4e184	-0.08050826
160	0xbbbae6e4	-0.005703794
161	0x3ce81f0f	0.028335122
162	0x3d41ce7f	0.04731607
163	0x98458bc6	-2.553222e-24
164	0x3e100820	0.140656
165	0xbe2309d4	-0.15921718
166	0xbd01462e	-0.03156107
167	0x3e07450d	0.13209935
168	0x3df77d68	0.12084466
169	0x3db18f57	0.08669918
170	0x3d0d06ce	0.034430318
171	0x3d3c65a1	0.04599536
172	0x3d19986f	0.037498888
173	0x3dc9aacc	0.0984703
174	0x3d9fe8e3	0.078080915
175	0xbe6cd6d0	-0.2312882
176	0x3db40843	0.08790638
177	0x3df3998c	0.11894521
178	0x3da8f4e2	0.08249833
179	0xb99ebc6e	-0.000302765
180	0xbe01cc4c	-0.1267559
181	0xbd5a7f8f	-0.053344306
182	0x3cc42580	0.023943663
183	0x3d90ba75	0.07066814
184	0x3e257c28	0.16160643
185	0xbde2c55d	-0.110728
186	0xbd4baad9	-0.04972348
187	0x3b43afae	0.0029859352
188	0x9c7792bd	-8.19151e-22
189	0x3e4f57ee	0.20248386
190	0x3cc2cce6	0.023779344
191	0xbd3dc5b6	-0.04633113
192	0x3e06a74e	0.13149759
193	0x3c3daeca	0.0115773175
194	0xbd2b667f	-0.041845795
195	0xbe186d6a	-0.14885488
196	0xbdb335ce	-0.08750497
197	0x3e117ee1	0.14208557
198	0x3cbc7910	0.023006946
199	0x3e72969f	0.2369027
200	0xbe0994bc	-0.13435644
201	0x3dce26fe	0.10066031
202	0xb3c37570	-9.101757e-08
203	0xbc1a65b3	-0.009423661
204	0xbe4c7b00	-0.19968796
205	0x24445d48	4.2579737e-17
206	0xbd817d19	-0.063226886
207	0x3e436d87	0.1908475
208	0xbd04857f	-0.032353874
209	0xbe4c0458	-0.19923532
210	0xbd4a45c2	-0.049382932
211	0x3a23bcd7	0.0006246096
212	0x3c2bed72	0.010493623
213	0xbe14b6e4	-0.14522892
214	0x3e04974f	0.12948345
215	0x3e701334	0.23444825
216	0xbd1dd554	-0.038533524
217	0x3df2b6f7	0.11851304
218	0x3d180794	0.037116602
219	0xbe53ddb8	-0.20690048
220	0xbad809a0	-0.0016482361
221	0x3e0549cf	0.13016437
222	0x3e3d52b6	0.18488583
223	0xbde0d3a8	-0.1097787
224	0xbca2c5ef	-0.019869773
225	0xbcef862d	-0.029238785
226	0x3d784e58	0.06062159
227	0x3db9985e	0.09062265
228	0x3c102328	0.008797444
229	0xbe45dde7	-0.1932293
230	0x3e468bc1	0.1938925
231	0xbe26ae9c	-0.16277546
232	0xbe3bc7bc	-0.18337911
233	0xbe39b33e	-0.18134782
234	0x3d831a2c	0.06401476
235	0x3e05d2a2	0.13068631
236	0xbe1a274f	-0.15054058
237	0x3e4e12c9	0.20124353
238	0xbdb7586c	-0.08952412
239	0x3db687e5	0.089126386
240	0x3dead3f6	0.114662096
241	0x3c3db796	0.011579415
242	0xbc31b6a9	-0.010846772
243	0x3e05c9cf	0.13065265
244	0xbded2b54	-0.1158053
245	0xbe2f0abe	-0.17093942
246	0x39ccd2f0	0.00039067073
247	0x3da54fa0	0.08071828
248	0x3e0e2fb7	0.1388539
249	0x3dde9e9a	0.108700946
250	0xbd7d7cd8	-0.06188664
251	0x3abfcd33	0.0014633298
252	0x3cfe8e48	0.031073704
253	0x3d8907e2	0.06690957
254	0xbde643d4	-0.11243406
255	0x3d2ba5c6	0.04190614
